labs/models_leak/USD/70_64.pth (torch, 70727 bytes, 5 tensors)

lstms.0.weight_ih_l0 f4 [256, 1]
000000 de 10 05 3e 52 62 ab bd 31 25 49 bd a0 00 4d bd
       0.12994716 -0.083683625 -0.049107734 -0.050049424
000010 c5 72 ee 3d 68 99 b1 bd a3 fc a3 3c dc 2f 78 3e
       0.11642984 -0.08671838 0.020017928 0.24237007
000020 e0 d5 8d bd 85 9e c8 3d 00 ed 6a 3d 2c c7 f7 3b
       -0.06925559 0.0979586 0.057354927 0.007561585
000030 94 0e fe 3d 6d fc 80 be 92 a0 f9 3d b0 e3 57 bd
       0.12405124 -0.25192586 0.121888295 -0.052707374
000040 70 b8 2e bd 18 05 84 bd ad 99 8d bc 8a f6 1a be
       -0.042656362 -0.06446284 -0.017285192 -0.1513311
000050 21 e3 c1 3d 15 0e 6c bd 4f f4 8b bd d6 5c 51 bd
       0.094671495 -0.057630617 -0.068337075 -0.051113926
000060 c4 e6 38 bc df d6 79 bd d8 22 51 bd c1 5a 7a bd
       -0.011285488 -0.060995933 -0.05105862 -0.061121706
000070 79 3b 98 3d 71 0b ac 3b 4a e7 42 3e bb 8e c6 3d
       0.074332185 0.0052503874 0.19033542 0.096951924
000080 14 da e7 bd c2 61 87 bd ce f7 dd 3c 2e 7a b7 bc
       -0.11320892 -0.06610443 0.027095702 -0.022397127
000090 01 0e 07 3e e7 3e b6 3d 0c 74 2a be 67 d1 dd bc
       0.13188936 0.088987164 -0.16645831 -0.02707739
0000a0 08 a7 bf 3d da 7b 1c bd d1 6f 56 bd 26 31 a8 bb
       0.093580306 -0.03820405 -0.05235273 -0.005132812
0000b0 77 33 e3 bd a2 4e d8 3d 1f b4 93 bd ab b2 2c ba
       -0.110938005 0.10561873 -0.0721209 -0.0006587903
0000c0 4c d2 ce 3d 12 d7 84 bd b4 89 bd bd 94 4f 0e 3e
       0.10098705 -0.06486334 -0.092547804 0.13897544
0000d0 45 79 42 bd b9 f6 38 3e 32 16 ac 3c c9 70 57 be
       -0.047478933 0.18062867 0.021006677 -0.21039118
0000e0 96 10 02 bd ae 08 c3 bb 0a b9 1c 3d a1 bd 35 3c
       -0.0317541 -0.0059519624 0.038262405 0.011092574
0000f0 c1 c1 65 3d 13 85 3b bb c1 f7 b0 3c 0e 89 d8 3d
       0.05609298 -0.0028613254 0.021602513 0.10573016
000100 62 55 b6 bd 52 21 62 3d 3d b4 f0 bd 27 7d 0b 3e
       -0.08903004 0.055207558 -0.11753128 0.1362196
000110 c3 cc 2a bd 7b e1 e4 3c 44 2b cb 3d a5 1a 2b bd
       -0.041699182 0.027939549 0.09920362 -0.041773457
000120 73 46 e5 bc 6a 7a 3f bd cc 94 07 be 32 62 8e bc
       -0.027987694 -0.046747603 -0.13240355 -0.017380808
000130 b6 fd 17 be ec 12 2f bc df 5d d4 ba 03 ab d7 bd
       -0.14842877 -0.010685664 -0.0016202292 -0.10530665
000140 bb 6c 69 bb 7c 7a 05 bc 0a 5f 81 3d f5 fb 7c 3d
       -0.0035617787 -0.008146878 0.063169554 0.061763722
000150 79 e8 02 bd 20 d5 5b be f0 db a0 bc c4 ed 35 bd
       -0.031959984 -0.2146802 -0.019636124 -0.044416204
000160 49 1d 23 be a5 e9 89 3c 6e 2c c4 3c aa 00 46 bd
       -0.1592914 0.016835043 0.023946967 -0.048340477
000170 87 6d 1b bd 65 31 6f 3d 62 73 1f 3d 4b ae 82 3c
       -0.03794625 0.058396716 0.038928397 0.01595225
000180 be 08 e2 bc 6d b6 e9 3d 1e 45 9a 3d 86 ea 99 bd
       -0.02759206 0.11411748 0.07532714 -0.07515435
000190 1b 05 dd 3d f1 a3 48 3e 94 3a b8 3d 48 9f b6 3d
       0.107919894 0.19593789 0.08995548 0.08917099
0001a0 40 47 7a bd 0a 42 62 3c 8c 0f 87 3d 01 00 1b be
       -0.061103106 0.01380969 0.06594762 -0.1513672
0001b0 06 69 b1 bd e9 05 48 3d 70 89 03 3d 43 34 ac bc
       -0.0866261 0.04883376 0.032113492 -0.021021014
0001c0 6c 3b a3 bd 72 95 37 bc 86 9e cb bc 08 f4 7c 3c
       -0.07970318 -0.011205064 -0.024855863 0.015439041
0001d0 9f 48 b9 3c 2f 82 e4 3d f9 c3 a4 3d 13 55 17 3e
       0.022617636 0.11157643 0.08045191 0.14778547
0001e0 85 5f 18 be 7c 23 87 bd 52 11 f8 3c 2f 48 5f bc
       -0.14880188 -0.06598565 0.030281696 -0.01362805
0001f0 bc 8a 22 bd 5b f6 91 bc f7 51 43 3d 76 58 93 3d
       -0.03968309 -0.017817667 0.04768559 0.07194607
000200 48 ef 8e bd 09 19 b1 bd d1 27 01 3d 6d 7d 15 be
       -0.06979233 -0.08647353 0.031532113 -0.14598627
000210 74 bd 52 3c dd c6 86 bd d4 02 90 3d 84 a3 b5 bd
       0.012862552 -0.06580899 0.070317894 -0.08869079
000220 10 36 e5 bd 65 f3 09 be 8e b5 0c be 41 f9 08 3d
       -0.11191952 -0.13471754 -0.13741133 0.033440832
000230 d5 ac 4a be 9b dc 51 3e 17 68 2b bc 35 6b 54 3d
       -0.19792493 0.2049431 -0.010461829 0.051860053
000240 d2 68 24 3e 5e a1 18 3e 64 92 b8 bd 31 dd 0e be
       0.16055611 0.14905307 -0.09012297 -0.13951565
000250 26 6d 1d be 77 31 84 3d f2 9a e4 3d 31 d2 2d bd
       -0.15373668 0.06454747 0.11162366 -0.042436782
000260 8d a2 d7 bd a3 71 37 3e 35 69 2e 3e e8 a5 27 bd
       -0.10529051 0.17914443 0.17032321 -0.040929705
000270 e4 40 8d bd 6d e9 9f 3d 96 74 0e 3e 50 21 d0 bc
       -0.068971425 0.07808194 0.13911662 -0.02540651
000280 f9 2a 81 bd e0 85 93 bc 2e 0f 64 3d 7e ad 24 be
       -0.063070245 -0.018008173 0.05567854 -0.16081807
000290 1f 4c b8 3d d5 49 02 be b5 cc 1a 3e 1a 91 f4 3d
       0.08998894 -0.12723477 0.15117152 0.119417384
0002a0 de 54 1b bd 6c aa bc bd 68 ab f4 3d 77 7e ec bd
       -0.037922733 -0.09212193 0.11946756 -0.11547559
0002b0 bd 5f 30 3e b3 93 db 3d 42 92 9f bd 72 c0 a4 bd
       0.17224021 0.10721531 -0.07791568 -0.080445185
0002c0 63 97 ae bd e4 22 34 be 5f b0 2c 3d 9a 4a 07 be
       -0.085249685 -0.17591435 0.042160388 -0.13212052
0002d0 a8 ce cd 3d 26 ba 72 bd 4f 77 dc bd ca c1 0e 3e
       0.10049182 -0.059259556 -0.10764944 0.13941112
0002e0 9e dc 0f be 04 7b 01 be 8d 1c 87 bc d5 fc 25 3e
       -0.14049003 -0.12644583 -0.016493106 0.16209729
0002f0 dc c6 c0 bd 9d b1 1d 3d 95 fa 52 bd 82 55 66 3e
       -0.094129294 0.038499463 -0.051508505 0.22493556
000300 e1 ea 1c bd ae a3 63 bd 88 02 90 bd 68 86 bc bc
       -0.038309935 -0.05557602 -0.07031733 -0.023013309
000310 6a c9 cb bd de 16 e3 bd a4 09 0d be 84 ec b0 3d
       -0.09950526 -0.11088346 -0.13773209 0.08638862
000320 c9 0a 60 3e 98 79 e2 3c 04 23 95 3d d4 d9 fc 3c
       0.21879114 0.027645871 0.07282069 0.030865587
000330 3c 70 a7 bc c6 15 30 bd 36 d1 ab 3d a1 80 94 3d
       -0.02043926 -0.042989515 0.08389513 0.072510965
000340 8d 30 73 bd da 0d ce bc bf 26 54 3d cc 0e e8 bd
       -0.059372474 -0.02515309 0.051794764 -0.11330947
000350 38 1d 90 3b 9b 34 84 3c 56 e8 89 3c 74 d2 ca bd
       0.0043980144 0.016138365 0.01683442 -0.09903422
000360 78 99 28 bb 55 45 be 3d d9 a3 f2 bc 73 39 f2 3c
       -0.002572624 0.09290568 -0.029619144 0.02956841
000370 04 a2 8d 3c 80 30 df 3d 59 d6 f3 3b e3 4b 8e bd
       0.01728917 0.108979225 0.0074413237 -0.06948068
000380 34 66 6e bd ae 60 da bd 7e 4f d7 bb 9a 1b 50 be
       -0.058202937 -0.106629714 -0.0065707555 -0.20323029
000390 2a b3 78 3d 15 0a 00 3e ae 82 29 3d d2 d3 57 3d
       0.06071774 0.12503846 0.04138439 0.052692242
0003a0 fe 5d 40 bc 12 ff 3c 3d d1 cb ec 3d eb df c7 3d
       -0.0117411595 0.04614169 0.115623124 0.09759506
0003b0 88 2e e8 bd a0 d0 a7 3d dc 84 f7 bd a6 09 15 3d
       -0.11337 0.08194089 -0.12085888 0.036386155
0003c0 54 95 99 3a 7a bd c7 bd dd 20 ae bb 8c 45 60 bb
       0.0011717477 -0.09752937 -0.005313976 -0.003422114
0003d0 20 cf 0b 3e 07 39 9a 3d 81 92 0f be 0b cf 4c bd
       0.1365323 0.07530408 -0.1402073 -0.05000214
0003e0 bd ff a0 bd 81 cb 97 bd 7e 14 b9 3d fe 95 6d bd
       -0.07861278 -0.07411862 0.09037112 -0.05800437
0003f0 39 76 61 bc 55 9c 84 3d cb 59 4f 3d ae 9b 85 3d
       -0.013761097 0.064751305 0.050622743 0.06523834

lstms.0.weight_hh_l0 f4 [256, 64]
000000 f7 74 32 bd 53 85 89 3d fa 1b d9 b8 42 38 8a 3c
       -0.043568578 0.06714883 -0.000103525774 0.016872529
000010 11 2f d8 3d c8 03 54 bd 26 b2 2b 3d 74 23 a4 bd
       0.10555852 -0.05176142 0.041917942 -0.08014575
000020 0b 54 b9 bc 35 8d 32 bc 8c e5 be 3d 9b ec 64 3d
       -0.022623083 -0.010897924 0.09321126 0.055889707
000030 87 e1 ee bb f1 35 99 bd c1 a8 32 3d fe f9 92 3c
       -0.0072900685 -0.07480992 0.043617968 0.017941471
000040 6c 89 1d bd e3 24 1d 3d d8 8c 57 bd 8e 7a af 3d
       -0.038461134 0.038365256 -0.052624553 0.08568297
000050 80 c6 9c 3d 7a 52 9b 3d 64 0e 26 bc 5a 7a 94 3d
       0.07655048 0.075840905 -0.010135267 0.07249899
000060 66 ef ae 3d db 93 d1 3d d0 9e 49 3d fd 8d cb 3d
       0.085417554 0.10233279 0.04922372 0.099391915
000070 75 79 ae bb a6 60 d9 3b 96 86 85 ba f2 68 22 bd
       -0.0053245374 0.006633836 -0.0010187204 -0.039650865
000080 99 4d 05 3c 90 45 33 bd c7 83 75 bd 61 31 27 3d
       0.0081361765 -0.04376751 -0.059940126 0.040818576
000090 e5 73 08 3d a3 ef 90 3d 0c 3b 57 3d 64 52 02 3d
       0.03331365 0.07076957 0.052546546 0.031816855
0000a0 e2 29 ca 3d 50 e1 fa bd a1 c5 46 3d 67 34 b8 3d
       0.0987127 -0.12250006 0.048528317 0.0899437
0000b0 e4 fa 99 bd 67 65 a7 bd 56 4b cb 3d 50 c5 7b 3d
       -0.07518557 -0.08173638 0.099264786 0.06146747
0000c0 26 0b 78 bc 34 8c c4 bc d3 ae 4b 3e c1 b1 e1 3c
       -0.015139377 -0.023992635 0.19890909 0.02755058
0000d0 b7 20 c2 bb ca 2a 00 3c 17 1b ee bc c1 e1 3e 3d
       -0.00592431 0.007822702 -0.029065652 0.046602014
0000e0 35 fa c9 bb c0 90 80 bd de ba 32 be 26 1f b4 bd
       -0.00616386 -0.06277609 -0.17454097 -0.087950036
0000f0 fb 88 47 3d 0e c9 25 be b3 fc 52 3d 97 21 90 3d
       0.04871462 -0.16189978 0.051510524 0.07037657
000100 67 1f b3 bc fe ea 06 be 13 fa a9 bc 95 4f 8b 3d
       -0.02186556 -0.1317558 -0.020749127 0.068022884
000110 d3 c5 53 3c 6e a3 d8 bd 4b 5b ad ba 40 0c 27 3e
       0.012925583 -0.10578047 -0.001322606 0.16313267
000120 92 ac 66 bd 5c 37 04 3d 07 0e 15 bd 3c a9 1d bd
       -0.05631692 0.032279357 -0.03639033 -0.038491473
000130 7b d9 83 bd 61 6c cd 3c d5 47 bf 3d f3 fb 92 3d
       -0.064379655 0.025076093 0.09339873 0.07176962
000140 cb 78 56 bd 2a 6b 11 bd c3 c2 83 3c ec 28 ed bd
       -0.05236129 -0.03550259 0.01608408 -0.11580071
000150 7c 73 b5 3d eb f7 cc 3c 5f fe 00 3e f8 2f 0d bc
       0.088599175 0.02502056 0.12597035 -0.008617394
000160 02 6f 34 3d 46 91 6b 3d c1 9e 91 3d 60 45 e5 bc
       0.044051178 0.05751159 0.07110358 -0.027987182
000170 12 bc 9c bc 34 43 eb ba f3 95 ef 3c ca 1c 14 be
       -0.019132648 -0.0017949105 0.029246306 -0.14464107
000180 bd 83 e5 3d d6 20 39 3d ad 4a 30 bd 6e 19 31 3d
       0.11206768 0.04519733 -0.043039966 0.043237142
000190 ca 32 95 bc a6 a6 1e bd b2 c8 8c be 2c cf ec bc
       -0.018212695 -0.038733147 -0.27496868 -0.028907381
0001a0 72 d4 7a 3d e7 86 d2 3d cf ea bb 3d 97 32 ac 3d
       0.06123776 0.10279637 0.091756456 0.08408087
0001b0 d6 32 cb bb 14 87 85 3a e0 2d b7 3b a2 ed a6 3d
       -0.0062011285 0.0010187351 0.0055901855 0.081507936
0001c0 d1 da bd bd 88 40 d8 3c b8 f0 6e 3a 06 14 16 3d
       -0.092702515 0.026397958 0.00091148494 0.03664019
0001d0 61 71 95 3d cc de a4 bd fc 9e dd 3d a1 99 f5 bc
       0.07297016 -0.08050308 0.108213395 -0.029980483
0001e0 a9 ad ab bb e0 0b a1 3d da 08 5e bd b1 f4 99 3d
       -0.0052392078 0.07863593 -0.05420766 0.07517374
0001f0 e2 1d 2a 3d 35 c7 ba bd 35 10 f5 bc fc 18 5f 3c
       0.041532405 -0.09120027 -0.029914955 0.013616797
000200 ea d3 a8 3a 08 5b a9 bc 9f e7 81 bd b5 63 19 3e
       0.0012880538 -0.02067329 -0.06343006 0.14979441
000210 81 39 71 bd 81 72 b9 3d 42 dc 94 bd ee fb 19 bd
       -0.05889273 0.09055043 -0.07268573 -0.037593774
000220 91 28 af bd 0b 5b 9a bd 6d 67 ff bb f7 f9 b0 bc
       -0.08552659 -0.07536896 -0.0077943117 -0.021603568
000230 b9 ab df 3c d1 82 d0 bd be fc b3 bc 66 59 16 bc
       0.027303563 -0.10181201 -0.021971103 -0.009176588
000240 79 3c 71 bd 75 d7 cb bd f8 f5 c3 bd 31 91 a9 bd
       -0.05889556 -0.099532045 -0.09568399 -0.08279646
000250 c9 72 4f bc cf 4e e7 3d 32 2e 78 3d d0 d2 f3 3d
       -0.012661644 0.112943284 0.06059093 0.11905444
000260 b1 b8 8c 3d d0 64 28 3d 9d f0 91 bc f6 1d 80 3d
       0.068711646 0.041111767 -0.017814929 0.062557146
000270 a1 e6 ba 3c a5 a1 c9 3d 72 3c 30 be 9a c4 d0 bc
       0.02281505 0.098452844 -0.17210558 -0.025484372
000280 d9 4e b2 bd db 5e 13 be fb 44 14 3c f8 5c 0b 3d
       -0.08706445 -0.14391653 0.009049649 0.03402421
000290 cd 48 38 3c a4 fe 03 be 54 96 95 bd 34 4c c9 bd
       0.011247826 -0.12890106 -0.073040634 -0.09828988
0002a0 76 7c aa bc 35 9e ab bd 03 8d b4 bc 95 8f 3d 3e
       -0.0208113 -0.08379785 -0.022039896 0.18511803
0002b0 50 28 af 3d 4d ca d6 bd 1b 28 d9 bd 3f 7a ba bc
       0.08552611 -0.104878046 -0.10603353 -0.02276337
0002c0 58 1e 0a 3e 3e af 05 bd 2c f9 9c 3d cd ee d7 bd
       0.13488138 -0.032637827 0.07664713 -0.105435945
0002d0 46 16 c0 bd 0f 09 12 bd d7 4e b5 bd 9e ca 02 3e
       -0.09379248 -0.03565317 -0.08852928 0.12772605
0002e0 e6 e2 8d 3d aa a1 19 3d be 52 02 3e 69 02 a5 3d
       0.06928043 0.03750769 0.12726876 0.080571
0002f0 a3 7f 63 3c 43 e6 da bd b3 6f 30 bd 57 8a fa 3d
       0.013885411 -0.1068845 -0.043075275 0.122334175
000300 43 b3 1a be 17 87 14 3d d8 c3 97 bc 3e de e0 3c
       -0.15107445 0.036261644 -0.018526003 0.027449723
000310 f9 18 cc 3c 1f 85 73 bc fb 3d 06 3d 83 b2 71 3d
       0.024914252 -0.0148632815 0.032773953 0.059008133
000320 b6 82 f4 bc 3e 43 4b 3e a0 fb 71 bd ae 9e 01 3e
       -0.029847484 0.1984987 -0.05907786 0.12658188
000330 2c 08 5e bd e8 b9 d4 3d ed ba 40 bc a9 67 a1 3d
       -0.054207012 0.10387021 -0.011763317 0.078811
000340 31 0b 40 3e 0a 69 0b 3e 41 aa d6 bd f9 e3 40 bc
       0.18754269 0.13614288 -0.10481692 -0.011773103
000350 8a c5 b0 3d 2f 15 7a 3b be 03 83 bd d4 84 cc bd
       0.086314276 0.00381596 -0.06397198 -0.099862725
000360 ea 02 c5 3d 39 0e da 3d 32 f5 c9 3d e8 0c d5 bd
       0.096196964 0.10647244 0.098612204 -0.10402852
000370 db f5 10 3c 64 ef 1f 3c f8 43 76 3d 1e f3 03 bc
       0.008847679 0.009761665 0.060123414 -0.008053569
000380 6e 15 c4 3c 6c 74 bb bd a8 18 a3 bc 50 f6 e6 3c
       0.023936 -0.09153065 -0.019909218 0.028193623
000390 6d 83 0a 3d e2 f0 28 bd 48 03 19 3e d6 d8 bc bd
       0.033816744 -0.04124535 0.14942658 -0.09221046
0003a0 a1 c6 46 bd f8 bf bb bc c9 2f 1e bd 6a 89 c2 bd
       -0.04852927 -0.022918686 -0.03861979 -0.09498866
0003b0 fc e9 a4 3c 9f ad 40 be 60 04 bf 3d 29 cb dc 3d
       0.020131104 -0.18816231 0.09327006 0.10780937
0003c0 18 da d5 3d 39 4e 86 bd 3e 3f 42 3c da 3b 8b bd
       0.10441989 -0.065578885 0.011855898 -0.06798525
0003d0 a5 48 7b bd a9 fd 03 3e fd 46 1c 3d 6d 23 e1 bb
       -0.061348576 0.12889732 0.038153637 -0.006870678
0003e0 0e e8 04 be f8 21 8a 3c 5b 41 08 be 7c 9e a4 bc
       -0.12979147 0.0168619 -0.13306181 -0.020095102
0003f0 05 55 0d 3d cc f9 91 bc e8 79 92 3d 25 0c c1 3c
       0.03450491 -0.017819308 0.07152158 0.023565361

lstms.0.bias_ih_l0 f4 [256]
000000 a5 95 e0 3c c4 cf 72 3c c8 ca 96 3c 20 22 75 bc
       0.027415106 0.014820043 0.01840724 -0.014961749
000010 e7 9e b4 3c ff 6d 78 3c 80 27 f4 bb af 44 d4 3c
       0.022048427 0.015162944 -0.007450998 0.025911657
000020 1e ef b4 3c b1 d2 f0 3b 1c 19 10 3d 05 27 e8 3c
       0.022086676 0.007349335 0.035180196 0.028338918
000030 2c 7a 49 3d 5b f9 2b 3d 45 c7 b3 bb 33 0f 00 3d
       0.049188778 0.04198585 -0.0054864013 0.031264495
000040 d4 cb 51 3c 4f 16 dd bc 4f 15 f7 bb 72 26 18 3d
       0.012804944 -0.026988177 -0.007540382 0.03714604
000050 59 7c 50 3d ad 9b 0b 3d c9 aa 2c 3d 7d de 0a 3d
       0.050899837 0.03408401 0.04215506 0.033903588
000060 95 26 1a 3d 68 ba 33 3c 9f 71 a3 3b 0d 26 45 3c
       0.03763445 0.010969736 0.00498791 0.012032998
000070 69 8b 70 bc 82 7c 18 3d 2a 8e 5e 3d c3 9a 56 3c
       -0.0146816755 0.037228115 0.054334797 0.0130984215
000080 37 a9 0f 3d e4 86 12 3d 78 6e 36 bc c3 43 23 3d
       0.035073485 0.035773173 -0.011134736 0.039859544
000090 51 77 1f 3d 98 7a 12 3c fa a3 0f bc c2 71 4a 3d
       0.03893215 0.008940361 -0.008767122 0.049424894
0000a0 44 bb 10 3d dc 49 3b 3d 2c 7a 7c 3c 4b 70 00 3d
       0.03533484 0.045724735 0.015409987 0.03135709
0000b0 f7 b6 2a 3d 13 27 91 bc 06 31 08 3d a9 df a4 3c
       0.041678395 -0.017718827 0.033249877 0.02012618
0000c0 81 a8 2d 3c 66 d6 23 3d e7 cd 57 3c 38 e0 0e 3c
       0.0105992565 0.03999939 0.01317165 0.00872045
0000d0 38 56 08 3d f9 81 f3 bb 3e 38 63 3c 22 fe 0e 3d
       0.03328535 -0.0074312654 0.01386839 0.03491033
0000e0 49 1f 2b 3d c5 24 33 3d 8f 5e 18 3d 8f 0d 3b 3d
       0.041777883 0.043736238 0.037199553 0.045667227
0000f0 cd 9a d5 bb e5 67 15 bc 1c ad f7 3a 11 53 42 3d
       -0.006518698 -0.009119009 0.0018896195 0.0474425
000100 54 6c bc 3c 9a 64 29 3c 3f 77 78 3c 5e e1 8e bc
       0.023000874 0.010338927 0.015165149 -0.017441448
000110 6e 9d 8c 3c a3 16 39 3c 13 73 fb bb 67 d9 b0 3c
       0.017164912 0.011296901 -0.00767363 0.02158804
000120 06 be 89 3c eb 15 7f 3b 05 82 e8 3c 3b f0 c2 3c
       0.016814243 0.0038922976 0.02838231 0.023796191
000130 2f 9e 28 3d 6d 25 11 3d 26 37 1e bc 17 d6 e0 3c
       0.04116648 0.035436083 -0.009656703 0.027445836
000140 64 ff 15 3c ed 78 d5 bc b9 ca 03 bc ab c7 fb 3c
       0.009155128 -0.026058638 -0.008043938 0.030734858
000150 39 c8 32 3d a6 6e e9 3c 1d 80 05 3d de 1e e5 3c
       0.04364798 0.028495144 0.03259288 0.02796882
000160 9d 07 05 3d 4d c8 c3 3b 63 d5 ab 3b 20 05 1e 3c
       0.032477964 0.0059748054 0.0052439435 0.009644777
000170 fa ce 74 bc 19 72 05 3d c7 d2 43 3d 5e 35 28 3c
       -0.014941925 0.032579515 0.047808435 0.01026663
000180 9d 03 f2 3c f5 c4 e7 3c 30 23 5f bc 36 66 0a 3d
       0.029542739 0.028292159 -0.013619229 0.033788882
000190 8a 5a 00 3d c1 1e 01 3c e6 bb 24 bc 76 cb 22 3d
       0.031336345 0.007880867 -0.010054564 0.039744817
0001a0 74 ef ee 3c 8d 6c 18 3d 64 f8 45 3c 05 2e d4 3c
       0.029166915 0.037212897 0.012083147 0.02590085
0001b0 12 d0 11 3d b4 d9 9a bc 68 3d de 3c e7 1c 82 3c
       0.035598822 -0.018902637 0.02712889 0.015882922
0001c0 f2 30 eb 3b 42 3b fe 3c 9c ab 18 3c 7c 08 bf 3b
       0.0071774656 0.031034116 0.009318259 0.005829869
0001d0 e6 e0 de 3c de 3d e6 bb 2b 96 19 3c b0 45 eb 3c
       0.02720685 -0.007026418 0.009374182 0.028719753
0001e0 18 6a 10 3d 9d af 16 3d fc 8b f9 3c 84 b7 1a 3d
       0.03525743 0.03678857 0.030462258 0.03777267
0001f0 34 57 1c bc 39 8d 5d bc 2f 23 7a bb 5c 08 2b 3d
       -0.009542275 -0.01352244 -0.0038167944 0.04175602
000200 ae 72 11 3c ff ee 7e bb 02 45 4b bc 53 4a 95 bc
       0.008877439 -0.0038899777 -0.012406589 -0.018223917
000210 da c0 79 bb 09 90 65 3c 2d a4 b6 3c 86 16 2d 3c
       -0.0038109333 0.014011391 0.022295082 0.010564452
000220 ef c5 6a 3a 75 e5 9f bc bf 94 50 3c a2 fd 13 bc
       0.0008955886 -0.019518593 0.012730776 -0.009032639
000230 e6 59 2b 3c 62 22 5b bc 39 39 03 bc 9a fa 32 bc
       0.010458445 -0.013374897 -0.008009248 -0.010924006
000240 2d 28 a4 3c 8b 28 78 3c 61 21 ae bc cc 95 40 3c
       0.020038689 0.015146385 -0.02125615 0.011754464
000250 21 c2 30 3c 70 d7 3b bc c2 3d 4b bc 6c 84 5b 3c
       0.010788471 -0.0114649385 -0.012404861 0.013398271
000260 42 6d 2a 3c 3f 8f ce 3c e4 cf 9b 3c 79 d3 f8 3b
       0.010402026 0.02521479 0.019020028 0.007593569
000270 d5 a6 ae bc eb f6 a3 3c 85 bf bb bb d7 e4 cc 3b
       -0.021319786 0.0200152 -0.005729618 0.006252866
000280 81 16 53 3c af da 1c 3c 2a 70 1b 3c 97 78 76 3c
       0.012883783 0.009573623 0.009487191 0.015043399
000290 55 b1 03 3b 2d 5c e8 bc 61 ea 9c 3c 06 9b 0f bc
       0.0020094712 -0.028364265 0.01915473 -0.008764988
0002a0 78 e0 2a 3c d6 c9 26 3c 3c 4b 8f ba 9f 73 3b 3c
       0.010429494 0.010179957 -0.0010932456 0.01144114
0002b0 72 d7 65 bc 35 30 6b 3c ef 48 4e 3c b4 06 1b 3c
       -0.014028417 0.014354755 0.012590631 0.009462047
0002c0 1a ec a5 bc e9 52 54 3c d2 c3 39 bc 9a bb c4 bc
       -0.020254184 0.01295922 -0.011338191 -0.024015237
0002d0 1c df 04 bc 36 56 a6 bc ed 31 ce ba a6 10 38 bc
       -0.008109834 -0.02030478 -0.0015731432 -0.011234438
0002e0 de 19 5c 3c 05 07 2c 3c 40 08 c3 3b cf 17 35 bc
       0.013433902 0.01049972 0.005951911 -0.01105304
0002f0 2b 45 95 bc a1 57 79 3c 89 bc 9a bc 21 a6 e7 bb
       -0.018221458 0.015218646 -0.018888729 -0.0070693647
000300 16 27 e5 3c fa 1f 60 3c 94 97 93 3c 99 82 73 bc
       0.02797274 0.013679499 0.018016614 -0.01486268
000310 b5 f8 b4 3c 21 96 63 3c 78 1e ef bb 23 ff c9 3c
       0.022091249 0.013890774 -0.0072973333 0.024657791
000320 1c ad 99 3c f9 59 f3 3b 5f 2d 01 3d 74 fe e4 3c
       0.018759303 0.007426497 0.03153741 0.027953364
000330 d4 d3 3d 3d 22 e8 16 3d 57 62 d3 bb 1a 16 f1 3c
       0.046344593 0.036842473 -0.006450932 0.029429484
000340 c8 b9 46 3c 0e e7 dc bc f9 3b f3 bb 48 84 0f 3d
       0.012129255 -0.026965644 -0.007422921 0.035038263
000350 63 fc 4b 3d fc 98 f8 3c 02 18 1c 3d fe 24 fe 3c
       0.04980124 0.030346386 0.038108833 0.031023499
000360 de 14 08 3d a3 75 d0 3b 5c 62 b1 3b 3a 73 3f 3c
       0.033223026 0.0063616796 0.0054133367 0.011685187
000370 5e 07 64 bc 68 29 1a 3d f4 f4 5f 3d e9 55 57 3c
       -0.013917772 0.037637144 0.054676965 0.013143041
000380 82 1c ff 3c 20 ab 0d 3d c1 03 2b bc d6 8b 21 3d
       0.031141523 0.034587026 -0.010437907 0.03944
000390 23 68 1f 3d e8 57 0b 3c 5e 9f 10 bc cb 53 35 3d
       0.038917672 0.008504845 -0.008827059 0.044269364
0003a0 b0 3f 0d 3d 79 1c 30 3d a6 27 87 3c 3b 8e f0 3c
       0.034484565 0.042995904 0.016498398 0.029364696
0003b0 76 de 18 3d f9 0e 8e bc 54 b9 02 3d 41 3a 9d 3c
       0.03732153 -0.017341124 0.031915024 0.019192817
0003c0 03 22 8b 3c 9b 18 19 3d 25 a7 46 3c 66 ff 22 3c
       0.016983991 0.03737698 0.012124811 0.009948587
0003d0 ff 78 04 3d c6 9b ee bb 38 91 42 3c 46 60 0c 3d
       0.032341953 -0.0072817532 0.011875443 0.0342715
0003e0 ad 0e 28 3d d5 e1 2b 3d 61 d5 19 3d 0e 30 28 3d
       0.04102962 0.041963417 0.03755701 0.041061454
0003f0 f4 8d 02 bc 1a 14 11 bc bd 02 7c bb 8f d8 3f 3d
       -0.007968415 -0.00885489 -0.003845378 0.046837386

lstms.0.bias_hh_l0 f4 [256]
000000 a5 95 e0 3c c4 cf 72 3c c8 ca 96 3c 20 22 75 bc
       0.027415106 0.014820043 0.01840724 -0.014961749
000010 e7 9e b4 3c ff 6d 78 3c 80 27 f4 bb af 44 d4 3c
       0.022048427 0.015162944 -0.007450998 0.025911657
000020 1e ef b4 3c b1 d2 f0 3b 1c 19 10 3d 05 27 e8 3c
       0.022086676 0.007349335 0.035180196 0.028338918
000030 2c 7a 49 3d 5b f9 2b 3d 45 c7 b3 bb 33 0f 00 3d
       0.049188778 0.04198585 -0.0054864013 0.031264495
000040 d4 cb 51 3c 4f 16 dd bc 4f 15 f7 bb 72 26 18 3d
       0.012804944 -0.026988177 -0.007540382 0.03714604
000050 59 7c 50 3d ad 9b 0b 3d c9 aa 2c 3d 7d de 0a 3d
       0.050899837 0.03408401 0.04215506 0.033903588
000060 95 26 1a 3d 68 ba 33 3c 9f 71 a3 3b 0d 26 45 3c
       0.03763445 0.010969736 0.00498791 0.012032998
000070 69 8b 70 bc 82 7c 18 3d 2a 8e 5e 3d c3 9a 56 3c
       -0.0146816755 0.037228115 0.054334797 0.0130984215
000080 37 a9 0f 3d e4 86 12 3d 78 6e 36 bc c3 43 23 3d
       0.035073485 0.035773173 -0.011134736 0.039859544
000090 51 77 1f 3d 98 7a 12 3c fa a3 0f bc c2 71 4a 3d
       0.03893215 0.008940361 -0.008767122 0.049424894
0000a0 44 bb 10 3d dc 49 3b 3d 2c 7a 7c 3c 4b 70 00 3d
       0.03533484 0.045724735 0.015409987 0.03135709
0000b0 f7 b6 2a 3d 13 27 91 bc 06 31 08 3d a9 df a4 3c
       0.041678395 -0.017718827 0.033249877 0.02012618
0000c0 81 a8 2d 3c 66 d6 23 3d e7 cd 57 3c 38 e0 0e 3c
       0.0105992565 0.03999939 0.01317165 0.00872045
0000d0 38 56 08 3d f9 81 f3 bb 3e 38 63 3c 22 fe 0e 3d
       0.03328535 -0.0074312654 0.01386839 0.03491033
0000e0 49 1f 2b 3d c5 24 33 3d 8f 5e 18 3d 8f 0d 3b 3d
       0.041777883 0.043736238 0.037199553 0.045667227
0000f0 cd 9a d5 bb e5 67 15 bc 1c ad f7 3a 11 53 42 3d
       -0.006518698 -0.009119009 0.0018896195 0.0474425
000100 54 6c bc 3c 9a 64 29 3c 3f 77 78 3c 5e e1 8e bc
       0.023000874 0.010338927 0.015165149 -0.017441448
000110 6e 9d 8c 3c a3 16 39 3c 13 73 fb bb 67 d9 b0 3c
       0.017164912 0.011296901 -0.00767363 0.02158804
000120 06 be 89 3c eb 15 7f 3b 05 82 e8 3c 3b f0 c2 3c
       0.016814243 0.0038922976 0.02838231 0.023796191
000130 2f 9e 28 3d 6d 25 11 3d 26 37 1e bc 17 d6 e0 3c
       0.04116648 0.035436083 -0.009656703 0.027445836
000140 64 ff 15 3c ed 78 d5 bc b9 ca 03 bc ab c7 fb 3c
       0.009155128 -0.026058638 -0.008043938 0.030734858
000150 39 c8 32 3d a6 6e e9 3c 1d 80 05 3d de 1e e5 3c
       0.04364798 0.028495144 0.03259288 0.02796882
000160 9d 07 05 3d 4d c8 c3 3b 63 d5 ab 3b 20 05 1e 3c
       0.032477964 0.0059748054 0.0052439435 0.009644777
000170 fa ce 74 bc 19 72 05 3d c7 d2 43 3d 5e 35 28 3c
       -0.014941925 0.032579515 0.047808435 0.01026663
000180 9d 03 f2 3c f5 c4 e7 3c 30 23 5f bc 36 66 0a 3d
       0.029542739 0.028292159 -0.013619229 0.033788882
000190 8a 5a 00 3d c1 1e 01 3c e6 bb 24 bc 76 cb 22 3d
       0.031336345 0.007880867 -0.010054564 0.039744817
0001a0 74 ef ee 3c 8d 6c 18 3d 64 f8 45 3c 05 2e d4 3c
       0.029166915 0.037212897 0.012083147 0.02590085
0001b0 12 d0 11 3d b4 d9 9a bc 68 3d de 3c e7 1c 82 3c
       0.035598822 -0.018902637 0.02712889 0.015882922
0001c0 f2 30 eb 3b 42 3b fe 3c 9c ab 18 3c 7c 08 bf 3b
       0.0071774656 0.031034116 0.009318259 0.005829869
0001d0 e6 e0 de 3c de 3d e6 bb 2b 96 19 3c b0 45 eb 3c
       0.02720685 -0.007026418 0.009374182 0.028719753
0001e0 18 6a 10 3d 9d af 16 3d fc 8b f9 3c 84 b7 1a 3d
       0.03525743 0.03678857 0.030462258 0.03777267
0001f0 34 57 1c bc 39 8d 5d bc 2f 23 7a bb 5c 08 2b 3d
       -0.009542275 -0.01352244 -0.0038167944 0.04175602
000200 ae 72 11 3c ff ee 7e bb 02 45 4b bc 53 4a 95 bc
       0.008877439 -0.0038899777 -0.012406589 -0.018223917
000210 da c0 79 bb 09 90 65 3c 2d a4 b6 3c 86 16 2d 3c
       -0.0038109333 0.014011391 0.022295082 0.010564452
000220 ef c5 6a 3a 75 e5 9f bc bf 94 50 3c a2 fd 13 bc
       0.0008955886 -0.019518593 0.012730776 -0.009032639
000230 e6 59 2b 3c 62 22 5b bc 39 39 03 bc 9a fa 32 bc
       0.010458445 -0.013374897 -0.008009248 -0.010924006
000240 2d 28 a4 3c 8b 28 78 3c 61 21 ae bc cc 95 40 3c
       0.020038689 0.015146385 -0.02125615 0.011754464
000250 21 c2 30 3c 70 d7 3b bc c2 3d 4b bc 6c 84 5b 3c
       0.010788471 -0.0114649385 -0.012404861 0.013398271
000260 42 6d 2a 3c 3f 8f ce 3c e4 cf 9b 3c 79 d3 f8 3b
       0.010402026 0.02521479 0.019020028 0.007593569
000270 d5 a6 ae bc eb f6 a3 3c 85 bf bb bb d7 e4 cc 3b
       -0.021319786 0.0200152 -0.005729618 0.006252866
000280 81 16 53 3c af da 1c 3c 2a 70 1b 3c 97 78 76 3c
       0.012883783 0.009573623 0.009487191 0.015043399
000290 55 b1 03 3b 2d 5c e8 bc 61 ea 9c 3c 06 9b 0f bc
       0.0020094712 -0.028364265 0.01915473 -0.008764988
0002a0 78 e0 2a 3c d6 c9 26 3c 3c 4b 8f ba 9f 73 3b 3c
       0.010429494 0.010179957 -0.0010932456 0.01144114
0002b0 72 d7 65 bc 35 30 6b 3c ef 48 4e 3c b4 06 1b 3c
       -0.014028417 0.014354755 0.012590631 0.009462047
0002c0 1a ec a5 bc e9 52 54 3c d2 c3 39 bc 9a bb c4 bc
       -0.020254184 0.01295922 -0.011338191 -0.024015237
0002d0 1c df 04 bc 36 56 a6 bc ed 31 ce ba a6 10 38 bc
       -0.008109834 -0.02030478 -0.0015731432 -0.011234438
0002e0 de 19 5c 3c 05 07 2c 3c 40 08 c3 3b cf 17 35 bc
       0.013433902 0.01049972 0.005951911 -0.01105304
0002f0 2b 45 95 bc a1 57 79 3c 89 bc 9a bc 21 a6 e7 bb
       -0.018221458 0.015218646 -0.018888729 -0.0070693647
000300 16 27 e5 3c fa 1f 60 3c 94 97 93 3c 99 82 73 bc
       0.02797274 0.013679499 0.018016614 -0.01486268
000310 b5 f8 b4 3c 21 96 63 3c 78 1e ef bb 23 ff c9 3c
       0.022091249 0.013890774 -0.0072973333 0.024657791
000320 1c ad 99 3c f9 59 f3 3b 5f 2d 01 3d 74 fe e4 3c
       0.018759303 0.007426497 0.03153741 0.027953364
000330 d4 d3 3d 3d 22 e8 16 3d 57 62 d3 bb 1a 16 f1 3c
       0.046344593 0.036842473 -0.006450932 0.029429484
000340 c8 b9 46 3c 0e e7 dc bc f9 3b f3 bb 48 84 0f 3d
       0.012129255 -0.026965644 -0.007422921 0.035038263
000350 63 fc 4b 3d fc 98 f8 3c 02 18 1c 3d fe 24 fe 3c
       0.04980124 0.030346386 0.038108833 0.031023499
000360 de 14 08 3d a3 75 d0 3b 5c 62 b1 3b 3a 73 3f 3c
       0.033223026 0.0063616796 0.0054133367 0.011685187
000370 5e 07 64 bc 68 29 1a 3d f4 f4 5f 3d e9 55 57 3c
       -0.013917772 0.037637144 0.054676965 0.013143041
000380 82 1c ff 3c 20 ab 0d 3d c1 03 2b bc d6 8b 21 3d
       0.031141523 0.034587026 -0.010437907 0.03944
000390 23 68 1f 3d e8 57 0b 3c 5e 9f 10 bc cb 53 35 3d
       0.038917672 0.008504845 -0.008827059 0.044269364
0003a0 b0 3f 0d 3d 79 1c 30 3d a6 27 87 3c 3b 8e f0 3c
       0.034484565 0.042995904 0.016498398 0.029364696
0003b0 76 de 18 3d f9 0e 8e bc 54 b9 02 3d 41 3a 9d 3c
       0.03732153 -0.017341124 0.031915024 0.019192817
0003c0 03 22 8b 3c 9b 18 19 3d 25 a7 46 3c 66 ff 22 3c
       0.016983991 0.03737698 0.012124811 0.009948587
0003d0 ff 78 04 3d c6 9b ee bb 38 91 42 3c 46 60 0c 3d
       0.032341953 -0.0072817532 0.011875443 0.0342715
0003e0 ad 0e 28 3d d5 e1 2b 3d 61 d5 19 3d 0e 30 28 3d
       0.04102962 0.041963417 0.03755701 0.041061454
0003f0 f4 8d 02 bc 1a 14 11 bc bd 02 7c bb 8f d8 3f 3d
       -0.007968415 -0.00885489 -0.003845378 0.046837386

fc.weight f4 [1, 64]
000000 52 f1 92 bd e3 fd ab bc db 6c 0f 3e 90 11 81 3c
       -0.071749344 -0.020995086 0.14006369 0.015755445
000010 a6 21 d4 3d c6 a6 31 bd 0a 64 84 bd 6d 00 7f bc
       0.103579804 -0.04337194 -0.064643934 -0.015564066
000020 72 59 bd bc c1 9a 23 3c db 23 83 bd 1d 3d cb 3d
       -0.02311394 0.009985627 -0.06403323 0.09923766
000030 80 03 30 be 5b cc 13 3e 25 ef 2b bd 21 33 20 3e
       -0.17188835 0.14433424 -0.041976113 0.15644504
000040 18 1f 5e 3c ba a5 80 bd b2 f9 1c 3d 56 87 c7 bd
       0.013557218 -0.0628161 0.038324066 -0.0974261
000050 9e 46 9a bd 3d 6e 16 3e 50 49 14 3e 3c 75 0a be
       -0.075330004 0.1469049 0.14481091 -0.13521284
000060 ad d1 ea bd c8 c1 c9 bb c6 a0 e3 bc 49 a9 67 bd
       -0.11465774 -0.0061571337 -0.027786624 -0.056557927
000070 ca c8 72 3c af 6b 79 3d b2 9a 05 3e 99 dd 80 bd
       0.01481838 0.06089371 0.13047293 -0.062922664
000080 d7 c1 29 be 98 ff 24 be 2a 81 b5 bd 3b c6 93 bd
       -0.1657785 -0.16113126 -0.08862527 -0.07215544
000090 9a 79 a1 3d 14 2d d3 bc 53 0c 0f bd a3 14 a7 3d
       0.07884522 -0.02577833 -0.034923863 0.08158233
0000a0 9b cd 13 be ad 4e 2e be 6d f6 ea 3c 98 fc ad bd
       -0.14433901 -0.170222 0.028681958 -0.08495444
0000b0 54 25 e6 3d 19 f3 15 3c 7e 6d 6f bd d0 4f 1c bd
       0.112375885 0.009152197 -0.05845403 -0.038162053
0000c0 ea a1 23 bc 2f 34 7f bd ac de 82 3d 25 7e 67 bd
       -0.009987334 -0.062305626 0.063901275 -0.056516785
0000d0 dc 5f 1f 3d 7d ba 7e 3d a2 ce 45 3c 01 05 99 3d
       0.038909778 0.062189568 0.012073191 0.074716575
0000e0 98 67 04 be a5 23 21 be d7 24 28 be c9 71 08 3e
       -0.12930143 -0.15736254 -0.16420303 0.13324656
0000f0 68 ef d0 3c 5b ab 94 bd 33 8f df bc 27 83 be 3d
       0.025504783 -0.07259246 -0.027289962 0.09302359
