labs/models_leak/USD/80_16.pth (torch, 6791 bytes, 5 tensors)

lstms.0.weight_ih_l0 f4 [64, 1]
00000000: 4f85 6b3d 3082 8ebe f7ab a5be 167c 05be
00000010: be95 c9bd 54c2 cabd f75a 093e 7379 32be
00000020: e95e a9be 8355 34be dcf9 1ebd 8b25 fb3d
00000030: 3413 173d 4b3f 043e 7648 453e b46f 81bd
00000040: ee67 ec3e 2f4e 6d3e d34b 9abe a070 b3be
00000050: c665 d43c 8775 a13e e3ac 4cbd 710f 253e
00000060: 1788 05be 9aa9 febd bd8f 7dbd 8f58 15be
00000070: 3408 9dbd 1108 29bd 96e2 94be 6dfe 90be
00000080: 341c 5bbd ecae a1be 99c4 103e a8e3 463e
00000090: 719f 833c 6cb7 46be fff4 b63e f67a 44be
000000a0: 2b02 72bd 5613 903d 0b1f 8d3e 3d41 193e
000000b0: 715a 05be 8d10 813e fd3f 30be 4c94 393e
000000c0: 4796 893d d9cb aabd 3a5a 853c 84f3 c7be
000000d0: 154b f2bd 36ef 6fbe d10a 3ebe d040 9ebe
000000e0: eb37 36be 84db 18be caa6 d6bb 63b5 4d3c
000000f0: 9396 e0bd 691d 4bbd 8fe6 1e3d a016 00be
0.05750018 -0.278337 -0.3235776 -0.13035616 -0.09843014 -0.099003464 0.13413607 -0.17429142
-0.33080223 -0.17610745 -0.038812503 0.1226302 0.036883548 0.1291477 0.19265923 -0.06320134
0.46173042 0.23174356 -0.30135974 -0.35046864 0.025927436 0.3153498 -0.049969565 0.16119172
-0.13040195 -0.12434693 -0.061904658 -0.14584564 -0.0766758 -0.04126746 -0.2907912 -0.2831911
-0.053493693 -0.31578767 0.14137496 0.19422781 0.016067239 -0.19405907 0.35733792 -0.19187531
-0.0590841 0.07034938 0.27562746 0.14966293 -0.13022782 0.2520794 -0.1721191 0.18122977
0.06718116 -0.08339662 0.016278375 -0.39052975 -0.11830727 -0.23431095 -0.18558814 -0.30908823
-0.17794769 -0.14927489 -0.0065506445 0.012555453 -0.1096622 -0.049588595 0.038794097 -0.12508631

lstms.0.weight_hh_l0 f4 [64, 16]
00000000: 0715 083d ba25 3fbe f6ba 503e fb80 82be
00000010: b63a cf3a 6891 debd 804e c5bd 021a 463e
00000020: 24a2 6e3d 5904 d9bd b6e9 d13d 8714 b33e
00000030: 54bb abbd a7e5 603d e447 c43d 5673 a6bd
00000040: 7c8c a93d 5404 3cbe 22c3 bbbd 9797 a13e
00000050: 6048 22be 8c97 ab3e b7d7 6a3e 4f33 5bbd
00000060: fdec 88be 0332 713e a81f 3ebd fba7 743d
00000070: b358 1fbc fc0e 773e 1109 9dbd 3503 a13e
00000080: 3a54 a53e e0b1 473e debb 043e 1000 153e
00000090: babf 1d3d e107 da3d 0b11 3abe e86c 863e
000000a0: 2d97 74bc 9b7b 03bd 366c e0bc e29e 553d
000000b0: 38a7 b3b8 abb3 32be aaa6 fbbd edfb 02be
000000c0: 0f26 4c3d ee10 5cbc 169a e0bc 9b8a 4d3c
000000d0: 79a0 3b3e 5a19 78bc d3ed 9cbd dcdc 303e
000000e0: aabd 7b3e 446c 95bc fdd5 6cbd 37dc 033e
000000f0: 793b d43d 53a9 a0be f0f0 7f3c 8f2d ff3c
00000100: 9491 a23e 5de3 123e 2db6 18be eaab 55be
00000110: fd7e 55be 4055 1e3e a954 a83e 7350 033e
00000120: 3e47 fcbd eb68 88be 7935 fabd 9c3a 273e
00000130: 6458 323d 89f4 b93d f451 ccbe aa80 083e
00000140: 4c20 153d 456a 803e 4bcf 64be e936 44be
00000150: 7c92 803d e0a6 423d 4485 b9bd 5de1 593d
00000160: 2d33 ef3d f508 f5bd d5e1 7dbe 09b1 e83d
00000170: c434 c1bd 6230 013e 4999 223e f55f 933d
00000180: cf9f 383e 21c9 f13d 1e9c 3abe bead 4fbe
00000190: 16db 203e 5c91 643e d7d0 dcbd 1258 b3be
000001a0: a37d 953e 8dc3 e8bc fb44 c9bd 9974 48be
000001b0: 1445 86bb a7ed e43c 7081 fe3d 8616 4b3d
000001c0: 1a88 89bc 031e 72be 6de4 e13c ad20 58be
000001d0: 1104 053e 532a 2abd d60d 68be d94b 24be
000001e0: b5e1 653e f958 673d d20a 19be 9e05 abbd
000001f0: 63e1 92bc 35bf 713d 3cda 4abe e0fe 3f3d
00000200: ffdc 543e 0be5 be3e 33e8 abbd 2222 393e
00000210: f1ea 3f3e 233a 3a3e 6523 823c faa9 903c
00000220: 2bc3 94bd 3ea6 95be e425 5dbe 4929 93bd
00000230: 0998 05be 0fda 97be 658e 2d3e f194 a6bd
00000240: 0bbb 00be 9eae 173e 8a0e a13c 4cd7 00be
00000250: 1d3e 763e 647f 183d 0e7b 4e3c e811 053e
00000260: a04d 90bd 13ed 633e 6c19 fe3d 10ca 2d3e
00000270: bd42 fa3d 6177 c53d 6a02 573e bfae 343d
00000280: f0d2 35be 29c7 d6be e46f 79be 8304 463e
00000290: 76fc 913d b265 573e a7a1 003e 0d68 bfbd
000002a0: a9ac 4f3e 7c3a 5c3d d9a5 7bbe 54dc 023e
000002b0: 1b6c 923e 1c73 d73b 72b7 de3d fa84 0dbe
000002c0: 4c95 273e d6cc c93d 8c61 fbbd 98e9 ef3d
000002d0: 3a87 ccbc 13ed ce3d 5862 4ebe 32af f03d
000002e0: 9686 b63d 4999 e33d 53ca e4bd eab7 b3bd
000002f0: 80c5 e4bb d1ae 333d ff42 08bb 10da 87be
00000300: c927 adbd 6500 b53d ead0 03be 713a 343c
00000310: e988 47bd 6bb9 683e 76af 13bd 41b0 5fbe
00000320: 79dc 333e 397a b73e 0805 05bd 2f4c 96bd
00000330: ae5c c93d 14a2 19be 58df 5abd dfec 4dbe
00000340: 06a0 273c 43a9 133d 9626 fbbd 5053 a939
00000350: 9183 3fbd 4b9d babe 8432 56be 1e34 3d3d
00000360: 3256 33bc 9ffd 36be 00b2 c3bd 3259 813d
00000370: 06a5 98bd e9fa 933d 52f4 f1bb 4037 fbbc
00000380: 51ef 513e 702c 1b3e 2995 4ebe 3665 90bd
00000390: dd43 f53d cdda cdbd 976f 9fbe 52d4 923e
000003a0: 8ff9 2bbd 940f 193d 0216 0dbe 97db 4a3d
000003b0: cbcb 463d fbe0 96bd ffd2 143e f8a9 dc3c
000003c0: cd0e 293c 2e22 683d dd08 bbbe 77e6 4c3e
000003d0: 9a03 cb3e 9e2b 02be 9dc3 d1bd 6207 7dbe
000003e0: 6a6b 663e dac0 233d f53d b4bd b6fb 26be
000003f0: 5f57 f33d 1171 7ebe 3518 07be 5b3b 60be
0.03322318 -0.18666735 0.2038382 -0.2548903 0.0015810344 -0.10867578 -0.09634113 0.19345859
0.058260098 -0.105965324 0.10249655 0.349766 -0.083853394 0.054906514 0.095840245 -0.08127467
0.082787484 -0.18361026 -0.09168078 0.31560966 -0.15847921 0.3351406 0.22933851 -0.05351573
-0.26743308 0.23554234 -0.04641691 0.05973051 -0.009725737 0.2412681 -0.07667745 0.3144776
0.32290822 0.19501448 0.1296229 0.14550805 0.038512923 0.10646034 -0.18170564 0.26254964
-0.014928621 -0.0321003 -0.027395349 0.052153476 -8.566532e-05 -0.1745135 -0.12287648 -0.12791415
0.049840983 -0.013431771 -0.027417224 0.012545253 0.18322934 -0.015142763 -0.07662549 0.17271751
0.2458407 -0.018240102 -0.057821263 0.12876974 0.10362906 -0.31379184 0.015621409 0.031149654
0.31751692 0.14344545 -0.14913245 -0.20866361 -0.20849223 0.15462208 0.3287709 0.12823658
-0.12318276 -0.26642546 -0.1221723 0.16330951 0.043541327 0.090798445 -0.39906275 0.13330331
0.036407754 0.25081077 -0.22344701 -0.19161572 0.0627794 0.047522426 -0.090586215 0.05319344
0.11679683 -0.11964599 -0.2479318 0.11361892 -0.09433892 0.12616113 0.15878786 0.07196037
0.18029712 0.118059404 -0.18223616 -0.20281121 0.15708575 0.22321075 -0.107820205 -0.3502813
0.29197416 -0.028413558 -0.0982761 -0.19575728 -0.00409759 0.027945353 0.12427032 0.049582027
-0.016788531 -0.23644261 0.027574742 -0.21106215 0.12989832 -0.04154427 -0.22661528 -0.16044559
0.22449382 0.056481335 -0.14945534 -0.08350681 -0.017929738 0.05902024 -0.19809812 0.046873927
0.20787428 0.3728412 -0.08393898 0.18079427 0.18741967 0.1818624 0.015886018 0.017659176
-0.07263788 -0.29228395 -0.21596485 -0.07185609 -0.13046278 -0.29658553 0.1694885 -0.08133877
-0.12571351 0.14812705 0.019660253 -0.12582129 0.24047132 0.037230864 0.012602581 0.12995112
-0.07046056 0.22258405 0.124071926 0.16971612 0.122197606 0.0964191 0.20997015 0.044111963
-0.17756248 -0.41948822 -0.24359089 0.19337659 0.07128231 0.21034887 0.12561665 -0.09346018
0.20280708 0.053766713 -0.24574985 0.12779361 0.28598103 0.0065750014 0.10874833 -0.13820258
0.16365546 0.098535225 -0.12274465 0.11714476 -0.024966825 0.10103812 -0.20154703 0.11752166
0.08912389 0.11113221 -0.11171403 -0.08775313 -0.0069815516 0.04386789 -0.0020791886 -0.26533556
-0.08454854 0.08837966 -0.12872663 0.011000262 -0.048714552 0.22726981 -0.036056004 -0.2184458
0.17564572 0.35835436 -0.0324755 -0.073387496 0.0983213 -0.15003234 -0.053435653 -0.2010989
0.010231024 0.036050092 -0.12263219 0.00032296265 -0.04675633 -0.3644813 -0.20917708 0.04619228
-0.0109458435 -0.17870186 -0.09555435 0.06315841 -0.07453351 0.07225592 -0.0073838616 -0.030665994
0.20501448 0.1515367 -0.20174088 -0.070505545 0.119758345 -0.100514986 -0.31139824 0.28677613
-0.041986044 0.037368372 -0.13777927 0.049525823 0.048534196 -0.0736713 0.14533614 0.026936516
0.01031847 0.05667322 -0.365302 0.2000979 0.39651185 -0.12711951 -0.102423884 -0.24709848
0.22501913 0.03997884 -0.0880088 -0.16306958 0.11881899 -0.24847819 -0.13192828 -0.21897642

lstms.0.bias_ih_l0 f4 [64]
00000000: f2a3 893d ce62 90bb 464f 953d 434d 9d3d
00000010: 5ded fe3c 4d3f 993d d711 953d 0048 993d
00000020: 801b 8d3d c59a 943d 5666 943d 8c1c 853d
00000030: 99b9 7b3d a1d5 9d3d 99b4 813d 2ac6 783d
00000040: 2ac6 6f3d 73b3 9fbb 57eb 8b3d f07a 863d
00000050: 89e7 cf3c ed19 923d 45e8 923d 8eea 8e3d
00000060: 04dc 913d f148 853d 0efc 8a3d 1c6a 6e3d
00000070: f92e 543d 50c1 963d 01e4 733d a903 563d
00000080: 01af eebb ca2a fabc 5c4a 21bc a300 71bc
00000090: 6620 9e3b ec83 f3ba 5bf2 98bb 20e8 cfbc
000000a0: 5722 a73c f7a1 c0bb f6c7 a6ba 5263 04bb
000000b0: 331a eb39 d1e6 38ba c113 123b 5ef0 08bc
000000c0: 8208 8a3d e452 9cbb 27d9 8d3d 7dc7 963d
000000d0: 03d5 cb3c c643 963d cc24 903d fe5b 8e3d
000000e0: 0b28 843d 75b3 943d f204 8d3d 0022 813d
000000f0: 8226 743d 91f4 9e3d de55 803d 5c72 663d
0.06720723 -0.0044063097 0.07290511 0.07680752 0.031119043 0.07482777 0.07278793 0.07484436
0.06890011 0.072560824 0.072460815 0.064995855 0.061456297 0.07706762 0.063332744 0.06073586
0.058538593 -0.004873687 0.06831997 0.06566417 0.02537896 0.07133851 0.07173208 0.069783315
0.07122043 0.06508053 0.06786357 0.058206663 0.05180261 0.0736109 0.059543613 0.052249584
-0.0072840457 -0.030537982 -0.009844389 -0.014709624 0.0048256395 -0.0018578744 -0.004667563 -0.02537924
0.020402117 -0.0058786827 -0.0012724388 -0.00202008 0.00044842213 -0.00070534373 0.0022289606 -0.008358089
0.06739904 -0.0047706235 0.06926184 0.07362268 0.024881845 0.073371455 0.070382684 0.0695114
0.0645295 0.07260791 0.06885709 0.06305313 0.059607036 0.07761491 0.06266378 0.056261405

lstms.0.bias_hh_l0 f4 [64]
00000000: f2a3 893d ce62 90bb 464f 953d 434d 9d3d
00000010: 5ded fe3c 4d3f 993d d711 953d 0048 993d
00000020: 801b 8d3d c59a 943d 5666 943d 8c1c 853d
00000030: 99b9 7b3d a1d5 9d3d 99b4 813d 2ac6 783d
00000040: 2ac6 6f3d 73b3 9fbb 57eb 8b3d f07a 863d
00000050: 89e7 cf3c ed19 923d 45e8 923d 8eea 8e3d
00000060: 04dc 913d f148 853d 0efc 8a3d 1c6a 6e3d
00000070: f92e 543d 50c1 963d 01e4 733d a903 563d
00000080: 01af eebb ca2a fabc 5c4a 21bc a300 71bc
00000090: 6620 9e3b ec83 f3ba 5bf2 98bb 20e8 cfbc
000000a0: 5722 a73c f7a1 c0bb f6c7 a6ba 5263 04bb
000000b0: 331a eb39 d1e6 38ba c113 123b 5ef0 08bc
000000c0: 8208 8a3d e452 9cbb 27d9 8d3d 7dc7 963d
000000d0: 03d5 cb3c c643 963d cc24 903d fe5b 8e3d
000000e0: 0b28 843d 75b3 943d f204 8d3d 0022 813d
000000f0: 8226 743d 91f4 9e3d de55 803d 5c72 663d
0.06720723 -0.0044063097 0.07290511 0.07680752 0.031119043 0.07482777 0.07278793 0.07484436
0.06890011 0.072560824 0.072460815 0.064995855 0.061456297 0.07706762 0.063332744 0.06073586
0.058538593 -0.004873687 0.06831997 0.06566417 0.02537896 0.07133851 0.07173208 0.069783315
0.07122043 0.06508053 0.06786357 0.058206663 0.05180261 0.0736109 0.059543613 0.052249584
-0.0072840457 -0.030537982 -0.009844389 -0.014709624 0.0048256395 -0.0018578744 -0.004667563 -0.02537924
0.020402117 -0.0058786827 -0.0012724388 -0.00202008 0.00044842213 -0.00070534373 0.0022289606 -0.008358089
0.06739904 -0.0047706235 0.06926184 0.07362268 0.024881845 0.073371455 0.070382684 0.0695114
0.0645295 0.07260791 0.06885709 0.06305313 0.059607036 0.07761491 0.06266378 0.056261405

fc.weight f4 [1, 16]
00000000: d2e6 35be 7e5d cc3c fbd1 093e 0ace ae3c
00000010: 9f0f 4dbd ed42 34be 7b73 8a3e e730 26bd
00000020: 446c 09be fe1b e03d 08a9 903e 8579 d33d
00000030: a5f1 3ebe 4380 963e 3c7f 81be cb04 6e3d
-0.17763832 0.024946924 0.13459007 0.021338481 -0.050063726 -0.17603655 0.2704123 -0.04057398
-0.13420206 0.10942839 0.2825396 0.103259124 -0.18646868 0.2939473 -0.25292385 0.05811004
