labs/models_leak/USD/80_32.pth (torch, 19911 bytes, 5 tensors)

lstms.0.weight_ih_l0 f4 [128, 1]
000000 7d c8 e7 3c b8 8c ee bc 2f 2e 14 3e 91 11 4f 3c
       0.028293842 -0.029119834 0.14470743 0.0126384655
000010 1d 5f 35 bd c6 6b e5 bd fb 29 1c 3d 3c 1a 51 bc
       -0.04428016 -0.11202197 0.038125973 -0.012762602
000020 af 8e 43 be 3c 3c b8 3d 34 07 2d be 34 2e 75 3d
       -0.19097398 0.08995864 -0.16897279 0.059858516
000030 c9 0f 08 bd 3d 90 0a 3d e7 06 16 bc 5e 39 5a 3e
       -0.03321818 0.033828963 -0.009156919 0.21310946
000040 ac ae 66 bc 46 a0 b5 bd 26 02 44 be 64 26 f7 3d
       -0.014079731 -0.0886846 -0.19141445 0.12067869
000050 1b de b0 bd a5 91 59 3d 89 fa 69 be be c9 d2 3d
       -0.08636113 0.053117413 -0.22849478 0.102923855
000060 b7 ef c9 3e 27 50 20 be 0c 8d 13 bc 86 fa cb bd
       0.394407 -0.15655576 -0.009005796 -0.09959893
000070 cc ce 5f bc 9b 39 11 bd 02 04 14 3e 34 76 9e 3d
       -0.013660144 -0.035455327 0.14454654 0.07737389
000080 a3 8f a1 3e 34 b6 12 be b9 d1 86 3d 2f d5 08 be
       0.315549 -0.14327317 0.0658297 -0.13362573
000090 82 b2 3a 3d 7b 23 83 3e e7 81 78 3c 02 0a b6 bd
       0.045580395 0.25613007 0.01516769 -0.088886276
0000a0 10 c4 7d be ff cd 4e bd 4c d5 2a 3e a7 d5 a5 bd
       -0.24781823 -0.050489422 0.16682929 -0.080973916
0000b0 fe f5 3f bd e7 42 ee bd 3b 0e e6 3d 94 38 c1 bd
       -0.046865456 -0.11633854 0.11233183 -0.094346195
0000c0 bc 6f f6 bd a8 31 99 37 ed 44 0d be f1 f7 c6 bd
       -0.120330304 1.8262144e-05 -0.13795824 -0.0971526
0000d0 40 64 f7 bb c5 76 39 bd ca c6 2c 3e 72 3d c5 bd
       -0.0075497925 -0.045279283 0.16872707 -0.096308604
0000e0 f1 6b fa 3d 0b 4a 4f 3d 45 a6 f8 bc 32 d4 a0 bd
       0.122276194 0.050607722 -0.030352721 -0.07852973
0000f0 c1 c3 ba 3d 7f 7d 00 3e 2b 0f 8f bd bf 1b 1e 3e
       0.09119368 0.12547873 -0.06985315 0.15440272
000100 55 1f 5e 3e ee ae 3f 3e 18 e8 2e be 0c 82 cb 3d
       0.2169164 0.18719074 -0.17080724 0.09936914
000110 87 2c 3d be a6 40 52 3e f5 5d 1e 3e f5 80 a6 3d
       -0.18474017 0.20532474 0.1546553 0.08130065
000120 5a be 80 be 9f 86 0c be 5b 8a 55 bd b4 c5 41 be
       -0.25145227 -0.13723229 -0.0521339 -0.18923074
000130 77 93 ba bc 8a a5 83 3d 35 7d 3d 3e f4 b7 0d be
       -0.022775395 0.064280584 0.18504794 -0.13839704
000140 e7 48 4c 3c 24 52 92 3e 3e 33 73 3e 93 5c f4 3d
       0.012468553 0.28578293 0.23750016 0.1193172
000150 46 ef 93 bd c4 e5 ef 3d d3 69 d8 bd dd d3 e6 bd
       -0.07223372 0.11713746 -0.10567059 -0.112708785
000160 cb 8b 25 3e b0 14 03 bd d3 5d c8 3e a9 e3 a0 bd
       0.16166608 -0.03200215 0.39134082 -0.07855923
000170 7c 6c d8 3d ca e6 0f 3e 31 77 10 bd 54 f9 80 bd
       0.10567567 0.14052883 -0.03526992 -0.062975556
000180 3d 2c d6 bd 0f 52 f1 3d 15 32 0e 3c 9c c2 75 bc
       -0.104576565 0.117832296 0.008678933 -0.015000012
000190 f0 e0 14 3d e3 53 cd bc 43 06 05 bd 25 80 c6 bd
       0.03634733 -0.025064414 -0.032476675 -0.096924104
0001a0 26 eb 46 be f3 46 6a be c9 76 4e be 67 d4 f0 bd
       -0.1942564 -0.22878627 -0.201625 -0.117592625
0001b0 95 76 80 3d 89 c9 e8 3d 15 54 ce bc 0b d1 da 3c
       0.06272618 0.11366565 -0.025186578 0.026711008
0001c0 30 e6 c1 3c 9d 8d d9 bd 8d 01 0c ba a1 2e 72 3e
       0.023669332 -0.10622714 -0.0005340807 0.236506
0001d0 9a 1a 35 3e 30 3f d9 bd ed 2f b1 3b 86 e0 bb bd
       0.17685929 -0.10607755 0.0054073245 -0.09173684
0001e0 2a 40 ee 3d a9 ab 11 bd 1f 9c 77 3e fc d1 85 bd
       0.11633332 -0.0355641 0.24180649 -0.06534192
0001f0 c7 51 a4 3d d0 50 85 bc 36 af 83 3c 53 19 ef 3d
       0.0802341 -0.016273886 0.016074758 0.11674752

lstms.0.weight_hh_l0 f4 [128, 32]
000000 18 14 c1 bd 0f 86 45 bc 02 59 bf 3c b9 72 55 3d
       -0.09427661 -0.012055888 0.023357872 0.05211136
000010 e2 a2 22 bb 70 30 28 be 55 0a 2c 3e df d9 a8 bd
       -0.0024816324 -0.16424727 0.16800816 -0.082446806
000020 24 fb e3 3d 0a 79 b6 bd 56 54 ba bd 77 c7 9a bd
       0.11131886 -0.08909805 -0.09098117 -0.07557576
000030 17 1f 57 bc 92 2b 98 bd 44 44 03 3e 71 26 62 3d
       -0.013129971 -0.074301854 0.1281901 0.05521244
000040 b1 b6 08 3d 79 e9 bd 3d 31 e8 7b bd 0d eb 68 bc
       0.033377353 0.09273047 -0.06150073 -0.014216197
000050 50 bd 41 be 60 c3 74 bd 21 fe 92 bc 99 c3 6d bd
       -0.18919873 -0.059756637 -0.017943444 -0.058047865
000060 39 d6 47 3e 5d f5 5d bb 4b f7 a9 bc 3d 7f 4c bd
       0.19515313 -0.0033868172 -0.020747801 -0.04992603
000070 6e eb 54 3b c5 b4 fc bd 18 fd 7b be f6 01 8a be
       0.003248896 -0.123391666 -0.24608266 -0.2695462
000080 6c ba 6e be 3b ed 10 bd 02 ae af 3d 73 27 a0 3d
       -0.23313302 -0.03538249 0.08578111 0.07820024
000090 bc 44 6a be b4 cd 08 3d 2a 38 d6 bd a6 ec 69 3e
       -0.22877783 0.0333993 -0.10459931 0.2284418
0000a0 e6 42 8e 3e 83 76 3a be b2 a9 80 3e bc f5 26 bd
       0.27785414 -0.18209271 0.25129467 -0.040761694
0000b0 37 e9 1e 3e e4 12 00 3e a9 9f f9 bc 51 75 31 3d
       0.15518652 0.12507206 -0.03047164 0.043324772
0000c0 92 36 c2 3d 3f bf 2e bd 20 af 13 bd 24 d6 94 3c
       0.09483065 -0.042662855 -0.036055684 0.018168516
0000d0 a3 8c 1b 3e 0b 10 64 3d 6d 1c ed 3d 91 1c 3f 3e
       0.15190367 0.055679362 0.115776874 0.18663241
0000e0 4e 1d 33 bc 7f 80 b7 3b 20 66 67 3d 61 09 7d bd
       -0.01093228 0.0056000347 0.05649388 -0.061776523
0000f0 21 c3 bb bc d8 51 bb 3c 23 7f 81 bd b6 7c 48 be
       -0.022920193 0.022866175 -0.063230775 -0.19578823
000100 b4 d4 bc 3d 3c 14 3c be 84 e2 a4 bd 60 05 3e 3c
       0.092202574 -0.18367094 -0.08051017 0.011597961
000110 73 dd f2 3c a6 a3 a0 bd 8b dc 33 bd b5 f2 e2 bd
       0.02964661 -0.078437135 -0.043911498 -0.11081449
000120 f8 91 f1 3c 01 78 3b 3e 20 3c c5 bd fb ac 5d 3d
       0.029488549 0.18307497 -0.096306086 0.054120045
000130 fb 0f bf bd 3c 12 84 3d 6f ab b7 3d dc d7 c5 3d
       -0.0932922 0.064487904 0.08968245 0.096603125
000140 22 ac 0f 3e 4e 8a fa bd 6e 64 04 bd 40 1b 3c bd
       0.14030507 -0.12233411 -0.03232234 -0.045924425
000150 86 56 61 3d 83 1a 09 be c0 8e 1f 3d f6 d1 39 be
       0.055014156 -0.1338902 0.038954496 -0.181465
000160 f9 f0 97 3d 1b 48 32 bd 2e 27 b8 3d 5c 12 81 3d
       0.07419009 -0.043525796 0.08991848 0.0630233
000170 7c 75 0e be 2f f7 03 3d db 2f f6 3d 2e 88 92 bc
       -0.13912004 0.032218155 0.120208465 -0.017887201
000180 dc 02 d4 3c fd e7 e9 3c ae 34 aa 3d 37 a2 95 bd
       0.02588027 0.028553003 0.08310829 -0.07306331
000190 79 31 9c bd 9e 09 1b be cc 0b 60 bd 38 ce 3a be
       -0.07626624 -0.15140387 -0.05469875 -0.18242729
0001a0 f8 b6 1d 3e 0a 34 82 be a9 ca 80 bd 0b c7 37 3e
       0.15401828 -0.25430328 -0.06288654 0.17947023
0001b0 f7 43 b7 3d 74 88 b6 3d 99 aa fa 3d a0 d6 b0 3c
       0.0894851 0.08912745 0.1223957 0.021586716
0001c0 5e 7a b1 3e 50 bb 10 be 65 ca 62 3d f6 9e 91 bc
       0.3466367 -0.14133954 0.0553688 -0.017775994
0001d0 2e 28 fb 3b 4f c8 01 be 13 d8 fd 3d c1 b4 cf bc
       0.007664702 -0.12674068 0.123947285 -0.025354745
0001e0 96 fa c2 bd 6f 5c e2 3c cd 2a 17 be 98 8d 8c 3e
       -0.09520452 0.027631966 -0.14762421 0.27451777
0001f0 fd 1f 1a 3c 9f 4b d0 bd be 31 8a bd fb 6f 2a be
       0.009407041 -0.101706736 -0.06747769 -0.1664428
000200 04 c2 07 3e cb df 64 3d df 73 1a 3e c8 89 19 be
       0.13257605 0.055877488 0.15083264 -0.14993966
000210 80 30 59 bd 49 f1 2c 3e 05 02 ba 3b 74 ac be 3d
       -0.05302477 0.16888918 0.0056765103 0.093102366
000220 ee 56 97 bd 1b 95 db bc 91 d9 75 bd bd fe 2b 3d
       -0.073896274 -0.026804497 -0.06002194 0.041990984
000230 6c 5d 47 be 3b 36 9c 3d bb 35 05 be c6 65 85 3d
       -0.19469231 0.07627531 -0.13008778 0.06513552
000240 8b 7e 98 bd b7 37 38 3d 65 2b 01 bc 82 04 5c be
       -0.07446011 0.04497501 -0.007883881 -0.21486095
000250 3e e7 a3 bd 0a 3b 63 bd 57 96 16 3d ff e9 4c bd
       -0.0800309 -0.055476226 0.03676447 -0.050027844
000260 af 46 1a 3d 4d 54 c1 3d b7 89 f2 3b b7 4a 0c 3d
       0.037665065 0.09439907 0.007401671 0.03425094
000270 d8 96 92 3d 6d 2e 2b be 1e 9a 54 bc ba 88 10 bc
       0.071576774 -0.16716929 -0.0129761975 -0.008821661
000280 39 57 c6 bc 0b ff 02 3d 1c b1 a0 3e 48 c1 44 bd
       -0.024211513 0.03198151 0.31385124 -0.04803589
000290 95 79 06 3c db ab 67 3e 34 2b 5f bd ad 27 d7 3d
       0.008207698 0.22624151 -0.05448456 0.105056144
0002a0 3f 04 57 bc 1f 0c d1 3d 4e e0 a5 3c cd be 4a be
       -0.013123571 0.1020739 0.020248558 -0.19799347
0002b0 12 76 a3 3d f7 d8 ac 3d 7b 4d 9e bd 40 4e b6 ba
       0.079815045 0.0843982 -0.07729622 -0.0013908818
0002c0 c6 94 db bc e4 20 13 be 9f b3 ea 3c 23 44 46 bd
       -0.02680434 -0.14368016 0.028650103 -0.048404824
0002d0 5b 4c 09 3d e0 f7 c3 bc 9a 17 7f 3d 6b 1f 94 bd
       0.033520084 -0.023921907 0.062278368 -0.07232555
0002e0 04 10 17 3e d5 e0 61 bd b5 cd 5d bd 6a 19 42 3b
       0.14752203 -0.055146057 -0.054151256 0.0029617199
0002f0 a7 e4 5c bc 87 25 09 3e a2 88 d4 bd ac 57 31 3d
       -0.013482249 0.13393222 -0.10377623 0.0432965
000300 51 72 60 3e 93 84 c4 bd 87 21 fa 3c 37 de 17 3e
       0.21918608 -0.09595599 0.030533565 0.14830862
000310 98 13 82 bc 4e 9d 0a 3e 02 14 f1 bb c5 33 c2 bc
       -0.015878484 0.1353657 -0.0073571214 -0.023706326
000320 df 44 92 3d 80 30 89 bc b7 d1 73 3d 1e ae 05 bd
       0.07142042 -0.01674676 0.05952617 -0.032636754
000330 55 c2 ad bd a2 a1 87 bd e7 94 be bd d6 bc 5e 3d
       -0.084843315 -0.06622626 -0.093057446 0.054379307
000340 98 c2 20 bd 73 87 63 bd dd d1 cd bd 50 b2 3c 3d
       -0.03924808 -0.055549096 -0.10049794 0.04606849
000350 a5 1a 01 be 3d 09 9a 3d 1b 71 3f bc 8f 07 e4 bd
       -0.1260782 0.07521293 -0.011684681 -0.11134254
000360 e3 5a d5 bd 5a f8 73 3e 8c 70 0b bc 0a 6a f9 3d
       -0.10417726 0.23825207 -0.00851072 0.121784285
000370 ed c1 39 bc 7b 70 8d 3d e7 5e 9b 3d 63 f0 e6 ba
       -0.011337739 0.069062196 0.075864606 -0.0017619248
000380 ff cc 3a bc d1 a8 40 bd f4 bf c8 bc 3d 21 93 3d
       -0.011401414 -0.047035996 -0.024505593 0.07184074
000390 ee d2 ad 3c 85 f0 23 3c 42 9c 39 be 62 1e 23 be
       0.021218743 0.010006075 -0.18126014 -0.15929559
0003a0 64 59 8c bd 90 e1 ba bd 42 c0 1d 3e c4 c1 5d 3d
       -0.068529874 -0.09125054 0.15405372 0.054139867
0003b0 5c f8 a9 3d f8 28 38 3d 80 62 c5 3c 67 77 5a bd
       0.08299324 0.044960946 0.02409482 -0.053336527
0003c0 9e fb bc 3d 95 35 23 3b 48 5f 3b 3d 25 84 94 bd
       0.0922768 0.0024903764 0.045745164 -0.07251767
0003d0 d1 a6 93 3c d2 ec 5c be c5 d9 86 be ea 47 e9 bd
       0.01802388 -0.21574715 -0.2633802 -0.1139067
0003e0 0d a5 55 be aa 58 48 3a e9 42 2f bb ee 1c 29 bd
       -0.20863743 0.00076426065 -0.0026742762 -0.041287355
0003f0 29 c5 90 3d 57 9d f6 3a 1e be ab 3d 3c 4e 5c 3d
       0.07068855 0.0018815201 0.08385871 0.053785548

lstms.0.bias_ih_l0 f4 [128]
000000 63 8c 58 3d 31 d6 66 3d 25 e1 82 3d a1 89 3a 3d
       0.05286826 0.056356613 0.06390599 0.04554141
000010 16 8f 39 bc d4 c7 5b 3d 57 03 2d 3d 5a ad e7 bc
       -0.011325618 0.053657368 0.042239513 -0.028280903
000020 13 a9 55 3d 6b ea 65 bc 24 9e 44 3d 43 f6 5e 3d
       0.052163195 -0.01403294 0.048002377 0.054434072
000030 ba 83 0a 3d 32 d3 6d 3d 73 78 07 bd 7f 47 a0 3d
       0.03381703 0.05806274 -0.033073854 0.07826137
000040 97 75 0f 3d 2a 72 4a 3d 1c 78 4c 3d 88 7d d4 bc
       0.03502425 0.04942528 0.049919233 -0.025938764
000050 38 cf 41 3d b3 b8 d2 3c 0a ca 51 3d 3b c4 88 3d
       0.04731676 0.025722837 0.05121807 0.06678053
000060 e5 2f 0c 3b ad 6d 89 bc 2e cd 50 3d c8 71 6e 3d
       0.0021390852 -0.01677593 0.050976925 0.05821398
000070 37 5c 26 3d c1 3b 77 3d 97 f9 0c bd 54 04 4a 3d
       0.040615287 0.06035972 -0.034417715 0.049320534
000080 77 84 4b 3d 7a 0c 3b 3d cd cd 71 3d e6 3d 1c 3d
       0.049686875 0.045666195 0.059034158 0.03814497
000090 3a eb 54 bc ee 27 4a 3d cc 3e 18 3d 87 65 ea bc
       -0.0129955355 0.049354486 0.037169263 -0.028612865
0000a0 89 a1 36 3d 61 7e 7a bc 4d 29 27 3d 48 c4 41 3d
       0.044587646 -0.01528892 0.040810872 0.04730633
0000b0 a9 c3 a6 3c f5 33 38 3d 43 8f 06 bd f6 b7 8d 3d
       0.02035697 0.044971425 -0.03285147 0.069198534
0000c0 8f 1f b6 3c 9f 13 39 3d e7 ee 31 3d 9c f9 d2 bc
       0.022231845 0.045184728 0.043440726 -0.025753789
0000d0 24 59 26 3d d4 81 5d 3c 0a 38 2e 3d dc 3c 62 3d
       0.040612355 0.013519723 0.04253391 0.05523382
0000e0 b1 1c b1 3b a6 27 b0 bc a4 6f 3d 3d 2c 41 3a 3d
       0.0054050316 -0.02150328 0.046249047 0.04547231
0000f0 44 a9 07 3d 74 02 58 3d a5 df 0f bd 44 b5 2f 3d
       0.03312041 0.052736714 -0.035125393 0.042897478
000100 c5 c1 84 3b 76 50 08 bb 28 a3 18 3b bc 3a d1 bb
       0.0040514194 -0.0020799912 0.0023290608 -0.0063851755
000110 c7 14 b8 bb 92 bd 8b 3a 0f 72 d5 3a eb 7a fe 3b
       -0.005617711 0.0010661355 0.0016284602 0.007766118
000120 70 91 0f 3c c3 e9 85 bc ba 12 d3 3b 2f 03 78 bb
       0.008762702 -0.016346818 0.0064414414 -0.0037843694
000130 1b 58 0b bb e7 1c 59 3b 90 bc 18 39 d3 bd d6 bb
       -0.0021262232 0.00331288 0.00014566095 -0.0065533905
000140 1d 73 09 ba e6 c6 2f 39 f9 ea 08 bc e4 82 b8 bb
       -0.00052432885 0.00016763396 -0.008356803 -0.0056308378
000150 a7 04 13 bd e8 e4 d3 bb 85 03 19 3b 86 62 ab 3a
       -0.03589311 -0.0064664967 0.0023348045 0.0013075627
000160 ab bd 02 3d 63 a6 49 3b 8d 0a 8a 3b ec 5b b5 3b
       0.031919163 0.003076934 0.0042126835 0.0055346396
000170 22 bb 46 37 f3 15 4b 3b 3c 67 a8 bb 0a 8e 24 bc
       1.184529e-05 0.0030988425 -0.0051392596 -0.01004363
000180 43 74 66 3d 21 64 54 3d 93 ee 8c 3d e4 06 3e 3d
       0.05626322 0.051853303 0.06881442 0.04639329
000190 a4 ae 3e bc 5f 64 60 3d f0 8a 2e 3d 8f 45 e8 bc
       -0.011638317 0.05478322 0.04261297 -0.02835348
0001a0 f9 e2 52 3d 14 65 49 bc ed 01 44 3d ec 87 63 3d
       0.05148599 -0.012292165 0.0478534 0.055549547
0001b0 eb 95 d5 3c c9 bf 67 3d b6 87 07 bd 35 aa a0 3d
       0.026072463 0.056579385 -0.03308841 0.078449644
0001c0 03 99 f7 3c a8 46 57 3d 2c 81 49 3d 39 c9 d2 bc
       0.030224329 0.052557617 0.049195454 -0.025730716
0001d0 c2 c6 38 3d 5e 10 c4 3c 92 dd 43 3d a0 29 8f 3d
       0.045111425 0.023933586 0.047818728 0.06990361
0001e0 7d 13 bb 3b fd 54 81 bc bd f6 4d 3d 1d 3a 67 3d
       0.0057091103 -0.015787596 0.050284136 0.056451906
0001f0 e4 4e 1c 3d c8 bb 6f 3d a3 53 0d bd bc f3 42 3d
       0.038161173 0.05852869 -0.03450359 0.047595724

lstms.0.bias_hh_l0 f4 [128]
000000 63 8c 58 3d 31 d6 66 3d 25 e1 82 3d a1 89 3a 3d
       0.05286826 0.056356613 0.06390599 0.04554141
000010 16 8f 39 bc d4 c7 5b 3d 57 03 2d 3d 5a ad e7 bc
       -0.011325618 0.053657368 0.042239513 -0.028280903
000020 13 a9 55 3d 6b ea 65 bc 24 9e 44 3d 43 f6 5e 3d
       0.052163195 -0.01403294 0.048002377 0.054434072
000030 ba 83 0a 3d 32 d3 6d 3d 73 78 07 bd 7f 47 a0 3d
       0.03381703 0.05806274 -0.033073854 0.07826137
000040 97 75 0f 3d 2a 72 4a 3d 1c 78 4c 3d 88 7d d4 bc
       0.03502425 0.04942528 0.049919233 -0.025938764
000050 38 cf 41 3d b3 b8 d2 3c 0a ca 51 3d 3b c4 88 3d
       0.04731676 0.025722837 0.05121807 0.06678053
000060 e5 2f 0c 3b ad 6d 89 bc 2e cd 50 3d c8 71 6e 3d
       0.0021390852 -0.01677593 0.050976925 0.05821398
000070 37 5c 26 3d c1 3b 77 3d 97 f9 0c bd 54 04 4a 3d
       0.040615287 0.06035972 -0.034417715 0.049320534
000080 77 84 4b 3d 7a 0c 3b 3d cd cd 71 3d e6 3d 1c 3d
       0.049686875 0.045666195 0.059034158 0.03814497
000090 3a eb 54 bc ee 27 4a 3d cc 3e 18 3d 87 65 ea bc
       -0.0129955355 0.049354486 0.037169263 -0.028612865
0000a0 89 a1 36 3d 61 7e 7a bc 4d 29 27 3d 48 c4 41 3d
       0.044587646 -0.01528892 0.040810872 0.04730633
0000b0 a9 c3 a6 3c f5 33 38 3d 43 8f 06 bd f6 b7 8d 3d
       0.02035697 0.044971425 -0.03285147 0.069198534
0000c0 8f 1f b6 3c 9f 13 39 3d e7 ee 31 3d 9c f9 d2 bc
       0.022231845 0.045184728 0.043440726 -0.025753789
0000d0 24 59 26 3d d4 81 5d 3c 0a 38 2e 3d dc 3c 62 3d
       0.040612355 0.013519723 0.04253391 0.05523382
0000e0 b1 1c b1 3b a6 27 b0 bc a4 6f 3d 3d 2c 41 3a 3d
       0.0054050316 -0.02150328 0.046249047 0.04547231
0000f0 44 a9 07 3d 74 02 58 3d a5 df 0f bd 44 b5 2f 3d
       0.03312041 0.052736714 -0.035125393 0.042897478
000100 c5 c1 84 3b 76 50 08 bb 28 a3 18 3b bc 3a d1 bb
       0.0040514194 -0.0020799912 0.0023290608 -0.0063851755
000110 c7 14 b8 bb 92 bd 8b 3a 0f 72 d5 3a eb 7a fe 3b
       -0.005617711 0.0010661355 0.0016284602 0.007766118
000120 70 91 0f 3c c3 e9 85 bc ba 12 d3 3b 2f 03 78 bb
       0.008762702 -0.016346818 0.0064414414 -0.0037843694
000130 1b 58 0b bb e7 1c 59 3b 90 bc 18 39 d3 bd d6 bb
       -0.0021262232 0.00331288 0.00014566095 -0.0065533905
000140 1d 73 09 ba e6 c6 2f 39 f9 ea 08 bc e4 82 b8 bb
       -0.00052432885 0.00016763396 -0.008356803 -0.0056308378
000150 a7 04 13 bd e8 e4 d3 bb 85 03 19 3b 86 62 ab 3a
       -0.03589311 -0.0064664967 0.0023348045 0.0013075627
000160 ab bd 02 3d 63 a6 49 3b 8d 0a 8a 3b ec 5b b5 3b
       0.031919163 0.003076934 0.0042126835 0.0055346396
000170 22 bb 46 37 f3 15 4b 3b 3c 67 a8 bb 0a 8e 24 bc
       1.184529e-05 0.0030988425 -0.0051392596 -0.01004363
000180 43 74 66 3d 21 64 54 3d 93 ee 8c 3d e4 06 3e 3d
       0.05626322 0.051853303 0.06881442 0.04639329
000190 a4 ae 3e bc 5f 64 60 3d f0 8a 2e 3d 8f 45 e8 bc
       -0.011638317 0.05478322 0.04261297 -0.02835348
0001a0 f9 e2 52 3d 14 65 49 bc ed 01 44 3d ec 87 63 3d
       0.05148599 -0.012292165 0.0478534 0.055549547
0001b0 eb 95 d5 3c c9 bf 67 3d b6 87 07 bd 35 aa a0 3d
       0.026072463 0.056579385 -0.03308841 0.078449644
0001c0 03 99 f7 3c a8 46 57 3d 2c 81 49 3d 39 c9 d2 bc
       0.030224329 0.052557617 0.049195454 -0.025730716
0001d0 c2 c6 38 3d 5e 10 c4 3c 92 dd 43 3d a0 29 8f 3d
       0.045111425 0.023933586 0.047818728 0.06990361
0001e0 7d 13 bb 3b fd 54 81 bc bd f6 4d 3d 1d 3a 67 3d
       0.0057091103 -0.015787596 0.050284136 0.056451906
0001f0 e4 4e 1c 3d c8 bb 6f 3d a3 53 0d bd bc f3 42 3d
       0.038161173 0.05852869 -0.03450359 0.047595724

fc.weight f4 [1, 32]
000000 92 e7 25 3e 7b 74 4d 3e 6f e1 3b bd c8 d7 0a 3e
       0.16201618 0.20063965 -0.045869287 0.13558877
000010 40 1a 77 bd cd c7 3c 3e bd 23 e3 3c 34 c1 ab ba
       -0.06032777 0.18435593 0.027727002 -0.0013103844
000020 8b c0 4f be 7b 23 9d 3c da cb 5c be f2 1b ac bd
       -0.20288293 0.019181957 -0.21562138 -0.08403768
000030 82 97 5f be 40 4d 6d 3e bc 31 b1 bd 3d 15 43 be
       -0.2183514 0.23174 -0.08652064 -0.1905107
000040 6a 42 fb 3d 35 0b 15 3e e2 2e 1a 3e 1c 88 76 bd
       0.12268527 0.14555056 0.15056947 -0.060188398
000050 e6 4f 68 bd c9 c5 52 3e 35 22 bc bd 65 15 0d be
       -0.056716822 0.20583262 -0.09186212 -0.13777693
000060 79 d1 ae bc 50 0a fa bd 77 e1 27 3e 4c 57 32 be
       -0.021340119 -0.12208998 0.16394602 -0.17416114
000070 52 44 46 3d 73 1a 39 3e 0e 8a 94 bd 80 03 7d be
       0.048405 0.18076496 -0.07252894 -0.24708366
