labs/models/USD/10_32.pth (torch, 19911 bytes, 5 tensors)

lstms.0.weight_ih_l0 f4 [128, 1]
000000 4b 89 ad bd 36 0c be 3d 9a df c6 bd db bd 6d 3d
       -0.08473452 0.09279673 -0.09710617 0.05804239
000010 17 31 b1 bd 2e fd 50 3d 83 da 83 3b a4 00 11 be
       -0.08651941 0.0510227 0.0040238514 -0.141604
000020 69 fa e7 bd 01 9c 1e bc 88 0a 2c 3e 9f a1 4d 3d
       -0.11327059 -0.009680749 0.16800892 0.050202962
000030 c6 af 8d 3d 24 d4 61 bd d1 9a 94 bd 29 cb d8 3d
       0.06918292 -0.055133954 -0.072560914 0.10585625
000040 77 83 19 3e c7 fb 2e 3e 04 83 78 bd 2c c2 8f be
       0.14991556 0.17088233 -0.06067182 -0.2807783
000050 08 7c e9 bb b6 f0 85 bd a1 1c 40 bd 33 54 8a be
       -0.0071253814 -0.065400526 -0.046902303 -0.27017364
000060 f3 98 54 bd c9 81 25 3e 94 d9 6c be 79 4d b7 bd
       -0.051903676 0.1616279 -0.23129874 -0.089503236
000070 e5 6f bc 3d 32 14 ca bd ad 61 6a be 7c c7 64 bd
       0.0920103 -0.09867133 -0.22888823 -0.055854306
000080 79 e3 7c be 6a dd 1f 3c 2f e6 a9 bd b3 3a 7a be
       -0.24696149 0.009757379 -0.08295857 -0.24436454
000090 6d 62 b1 3d d8 b8 83 bd a7 99 89 bd 85 31 ec bd
       0.08661351 -0.064317405 -0.0671876 -0.115328826
0000a0 57 54 4c be 34 3d a9 bc d6 fa 17 3e 71 44 37 3e
       -0.19954048 -0.020659067 0.1484178 0.17897202
0000b0 cc 08 70 3e 6a 70 ed bd d5 56 b2 3d 38 84 b7 bc
       0.23440856 -0.11593707 0.08707968 -0.022401914
0000c0 40 c2 32 3e 77 59 fc 3d 89 f8 45 bc db 9b 28 bd
       0.17456913 0.123217516 -0.012083181 -0.04116426
0000d0 4b 64 87 3d ff 3d b1 be 41 16 59 3d 5b d9 17 be
       0.06610926 -0.34617612 0.05299974 -0.14829008
0000e0 ec 66 b8 3d 37 b7 a9 bd 2b 6b 52 3d 19 31 eb bd
       0.09004006 -0.082868986 0.051371735 -0.11483974
0000f0 77 e6 32 3d 35 d8 0b be 82 04 fe 3d 89 3d d3 bd
       0.04367682 -0.13656695 0.124032035 -0.10314471
000100 4c bc 0f 3e 46 b9 84 3d ed f9 c4 3e 6f bb 81 be
       0.14036673 0.064806506 0.38471928 -0.25338313
000110 3f f6 86 3d 9d bf 48 3d 97 df c5 3e 72 56 09 3d
       0.065899365 0.04901086 0.38647148 0.033529706
000120 21 8e 8c 3d e3 b2 94 be 35 fb 0e be 87 77 61 be
       0.068630464 -0.2904273 -0.13963015 -0.22018252
000130 7c 27 80 3e 4d 2b de bd b4 19 2e be aa 44 24 3d
       0.25030124 -0.10848103 -0.17001992 0.040104546
000140 c0 31 d9 bd 2c d7 27 be 81 4f 3b bd 62 f9 a0 bc
       -0.10605192 -0.16390675 -0.045730118 -0.019650165
000150 b5 0a 43 3d b9 d4 0c be dd ff eb 3d f9 5e 10 be
       0.047617633 -0.13753022 0.115234114 -0.14098729
000160 d6 8f 46 3e 9f 29 56 be 4d 33 8c be 11 8c 47 bd
       0.19390807 -0.20914315 -0.2738289 -0.048717562
000170 55 c8 38 3d 2f 7d e0 bd 0b 8b 28 3e 22 ef 39 3e
       0.045112927 -0.10961377 0.1645929 0.18157628
000180 46 48 ad 3c 54 08 46 be 21 bb 76 be 77 ab 12 be
       0.021152627 -0.19339114 -0.24094822 -0.14323221
000190 c3 e7 66 be e0 62 2f 3e 7c 7a e5 bd cc 87 44 be
       -0.22549348 0.17127562 -0.11205003 -0.19192427
0001a0 9b 4a a6 bd 80 9f 13 3d 5a 90 38 3e aa 0b 3a 3e
       -0.081196986 0.036040783 0.18023816 0.18168512
0001b0 4f b1 4b 3e f6 38 46 3c 17 94 8a bd eb 75 62 3c
       0.19891857 0.0120985415 -0.06766527 0.013822059
0001c0 7b 23 22 3c 0b 52 73 be ba b6 73 bd e6 b2 62 3d
       0.0098961545 -0.23761766 -0.059500434 0.055346392
0001d0 a3 e3 05 bd 8d c4 8f bd 9c d6 35 be e8 e6 a0 be
       -0.032687794 -0.07019911 -0.17757648 -0.31426167
0001e0 0e 70 09 be b3 9e db 3d d4 41 d3 bd d6 49 1e 3e
       -0.13421652 0.10723629 -0.1031529 0.15457854
0001f0 12 a0 65 bd 84 f6 98 bc 7e b2 d3 bd 03 7f f5 bd
       -0.056060858 -0.018672235 -0.10336779 -0.11987116

lstms.0.weight_hh_l0 f4 [128, 32]
000000 f5 a3 81 3d 4e fc da bd b4 a7 d6 bc 33 2c 0d be
       0.063301004 -0.106926546 -0.026203014 -0.13786392
000010 a0 73 36 bb 62 f5 ee 3d f1 ea 65 3e 83 44 05 bd
       -0.0027839914 0.11667897 0.22452904 -0.03253604
000020 4b 6f 99 bc 19 1f 87 be 91 24 81 be 4f ff c3 bd
       -0.018729826 -0.26390913 -0.2522321 -0.095701806
000030 50 85 15 3e 0b 4f a2 bc cf 8a 74 bd f2 40 26 3d
       0.14601636 -0.019813081 -0.05970269 0.04058928
000040 0a bc a6 3d aa d3 99 bc ec b5 05 be 8a ac 75 3e
       0.08141334 -0.018777687 -0.13057679 0.239916
000050 f2 82 06 3e a2 c4 df bc f2 38 7e 3e 6a 0a 17 bd
       0.13135889 -0.027315442 0.2482641 -0.036875166
000060 93 5a 9e bd 2b a6 6a bd 63 bb 22 bd 25 07 78 be
       -0.077321194 -0.057287376 -0.039729487 -0.24221475
000070 fb b4 85 3d e1 db 35 be a3 5e 2b 3d 6c 63 ec bd
       0.0652866 -0.17759658 0.0418383 -0.11542401
000080 a9 d6 b0 3d 44 01 6c bd 67 66 f6 bd 79 70 8d 3d
       0.08634693 -0.057618394 -0.120312504 0.06906218
000090 4f 20 fc bc ea 9d 38 be 77 07 e1 bb 51 f8 fd bc
       -0.030777125 -0.1802899 -0.006867345 -0.031002196
0000a0 37 23 a1 3d 57 e8 1d 3d 72 b3 2a 3e 73 2c ab bd
       0.07868045 0.038551655 0.16670015 -0.083580874
0000b0 df 30 bf bd 92 ae 17 3d 3f b1 d8 3c 7d 17 16 be
       -0.09335493 0.037031718 0.026451705 -0.14657398
0000c0 6a d8 1e be 56 67 d2 39 97 63 3a 3e 5d 90 19 bd
       -0.15512243 0.00040131313 0.18202053 -0.03749119
0000d0 01 bf 3f bb a2 3b a5 bd c4 0d 6e 3c 63 3d b9 bc
       -0.0029258134 -0.08068015 0.014529649 -0.02261228
0000e0 4a a1 c4 bd ad ec 3b 3e 99 d7 cb 3d cb 03 91 3d
       -0.09601076 0.18352003 0.09953231 0.070808016
0000f0 a4 a7 a7 bc f1 af 26 bc f2 08 05 bd d1 00 32 bd
       -0.02046568 -0.010173784 -0.032479234 -0.04345781
000100 0d f8 6b bd 59 f8 3e bd a0 83 04 bd c9 8d b2 3d
       -0.057609607 -0.04662356 -0.03235209 0.087184496
000110 3c 48 77 be f9 e0 17 3e 11 b5 51 bc a8 7b 84 3d
       -0.24148649 0.14831914 -0.012799517 0.06468898
000120 dc 71 5a 3c 4a 94 2f be 05 b5 60 bc bc c0 47 3d
       0.01333281 -0.17146412 -0.013715033 0.04876779
000130 c4 2a 0d 3e 56 09 c6 3d df d4 b7 3d e3 ac 98 3d
       0.13785845 0.096697494 0.08976149 0.074548505
000140 07 a5 a9 3e 19 a3 1e 3e 57 31 50 3e 5f f7 84 ba
       0.33133718 0.15491904 0.20331322 -0.0010144523
000150 c3 41 a7 3d fd de b7 bd c6 62 63 3d a4 61 49 3e
       0.0816684 -0.089780785 0.05551412 0.19666153
000160 7d b9 66 bd 6d 23 08 3e 2a 01 14 3e 20 f6 ab bd
       -0.05632924 0.13294764 0.14453569 -0.08396554
000170 5a 30 3d 3c 7d b3 0d 3b 7b 83 fe 3d 7e 88 49 be
       0.011547172 0.0021621876 0.12427422 -0.19680974
000180 63 00 4e bd 64 01 a3 bc 56 c7 c1 bd dd ae 89 3e
       -0.050293338 -0.019898124 -0.094618484 0.26891223
000190 84 3a 06 3e 0c de 3e 3d d3 7c 25 be 84 50 91 bc
       0.1310826 0.04659848 -0.16160898 -0.017738588
0001a0 ed a5 c3 3d 43 cf 38 bc 60 e7 7e be 21 c7 bd bd
       0.09553132 -0.011279884 -0.2489295 -0.092664964
0001b0 e7 76 dd 3c b0 eb 9f 3e 64 6e 04 3e 6a 3a ef bd
       0.027034236 0.31234503 0.12932736 -0.116810635
0001c0 c6 26 0d be 2d d0 9f bc bd bd 52 ba 27 b3 b3 bd
       -0.13784322 -0.019508446 -0.00080391375 -0.08774405
0001d0 20 b7 ad bd 02 81 70 bd f6 a1 a4 be c1 a3 68 bd
       -0.08482194 -0.05871678 -0.32154816 -0.056796793
0001e0 09 55 f1 bd fb 9b 73 3e 4e 98 13 bd 34 1f 38 be
       -0.11783797 0.2378997 -0.03603392 -0.17980653
0001f0 08 67 67 3d 82 57 ef bb ab 23 2d 3e 9c 40 3c bd
       0.056494743 -0.007304133 0.16908138 -0.045960054
000200 81 4d 32 be 19 5b 22 3e 4e a3 de bd 78 60 7c be
       -0.17412378 0.15855063 -0.10870992 -0.24646175
000210 6b 2a e3 3d e3 97 0e 3e f3 4a ac bd 7c 65 7a be
       0.11092075 0.13925128 -0.08412733 -0.24452776
000220 34 be 72 bc c2 f1 d3 bd 36 a1 2d bd 7d 0f 5e 3d
       -0.014815856 -0.10348846 -0.04239007 0.05421399
000230 0b c8 1f be ad 16 cc bd 5e 57 d4 bc 7d a5 a6 ba
       -0.15603654 -0.099652626 -0.025920566 -0.0012714114
000240 79 32 71 3c de c9 f6 3d 60 60 56 3d 82 50 fb bc
       0.014721506 0.12050222 0.052338004 -0.030678038
000250 01 1a a4 3d a4 e5 e8 3d 3c 27 6f be 00 74 c8 bd
       0.08012772 0.113719255 -0.2335481 -0.0978775
000260 e7 df 3a 3e 05 fc b6 3c 63 a7 9e 3d a5 7e df bc
       0.18249474 0.02233697 0.0774677 -0.027282069
000270 d7 a0 2c 3e a0 3e 62 3c fc 63 bb bd bb 71 21 bd
       0.1685823 0.013808876 -0.0914993 -0.039415102
000280 c5 6e f6 bc 85 bd 00 3e d5 f2 72 bd 72 ba e4 3c
       -0.030082116 0.12572296 -0.059313614 0.027920935
000290 fe 4e 89 bd 69 d9 e3 bc 5f 1d 4d be be 50 6e 3e
       -0.0670452 -0.02781363 -0.20030735 0.23272988
0002a0 f7 07 f6 bc e2 97 df bd 7f 63 47 3e d7 ea 19 3e
       -0.030033095 -0.10917641 0.19471548 0.1503099
0002b0 d5 f3 02 bd bc fe 3c be fd 74 cb bb fc b0 08 be
       -0.031970818 -0.18456548 -0.0062090144 -0.13348764
0002c0 03 68 e3 3c d9 1a 5c 3e 8a 78 f9 bd 70 b1 fd bb
       0.027759558 0.21494617 -0.12181194 -0.0077420995
0002d0 22 bf 77 3d 18 c7 52 3e a2 f5 70 3c 1e c0 c8 ba
       0.060485013 0.2058376 0.014707001 -0.0015316044
0002e0 79 a9 db 3b 89 d8 34 be b4 3b 1e bd c1 62 29 be
       0.0067035523 -0.17660727 -0.038631156 -0.16541578
0002f0 c8 72 20 be 51 03 12 be c9 5c 05 be ba 86 c5 3c
       -0.15668786 -0.14259078 -0.13023676 0.024112094
000300 3d 20 76 bd c4 88 84 be d4 71 cd bd 2e d5 a4 bd
       -0.06008934 -0.25885594 -0.100314766 -0.08048473
000310 7b 4b 04 3d 9c 7a 30 3b 2d 0e 9e bb 24 64 dd bd
       0.032298546 0.002692855 -0.004823467 -0.10810116
000320 69 92 ff bd ba 4c 46 3e 1b 4c 98 bb 4b 66 2a 3c
       -0.124790974 0.19365206 -0.0046477444 0.010400365
000330 cc 3c 90 3e c2 a4 48 bd b1 79 30 3e d1 54 70 3e
       0.28171384 -0.04898525 0.17233922 0.23469855
000340 61 3c 01 bd c0 76 ce bd 20 37 bc bc d6 03 32 bd
       -0.031551722 -0.100812435 -0.022975504 -0.04346069
000350 1d 04 0a be 1a 31 13 be c3 5e e2 bc 9a b2 41 3c
       -0.13478132 -0.143742 -0.027633077 0.011822367
000360 ee a4 d5 bd c3 a3 15 3c bb b6 38 3e fc 1a b2 bc
       -0.104318485 0.009133282 0.18038456 -0.021741383
000370 f6 03 9d bd 96 bf c5 bd 2e 61 ca 3d ef 2e fe bd
       -0.07666771 -0.09655683 0.09881817 -0.124112956
000380 95 08 49 3d ac 7b 31 3e f7 6d 62 be 4e 8c 14 be
       0.04908045 0.17332333 -0.22112261 -0.14506647
000390 76 9f 18 bd 79 38 da bc ba 2f 1b 3c 20 5c 4b be
       -0.03726145 -0.026638256 0.009471828 -0.19859362
0003a0 8a 29 a9 bd 4b a1 1a be ba d5 a8 3d 63 c6 10 be
       -0.08259876 -0.15100591 0.0824389 -0.14138179
0003b0 3f 88 3b 3d 2c 09 35 be 7e c3 82 3d 91 c7 4e be
       0.04578423 -0.1767928 0.063849434 -0.20193316
0003c0 7e 30 93 3c 51 c6 96 bc 37 cb b8 bd f2 11 5e 3d
       0.017967459 -0.018405112 -0.09023135 0.054216333
0003d0 f7 dc 6d bc c2 72 a4 bd 88 33 bd 3c e8 bd 4b bc
       -0.014518014 -0.08029701 0.023095861 -0.012435414
0003e0 f1 eb 88 3d e4 03 1f 3d e1 ba 47 3d 28 a9 07 bd
       0.06685627 0.03882207 0.048762206 -0.033120304
0003f0 94 b4 bb bb 87 c1 a7 bd 91 13 65 3d 69 ac 71 bd
       -0.0057283137 -0.08191209 0.055926863 -0.059002314

lstms.0.bias_ih_l0 f4 [128]
000000 58 4d 91 3b ff ef 29 3d 38 3f 4e 3d ce 95 84 3d
       0.004434269 0.041488644 0.05035326 0.064738855
000010 3d 09 ce 3c 7c d5 33 bb 75 32 53 3d 50 b2 18 3b
       0.02515089 -0.002744048 0.05156179 0.0023299642
000020 ee b4 2c 3d d6 a3 72 3d d5 1f c8 bc 3b 03 4f 3c
       0.042164735 0.059238277 -0.024429241 0.012635048
000030 c4 eb 49 3d d2 24 40 bc c9 31 19 3d b3 77 0a 3d
       0.04929711 -0.011727529 0.037400994 0.03380556
000040 97 3a 32 3d f4 7a 4f 3d dd 87 22 3d 16 51 e7 bb
       0.043512907 0.050654367 0.03968035 -0.0070592267
000050 9e b9 03 3c 0e c0 d8 bc 14 2f 22 3d a3 12 3a 3d
       0.00803986 -0.026458766 0.03959568 0.04542793
000060 23 50 40 3d 4b 33 32 3c 00 21 41 3d f5 28 25 3d
       0.046951424 0.010876487 0.047150612 0.040322263
000070 cc 6a 29 bd 34 ed 34 3d 88 45 34 3d 57 c2 49 3d
       -0.041361615 0.044171527 0.044011623 0.049257603
000080 b4 03 1c 3b 24 17 21 3d 14 3f 4a 3d f7 04 71 3d
       0.0023805918 0.03932871 0.049376562 0.058842625
000090 de 5e bb 3c d1 e9 a8 bb 7b 6c 46 3d 87 5b 81 ba
       0.022872385 -0.005154826 0.0484433 -0.0009869196
0000a0 c2 25 25 3d 8e 32 60 3d 45 a2 c4 bc ca 7b 60 3c
       0.04031921 0.054735713 -0.024003157 0.013701389
0000b0 b7 f7 4d 3d 3e 62 52 bc d0 c7 0f 3d a4 56 01 3d
       0.050285067 -0.012840806 0.035102665 0.031576768
0000c0 95 1a 27 3d 16 f3 42 3d 56 ef 1a 3d fb e4 e7 bb
       0.040796835 0.047595106 0.037825905 -0.007076857
0000d0 7e 4d 9f 3b ad 07 d2 bc 5c 04 1a 3d 6e c8 34 3d
       0.0048615327 -0.025638426 0.037601814 0.044136457
0000e0 d1 e6 30 3d c4 9e 25 3c 5f 8e 37 3d 12 10 20 3d
       0.043188874 0.010108653 0.04481351 0.039077826
0000f0 1d 29 28 bd 29 da 2b 3d 0b fc 2a 3d d6 b9 3a 3d
       -0.041054834 0.0419561 0.041744273 0.045587383
000100 c3 1b ff 3c bd fb 9c bc 56 23 9f bc 55 42 8b 3c
       0.031141168 -0.019163007 -0.01942603 0.016999403
000110 4a 1d 9c bc 51 54 17 bc 65 6f 43 bc 98 a8 78 3c
       -0.019056935 -0.009236411 -0.011928414 0.015176915
000120 6d 4b a8 bc fc f7 82 3c f3 0d 08 bd 07 f8 24 bd
       -0.020543778 0.015987389 -0.033216428 -0.0402756
000130 de 0d 3b 3d 97 7e e7 bc 3c a0 84 3c 5e 7d 81 bc
       0.04566752 -0.028258605 0.016189687 -0.01580685
000140 6f 49 68 3c e9 5e 03 3c df 07 85 3c 0b a2 10 3c
       0.014177664 0.008018234 0.016239105 0.008827697
000150 f9 07 cb 3c fb 1b 71 bc 82 64 92 bc 72 02 bd 3c
       0.024784075 -0.014716144 -0.017870191 0.023072455
000160 c8 85 8e bc e8 b4 22 bd 88 e2 87 3c 52 1e 89 3c
       -0.017397776 -0.039723307 0.01658751 0.01673809
000170 42 55 b0 3c 6c 3d 93 3c ff 61 77 bc 6a a0 b2 bc
       0.02152503 0.017973624 -0.015099048 -0.021805007
000180 fb 52 4d 3b 29 51 24 3d 16 3d 51 3d 32 9b 88 3d
       0.0031329978 0.040116463 0.051083647 0.06670226
000190 66 80 c5 3c cc f4 ed ba 58 9f 53 3d df 73 dc 3a
       0.024109077 -0.001815462 0.051665634 0.00168192
0001a0 58 29 2a 3d a4 0e 70 3d 67 05 c7 bc 5f e9 44 3c
       0.041543335 0.058607712 -0.024294568 0.012018531
0001b0 bb 98 41 3d 05 83 49 bc ce af 17 3d 70 9d 0a 3d
       0.047264796 -0.012299304 0.037032895 0.03384155
0001c0 bd f9 30 3d cf 3d 54 3d b4 5e 1f 3d d8 14 bb bb
       0.04320692 0.051816758 0.038908675 -0.005709272
0001d0 53 2f fa 3b 23 b1 d5 bc eb 7f 1d 3d a9 9c 37 3d
       0.007635036 -0.026085442 0.03845207 0.044827137
0001e0 ce a8 3b 3d 00 34 39 3c ff fb 43 3d c2 f1 28 3d
       0.04581528 0.011303902 0.047847744 0.041246183
0001f0 b9 0f 2c bd 76 a4 33 3d 6c 2b 31 3d b9 c3 4a 3d
       -0.04200718 0.043858014 0.0432543 0.049503062

lstms.0.bias_hh_l0 f4 [128]
000000 58 4d 91 3b ff ef 29 3d 38 3f 4e 3d ce 95 84 3d
       0.004434269 0.041488644 0.05035326 0.064738855
000010 3d 09 ce 3c 7c d5 33 bb 75 32 53 3d 50 b2 18 3b
       0.02515089 -0.002744048 0.05156179 0.0023299642
000020 ee b4 2c 3d d6 a3 72 3d d5 1f c8 bc 3b 03 4f 3c
       0.042164735 0.059238277 -0.024429241 0.012635048
000030 c4 eb 49 3d d2 24 40 bc c9 31 19 3d b3 77 0a 3d
       0.04929711 -0.011727529 0.037400994 0.03380556
000040 97 3a 32 3d f4 7a 4f 3d dd 87 22 3d 16 51 e7 bb
       0.043512907 0.050654367 0.03968035 -0.0070592267
000050 9e b9 03 3c 0e c0 d8 bc 14 2f 22 3d a3 12 3a 3d
       0.00803986 -0.026458766 0.03959568 0.04542793
000060 23 50 40 3d 4b 33 32 3c 00 21 41 3d f5 28 25 3d
       0.046951424 0.010876487 0.047150612 0.040322263
000070 cc 6a 29 bd 34 ed 34 3d 88 45 34 3d 57 c2 49 3d
       -0.041361615 0.044171527 0.044011623 0.049257603
000080 b4 03 1c 3b 24 17 21 3d 14 3f 4a 3d f7 04 71 3d
       0.0023805918 0.03932871 0.049376562 0.058842625
000090 de 5e bb 3c d1 e9 a8 bb 7b 6c 46 3d 87 5b 81 ba
       0.022872385 -0.005154826 0.0484433 -0.0009869196
0000a0 c2 25 25 3d 8e 32 60 3d 45 a2 c4 bc ca 7b 60 3c
       0.04031921 0.054735713 -0.024003157 0.013701389
0000b0 b7 f7 4d 3d 3e 62 52 bc d0 c7 0f 3d a4 56 01 3d
       0.050285067 -0.012840806 0.035102665 0.031576768
0000c0 95 1a 27 3d 16 f3 42 3d 56 ef 1a 3d fb e4 e7 bb
       0.040796835 0.047595106 0.037825905 -0.007076857
0000d0 7e 4d 9f 3b ad 07 d2 bc 5c 04 1a 3d 6e c8 34 3d
       0.0048615327 -0.025638426 0.037601814 0.044136457
0000e0 d1 e6 30 3d c4 9e 25 3c 5f 8e 37 3d 12 10 20 3d
       0.043188874 0.010108653 0.04481351 0.039077826
0000f0 1d 29 28 bd 29 da 2b 3d 0b fc 2a 3d d6 b9 3a 3d
       -0.041054834 0.0419561 0.041744273 0.045587383
000100 c3 1b ff 3c bd fb 9c bc 56 23 9f bc 55 42 8b 3c
       0.031141168 -0.019163007 -0.01942603 0.016999403
000110 4a 1d 9c bc 51 54 17 bc 65 6f 43 bc 98 a8 78 3c
       -0.019056935 -0.009236411 -0.011928414 0.015176915
000120 6d 4b a8 bc fc f7 82 3c f3 0d 08 bd 07 f8 24 bd
       -0.020543778 0.015987389 -0.033216428 -0.0402756
000130 de 0d 3b 3d 97 7e e7 bc 3c a0 84 3c 5e 7d 81 bc
       0.04566752 -0.028258605 0.016189687 -0.01580685
000140 6f 49 68 3c e9 5e 03 3c df 07 85 3c 0b a2 10 3c
       0.014177664 0.008018234 0.016239105 0.008827697
000150 f9 07 cb 3c fb 1b 71 bc 82 64 92 bc 72 02 bd 3c
       0.024784075 -0.014716144 -0.017870191 0.023072455
000160 c8 85 8e bc e8 b4 22 bd 88 e2 87 3c 52 1e 89 3c
       -0.017397776 -0.039723307 0.01658751 0.01673809
000170 42 55 b0 3c 6c 3d 93 3c ff 61 77 bc 6a a0 b2 bc
       0.02152503 0.017973624 -0.015099048 -0.021805007
000180 fb 52 4d 3b 29 51 24 3d 16 3d 51 3d 32 9b 88 3d
       0.0031329978 0.040116463 0.051083647 0.06670226
000190 66 80 c5 3c cc f4 ed ba 58 9f 53 3d df 73 dc 3a
       0.024109077 -0.001815462 0.051665634 0.00168192
0001a0 58 29 2a 3d a4 0e 70 3d 67 05 c7 bc 5f e9 44 3c
       0.041543335 0.058607712 -0.024294568 0.012018531
0001b0 bb 98 41 3d 05 83 49 bc ce af 17 3d 70 9d 0a 3d
       0.047264796 -0.012299304 0.037032895 0.03384155
0001c0 bd f9 30 3d cf 3d 54 3d b4 5e 1f 3d d8 14 bb bb
       0.04320692 0.051816758 0.038908675 -0.005709272
0001d0 53 2f fa 3b 23 b1 d5 bc eb 7f 1d 3d a9 9c 37 3d
       0.007635036 -0.026085442 0.03845207 0.044827137
0001e0 ce a8 3b 3d 00 34 39 3c ff fb 43 3d c2 f1 28 3d
       0.04581528 0.011303902 0.047847744 0.041246183
0001f0 b9 0f 2c bd 76 a4 33 3d 6c 2b 31 3d b9 c3 4a 3d
       -0.04200718 0.043858014 0.0432543 0.049503062

fc.weight f4 [1, 32]
000000 2d 76 37 3c 61 31 55 3e ff 84 2d 3e 5e f7 09 be
       0.011197609 0.20819618 0.16945265 -0.1347327
000010 dd 70 39 3e 44 0e de 3d 0a 9b a2 3d 13 3a 42 3d
       0.1810946 0.10842565 0.079397276 0.047418665
000020 2b 9d 43 3e d8 2d b8 bd 33 12 9e 3d 8d 30 c7 3b
       0.19102924 -0.08993119 0.07718315 0.0060787858
000030 7f 22 df 3c ab b8 2d 3d 59 c3 54 be e5 26 50 3e
       0.027238129 0.04241244 -0.20777644 0.20327337
000040 2f fe 44 be 97 0f 9b bd 0d 6c f4 bc 2b 09 b4 bc
       -0.19237588 -0.07571333 -0.029836679 -0.021977028
000050 45 99 61 3d e7 2f 20 3d fa bd 3d 3e 67 a3 3a be
       0.05507781 0.039108183 0.18529502 -0.18226396
000060 85 69 dc 3d 17 9c b0 bb 4d 8a de bd 80 6d 55 be
       0.10762314 -0.005389701 -0.108662225 -0.20842552
000070 7e 88 c1 bd e3 88 32 be b1 2f e5 3d 9c c2 4b 3e
       -0.09449862 -0.1743503 0.11190737 0.19898456
