labs/models/USD/10_64.pth (torch, 70727 bytes, 5 tensors)

lstms.0.weight_ih_l0 f4 [256, 1]
00000000: 5b5d b0bd e1c5 efbd f1af d23c f180 ebbc
00000010: c6b1 5c3d 0ed1 bebd 6d09 30be ea60 33be
00000020: 9949 91bc 37aa 013d c5f3 c5bd d290 9bbd
00000030: 44b8 e6bd e7b8 7f3d 861a 05be af47 0e3e
00000040: 3bd3 fcbc f583 a53c 4859 27be d0fe 873c
00000050: 074c 1c3e b8ac 313d 3dbf a3bc 0ce2 bfbc
00000060: 2f00 29be 2ad7 3fbe ef28 d6bb 6ce2 c93c
00000070: 54d3 2ebd 2ec3 973d 22a0 b4bd 1422 67bd
00000080: 3736 32bc af62 bdbd fdde 0f3e 8555 f33d
00000090: d5ae 1b3d 9ef6 96bd 55a6 343c a105 99bd
000000a0: 2032 85bc b3fd 00bd 729f 90bd b09d 45bd
000000b0: b7c3 903e a614 3b3d cb7e 033e 747e 823c
000000c0: 2254 77bd a7a2 24bd 9192 ebbd f2a3 743d
000000d0: 762f d33d 4893 023e cbcc a1bd f0be e4bd
000000e0: 65d4 b3bb 8ba7 913d cfd8 b93c fa31 263d
000000f0: 99e6 edbd 15e5 7e3d 9949 073e 4762 6a3d
00000100: 3b14 aa3d cbac d7bd b345 b2bc e2ea 713c
00000110: f10a 1c3c 115c 923c 8825 b13b f8c6 813d
00000120: f1e2 ef3d 4643 b33d a4b6 153b 8303 143e
00000130: bb12 95bd ff47 3e3d 5535 b1bd def2 63bc
00000140: 3949 eabc 24c0 2abe abe7 c83d ee05 c23d
00000150: 4b1d 2e3d c21e dbbd 419e 3cbd 0b97 7abc
00000160: 1fda 41bd d0a0 38be f72c 533d 953b 603d
00000170: 46e8 303e 7e02 243e db83 b63d 7e6c 73bc
00000180: 139f f7bd f31b 99bd 0fcf a8bc a7ef e23b
00000190: b9d6 5cbd d050 923c 5690 803c d586 c73c
000001a0: bd4b 383d 0357 c13c 1df7 97bd 5550 16be
000001b0: 765b 253e e772 faba 155d cd3d 6d8a 21be
000001c0: add3 293d 2ebb 92bd 0074 cf3d 807d 24bc
000001d0: 73ee 3f3e 0054 843c 9839 033d c4a6 c0bd
000001e0: 6a1d 713e 2740 823d 4030 babc 2e28 9c3c
000001f0: 5f79 57bd 9cfc 79bd bf7c 923d 4a5c b3bd
00000200: 715d 003d bd70 3c3d b03e e6bd 9ac7 1abe
00000210: a616 19bd 359e 53bd 94f1 8abd ab02 11bd
00000220: 7f33 22ba 3721 0bbe 4469 8b3d f1dc 263d
00000230: 184f 7b3d dd23 ec3b 797f a4bd b5b0 173e
00000240: 6cd0 253e e218 47bd 5163 ca3d 0060 01be
00000250: ecd2 983d 166d 773d 1c85 b33d 22a9 07be
00000260: 21bb 5cbe 3f5c 973e d13f 66bd 8b0b 64bd
00000270: 205c db3d 93f3 bebc eafe 86be bf11 163e
00000280: eebc e23d 763f 293e 2598 c23a 6ce1 b13d
00000290: 89b4 983d f8b3 e23c 0c23 163e 8b2c f93d
000002a0: da32 aa3d a2d2 e73d 9470 073e 12d8 e8bd
000002b0: 45b2 a8bd fcda 52bd abda 3f3e 5e9b 26be
000002c0: 3732 2dbd c5f9 f63d d460 523e f78a 84bc
000002d0: 2905 a93d 88f6 b13d 9e2e ae3c 9168 253e
000002e0: bd92 70bd 5d6c 893d 8495 8dbc bb56 003d
000002f0: dec8 80bd 3434 49bd a844 cbbc 1515 39be
00000300: 4216 08bd 7298 893d 9098 45bb 5cc2 073d
00000310: df33 bdbd bed6 2d3e 12b9 a83c f4ec 423d
00000320: 8d96 ffbd 5655 fcbc 3065 9f3a 3fba 1f3d
00000330: a7a1 bf3d 44ee 613e 2826 4fbd 3944 85bc
00000340: f5c5 dbbd 6cee c5bc e50c 253d 54f5 033e
00000350: 881a 573e 50dd 4e3e 02c8 733d 514f 38be
00000360: eb84 b93d fc6e c8bd 528c 1a3e 6656 d23d
00000370: ef52 e5bd 35b1 a03d 985b 24be f50a 26bb
00000380: 4ea2 303d f41d 043d 6f19 81bc 3346 1c3e
00000390: 7a58 31be 7f21 0e3d be49 d4bd a8c9 393d
000003a0: 4a03 783c 80da 86bd f9ab 00bd 375b 6c3d
000003b0: 7871 17bd 6289 113d dd8a 76bd 2ce2 65bd
000003c0: 40dd e23d 9b35 07bd 4252 c13d de90 8e3b
000003d0: c256 043d 75ea a63d f71d d63c 4796 56bd
000003e0: ddea 0d3e 5db0 1a3e 90c6 e83c b39a c3bd
000003f0: 75cc 62bd f78d debd 0af1 963a 37ff 02be
-0.08611556 -0.11707664 0.025718661 -0.028748007 0.053880475 -0.09317218 -0.17191096 -0.17517439
-0.01773529 0.03165647 -0.09665636 -0.07595982 -0.11265615 0.062432196 -0.12998399 0.13894533
-0.030862441 0.020204524 -0.16342652 0.016600996 0.15263377 0.043377608 -0.01998865 -0.023423217
-0.16503976 -0.18734422 -0.0065356414 0.0246441 -0.042682007 0.074102744 -0.088196054 -0.056428984
-0.010877184 -0.09247338 0.14049907 0.11881546 0.03800853 -0.07371257 0.011025985 -0.07471777
-0.016259253 -0.031491946 -0.07061662 -0.048246086 0.2827432 0.04567399 0.12841336 0.015929438
-0.06038297 -0.04019418 -0.11502565 0.059726663 0.10311787 0.12751496 -0.07900389 -0.11169231
-0.005487966 0.071120344 0.02268639 0.040575005 -0.11616249 0.06223019 0.13211669 0.05722263
0.0830464 -0.105310045 -0.02176175 0.014765473 0.009524093 0.017866166 0.0054060854 0.063367784
0.117132075 0.08753066 0.0022844458 0.14454465 -0.07278963 0.04645538 -0.086527504 -0.0139128845
-0.028599368 -0.16674858 0.09809812 0.09473787 0.042508405 -0.10699226 -0.04604936 -0.0152948005
-0.047327157 -0.18030095 0.051556554 0.05474432 0.17276105 0.16016576 0.08911868 -0.0148574095
-0.12090888 -0.07476034 -0.020606546 0.0069255414 -0.053915713 0.0178608 0.015693825 0.024356285
0.044994105 0.02360106 -0.0742018 -0.14679082 0.16148171 -0.001910773 0.100275196 -0.15775461
0.041461635 -0.07164608 0.10129547 -0.010039687 0.18743305 0.016153336 0.032037348 -0.09406808
0.23546377 0.06359892 -0.022728086 0.019062128 -0.052605983 -0.061031923 0.071527 -0.08757837
0.031339113 0.046005953 -0.112424254 -0.15115204 -0.037375115 -0.05166455 -0.067843586 -0.035402935
-0.0006187483 -0.13586889 0.06807187 0.04073805 0.061354727 0.0072064237 -0.08032126 0.14813502
0.16192788 -0.048607714 0.09882224 -0.12634277 0.07462105 0.060406767 0.08765623 -0.13248113
-0.21555759 0.29562566 -0.056213204 -0.05567507 0.10710931 -0.023309505 -0.2636636 0.14655207
0.11071192 0.16528115 0.0014846368 0.08685574 0.07456309 0.027673706 0.14661807 0.12166699
0.083104804 0.11319472 0.13226539 -0.11369337 -0.08237127 -0.05147837 0.18735759 -0.16270205
-0.042284217 0.120593585 0.2054475 -0.016179545 0.08252937 0.086896 0.021262463 0.1615317
-0.05873369 0.06710122 -0.017283209 0.031332713 -0.062883124 -0.04912205 -0.024813011 -0.18074448
-0.03322435 0.0671853 -0.0030150749 0.03314434 -0.09238409 0.16976449 0.02059606 0.047589257
-0.12479887 -0.03080241 0.0012160894 0.038995977 0.093570046 0.22063547 -0.050573498 -0.016267883
-0.10731117 -0.02416154 0.0402955 0.12886554 0.21006215 0.20201612 0.059516914 -0.17999007
0.09058555 -0.097867936 0.1509259 0.102703854 -0.11197459 0.078462996 -0.16050565 -0.002533612
0.043123536 0.032255128 -0.015759198 0.15261154 -0.17318907 0.034699913 -0.10365628 0.04535833
0.015137503 -0.06584644 -0.031414006 0.057704177 -0.036973447 0.03553141 -0.060191024 -0.056123897
0.11077356 -0.033010107 0.094395176 0.0043507656 0.0323093 0.08150188 0.026137335 -0.05238941
0.13859124 0.1510634 0.028414994 -0.09550991 -0.055370767 -0.108669214 0.0011515927 -0.12792669

lstms.0.weight_hh_l0 f4 [256, 64]
00000000: a9b9 80bc becb 813b 3105 99bd 7dd4 48bc
00000010: 5404 a73a 48b6 93bd 45bc a6bd 0b15 0dbd
00000020: 9690 eb3a 9372 093d 47bb c8bd f82c babc
00000030: 7407 5e3d 19e8 83bd 4567 0fbe 2fd0 c8bc
00000040: 1527 9abd ab56 8d3c 3874 1c3a 80fd 80bc
00000050: 64e1 063e 9200 23bc 8fc6 233d 3993 e33c
00000060: 3a78 bcbc 25af 4ebc c234 95bd 25bf bebc
00000070: e7e2 f13d 8f3f 95bd 7ecb 943d 657d c7bc
00000080: 33e7 86bd b268 e83d c452 6c3d b0f6 683c
00000090: 7e5c f5bd 5623 1ebc ef42 273d b214 9abc
000000a0: 8c80 ccbc d705 4abd 7048 d6bd eefe 58bd
000000b0: 9319 d6bd fee1 203e 7694 24bd 18ed 21bd
000000c0: a11f 20bd f3d4 263d 7497 23bd 18b7 45be
000000d0: 90bf a6bd 1661 453d ade9 95bb c21e a9bc
000000e0: 14b1 0fbe d37a 49be dd14 223d 83c2 703d
000000f0: 067c 3cbd 3ab7 d93d 0a56 c83d 0f0a 113e
00000100: 502b 743d 6747 093d de08 74bc a371 ab3c
00000110: c272 f13d 403e 1fbd 7e95 b8bb f2d7 f43d
00000120: cd6e 39bd 8a6f 103e 4266 b93d 4729 2dbd
00000130: e0a8 403d a5e3 173e 241f 6abd 44ac 6abd
00000140: 6752 3dbd 2bba 02bd d51b 12be c933 1b3e
00000150: 0921 2bbc 3138 0fbc 8baf a4bd d441 133e
00000160: 1be5 ccbc 0bd0 853d dfb2 1bbd f11c e7bd
00000170: 323f db3d e744 6dbd aca0 1abc 73fd 2dbd
00000180: 3913 a53d 94b6 67bd 2528 2abb e425 bbbd
00000190: 3bce d53c 7b40 9d3d 2fbb 9e3d 6784 17bc
000001a0: b090 35bc 5ac9 c1bd 5949 8f3d 3d7c 7e3e
000001b0: 2ffd b6bb 4555 7ebc 6223 b33c d612 d83c
000001c0: 9e6b 0c3d 16e1 fdbd 3658 993c ebf1 06be
000001d0: d442 803d 17b5 c2bd 361e 633c 90fc 71bd
000001e0: 319a b93c b6ea 96bc 951d d93c 4ddf a03d
000001f0: 59fb 3c3e 51b8 d6bd cfda 713d ac3a 61bb
00000200: e130 893d 6e37 553d d550 7ebe 2e22 99bd
00000210: 3877 56bd 8ecd 45bd f967 14be 84d5 55be
00000220: f4ec f63d 70df 0cbe 1d83 c93d b14a 8bbd
00000230: 35c9 48be a0e5 98bb 1ff0 9bbd b91e 99bd
00000240: 4168 173e b679 b4bc 8c75 433d f8fe 01be
00000250: 67c8 3a3d 5a58 873e 8470 013e 6892 f4bd
00000260: cea3 03bd 95f8 12bd 8650 b83b 669d 2fbd
00000270: dfc6 22be b261 ccbd a6ec 92bd dc2f 3d3e
00000280: 41d9 303c a0ba 9c3d df18 19be 6919 4b3e
00000290: a7be e73d da8e 67bb 2e46 12bc cac4 0dbd
000002a0: f41b 83bc 30e8 a83d 49e3 ad3d 125d 05be
000002b0: 49be dbbd 0b27 4f3b 7e13 0c3e ef5d ea3c
000002c0: a910 07bd ca8f de3d 0a2f fd3c 37f8 dc3d
000002d0: d54a 88bc c50b 413d eeff 223e 8006 883d
000002e0: 4878 edbc 45bc cd3d 0dac 223e e98c 16bd
000002f0: f5e5 62bd 0760 a23d cde6 c13d 3036 40be
00000300: 03b6 9dbd bafc 883d 3c0c 843d ddd9 c1bd
00000310: 0186 25be ca18 903d 9a0a eabc fdd6 993d
00000320: 6f27 f6bd 2b91 5d3d eaf4 7f3d 1dbc 803c
00000330: 30c1 70bd 8477 dd3d 68ab 5cbc 6d1d a83d
00000340: bdf7 41bd 29bf 6fbd f525 2abe 9e0e 59bc
00000350: b1bf f03c 19c7 163e 238c 8ebb d692 4d3e
00000360: 14c4 01be 7ea0 903d 02a3 473d 98d5 adbd
00000370: 7c51 24be 65ed 693c b4cf c43b 74c4 0c3e
00000380: 7087 90bd a592 06be 5988 6fbd efd3 bf3d
00000390: 27fa 67bd 6a3e c8bd 5b50 793d 8362 1a3d
000003a0: b86d 74bb 748a 31bd 40e7 463d 6323 1f3e
000003b0: 6c40 3fbc b11d 9cbd eeb0 e4bb 9f6e 963d
000003c0: c527 ab3c b30d 963d 0cfa a93d 15f5 5f3c
000003d0: 603c 0d3e 2bc6 26bd 4c54 833d 5c99 49bd
000003e0: ecc8 24be a01b 9a3d e9c8 5c3c 8950 11bd
000003f0: 0a09 a63b c232 7fbd a7f5 4c3d 7266 b23d
-0.01571353 0.0039610555 -0.07471693 -0.012257692 0.0012742379 -0.07212502 -0.08141378 -0.034443896
0.0017972167 0.033556532 -0.09801345 -0.02272652 0.054206327 -0.064407535 -0.14004238 -0.024513332
-0.075269856 0.01725324 0.00059682457 -0.015745878 0.13171917 -0.009948866 0.039984282 0.027780162
-0.023006547 -0.012615 -0.072854534 -0.023284504 0.11810856 -0.072875135 0.072653756 -0.024351785
-0.065870665 0.11348094 0.05769612 0.014218971 -0.11980532 -0.009651979 0.040835317 -0.018808696
-0.02496364 -0.049321976 -0.10463035 -0.052977495 -0.10454097 0.15711209 -0.040180646 -0.03953275
-0.039092664 0.040730428 -0.03993936 -0.19308126 -0.081420064 0.04818829 -0.0045749755 -0.02064455
-0.14032394 -0.1967576 0.039570678 0.05877925 -0.046016715 0.10630651 0.09782036 0.14163993
0.05961162 0.03351536 -0.014894692 0.02092821 0.117894664 -0.038877726 -0.005633055 0.11955251
-0.045271683 0.14105049 0.09052707 -0.042275693 0.04703605 0.14832933 -0.057158604 -0.05729319
-0.046221163 -0.031915825 -0.1426843 0.15156473 -0.010444888 -0.008741424 -0.08041295 0.1438058
-0.02501159 0.06533822 -0.03801238 -0.11284817 0.10705413 -0.05792704 -0.009437721 -0.042478036
0.08060307 -0.056570604 -0.002596387 -0.091380864 0.026099315 0.07678314 0.07750546 -0.009247876
-0.0110818595 -0.09462233 0.06996412 0.2485208 -0.005584381 -0.0155232595 0.021867458 0.02637617
0.03428232 -0.12396447 0.01871882 -0.13178222 0.062627465 -0.095071964 0.013862183 -0.059078753
0.022656532 -0.018422466 0.026503364 0.07855091 0.18455257 -0.10484374 0.059046563 -0.0034367247
0.06698776 0.052054815 -0.24835522 -0.074772224 -0.05235979 -0.048291735 -0.14492787 -0.20882231
0.12056914 -0.1375711 0.09839461 -0.06801356 -0.19608004 -0.0046660453 -0.07614159 -0.07476563
0.14785863 -0.022030693 0.047719523 -0.12694919 0.045601275 0.26434594 0.12640578 -0.11941987
-0.03213864 -0.035881598 0.0056248335 -0.042874716 -0.15896176 -0.099795714 -0.07174043 0.18475288
0.010793985 0.076527834 -0.14950894 0.19833912 0.11315661 -0.003533295 -0.008927865 -0.0346115
-0.01600454 0.08247411 0.08490617 -0.13023785 -0.107296534 0.0031608965 0.1367931 0.028609244
-0.032974873 0.10867269 0.030906219 0.10789531 -0.016637245 0.047130365 0.15917942 0.06641865
-0.028988019 0.10045675 0.15885945 -0.036755476 -0.055395085 0.07928472 0.0946785 -0.18770671
-0.077007316 0.06688829 0.06447646 -0.09465382 -0.161644 0.07035978 -0.028569508 0.07511709
-0.1201924 0.05409352 0.062489428 0.0157147 -0.058777988 0.108138114 -0.013468601 0.082087375
-0.047355402 -0.058531914 -0.16616042 -0.013248114 0.02938828 0.14724387 -0.0043502017 0.20075545
-0.12672454 0.070618615 0.04873944 -0.084880054 -0.16046709 0.014277791 0.0060062055 0.13746816
-0.07057083 -0.13141878 -0.05847964 0.09366595 -0.05663505 -0.097775295 0.06086765 0.037691604
-0.0037296843 -0.04334493 0.04856038 0.15540843 -0.011673074 -0.07622851 -0.0069790995 0.07345318
0.020892987 0.07326832 0.08299646 0.013669272 0.13792562 -0.04071633 0.06412563 -0.04921852
-0.1609227 0.075248 0.013475635 -0.035477195 0.0050669955 -0.062304266 0.05003896 0.08710946

lstms.0.bias_ih_l0 f4 [256]
00000000: 7362 133d c47b 73bc e3bb 4bbc 1e8f f53c
00000010: 01be 6fbc 7f0f f53c 3fdb ee3c b355 063d
00000020: 4c8a 8dbc 8443 0a3d 140f 913c ff03 3d3c
00000030: d3c3 933c 02b5 d4bb 5f78 0a3d 1579 b0bb
00000040: 0a22 1f3d 1652 4c3c 426c 023d 779b 0b3d
00000050: 4bca 4fbb 7e02 e03b b0e6 973c afa6 b1bc
00000060: 491c 1c3d 5163 3c3d ada4 b53c 65ed a93c
00000070: 45e5 14bc f6ba b0bb 87b1 2c3d 713d 0a3d
00000080: 76b3 ccbc ba87 1f3d ffba a1bc a015 e73c
00000090: a59c 153d ad02 fa3b 5433 313d 4f8b 203d
000000a0: 381d d13c 522e f33c 7171 183d eed4 203d
000000b0: 6c99 88bb f7cf cfbc 3413 2b3d 8740 243d
000000c0: c34c 0d3c c356 193d 6d3f c23c 6539 603b
000000d0: 4503 52bc de96 b1bb 8870 973b 2445 243d
000000e0: 9a52 523a 412e 11bd fe06 89bc 2b0f 5dbc
000000f0: bd18 0b3d 20e5 443c 934d 69bc 5f48 2b3d
00000100: dc7f fa3c cd69 70bc 91dc 52bc f3c0 c53c
00000110: ff1d 81bc 13fe d13c 556c cd3c be7e e33c
00000120: 180b a2bc f753 fa3c 4f8b 673c 5e44 fa3b
00000130: c9fe 633c bbd0 ffbb 5197 f03c 0c69 b5bb
00000140: 2f4e 063d 4255 1a3c 532c e83c d269 e03c
00000150: e4b1 38bb 3996 003b 4aab 593c fd26 b5bc
00000160: d332 043d 3c37 233d e54b 9d3c 91d8 7f3c
00000170: e5e9 1dbc 9e4f 94bb 72b7 193d 5e24 ce3c
00000180: 46cb cbbc e8c5 073d 88ba b6bc 6e36 e03c
00000190: 965b fa3c 4b0e bd3b dc11 203d 12e5 013d
000001a0: 93e1 aa3c 2c68 d43c 2c66 043d 75c8 043d
000001b0: b6f9 25bb 185c cebc 0790 133d 620b 0c3d
000001c0: 5148 ac3b 173e 043d 9533 a93c 5aaa 0b3a
000001d0: bb53 4dbc 8be8 c8bb 15c5 f33a fc7a 0e3d
000001e0: ba90 53bb 0092 0fbd 8dce 96bc 687a 83bc
000001f0: a7c3 ef3c 98d6 1e3c a2a4 7abc 9d7c 193d
00000200: dec8 2ebc a048 483c 7fe0 dfbc c8dc a9bb
00000210: 0777 d1bc a528 be3b 56d6 323c d833 f73b
00000220: a555 65bc bc1b 213c 8268 26bc 4747 d3bb
00000230: 58b6 853b 261e 1e3c 6216 3c3c 3177 ce3c
00000240: 18cd 31bc 352b 1b3c a7d3 24bc 014e bbbc
00000250: 653f f73c 2988 863c 4f91 8e3c c657 94bc
00000260: 8e2e 233c efcb 55bc d78b 233c ed48 b8ba
00000270: 1a4f cc3c 27b6 b4bc 197f 243c 56b4 3dbb
00000280: f719 863c a4d8 48bc 3100 21bc a2b1 9b3c
00000290: e26b 15bc 999b 2bbc 2db8 09bc d2a3 0cbc
000002a0: 193e 953c 1764 3abc 1dfd 2ebc 7339 4d3c
000002b0: ce1f cdbc 3431 88bc 9b1c 15bc 3210 2f3c
000002c0: 65ad ef3b c1dd 34bc 06b4 d03c 86ae eabb
000002d0: 4082 d13c 652e d03c 2d95 0abc cd2f 36bc
000002e0: 777b 5abb c147 173c 864d 1abc cfb1 703c
000002f0: e2af 483c d542 b33b e870 02bc ef48 073c
00000300: b534 103d d603 51bc f1ab 49bc f70d e63c
00000310: cfb7 6cbc 621d e13c d707 de3c 68a5 ff3c
00000320: 3abd 96bc 0241 093d 9065 8b3c 7c81 323c
00000330: 9304 a33c b2c4 bebb b896 fb3c 211e 9fbb
00000340: 86de 233d 9835 513c 50f4 f93c 3858 083d
00000350: 29ee 84bb fc23 773b 5d45 7b3c 33b0 b2bc
00000360: 16f1 0e3d 549f 3a3d 9fcd b83c d5d0 a03c
00000370: c151 10bc 2ad3 3bbb 0f5f 293d 1f4e 023d
00000380: 6ae4 cbbc 28a1 163d 8742 aabc ce98 043d
00000390: 0759 133d 883e ea3b 5c78 353d 0c49 1d3d
000003a0: 40f5 c73c e527 ed3c 8889 1c3d 7249 223d
000003b0: 73ab a5ba 2160 cfbc d813 233d 8061 203d
000003c0: edf3 073c 2521 113d bc91 b43c fb87 393b
000003d0: e6f8 42bc 718f a0bb 12f3 9b3b 1c77 193d
000003e0: a591 a6ba f05d 10bd f126 88bc 2ca3 6fbc
000003f0: d235 033d 63f4 363c 7133 70bc 82f3 303d
0.03598256 -0.014861051 -0.012434932 0.02997547 -0.014632703 0.029914616 0.029157279 0.032796573
-0.01727786 0.033755794 0.017707385 0.011536597 0.018037712 -0.0064913044 0.0338062 -0.005385528
0.03885082 0.012470743 0.031841524 0.03408381 -0.003170627 0.0068362346 0.018542618 -0.021685926
0.038112912 0.045993153 0.02217325 0.020743081 -0.009087865 -0.005393381 0.04216149 0.03375
-0.024987917 0.0389478 -0.019742487 0.028208554 0.03652634 0.0076297135 0.04326184 0.039195355
0.025526628 0.029685173 0.03721756 0.039265566 -0.00416868 -0.02536772 0.04176636 0.0401006
0.008624258 0.037436258 0.023711884 0.0034213897 -0.012818162 -0.005419596 0.004621569 0.040105
0.0008023173 -0.0354445 -0.016726967 -0.013492386 0.03395914 0.012017518 -0.014239687 0.041817065
0.030578546 -0.014673662 -0.01286997 0.024139857 -0.015761374 0.025633847 0.02507607 0.027770396
-0.01978068 0.030557616 0.014132335 0.0076375445 0.013915726 -0.007806865 0.029369028 -0.005536204
0.032789405 0.009419741 0.028341448 0.027394209 -0.0028182203 0.001962079 0.013285467 -0.022113318
0.032275032 0.039847597 0.019201228 0.015615598 -0.009638284 -0.0045260927 0.037528463 0.025163826
-0.024877202 0.033147722 -0.022305742 0.027369704 0.03056125 0.005769526 0.039079532 0.0317126
0.020859515 0.02592858 0.032324 0.032417733 -0.0025325841 -0.025190398 0.036026027 0.034190543
0.005257644 0.032285776 0.020654479 0.00053278136 -0.01253217 -0.006131237 0.0018598164 0.034785256
-0.0032282309 -0.035051346 -0.018409038 -0.016049579 0.029268099 0.009694718 -0.015298041 0.037472356
-0.010668008 0.012224346 -0.027328728 -0.00518379 -0.025569452 0.005803185 0.0109153595 0.007544022
-0.01399747 0.009833273 -0.010156753 -0.006447706 0.004080575 0.009650743 0.011479946 0.02520332
-0.010852121 0.009470751 -0.0100602275 -0.022864344 0.030181596 0.016422348 0.017403273 -0.01810826
0.00995983 -0.01304911 0.009982071 -0.001405982 0.024940062 -0.022059513 0.010040068 -0.00289466
0.016369803 -0.012258682 -0.009826706 0.0190056 -0.00911996 -0.010474109 -0.008405727 -0.00858398
0.018218087 -0.011376402 -0.010680464 0.012525904 -0.02503958 -0.016625024 -0.009101058 0.010685014
0.0073143714 -0.011039198 0.025476467 -0.007161918 0.025574803 0.025412748 -0.008458418 -0.011119795
-0.003333775 0.009233416 -0.009417897 0.01469083 0.012248965 0.0054706135 -0.007961489 0.008257135
0.035206515 -0.012757262 -0.01230906 0.02808283 -0.01444812 0.027479831 0.027103348 0.031206802
-0.018400777 0.033509262 0.017016202 0.010895129 0.019899642 -0.0058217878 0.030711517 -0.0048558866
0.040007137 0.012769125 0.030512005 0.033287257 -0.004056711 0.0037710657 0.015336362 -0.021812534
0.034897886 0.045562103 0.022558985 0.019630829 -0.008808554 -0.00286598 0.04135042 0.031812783
-0.02488919 0.036774784 -0.020783676 0.03237229 0.035973575 0.0071485676 0.044304237 0.03839974
0.024408937 0.028949687 0.038217098 0.039620824 -0.0012639597 -0.025314393 0.039813846 0.039155483
0.0082979025 0.035432 0.022042148 0.002830981 -0.011900162 -0.004899912 0.004759201 0.037467107
-0.00127082 -0.035245836 -0.016620131 -0.014626306 0.03203375 0.011166665 -0.014660702 0.043200977

lstms.0.bias_hh_l0 f4 [256]
00000000: 7362 133d c47b 73bc e3bb 4bbc 1e8f f53c
00000010: 01be 6fbc 7f0f f53c 3fdb ee3c b355 063d
00000020: 4c8a 8dbc 8443 0a3d 140f 913c ff03 3d3c
00000030: d3c3 933c 02b5 d4bb 5f78 0a3d 1579 b0bb
00000040: 0a22 1f3d 1652 4c3c 426c 023d 779b 0b3d
00000050: 4bca 4fbb 7e02 e03b b0e6 973c afa6 b1bc
00000060: 491c 1c3d 5163 3c3d ada4 b53c 65ed a93c
00000070: 45e5 14bc f6ba b0bb 87b1 2c3d 713d 0a3d
00000080: 76b3 ccbc ba87 1f3d ffba a1bc a015 e73c
00000090: a59c 153d ad02 fa3b 5433 313d 4f8b 203d
000000a0: 381d d13c 522e f33c 7171 183d eed4 203d
000000b0: 6c99 88bb f7cf cfbc 3413 2b3d 8740 243d
000000c0: c34c 0d3c c356 193d 6d3f c23c 6539 603b
000000d0: 4503 52bc de96 b1bb 8870 973b 2445 243d
000000e0: 9a52 523a 412e 11bd fe06 89bc 2b0f 5dbc
000000f0: bd18 0b3d 20e5 443c 934d 69bc 5f48 2b3d
00000100: dc7f fa3c cd69 70bc 91dc 52bc f3c0 c53c
00000110: ff1d 81bc 13fe d13c 556c cd3c be7e e33c
00000120: 180b a2bc f753 fa3c 4f8b 673c 5e44 fa3b
00000130: c9fe 633c bbd0 ffbb 5197 f03c 0c69 b5bb
00000140: 2f4e 063d 4255 1a3c 532c e83c d269 e03c
00000150: e4b1 38bb 3996 003b 4aab 593c fd26 b5bc
00000160: d332 043d 3c37 233d e54b 9d3c 91d8 7f3c
00000170: e5e9 1dbc 9e4f 94bb 72b7 193d 5e24 ce3c
00000180: 46cb cbbc e8c5 073d 88ba b6bc 6e36 e03c
00000190: 965b fa3c 4b0e bd3b dc11 203d 12e5 013d
000001a0: 93e1 aa3c 2c68 d43c 2c66 043d 75c8 043d
000001b0: b6f9 25bb 185c cebc 0790 133d 620b 0c3d
000001c0: 5148 ac3b 173e 043d 9533 a93c 5aaa 0b3a
000001d0: bb53 4dbc 8be8 c8bb 15c5 f33a fc7a 0e3d
000001e0: ba90 53bb 0092 0fbd 8dce 96bc 687a 83bc
000001f0: a7c3 ef3c 98d6 1e3c a2a4 7abc 9d7c 193d
00000200: dec8 2ebc a048 483c 7fe0 dfbc c8dc a9bb
00000210: 0777 d1bc a528 be3b 56d6 323c d833 f73b
00000220: a555 65bc bc1b 213c 8268 26bc 4747 d3bb
00000230: 58b6 853b 261e 1e3c 6216 3c3c 3177 ce3c
00000240: 18cd 31bc 352b 1b3c a7d3 24bc 014e bbbc
00000250: 653f f73c 2988 863c 4f91 8e3c c657 94bc
00000260: 8e2e 233c efcb 55bc d78b 233c ed48 b8ba
00000270: 1a4f cc3c 27b6 b4bc 197f 243c 56b4 3dbb
00000280: f719 863c a4d8 48bc 3100 21bc a2b1 9b3c
00000290: e26b 15bc 999b 2bbc 2db8 09bc d2a3 0cbc
000002a0: 193e 953c 1764 3abc 1dfd 2ebc 7339 4d3c
000002b0: ce1f cdbc 3431 88bc 9b1c 15bc 3210 2f3c
000002c0: 65ad ef3b c1dd 34bc 06b4 d03c 86ae eabb
000002d0: 4082 d13c 652e d03c 2d95 0abc cd2f 36bc
000002e0: 777b 5abb c147 173c 864d 1abc cfb1 703c
000002f0: e2af 483c d542 b33b e870 02bc ef48 073c
00000300: b534 103d d603 51bc f1ab 49bc f70d e63c
00000310: cfb7 6cbc 621d e13c d707 de3c 68a5 ff3c
00000320: 3abd 96bc 0241 093d 9065 8b3c 7c81 323c
00000330: 9304 a33c b2c4 bebb b896 fb3c 211e 9fbb
00000340: 86de 233d 9835 513c 50f4 f93c 3858 083d
00000350: 29ee 84bb fc23 773b 5d45 7b3c 33b0 b2bc
00000360: 16f1 0e3d 549f 3a3d 9fcd b83c d5d0 a03c
00000370: c151 10bc 2ad3 3bbb 0f5f 293d 1f4e 023d
00000380: 6ae4 cbbc 28a1 163d 8742 aabc ce98 043d
00000390: 0759 133d 883e ea3b 5c78 353d 0c49 1d3d
000003a0: 40f5 c73c e527 ed3c 8889 1c3d 7249 223d
000003b0: 73ab a5ba 2160 cfbc d813 233d 8061 203d
000003c0: edf3 073c 2521 113d bc91 b43c fb87 393b
000003d0: e6f8 42bc 718f a0bb 12f3 9b3b 1c77 193d
000003e0: a591 a6ba f05d 10bd f126 88bc 2ca3 6fbc
000003f0: d235 033d 63f4 363c 7133 70bc 82f3 303d
0.03598256 -0.014861051 -0.012434932 0.02997547 -0.014632703 0.029914616 0.029157279 0.032796573
-0.01727786 0.033755794 0.017707385 0.011536597 0.018037712 -0.0064913044 0.0338062 -0.005385528
0.03885082 0.012470743 0.031841524 0.03408381 -0.003170627 0.0068362346 0.018542618 -0.021685926
0.038112912 0.045993153 0.02217325 0.020743081 -0.009087865 -0.005393381 0.04216149 0.03375
-0.024987917 0.0389478 -0.019742487 0.028208554 0.03652634 0.0076297135 0.04326184 0.039195355
0.025526628 0.029685173 0.03721756 0.039265566 -0.00416868 -0.02536772 0.04176636 0.0401006
0.008624258 0.037436258 0.023711884 0.0034213897 -0.012818162 -0.005419596 0.004621569 0.040105
0.0008023173 -0.0354445 -0.016726967 -0.013492386 0.03395914 0.012017518 -0.014239687 0.041817065
0.030578546 -0.014673662 -0.01286997 0.024139857 -0.015761374 0.025633847 0.02507607 0.027770396
-0.01978068 0.030557616 0.014132335 0.0076375445 0.013915726 -0.007806865 0.029369028 -0.005536204
0.032789405 0.009419741 0.028341448 0.027394209 -0.0028182203 0.001962079 0.013285467 -0.022113318
0.032275032 0.039847597 0.019201228 0.015615598 -0.009638284 -0.0045260927 0.037528463 0.025163826
-0.024877202 0.033147722 -0.022305742 0.027369704 0.03056125 0.005769526 0.039079532 0.0317126
0.020859515 0.02592858 0.032324 0.032417733 -0.0025325841 -0.025190398 0.036026027 0.034190543
0.005257644 0.032285776 0.020654479 0.00053278136 -0.01253217 -0.006131237 0.0018598164 0.034785256
-0.0032282309 -0.035051346 -0.018409038 -0.016049579 0.029268099 0.009694718 -0.015298041 0.037472356
-0.010668008 0.012224346 -0.027328728 -0.00518379 -0.025569452 0.005803185 0.0109153595 0.007544022
-0.01399747 0.009833273 -0.010156753 -0.006447706 0.004080575 0.009650743 0.011479946 0.02520332
-0.010852121 0.009470751 -0.0100602275 -0.022864344 0.030181596 0.016422348 0.017403273 -0.01810826
0.00995983 -0.01304911 0.009982071 -0.001405982 0.024940062 -0.022059513 0.010040068 -0.00289466
0.016369803 -0.012258682 -0.009826706 0.0190056 -0.00911996 -0.010474109 -0.008405727 -0.00858398
0.018218087 -0.011376402 -0.010680464 0.012525904 -0.02503958 -0.016625024 -0.009101058 0.010685014
0.0073143714 -0.011039198 0.025476467 -0.007161918 0.025574803 0.025412748 -0.008458418 -0.011119795
-0.003333775 0.009233416 -0.009417897 0.01469083 0.012248965 0.0054706135 -0.007961489 0.008257135
0.035206515 -0.012757262 -0.01230906 0.02808283 -0.01444812 0.027479831 0.027103348 0.031206802
-0.018400777 0.033509262 0.017016202 0.010895129 0.019899642 -0.0058217878 0.030711517 -0.0048558866
0.040007137 0.012769125 0.030512005 0.033287257 -0.004056711 0.0037710657 0.015336362 -0.021812534
0.034897886 0.045562103 0.022558985 0.019630829 -0.008808554 -0.00286598 0.04135042 0.031812783
-0.02488919 0.036774784 -0.020783676 0.03237229 0.035973575 0.0071485676 0.044304237 0.03839974
0.024408937 0.028949687 0.038217098 0.039620824 -0.0012639597 -0.025314393 0.039813846 0.039155483
0.0082979025 0.035432 0.022042148 0.002830981 -0.011900162 -0.004899912 0.004759201 0.037467107
-0.00127082 -0.035245836 -0.016620131 -0.014626306 0.03203375 0.011166665 -0.014660702 0.043200977

fc.weight f4 [1, 64]
00000000: 82c6 163e 34f0 8abd dbb7 14bc 0bd6 40bd
00000010: aa70 d63c 04c2 19bd eab3 71bd e8f6 c7bd
00000020: 5de0 613d 902c 83bc 41ed f83d ba0b 033e
00000030: 3f63 a5bd 5c35 4bbd c8de 01be 5865 0fbd
00000040: fd82 913d 0613 d2bd 4b3a 243e a88d 18bd
00000050: c0db 61bd 12de 0f3d 95c2 473d 33eb 583d
00000060: b8e6 91bd 34a3 ec3d e57a 10bd 8a7b 7ebd
00000070: 7294 a3bd 4b9e 90bc 2755 d4bd 6615 9f3d
00000080: a0eb 8b3c 0ea3 253e feea c73d 95f1 c13c
00000090: df33 ca3d 95d8 973c 330e f83d 00a7 3b3d
000000a0: 24a7 833d d470 083e 7915 233e bc9e 1abe
000000b0: b026 883d 7252 a63c 489e 203e 5a63 8abd
000000c0: ca06 f5bd b1b1 133e 4c92 243d b588 a63d
000000d0: bd8e 32bc e148 41bc 14ec 1d3d cf24 173e
000000e0: 8cb4 983c 9d4c 303d be1e 213d 7561 c6bd
000000f0: 0701 0cbe 423f 29bd 7c48 9ebc f9a5 00be
0.14724162 -0.06784096 -0.009077038 -0.047079127 0.02617677 -0.037538543 -0.05900947 -0.097638905
0.05514561 -0.01601246 0.121546276 0.12797442 -0.0807557 -0.049611434 -0.1268264 -0.03500876
0.07105062 -0.10257535 0.16037862 -0.03724447 -0.05514121 0.035123892 0.048769552 0.05295868
-0.07124084 0.11554566 -0.03527345 -0.062129535 -0.07987298 -0.017653605 -0.10367804 0.07767753
0.017080128 0.16175482 0.09761618 0.023674766 0.09873175 0.018535892 0.12112083 0.04581356
0.06428364 0.1332429 0.1592616 -0.15099615 0.06648004 0.020302985 0.1568538 -0.06757231
-0.119641855 0.14423253 0.040178582 0.081315435 -0.010898289 -0.011797161 0.03855522 0.14760135
0.018640779 0.043041814 0.03933596 -0.09686557 -0.13672267 -0.041320093 -0.019321673 -0.12563314
