labs/models/USD/14_32.pth (torch, 19911 bytes, 5 tensors)

lstms.0.weight_ih_l0 f4 [128, 1]
000000 10 e9 89 3e f4 2d 66 bd d6 66 88 bd be 48 01 3e
       0.26935625 -0.056196168 -0.066602394 0.12625405
000010 87 5e d9 bd bb b3 f0 3d 22 1d 28 be 71 2a 8d bc
       -0.10613733 0.11753031 -0.16417363 -0.017232152
000020 13 33 95 be 90 97 59 be 32 57 a8 3d c7 93 7a be
       -0.2914053 -0.21249223 0.08219756 -0.24470435
000030 8b fb 9d 3d 4b 4e a0 be 34 9a 12 3e 81 36 38 3d
       0.07713994 -0.31309733 0.14316636 0.044973854
000040 97 31 40 3e b1 c8 34 be 19 c5 b0 3c 0c 82 27 3e
       0.18768917 -0.17654683 0.021578358 0.16358203
000050 ce cf 6c bd 93 1a 8b be 29 58 84 be 02 1a 05 3d
       -0.057815365 -0.27168712 -0.2584851 0.032495506
000060 fa 24 4c be 37 9a fe bd a2 24 90 3b c5 4d 93 3e
       -0.1993598 -0.12431758 0.004398898 0.2877027
000070 a4 e8 07 be 57 42 cb bb f4 cf a3 bd 92 9a 50 bc
       -0.13272339 -0.0062029767 -0.07998648 -0.012732165
000080 e1 38 fb 3d 1d 0e b0 be 5e 2a df bd 81 19 a0 3e
       0.12266708 -0.34385768 -0.10896753 0.31269458
000090 37 3e dc bd a8 64 0f 3e e6 16 1f bb 3c 7a 45 be
       -0.10754054 0.14003241 -0.0024275123 -0.1928491
0000a0 7f 75 d4 bd a7 67 2e bd d8 5c e5 bd 58 a5 78 bd
       -0.10373973 -0.04257932 -0.11199349 -0.06070456
0000b0 4e 77 38 3d b3 fa 48 3e a3 53 64 be a6 2e 51 3c
       0.045035653 0.19626884 -0.2229753 0.0127674695
0000c0 ed 68 9e 3b b2 77 59 3d 2e bc 5a bc 45 9a 5d 3e
       0.0048342855 0.053092666 -0.01335053 0.2164088
0000d0 61 4e cc bd c5 92 06 be ed 35 4f be b6 b2 0b be
       -0.09975887 -0.13141926 -0.20235415 -0.13642392
0000e0 ca f7 46 be 00 ad 44 bd b6 63 3e be e3 89 83 3e
       -0.19430462 -0.04801655 -0.18592724 0.25691137
0000f0 29 9a 91 bc 1d 81 e7 be 88 40 9e 3e 9a 8a 14 be
       -0.017773705 -0.45215693 0.30908608 -0.14505997
000100 bf 88 a5 bd 49 c7 b4 3d 5c ee e7 3d 5a 4b 1e bd
       -0.08082723 0.08827073 0.1132476 -0.03864608
000110 db d9 ed 3d 84 cd c0 3d ec c7 13 3e 5c 94 61 3e
       0.11613818 0.09414199 0.14431733 0.22029251
000120 7e 03 74 bd 03 6c 8f 3d eb b4 b3 bd ca 88 67 be
       -0.059573643 0.070030235 -0.08774742 -0.22610775
000130 da 4c e9 3d b4 22 25 3e 84 f1 75 3e 84 34 16 3e
       0.113916114 0.1612652 0.24017912 0.1466847
000140 dc e0 5e 3e a9 ac 7e 3e fb 86 4e 3e ff aa ba 3d
       0.21765465 0.24870552 0.20168678 0.09114646
000150 7f bb ae 3c 6f f8 d8 3d b7 2f 50 be 5d cd 90 bd
       0.02132964 0.1059426 -0.20330702 -0.0707042
000160 dd 6c 25 be da 2f 04 3e 35 0f 21 be 36 3c d0 3d
       -0.1615481 0.12908879 -0.15728457 0.10167734
000170 17 23 0a 3e 88 ba 27 3e b9 7a 07 3e 14 b4 46 be
       0.13489948 0.1637975 0.13230409 -0.19404632
000180 f9 55 70 3d 00 79 40 3d 4d 30 38 be a6 09 a7 3d
       0.05867574 0.046990395 -0.17987175 0.08156137
000190 df 3e c3 bd c5 3e 09 bd aa 6a 43 3b e7 30 b2 bd
       -0.09533476 -0.033507127 0.0029818215 -0.08700734
0001a0 17 7b bd bd 23 43 06 be d9 7b 65 3d ce 55 9b bd
       -0.09251993 -0.13111548 0.056026313 -0.07584725
0001b0 70 35 20 bd 35 d9 42 be e6 51 65 bc 56 2b 4a 3e
       -0.039113462 -0.1902817 -0.013996577 0.19743094
0001c0 b9 1c 56 bd 7b 5d 94 bd f3 ee 8b 3d 42 ea d8 3e
       -0.052273486 -0.072443925 0.06832685 0.42366225
0001d0 b4 c0 e7 bd 06 e6 28 3e 86 8f 88 3b 4a 0a 0c 3e
       -0.11316052 0.16493997 0.0041675 0.136758
0001e0 3c 30 01 3e f7 27 00 be e8 e9 20 3e 30 3f 6c 3e
       0.12616056 -0.12515245 0.15714228 0.23070979
0001f0 13 6d 54 bd c8 66 8e bd 0e 83 a3 bd 28 35 b7 bd
       -0.051861834 -0.06953198 -0.07983981 -0.089456856

lstms.0.weight_hh_l0 f4 [128, 32]
000000 dd 91 bd 3b 60 be 25 3e 1a d2 53 3e 80 70 98 bd
       0.0057852105 0.16185904 0.20685616 -0.07443333
000010 4c a0 1e 3e ee ae 49 bc ac e8 17 3d 7e d2 25 3e
       0.15490836 -0.012309773 0.037087128 0.16193578
000020 52 57 8d 3d f9 62 ed bd fc 42 b7 bd c7 0b f6 3c
       0.06901421 -0.11591143 -0.08948323 0.030034913
000030 e9 ab e8 3d b1 6f da 3d 7d 94 5a bd 9a 5b a9 bc
       0.11360914 0.10665835 -0.053364266 -0.020673562
000040 e7 16 04 be 52 db 5f 3d 37 1c 64 3e 5d cc 9d 3d
       -0.12899362 0.05465252 0.22276388 0.07704995
000050 af 6d 34 3d 69 cd b6 3c 48 b8 ba bd 41 86 f1 bd
       0.044049915 0.022314744 -0.0911718 -0.11793185
000060 fd b1 59 3e 2d 8e c0 bd f9 f9 23 be 79 86 12 3e
       0.21259303 -0.09402118 -0.16013326 0.1430911
000070 95 51 0b 3c 1c 38 e7 3b 97 c9 42 3d 60 41 a1 ba
       0.008503337 0.0070562493 0.047555532 -0.0012302808
000080 4f 26 36 3e cc 1e d6 3c b2 c8 ce 3c 5c 21 29 3d
       0.17788051 0.026137732 0.025242183 0.04129158
000090 9d 4b 68 be 4b 6f 24 bd 74 d1 f7 bd 34 b1 20 be
       -0.22685094 -0.0401452 -0.12100497 -0.15692598
0000a0 05 c0 02 bd bc 5a 97 bd 0a 14 39 be e4 67 0d bd
       -0.031921405 -0.07390353 -0.1807405 -0.034522906
0000b0 ba 51 ed 3d 7e ca 52 be d1 ce ae bd d4 f5 39 bd
       0.11587854 -0.20585057 -0.08535541 -0.045400456
0000c0 54 aa b6 bd 1c 90 21 be de 2e 0c be ab 37 28 be
       -0.08919206 -0.1577763 -0.13689753 -0.16427486
0000d0 89 c6 27 3e 21 42 c6 bd 4d 91 a5 bc 07 47 79 3d
       0.16384329 -0.09680582 -0.020210886 0.060858753
0000e0 e6 a1 1b 3d fd 6c 66 be 8a 57 ee bd af 13 d0 3d
       0.037996195 -0.22502513 -0.116377905 0.10160004
0000f0 dc 89 04 be 10 3c 67 3d 50 cb e6 bc 34 d9 9b 3d
       -0.12943214 0.056453764 -0.028173119 0.076097876
000100 6c 52 17 3e 23 35 05 3c 54 3c 97 be 9d fe 77 3c
       0.14777535 0.008130345 -0.29538214 0.015136388
000110 45 e0 a7 3d e4 b6 d2 3c c2 ce fd b9 be 8e 31 3d
       0.08197073 0.025721975 -0.00048409967 0.04334902
000120 a5 16 85 3e 6c a6 1d 3e 30 24 07 bd a4 19 6f bb
       0.2599384 0.15395516 -0.032993495 -0.003648379
000130 dd f1 09 be 6f fd 34 3e 90 c8 95 bd 47 69 d1 bd
       -0.1347117 0.17674802 -0.07313645 -0.10225158
000140 0e cc 34 be d9 06 a7 bd 86 23 31 bd 3c 80 cb bb
       -0.17655966 -0.08155603 -0.04324677 -0.006210355
000150 51 df 29 bd da 31 c6 3d 05 07 36 3e ed 91 73 3d
       -0.041472737 0.09677477 0.17776115 0.059465338
000160 44 c8 30 3d 3d 31 58 bd 05 bc 0e be 6c 63 61 3d
       0.04315974 -0.052781332 -0.13938911 0.055026457
000170 f4 a1 20 bd 93 a5 a0 bd 65 68 71 3d bf b6 5f 3e
       -0.03921695 -0.07844081 0.05893745 0.21847056
000180 26 49 21 3e 3a d2 d5 bc cb 5b 19 bd 9f 24 c2 bd
       0.1575056 -0.02610122 -0.037441056 -0.09479641
000190 bd 90 28 3e ea 2e 74 3c 1e c4 5e 3e 28 58 ef 3d
       0.16461463 0.014903763 0.217545 0.11686736
0001a0 8d 38 eb be 9b da 32 3e 6b 02 bb bd 9b 7c 29 be
       -0.45941582 0.17466204 -0.091313206 -0.1655144
0001b0 4b d8 a1 bc 8e 4a b2 3c 49 ae 2f 3e fc c4 b6 3d
       -0.019756457 0.021764066 0.17156328 0.089242905
0001c0 b2 fa d7 3d b1 d0 e1 3b 97 25 83 bd 35 ba b9 bc
       0.10545863 0.006891333 -0.06403654 -0.022671798
0001d0 c3 a2 63 3d 2f e1 f1 3d 93 0b 1b 3d e6 f7 ef 3d
       0.055575144 0.118105285 0.037852835 0.11717205
0001e0 73 69 7f bd e7 21 aa 3e 0d d3 5e 3c ea 91 25 be
       -0.062356424 0.3322899 0.013600123 -0.16168943
0001f0 4b 54 38 3e fb 52 c7 bc bc 3b 0a be 41 aa 53 3d
       0.18000905 -0.02433156 -0.1349935 0.05167604
000200 8e b7 02 bc 58 a1 03 3e 2e ea 0f bd 74 f5 50 3d
       -0.007978333 0.12854517 -0.03513544 0.051015332
000210 fa 8a 53 be f2 b8 16 3d b8 fd b4 bc b4 8a ae bc
       -0.20658484 0.03679747 -0.022093639 -0.021306373
000220 ba 05 4f be 86 65 18 bb 1f 3f 2b be 61 86 eb bc
       -0.20217028 -0.0023253872 -0.16723298 -0.0287506
000230 86 62 7a be 4e 2d eb bc 07 65 e6 3d f0 22 c3 3d
       -0.24451646 -0.028708126 0.11249738 0.09528148
000240 28 d7 03 3d aa d6 a3 3d 1f 88 11 be 3a 82 21 3e
       0.03218761 0.07999928 -0.14212082 0.15772334
000250 bc 85 dc 3c e3 bd 23 bd b5 f0 59 3d af 30 dc 3d
       0.026919238 -0.039976012 0.05320807 0.10751473
000260 15 ce f2 bd 90 6e ef 3d 89 4a 11 3e 08 d3 55 be
       -0.11855713 0.1169101 0.14188589 -0.20881283
000270 e6 46 92 bd 35 5b 08 bd d5 7a 4f bd a0 aa 1f 3d
       -0.07142429 -0.033290107 -0.05065425 0.03898108
000280 f0 e4 23 be d6 64 e5 bc 5c 1d 7c 3d b6 18 78 be
       -0.16005301 -0.028002184 0.061551437 -0.24228176
000290 16 90 58 be 24 31 5e bd 0d b4 79 3d 8b 16 02 3d
       -0.21148714 -0.054246083 0.060962725 0.03175978
0002a0 ca b7 9b 3d 5a 75 19 bd 2f 62 53 be cf 2b a6 3c
       0.07603414 -0.03746543 -0.20642923 0.020284561
0002b0 17 b6 be 3d be 3b fa 3d ae 94 3e 3d d6 e3 56 be
       0.09312075 0.12218426 0.04652851 -0.2098535
0002c0 ec df d5 3d 8b e3 9c bc d9 3b ab bd cb 04 07 3d
       0.104431 -0.01915147 -0.083610244 0.032963555
0002d0 a0 0f dc bd 9e d4 c4 bd 10 ac 97 bd be 29 7c 3b
       -0.10745168 -0.09610866 -0.07405865 0.0038477029
0002e0 fb f9 05 3e b1 0f 0f 3d 24 25 39 bc af 65 3b 3e
       0.13083641 0.034927074 -0.011300359 0.18300508
0002f0 c0 52 b3 bc 00 2e 11 3d b4 61 1f bd 76 87 c2 bd
       -0.021890044 0.03544426 -0.038911536 -0.094984934
000300 83 f1 eb bb e2 ac 96 3b cc 40 07 3e fc 7a e9 bd
       -0.0072004213 0.004598246 0.13208312 -0.114004105
000310 da 00 c3 3b 04 fa c3 bd 10 53 c9 3d 1f 11 17 bb
       0.0059510292 -0.09569171 0.09830296 -0.0023050976
000320 9b 02 c3 bd 2f 89 90 3c 97 65 f0 3c 7c bc 70 3e
       -0.09521981 0.01764354 0.029345317 0.23509401
000330 30 5c 91 bd 6d 4c f2 bc 9c 03 8a bd 78 6e 28 be
       -0.070976615 -0.029577458 -0.0673897 -0.1644839
000340 59 69 bc 3d 58 39 82 bd eb b4 1a be 46 6d 00 be
       0.09199781 -0.06358594 -0.15108077 -0.12541685
000350 47 dc c4 bd e0 bc eb 3d 2f 6f 4c bd 63 fd 12 3d
       -0.09612327 0.115106344 -0.04991072 0.03588618
000360 d0 a5 5c 3e 43 cf bb 3d 65 06 f6 3d 0a 81 fd bd
       0.21547627 0.091703914 0.120129384 -0.12378128
000370 3f a5 af 3c 3a 29 2f be 08 2b 91 be 88 38 84 3d
       0.0214411 -0.1710557 -0.28353143 0.06456095
000380 78 d0 bf 3d 92 39 66 3c d4 e9 6e 3d 4f c5 19 be
       0.09365934 0.014051812 0.058328465 -0.15016674
000390 90 0a 0c 3d 78 cc 00 bd 7d ae fa bd 7a db d0 bd
       0.03418976 -0.031444997 -0.12240312 -0.10198112
0003a0 5b ad 8b 3c 61 9d d6 bc 75 e0 91 bc bd d6 18 bc
       0.017050436 -0.026198091 -0.017807225 -0.009328541
0003b0 0d 74 bc 3d af d7 50 be f8 58 cf bc b8 51 45 be
       0.092018224 -0.20394777 -0.025310978 -0.19269454
0003c0 14 e4 5a be 40 36 f2 bc 82 76 75 3e 13 56 81 3d
       -0.21376067 -0.029566884 0.23970988 0.063152455
0003d0 0c ee 92 bd 3e 93 f7 bb 53 26 84 bd 44 ad 71 be
       -0.0717431 -0.0075553944 -0.06452622 -0.23601252
0003e0 0b 88 aa bd 46 df 84 3c 80 09 5e bd 37 ff ed 3d
       -0.083267294 0.016219746 -0.05420828 0.11620944
0003f0 f5 b2 82 3d f2 ca 7f be f4 d7 31 bc 78 82 39 bd
       0.063817896 -0.24979761 -0.01085471 -0.04529044

lstms.0.bias_ih_l0 f4 [128]
000000 d7 ab d8 bc 5a 3c 98 3d 01 22 58 3d d7 9f 98 3c
       -0.026449127 0.07433386 0.052766804 0.018630905
000010 04 85 17 bd 3f 6a f3 3c fd 36 33 3d 87 40 83 3d
       -0.036992088 0.029713748 0.043753613 0.06408792
000020 91 00 ba 3c ea 4c 30 3d 42 be 5c 3d 90 4d 88 3d
       0.022705348 0.0430421 0.05389238 0.06655419
000030 37 c9 69 bb aa a7 63 3d 89 99 91 3d 2e c3 91 3c
       -0.0035672912 0.05557982 0.07109363 0.017793264
000040 79 24 d3 bc 6f bc 8e 3d 41 3e 07 bd d0 3d 28 3d
       -0.025774227 0.069695346 -0.033018354 0.041074574
000050 aa 57 0a bd b2 86 7a 3d 73 01 8e 3d e2 7a fa bc
       -0.03377501 0.06116361 0.0693387 -0.030576173
000060 d2 c9 89 3d 96 cc 6e 3d f3 96 6d 3d 2b c4 21 3d
       0.06727947 0.058300577 0.058005285 0.03949372
000070 af b6 a0 3d ac 82 82 3d bd 2f 9a 3d 68 cf 58 bc
       0.07847344 0.0637258 0.075286366 -0.013233043
000080 aa 0c d4 bc 3e cb 78 3d 21 c3 3d 3d 96 2b f0 3c
       -0.025884945 0.0607407 0.046328668 0.029317658
000090 58 bc 11 bd 62 2f d3 3c be 44 1c 3d 5e 7d 6d 3d
       -0.03558001 0.02577943 0.038151495 0.057980888
0000a0 52 9c 5d 3c 81 c5 10 3d 73 7b 30 3d 5b 56 79 3d
       0.013526039 0.035344604 0.04308648 0.06087337
0000b0 6e 06 9e bb 9e 0e 47 3d 36 28 84 3d ce fa 58 3c
       -0.004822544 0.048597924 0.06452982 0.01324339
0000c0 fd d1 d9 bc eb 36 84 3d 21 6b 06 bd 78 68 4d 3d
       -0.026589388 0.06455787 -0.03281701 0.050148457
0000d0 f4 f3 09 bd db d9 5a 3d 1f 8a 6f 3d d6 67 f7 bc
       -0.033679917 0.05343042 0.058481332 -0.03020088
0000e0 10 8f 80 3d 90 c4 43 3d 42 da 41 3d ef ae 54 3d
       0.06277287 0.04779488 0.047327287 0.051924642
0000f0 5e 61 9d 3d 0b ba 65 3d 37 90 8c 3d 9a 65 63 bc
       0.07684587 0.056085628 0.06863444 -0.013879204
000100 89 e1 a4 bc 7e 87 f1 ba 0c 04 88 bc 48 87 08 bd
       -0.020127075 -0.0018427221 -0.016603492 -0.03333214
000110 d1 63 76 3c c9 a3 69 3c d8 48 83 bc ba 1c 73 bc
       0.0150384465 0.014260241 -0.016025946 -0.014838392
000120 c4 42 86 3a a6 3b 59 bc c2 0a c2 3b 03 be 27 3c
       0.0010243286 -0.01325885 0.0059216926 0.010238173
000130 89 8f c7 3c 8a 90 56 bc fc 8a 13 bc 8f 4e 90 3b
       0.024360435 -0.013095984 -0.009005304 0.004403896
000140 ff f2 08 3c f1 dd 7f bb df 6a c0 3b b3 84 84 3d
       0.008358716 -0.00390422 0.005872115 0.06470623
000150 62 8e 8f 3c 31 8e 29 bc e0 d7 88 3c 67 66 14 bc
       0.017523948 -0.0103488425 0.0167045 -0.009057618
000160 e9 45 05 3c cb 42 93 bc fb 05 8b 3c 65 fd 3e 3d
       0.008134344 -0.017976185 0.016970625 0.046628375
000170 7c c6 cc 3a cb 6d 8c bc b2 25 a3 ba 2f b7 03 bc
       0.0015623118 -0.017142197 -0.0012447147 -0.00803928
000180 ec 52 d8 bc ab 74 92 3d 12 72 53 3d 8a c3 cb 3c
       -0.026406728 0.07151159 0.051622458 0.024873514
000190 54 54 17 bd 4d a2 0c 3d ec d6 26 3d 0e c3 83 3d
       -0.036945656 0.03433447 0.04073231 0.06433688
0001a0 4b a8 9c 3c aa ce 12 3d 23 d8 49 3d 2c 0c 7e 3d
       0.019123217 0.03584162 0.04927839 0.062023327
0001b0 f3 ac 8f bb a4 cc 69 3d 24 e5 8d 3d d2 de 80 3c
       -0.004384631 0.057079926 0.06928471 0.015731249
0001c0 62 4f d7 bc 3c ea 8b 3d 70 11 04 bd e3 f7 15 3d
       -0.02628297 0.06831786 -0.032243192 0.036613356
0001d0 48 24 0f bd 3d eb 5d 3d b3 2d 80 3d 7e 83 f1 bc
       -0.03494671 0.05417942 0.062587164 -0.029481646
0001e0 dc 3c 82 3d b9 89 61 3d e1 b5 4e 3d 1d 7d 44 3d
       0.06359264 0.055062983 0.050466422 0.04797088
0001f0 62 77 a2 3d 6c cd 66 3d 43 36 8e 3d f8 a2 49 bc
       0.07932927 0.05634825 0.06943943 -0.012306921

lstms.0.bias_hh_l0 f4 [128]
000000 d7 ab d8 bc 5a 3c 98 3d 01 22 58 3d d7 9f 98 3c
       -0.026449127 0.07433386 0.052766804 0.018630905
000010 04 85 17 bd 3f 6a f3 3c fd 36 33 3d 87 40 83 3d
       -0.036992088 0.029713748 0.043753613 0.06408792
000020 91 00 ba 3c ea 4c 30 3d 42 be 5c 3d 90 4d 88 3d
       0.022705348 0.0430421 0.05389238 0.06655419
000030 37 c9 69 bb aa a7 63 3d 89 99 91 3d 2e c3 91 3c
       -0.0035672912 0.05557982 0.07109363 0.017793264
000040 79 24 d3 bc 6f bc 8e 3d 41 3e 07 bd d0 3d 28 3d
       -0.025774227 0.069695346 -0.033018354 0.041074574
000050 aa 57 0a bd b2 86 7a 3d 73 01 8e 3d e2 7a fa bc
       -0.03377501 0.06116361 0.0693387 -0.030576173
000060 d2 c9 89 3d 96 cc 6e 3d f3 96 6d 3d 2b c4 21 3d
       0.06727947 0.058300577 0.058005285 0.03949372
000070 af b6 a0 3d ac 82 82 3d bd 2f 9a 3d 68 cf 58 bc
       0.07847344 0.0637258 0.075286366 -0.013233043
000080 aa 0c d4 bc 3e cb 78 3d 21 c3 3d 3d 96 2b f0 3c
       -0.025884945 0.0607407 0.046328668 0.029317658
000090 58 bc 11 bd 62 2f d3 3c be 44 1c 3d 5e 7d 6d 3d
       -0.03558001 0.02577943 0.038151495 0.057980888
0000a0 52 9c 5d 3c 81 c5 10 3d 73 7b 30 3d 5b 56 79 3d
       0.013526039 0.035344604 0.04308648 0.06087337
0000b0 6e 06 9e bb 9e 0e 47 3d 36 28 84 3d ce fa 58 3c
       -0.004822544 0.048597924 0.06452982 0.01324339
0000c0 fd d1 d9 bc eb 36 84 3d 21 6b 06 bd 78 68 4d 3d
       -0.026589388 0.06455787 -0.03281701 0.050148457
0000d0 f4 f3 09 bd db d9 5a 3d 1f 8a 6f 3d d6 67 f7 bc
       -0.033679917 0.05343042 0.058481332 -0.03020088
0000e0 10 8f 80 3d 90 c4 43 3d 42 da 41 3d ef ae 54 3d
       0.06277287 0.04779488 0.047327287 0.051924642
0000f0 5e 61 9d 3d 0b ba 65 3d 37 90 8c 3d 9a 65 63 bc
       0.07684587 0.056085628 0.06863444 -0.013879204
000100 89 e1 a4 bc 7e 87 f1 ba 0c 04 88 bc 48 87 08 bd
       -0.020127075 -0.0018427221 -0.016603492 -0.03333214
000110 d1 63 76 3c c9 a3 69 3c d8 48 83 bc ba 1c 73 bc
       0.0150384465 0.014260241 -0.016025946 -0.014838392
000120 c4 42 86 3a a6 3b 59 bc c2 0a c2 3b 03 be 27 3c
       0.0010243286 -0.01325885 0.0059216926 0.010238173
000130 89 8f c7 3c 8a 90 56 bc fc 8a 13 bc 8f 4e 90 3b
       0.024360435 -0.013095984 -0.009005304 0.004403896
000140 ff f2 08 3c f1 dd 7f bb df 6a c0 3b b3 84 84 3d
       0.008358716 -0.00390422 0.005872115 0.06470623
000150 62 8e 8f 3c 31 8e 29 bc e0 d7 88 3c 67 66 14 bc
       0.017523948 -0.0103488425 0.0167045 -0.009057618
000160 e9 45 05 3c cb 42 93 bc fb 05 8b 3c 65 fd 3e 3d
       0.008134344 -0.017976185 0.016970625 0.046628375
000170 7c c6 cc 3a cb 6d 8c bc b2 25 a3 ba 2f b7 03 bc
       0.0015623118 -0.017142197 -0.0012447147 -0.00803928
000180 ec 52 d8 bc ab 74 92 3d 12 72 53 3d 8a c3 cb 3c
       -0.026406728 0.07151159 0.051622458 0.024873514
000190 54 54 17 bd 4d a2 0c 3d ec d6 26 3d 0e c3 83 3d
       -0.036945656 0.03433447 0.04073231 0.06433688
0001a0 4b a8 9c 3c aa ce 12 3d 23 d8 49 3d 2c 0c 7e 3d
       0.019123217 0.03584162 0.04927839 0.062023327
0001b0 f3 ac 8f bb a4 cc 69 3d 24 e5 8d 3d d2 de 80 3c
       -0.004384631 0.057079926 0.06928471 0.015731249
0001c0 62 4f d7 bc 3c ea 8b 3d 70 11 04 bd e3 f7 15 3d
       -0.02628297 0.06831786 -0.032243192 0.036613356
0001d0 48 24 0f bd 3d eb 5d 3d b3 2d 80 3d 7e 83 f1 bc
       -0.03494671 0.05417942 0.062587164 -0.029481646
0001e0 dc 3c 82 3d b9 89 61 3d e1 b5 4e 3d 1d 7d 44 3d
       0.06359264 0.055062983 0.050466422 0.04797088
0001f0 62 77 a2 3d 6c cd 66 3d 43 36 8e 3d f8 a2 49 bc
       0.07932927 0.05634825 0.06943943 -0.012306921

fc.weight f4 [1, 32]
000000 19 59 0f 3d cd 5e 81 3d a9 5f 30 3e b9 23 86 bd
       0.03499708 0.0631691 0.17223991 -0.06549782
000010 32 b5 00 be 90 d5 bd 3c dc 04 b1 3d a3 de 15 3e
       -0.1256912 0.023173124 0.08643505 0.1463571
000020 ad 54 8d bb ba 43 05 3e 5d 72 0b be cd 41 3d be
       -0.0043130727 0.13014117 -0.13617845 -0.18482132
000030 80 30 b1 3c ce e1 f5 3d 18 ef b7 3d 0a 8b 75 bb
       0.021629572 0.120059595 0.089811504 -0.0037466907
000040 cb fc 00 bd f8 dd 51 3e de e9 b2 bd 72 ea 82 3d
       -0.031491082 0.2049483 -0.08736013 0.06392373
000050 ee 98 4d bd b5 32 63 3e 18 d2 ef bd 74 21 be 3d
       -0.050194673 0.22187312 -0.11709994 0.092837244
000060 70 5f 64 be 26 f8 d8 3d 96 b2 75 bd 92 d0 a2 3d
       -0.22302032 0.105942056 -0.059984766 0.07949938
000070 46 f9 ec 3c 16 ce 11 3e 2d 35 12 3e 7b bc d1 3d
       0.028927457 0.14238772 0.14278097 0.10241028
