labs/models/USD/14_64_16_sgd.pth (torch, 93059 bytes, 9 tensors)

lstms.0.weight_ih_l0 f4 [256, 1]
0	0xbdddf124	-0.108370095
1	0x3e218c76	0.15776238
2	0x3e3e644d	0.18592949
3	0xbd410f57	-0.04713377
4	0xbdbce729	-0.09223778
5	0x3e32f099	0.17474593
6	0xbdce721c	-0.100803584
7	0xbdd6386e	-0.10459982
8	0xbd852783	-0.06501677
9	0x3db7a33f	0.089666836
10	0xbe3b92eb	-0.18317764
11	0x3d52b6fe	0.051444046
12	0x3d9a0ae3	0.07521608
13	0x3c8b590d	0.017010236
14	0x3d2d4ae8	0.042307764
15	0x3c9a5dc5	0.01884354
16	0xbe1efda6	-0.15526447
17	0x3e138a58	0.14408243
18	0xbc3e811b	-0.011627461
19	0xbd9eb8e1	-0.077501066
20	0xbdd28e3b	-0.102810346
21	0xbd6334ab	-0.05547015
22	0xbd0171df	-0.031602737
23	0xbe07a11e	-0.13245055
24	0xbbd8d205	-0.006616833
25	0xbe298f2c	-0.16558522
26	0x3a8c21a3	0.0010691177
27	0x3d165c84	0.036709324
28	0xbd784b9b	-0.060618978
29	0xbdc20660	-0.09473872
30	0x3e065d7c	0.13121599
31	0xbd01e69e	-0.031714074
32	0x3de7961c	0.11307928
33	0xbda0f69b	-0.07859536
34	0x3deed55e	0.1166179
35	0x3df2bfe8	0.118530095
36	0xbcc7865a	-0.024356056
37	0x3d7628f6	0.060097657
38	0x3e8a8216	0.27052373
39	0x3c478168	0.012176849
40	0x3d3cd3dd	0.046100486
41	0xbc9f1622	-0.019419733
42	0x3e0e8d48	0.13921082
43	0x3da1714a	0.07882936
44	0xbc09b53e	-0.008405028
45	0xbdfa5659	-0.12223501
46	0x3e27c6b0	0.16384387
47	0xbdb28f36	-0.087187216
48	0xbde120bb	-0.10992571
49	0x3cb8853b	0.022524467
50	0x3cfdf02c	0.030998312
51	0x3d875034	0.066070944
52	0xbe0f8dec	-0.14018983
53	0x3d7be66b	0.06149904
54	0x3da74faa	0.081694916
55	0x3cf50711	0.029910596
56	0xba560be6	-0.0008165225
57	0x3d69901c	0.0570222
58	0xbdefbf71	-0.117064364
59	0x3d8d821f	0.06909584
60	0xbddd9eb5	-0.108212866
61	0x3cdd5561	0.02701825
62	0xbdc1f110	-0.09469807
63	0x3de05625	0.10953931
64	0x3d368de2	0.044568904
65	0xbdb57f44	-0.088621646
66	0x3bd599a6	0.0065185605
67	0x3e00a527	0.12563
68	0x3e0f88db	0.1401705
69	0xbd086e1c	-0.033308133
70	0x3d46d990	0.048547328
71	0x3da3d89a	0.08000298
72	0xbdea98ba	-0.114549115
73	0xbb88d794	-0.0041760895
74	0xbc54729e	-0.01296678
75	0xbd8b1b43	-0.06792309
76	0x3d8b4919	0.06801052
77	0xbd14efff	-0.03636169
78	0x3e02215d	0.1270804
79	0xbe0b0466	-0.13575897
80	0x3df867af	0.12129151
81	0xbd3e8010	-0.04650885
82	0x3a06080d	0.0005112894
83	0xbc23a1c5	-0.009987299
84	0x3ddbaad9	0.10725946
85	0xbda608ac	-0.08107123
86	0xbd39817e	-0.04528951
87	0x3e2f6d99	0.17131652
88	0x3e15e676	0.14638695
89	0x3d4e5c82	0.05038119
90	0x3dab4cc2	0.0836425
91	0xbcf2a233	-0.029618358
92	0xbdcccad4	-0.09999624
93	0x3dc4b571	0.0960492
94	0xbe03a230	-0.12854838
95	0x3e0ea9a1	0.13931896
96	0xbd87cab8	-0.066304624
97	0xbd2e510f	-0.042557772
98	0x3dae4e21	0.08510996
99	0x3da766e9	0.081739254
100	0xbd7d70dd	-0.061875213
101	0xbca95c65	-0.02067394
102	0xbd678afb	-0.056529026
103	0x3dadd38e	0.084876165
104	0xbb981ca4	-0.004642086
105	0x3e090f96	0.13384852
106	0xbda4cbfb	-0.08046719
107	0xbcfd5678	-0.03092502
108	0x3d3da04d	0.046295453
109	0x3dcb591f	0.09929108
110	0xbda51895	-0.08061329
111	0xbd950723	-0.07276752
112	0xbcc0aeb2	-0.023520801
113	0x3d328e66	0.043592833
114	0xbc997954	-0.018734612
115	0x3d18a7b3	0.037269305
116	0xbd92d9db	-0.07170459
117	0xbcb056e1	-0.021525802
118	0xbd8b235e	-0.06793855
119	0xbd3a7b1c	-0.045527562
120	0x3e3edacf	0.18638156
121	0x3e202a17	0.15641056
122	0x3db9be69	0.09069521
123	0xbdaaf0e6	-0.08346729
124	0x3dd14c89	0.10219676
125	0x3d516df1	0.05113024
126	0xbc9a6d19	-0.01885085
127	0xbde899eb	-0.113574825
128	0xbb7c1957	-0.0038467252
129	0xbe09a1d5	-0.1344064
130	0xbd84de01	-0.064876564
131	0x3d6df1b1	0.058091823
132	0xbdeeadfe	-0.1165428
133	0x3e0d1d90	0.13780808
134	0xbd57399d	-0.05254518
135	0xbe4bdf99	-0.19909514
136	0x3dd46f66	0.1037281
137	0x3c2a254a	0.010384867
138	0x3d3f2692	0.046667643
139	0xbd3eb4a0	-0.046558976
140	0xbe1a862c	-0.15090245
141	0xbc3dc3a0	-0.011582285
142	0xbdbed32c	-0.093176216
143	0x3c84fec6	0.016234767
144	0x3d362472	0.04446835
145	0xbd2f317f	-0.042771813
146	0x3d5a3b74	0.053279355
147	0xbd19c488	-0.037540942
148	0xbc3c1820	-0.011480361
149	0x3cca0a01	0.024662973
150	0xbde26c64	-0.1105583
151	0x3a857c55	0.0010184149
152	0xbd54e39c	-0.051974878
153	0xbd8d02a4	-0.06885269
154	0xbdf38389	-0.11890323
155	0xbd8f3753	-0.06992974
156	0xbc68bcfa	-0.014205212
157	0x3d4bcbfd	0.049755085
158	0x3d192ede	0.03739821
159	0xbd1e11e5	-0.038591284
160	0x3cd1a509	0.02559139
161	0x3e6e88e9	0.23294415
162	0x3cc9496e	0.024571147
163	0xbd4ffffa	-0.050781228
164	0x3b03ce0f	0.0020111834
165	0xbe13f588	-0.14449131
166	0xbdb9c786	-0.09071259
167	0xbbb231c8	-0.0054380633
168	0xbd959f05	-0.07305721
169	0xbdd225f7	-0.102611475
170	0xbde1745d	-0.11008523
171	0x3c900b57	0.017583532
172	0xbe10384d	-0.14083977
173	0x3c30f15a	0.01079973
174	0xbd8f80d1	-0.07006992
175	0xbd5aeeb4	-0.0534503
176	0xbd309693	-0.04311235
177	0x3db8ad72	0.09017457
178	0x3ddd3ec3	0.108029865
179	0x3c97cfb3	0.018531656
180	0x3d01845b	0.031620365
181	0xbddf75d3	-0.10911145
182	0xbe5a3467	-0.21309052
183	0xbe2db052	-0.16961792
184	0x3ca68c7a	0.020330656
185	0x3d16084a	0.036629
186	0xbca34ce2	-0.019934122
187	0x3cdfc8ca	0.027317423
188	0xbd84eb67	-0.06490212
189	0xbe11f78f	-0.14254592
190	0x3dd05624	0.1017268
191	0xbe1fa5d4	-0.15590602
192	0x3dbccdfa	0.092189744
193	0xbd03c543	-0.032170545
194	0x3e011ddc	0.12609047
195	0xbd83a251	-0.06427444
196	0xbc6ebdbb	-0.014571602
197	0xbb004e56	-0.0019577942
198	0xbd1a6264	-0.03769149
199	0x3d71c971	0.05903
200	0xbe077c10	-0.1323092
201	0x3c7391b4	0.014866281
202	0x3cdc0e75	0.026862362
203	0xbe0a8879	-0.13528623
204	0xbcf93c00	-0.030424118
205	0x3d1adcc9	0.037808213
206	0xbce32f96	-0.027732652
207	0xbca5bc23	-0.020231312
208	0xbdf7f1ef	-0.12106692
209	0xbc2102eb	-0.009827356
210	0xbbf19b91	-0.0073732813
211	0xbd6759df	-0.056482192
212	0x3c42053d	0.011842069
213	0xbe04bf02	-0.12963489
214	0xbe36d1a5	-0.1785341
215	0x3d6995d7	0.057027664
216	0x3c8f99bb	0.01752936
217	0x3e406dff	0.1879196
218	0x3dfe9960	0.12431598
219	0x3d3080f1	0.043091718
220	0xbd257ee0	-0.0404042
221	0xbdd15ecd	-0.1022316
222	0xbd847855	-0.06468264
223	0xbd280bc1	-0.041026834
224	0xbd1119bd	-0.035424937
225	0xbe2ee346	-0.17078885
226	0xbd0a3e9e	-0.033751123
227	0xbd0cbec7	-0.034361627
228	0xbdda6383	-0.106635116
229	0xbdb78002	-0.089599624
230	0xbd170ee8	-0.03687945
231	0xbd56537c	-0.05232571
232	0xbcee3e13	-0.029082334
233	0x3985bd61	0.00025508835
234	0x3c35bc59	0.011092269
235	0x3db53d86	0.08849625
236	0x3e137b19	0.14402427
237	0x3dc41099	0.09573478
238	0xbddb1b13	-0.10698523
239	0x3e257cf5	0.16160949
240	0xbd7c44b4	-0.061588958
241	0x3d276917	0.040871706
242	0x3e1e2c8b	0.1544668
243	0xbd0e3247	-0.034715917
244	0xbd97ba90	-0.07408631
245	0xbccbe94d	-0.02489152
246	0xbd109a11	-0.03530318
247	0xbe5705ef	-0.20998357
248	0x3e77f2cc	0.24213713
249	0xbd1221c5	-0.035676736
250	0x3d86bb02	0.06578638
251	0xbe45e639	-0.19326104
252	0xbcefa77c	-0.029254667
253	0x3cfee015	0.03111271
254	0xbe2e47f6	-0.17019638
255	0x3dae0740	0.084974766

lstms.0.weight_hh_l0 f4 [256, 64]
0	0x3d3a2611	0.04544646
1	0x3e251b4b	0.16123693
2	0x3bd0fad6	0.006377558
3	0xbdaca8f6	-0.08430664
4	0x3db1573d	0.086592175
5	0xbb446c5c	-0.0029971814
6	0xbd7574c7	-0.05992582
7	0xbc923306	-0.017846595
8	0xbce6cd80	-0.028174162
9	0x3c749f79	0.014930599
10	0xbca87962	-0.020565692
11	0x3e2ce847	0.16885482
12	0x3b90195b	0.004397554
13	0x3e4fc7c0	0.20291042
14	0xbc80c4b3	-0.015718793
15	0xbca8533c	-0.020547502
16	0xbc3d9d4f	-0.01157315
17	0xbd2490c1	-0.04017711
18	0xbd3170ac	-0.043320343
19	0x3dcb6d0e	0.0993291
20	0xbdf756c4	-0.12077096
21	0xbc891258	-0.01673238
22	0x3b29ada5	0.0025890854
23	0xbe0c49a9	-0.13699974
24	0xbcdef392	-0.027215753
25	0x3b989f8a	0.0046576904
26	0x3d505a09	0.050867114
27	0x3be7ff56	0.007079999
28	0x3c5ef6ce	0.0136086475
29	0x3dc627e7	0.096755795
30	0xbda92e0f	-0.08260738
31	0x3e4cd214	0.20002013
32	0xbcbd2d9a	-0.023093034
33	0x3da14998	0.07875365
34	0x3e1c9f8a	0.15295234
35	0xbd058fcc	-0.03260784
36	0x3d489376	0.048968755
37	0x3d163cb4	0.036678985
38	0xbd9f8266	-0.077885434
39	0x3d668db7	0.056287494
40	0xbd9a0d44	-0.075220615
41	0xbc961668	-0.018321231
42	0x3d30e6a1	0.043188695
43	0xbb6da69f	-0.0036262644
44	0xbe1f8e26	-0.15581569
45	0x39f2e6da	0.00046329835
46	0x3d58c3d4	0.05292113
47	0xbd984e74	-0.07436839
48	0xb9db5e05	-0.00041840985
49	0x3d0592af	0.03261059
50	0x3cf3ae21	0.029746117
51	0x3d19e594	0.03757246
52	0x3d0a9616	0.03383454
53	0xbd1388a6	-0.03601899
54	0xbca51705	-0.020152578
55	0x3c8ab304	0.016931064
56	0x3caa6baa	0.020803291
57	0xbcd87b5c	-0.02642601
58	0xbddf54bc	-0.10904834
59	0x3d08058c	0.033208415
60	0x3ca7e581	0.020495178
61	0x3c10071e	0.008790759
62	0x3d9d3d14	0.07677665
63	0x3dab45ef	0.08362948
64	0x3d9e29a4	0.07722786
65	0x3c6df3a7	0.014523423
66	0xbe03033a	-0.127942
67	0xbb2c66d9	-0.002630642
68	0x3a38189e	0.0007022711
69	0xbdb61dd9	-0.08892412
70	0xbd18f943	-0.03734709
71	0xbcf14516	-0.029451888
72	0xbdaed94b	-0.08537539
73	0x3d87da5e	0.06633447
74	0xbac27e2b	-0.0014838626
75	0x3dcb445f	0.0992515
76	0xbcc24f6d	-0.023719514
77	0x3e04fa1e	0.12986037
78	0xbc85cc30	-0.016332716
79	0xbd0d0cd7	-0.034436073
80	0x3d3739e9	0.04473296
81	0x3de290d7	0.11062782
82	0xbd7167f9	-0.058937047
83	0xbc9e64ba	-0.01933514
84	0xbda25b02	-0.079275146
85	0xbc07b0f1	-0.008281932
86	0xbe0c5df4	-0.13707715
87	0xbd7a164f	-0.06105643
88	0x3c58ab3c	0.013224419
89	0xbd06e093	-0.032929014
90	0xbd744f78	-0.0596461
91	0x3cfa8e1f	0.030585347
92	0x3d39aafd	0.045329083
93	0x3dc3be30	0.0955776
94	0x3b59e5aa	0.0033248463
95	0xbd1d4f4e	-0.03840571
96	0x3e021628	0.12703764
97	0xbd4013fe	-0.046894066
98	0xbdf77d20	-0.120844126
99	0x3d81b242	0.06332828
100	0xbc7f8dd8	-0.015597783
101	0x3d0a4ad8	0.033762783
102	0x3e049733	0.12948303
103	0x3d94652c	0.072458595
104	0xbd9acce7	-0.07558613
105	0x3d5dca36	0.05414792
106	0x3d96b25d	0.07358239
107	0x3c8b18b9	0.016979562
108	0xbdda8f08	-0.10671812
109	0xbda6b587	-0.08140092
110	0x3e1c96b8	0.1529187
111	0xbe4dcff1	-0.20098855
112	0x3cffb578	0.03121446
113	0x3c1ac8cd	0.009447289
114	0xbccdda42	-0.025128487
115	0xbd085829	-0.0332872
116	0xbd86cc57	-0.065819435
117	0x3dd2c0ff	0.10290717
118	0xbe0208f5	-0.1269873
119	0x3d949c00	0.07256317
120	0x3c39157f	0.011296629
121	0x3dd722f8	0.10504717
122	0xbd245211	-0.040117327
123	0xbdb447c5	-0.088027515
124	0x3d9edf75	0.07757465
125	0xbddbb0c6	-0.10727076
126	0xbe115b89	-0.14195074
127	0x3c8a0f7a	0.016853083
128	0x3d7fb424	0.062427655
129	0x3de2a82a	0.11067231
130	0x3bdd3b92	0.006751486
131	0x3d926c1d	0.07149527
132	0x3a8f78d1	0.001094604
133	0x3d49eb95	0.049296934
134	0xbd8b229f	-0.06793713
135	0x3e1fe7bb	0.15615742
136	0x3c405872	0.011739837
137	0xbdab9635	-0.08378259
138	0x3cb53309	0.022119062
139	0xbc189e4d	-0.009315086
140	0xbce5a136	-0.028030973
141	0x3d7533a5	0.059863705
142	0x3d72e71d	0.059302438
143	0xbd8719c8	-0.06596714
144	0xbe0d5cf5	-0.13804992
145	0xbc433933	-0.011915493
146	0x3cb4e270	0.02208063
147	0xbe228f7c	-0.15875047
148	0x3e118f04	0.14214712
149	0x3e13f7b7	0.14449964
150	0xbe033770	-0.12814116
151	0x3d11e234	0.035616115
152	0x3daf0ffd	0.085479714
153	0xbe067f3b	-0.13134472
154	0xbc14c6ac	-0.00908057
155	0x3cd10f2d	0.025519932
156	0xbdd1781b	-0.102279864
157	0x3d51900d	0.05116277
158	0xbdc5b484	-0.09653571
159	0xbc1606c1	-0.009156884
160	0xbd32284e	-0.04349547
161	0xbd8a74ef	-0.067605846
162	0xbd5d4cb4	-0.054028228
163	0xbccd0eba	-0.025031436
164	0xbcb2de56	-0.021834534
165	0xbe05c3f8	-0.13063037
166	0xbc7f89e7	-0.015596843
167	0xbc9b5f96	-0.018966477
168	0x3d04ea04	0.032449737
169	0x3d20427d	0.03912591
170	0xbde5cafe	-0.11220358
171	0xbdd5b314	-0.10434547
172	0x3c0ef838	0.008726172
173	0xbd23699e	-0.039895646
174	0xb99c1e99	-0.00029777436
175	0xbcbcc710	-0.02304414
176	0x3c991216	0.018685382
177	0x3e139f06	0.14416131
178	0x3e047809	0.12936415
179	0x3d0ffbe6	0.03515234
180	0x3d092797	0.03348502
181	0xbd9f1778	-0.07768148
182	0xbc4f86e8	-0.0126664415
183	0x3dbff5d7	0.09373062
184	0x3d0401ee	0.032228403
185	0x3d0dee17	0.03465089
186	0xbd9f6ccf	-0.077844255
187	0x3e198a75	0.14994223
188	0xbd8a6286	-0.06757073
189	0x3e3d49dc	0.18485206
190	0xbd5251bd	-0.051347483
191	0xbd03d98b	-0.032189887
192	0xbbd52d70	-0.0065056607
193	0x3da2ce23	0.07949474
194	0x3c80d1a0	0.015724957
195	0xbcdc4ac9	-0.02689113
196	0x3c9278e3	0.017879909
197	0xbe181c78	-0.1485461
198	0x3c8e137a	0.017343272
199	0xbdbe6c15	-0.09297959
200	0x3dec9ce8	0.11553365
201	0x3d9e9136	0.077425405
202	0x3cc2edac	0.023794971
203	0x3e1ff937	0.15622412
204	0x3cfb7644	0.030696042
205	0x3d127309	0.035754237
206	0x3bdb8d10	0.0067001656
207	0xbdd61d1b	-0.1045477
208	0xbe235a67	-0.15952455
209	0xbd566613	-0.05234344
210	0xbd52c3a1	-0.051456098
211	0xbd590002	-0.052978523
212	0x3dd07572	0.10178651
213	0xbd179ac1	-0.03701282
214	0xbd537c5a	-0.051632263
215	0x3c440463	0.0119639365
216	0xbd0618c6	-0.03273847
217	0xbcf9df5f	-0.03050202
218	0xbd864698	-0.065564334
219	0xbc85bc30	-0.016325086
220	0x3c44b8e6	0.012006974
221	0xbdf119c3	-0.11772492
222	0xbd076ff8	-0.033065766
223	0xbd6b6421	-0.057468537
224	0xbd206170	-0.039155424
225	0x3d3270ad	0.043564487
226	0x3d7d7a45	0.061884183
227	0xbc3bc7a5	-0.011461173
228	0x3ddf6047	0.10907035
229	0x3da8c775	0.082411684
230	0xbc961e70	-0.01832506
231	0xbb3703fa	-0.0027925954
232	0x3e4e3eaa	0.20141092
233	0xbca7d670	-0.020487994
234	0xbd370896	-0.044685923
235	0x3d4475c2	0.047963865
236	0xbdf72b6e	-0.120688304
237	0x3e207733	0.15670471
238	0x3e1090cb	0.14117734
239	0x3cc7964d	0.024363661
240	0xbc5e2ec5	-0.013560955
241	0x3c040f54	0.008060295
242	0x3c291dc4	0.010322038
243	0x3dc26b48	0.094931185
244	0x3cfd0dcf	0.030890374
245	0x3c8cc923	0.017185753
246	0xbbe250a8	-0.0069065876
247	0x3def5f32	0.11688079
248	0xbd7e2412	-0.062046118
249	0xbdd003a6	-0.10156946
250	0x3c3f67c9	0.011682459
251	0xbe59a7fb	-0.21255486
252	0xbda22d33	-0.07918777
253	0xbd9b4904	-0.07582286
254	0xbca4703c	-0.020073049
255	0xbd65358c	-0.05595927

lstms.0.bias_ih_l0 f4 [256]
0	0xb922dd60	-0.00015531993
1	0xb8a5d6d1	-7.907826e-05
2	0x37c2a6dd	2.3204304e-05
3	0xb91c9956	-0.00014934441
4	0x38651756	5.4619588e-05
5	0x37df059d	2.6586285e-05
6	0x359dbf59	1.1753101e-06
7	0x37e235c5	2.6966338e-05
8	0xb89f5a45	-7.598525e-05
9	0xb6bbe00d	-5.5991172e-06
10	0xb9192582	-0.0001460519
11	0x385ab1c0	5.2140793e-05
12	0xb8dba866	-0.000104741004
13	0xb93aa724	-0.00017800607
14	0xb8a7cd82	-8.001459e-05
15	0xb9499c2c	-0.00019227032
16	0x378f6a4e	1.709643e-05
17	0x385f6662	5.3262695e-05
18	0xb778857d	-1.4813032e-05
19	0x38575b64	5.134511e-05
20	0x386791ae	5.5210367e-05
21	0xb8f2aefa	-0.00011572051
22	0xb8bc318d	-8.973768e-05
23	0xb7c5d6a9	-2.3584189e-05
24	0xb93604b5	-0.00017358626
25	0x396aa3cd	0.00022377
26	0xba080c55	-0.0005189826
27	0xb98d89f7	-0.00026996408
28	0x38ea1d1d	0.00011163412
29	0xb63774b5	-2.7337057e-06
30	0x37f440ca	2.9117236e-05
31	0xb92562b9	-0.00015772403
32	0xb95808b1	-0.00020602603
33	0x3a9d65f5	0.0012008535
34	0xb7ceae41	-2.4638257e-05
35	0xb7f19900	-2.8800685e-05
36	0x3882ba3e	6.2335734e-05
37	0x399a3dcb	0.00029419208
38	0x39b0a666	0.00033693312
39	0xb98c2bbf	-0.00026735474
40	0x3922057d	0.00015451568
41	0x39eae241	0.0004480053
42	0x37e86a5a	2.7706079e-05
43	0xb43215f9	-1.6585535e-07
44	0x3a090578	0.000522695
45	0x35759af8	9.149512e-07
46	0xb5ec80b8	-1.7620832e-06
47	0xb7d573d3	-2.5445514e-05
48	0x37a855d5	2.006713e-05
49	0x37917e13	1.7344055e-05
50	0x39b7516e	0.0003496515
51	0x388cc027	6.7115114e-05
52	0xb884b675	-6.328236e-05
53	0xb91f2597	-0.00015177425
54	0x3a5c2c07	0.00083988946
55	0x3959acac	0.00020759058
56	0x36bc6f45	5.61579e-06
57	0x382e019f	4.1486343e-05
58	0x38ee65f9	0.00011367718
59	0xb844d313	-4.692662e-05
60	0xb78494b3	-1.580487e-05
61	0xba04b6ad	-0.0005062621
62	0x3946107d	0.00018888894
63	0x3a090320	0.0005226601
64	0xb922c71d	-0.000155237
65	0xb8a230a6	-7.7338234e-05
66	0x37b7e718	2.1922911e-05
67	0xb91a31da	-0.00014705156
68	0x385f1405	5.3185988e-05
69	0x37d8bcee	2.5837184e-05
70	0x359e745e	1.1805785e-06
71	0x37e0481e	2.6736463e-05
72	0xb8a26815	-7.744149e-05
73	0xb6ba038b	-5.5436444e-06
74	0xb91d8032	-0.00015020443
75	0x385a6d89	5.2077263e-05
76	0xb8d5143a	-0.00010160399
77	0xb9395501	-0.00017674641
78	0xb8a1f3b8	-7.7224744e-05
79	0xb94cbe08	-0.00019525748
80	0x378d4eab	1.6845142e-05
81	0x3853af78	5.046974e-05
82	0xb7751bf8	-1.460965e-05
83	0x385ae21a	5.2185824e-05
84	0x38652f20	5.4641743e-05
85	0xb8f5793c	-0.00011705092
86	0xb8be0e1a	-9.0625326e-05
87	0xb7c3f2b5	-2.335883e-05
88	0xb9321b0e	-0.00016985481
89	0x396afccf	0.00022410158
90	0xba05b0d6	-0.0005099898
91	0xb98c48af	-0.00026757034
92	0x38f103db	0.00011492494
93	0xb634ce16	-2.6942048e-06
94	0x37f3be52	2.9056482e-05
95	0xb922516a	-0.00015479853
96	0xb9542d67	-0.00020234809
97	0x3aa2fff0	0.0012435894
98	0xb7c8b284	-2.3924986e-05
99	0xb7eac0c7	-2.7984743e-05
100	0x38855a13	6.358712e-05
101	0x399752b4	0.00028862583
102	0x39a6c7c8	0.00031810836
103	0xb98a55a4	-0.00026385218
104	0x391e01bf	0.00015068705
105	0x39e27955	0.00043196479
106	0x37dfd425	2.6682459e-05
107	0xb42ad0de	-1.5908469e-07
108	0x3a04a540	0.00050600246
109	0x3576f02a	9.1991626e-07
110	0xb6021f83	-1.9389852e-06
111	0xb7d04a05	-2.483e-05
112	0x37aaa291	2.034128e-05
113	0x378d59a0	1.6850245e-05
114	0x39b36544	0.0003421699
115	0x38891f23	6.538469e-05
116	0xb8872b82	-6.4454056e-05
117	0xb91c75fc	-0.00014921272
118	0x3a5ae17e	0.0008349641
119	0x39582a7b	0.0002061519
120	0x36b2b172	5.3254707e-06
121	0x3823ed20	3.908307e-05
122	0x38ef31f4	0.000114057126
123	0xb843fe59	-4.6728503e-05
124	0xb784d1be	-1.5833295e-05
125	0xba01803e	-0.0004940069
126	0x39466990	0.00018922077
127	0x3a089fab	0.00052117807
128	0xbb90ea8b	-0.004422491
129	0xba8f0f17	-0.0010914531
130	0x3a4d5ff8	0.000783443
131	0x3bc8986b	0.0061216853
132	0x3aab2139	0.0013056166
133	0xb90396bc	-0.00012549286
134	0xb8d68091	-0.000102282625
135	0x38d114db	9.969781e-05
136	0x3addf798	0.0016934751
137	0x369fa518	4.7577887e-06
138	0x3b875a07	0.004130605
139	0x3a3fb2ca	0.00073127134
140	0xba8290a1	-0.0009961316
141	0xbbca086a	-0.006165554
142	0xbb509bcc	-0.0031831143
143	0x3b9c789b	0.0047751195
144	0xbb7993dc	-0.0038082516
145	0x3afeaa09	0.0019429337
146	0x3b0974f8	0.002097426
147	0x3b1a911f	0.0023585034
148	0x3aa731b2	0.0012755899
149	0x3b3992be	0.0028316225
150	0xbad40241	-0.0016174988
151	0x3acc3059	0.0015578374
152	0xbb94d7be	-0.00454232
153	0x3b7763d4	0.0037748711
154	0xbbaaf0a5	-0.0052166753
155	0xbbc725c5	-0.0060775005
156	0x3c0a6d81	0.008448959
157	0xbb0a9478	-0.0021145623
158	0xbaccdd1d	-0.0015629862
159	0xbb893be3	-0.0041880473
160	0x3ba4ec7d	0.0050330744
161	0xbc0089d5	-0.007845362
162	0x3b112609	0.0022147915
163	0xbad9bd85	-0.0016612267
164	0x3bb5d8b6	0.0055495156
165	0x3b0fc9c2	0.0021940325
166	0x3b8bd33e	0.0042671254
167	0xbbc9c65e	-0.0061576804
168	0x3b7405f6	0.0037234998
169	0x3b93685e	0.0044985255
170	0x3a58ddb8	0.0008272785
171	0xba8e5180	-0.0010858029
172	0x3bb5ffee	0.005554191
173	0x3991eb2b	0.0002783177
174	0x397fef98	0.0002440795
175	0xbb841b9f	-0.004031613
176	0x3a0b3606	0.00053104793
177	0xb97c9cef	-0.00024091055
178	0xbb4d8b83	-0.0031363673
179	0x3b9959e3	0.004679905
180	0x3b76ee60	0.0037678704
181	0xbaf88e27	-0.0018963263
182	0x3bd10be8	0.006379593
183	0x3b4746be	0.0030407156
184	0xba4660e2	-0.0007567537
185	0xba9bb4e0	-0.0011879466
186	0x3b8c4a01	0.004281283
187	0x3abe878a	0.0014536243
188	0xba8d62c5	-0.0010786882
189	0xbb884ac4	-0.0041593034
190	0xbb2bcad2	-0.002621342
191	0x3b9a5c53	0.004710713
192	0xb928369e	-0.00016042075
193	0xb8a1b914	-7.711552e-05
194	0x37be7c1d	2.270756e-05
195	0xb91d6d72	-0.00015013458
196	0x386a229e	5.5822187e-05
197	0x37dce7da	2.6334008e-05
198	0x359b2fdb	1.1562328e-06
199	0x37e7999f	2.7608881e-05
200	0xb8a02854	-7.636906e-05
201	0xb6bbf6e3	-5.6017757e-06
202	0xb9201af2	-0.00015268827
203	0x384e784b	4.922626e-05
204	0xb8db4f81	-0.000104575425
205	0xb93c73c7	-0.00017972208
206	0xb8a55eb1	-7.885451e-05
207	0xb9494c27	-0.00019197223
208	0x3790d5a4	1.7265622e-05
209	0x385263f3	5.0160987e-05
210	0xb778bc41	-1.4825783e-05
211	0x385ad981	5.2177817e-05
212	0x386c91dd	5.640263e-05
213	0xb8ef3295	-0.0001140583
214	0xb8b6fdc2	-8.725702e-05
215	0xb7cd6481	-2.4484705e-05
216	0xb9390e82	-0.0001764838
217	0x397ab851	0.00023910521
218	0xba0b6783	-0.00053178536
219	0xb98db1b0	-0.00027026003
220	0x38ece28a	0.00011295553
221	0xb6381e1f	-2.743567e-06
222	0x37eaf0b7	2.8007065e-05
223	0xb924d469	-0.00015719388
224	0xb953e226	-0.00020206775
225	0x3a9ecf4f	0.0012116226
226	0xb7c9ffd4	-2.4080196e-05
227	0xb7ee13ad	-2.8380973e-05
228	0x387a8025	5.972399e-05
229	0x39978387	0.0002889896
230	0x39a5f508	0.00031653815
231	0xb98bbd78	-0.0002665331
232	0x392045a1	0.00015284728
233	0x39ece819	0.00045186354
234	0x37df0515	2.6586038e-05
235	0xb4336277	-1.6706495e-07
236	0x3a0c8c40	0.0005361475
237	0x357ec910	9.491496e-07
238	0xb61c5ab6	-2.3298612e-06
239	0xb7cc1bb7	-2.43316e-05
240	0x37abfb80	2.0501902e-05
241	0x3790f8eb	1.728205e-05
242	0x39bbdeb2	0.0003583334
243	0x3889c237	6.5688444e-05
244	0xb884fd92	-6.341482e-05
245	0xb91c84b9	-0.00014926762
246	0x3a5a0b9a	0.0008317769
247	0x395151d1	0.00019962272
248	0x36c6b48e	5.921879e-06
249	0x382aebd2	4.0750783e-05
250	0x38f77b4b	0.00011800843
251	0xb838b85a	-4.404071e-05
252	0xb786e690	-1.6081409e-05
253	0xba05d61d	-0.0005105453
254	0x3941d203	0.0001848415
255	0x3a09a341	0.0005250462

lstms.0.bias_hh_l0 f4 [256]
0	0xb922dd60	-0.00015531993
1	0xb8a5d6d1	-7.907826e-05
2	0x37c2a6dd	2.3204304e-05
3	0xb91c9956	-0.00014934441
4	0x38651756	5.4619588e-05
5	0x37df059d	2.6586285e-05
6	0x359dbf59	1.1753101e-06
7	0x37e235c5	2.6966338e-05
8	0xb89f5a45	-7.598525e-05
9	0xb6bbe00d	-5.5991172e-06
10	0xb9192582	-0.0001460519
11	0x385ab1c0	5.2140793e-05
12	0xb8dba866	-0.000104741004
13	0xb93aa724	-0.00017800607
14	0xb8a7cd82	-8.001459e-05
15	0xb9499c2c	-0.00019227032
16	0x378f6a4e	1.709643e-05
17	0x385f6662	5.3262695e-05
18	0xb778857d	-1.4813032e-05
19	0x38575b64	5.134511e-05
20	0x386791ae	5.5210367e-05
21	0xb8f2aefa	-0.00011572051
22	0xb8bc318d	-8.973768e-05
23	0xb7c5d6a9	-2.3584189e-05
24	0xb93604b5	-0.00017358626
25	0x396aa3cd	0.00022377
26	0xba080c55	-0.0005189826
27	0xb98d89f7	-0.00026996408
28	0x38ea1d1d	0.00011163412
29	0xb63774b5	-2.7337057e-06
30	0x37f440ca	2.9117236e-05
31	0xb92562b9	-0.00015772403
32	0xb95808b1	-0.00020602603
33	0x3a9d65f5	0.0012008535
34	0xb7ceae41	-2.4638257e-05
35	0xb7f19900	-2.8800685e-05
36	0x3882ba3e	6.2335734e-05
37	0x399a3dcb	0.00029419208
38	0x39b0a666	0.00033693312
39	0xb98c2bbf	-0.00026735474
40	0x3922057d	0.00015451568
41	0x39eae241	0.0004480053
42	0x37e86a5a	2.7706079e-05
43	0xb43215f9	-1.6585535e-07
44	0x3a090578	0.000522695
45	0x35759af8	9.149512e-07
46	0xb5ec80b8	-1.7620832e-06
47	0xb7d573d3	-2.5445514e-05
48	0x37a855d5	2.006713e-05
49	0x37917e13	1.7344055e-05
50	0x39b7516e	0.0003496515
51	0x388cc027	6.7115114e-05
52	0xb884b675	-6.328236e-05
53	0xb91f2597	-0.00015177425
54	0x3a5c2c07	0.00083988946
55	0x3959acac	0.00020759058
56	0x36bc6f45	5.61579e-06
57	0x382e019f	4.1486343e-05
58	0x38ee65f9	0.00011367718
59	0xb844d313	-4.692662e-05
60	0xb78494b3	-1.580487e-05
61	0xba04b6ad	-0.0005062621
62	0x3946107d	0.00018888894
63	0x3a090320	0.0005226601
64	0xb922c71d	-0.000155237
65	0xb8a230a6	-7.7338234e-05
66	0x37b7e718	2.1922911e-05
67	0xb91a31da	-0.00014705156
68	0x385f1405	5.3185988e-05
69	0x37d8bcee	2.5837184e-05
70	0x359e745e	1.1805785e-06
71	0x37e0481e	2.6736463e-05
72	0xb8a26815	-7.744149e-05
73	0xb6ba038b	-5.5436444e-06
74	0xb91d8032	-0.00015020443
75	0x385a6d89	5.2077263e-05
76	0xb8d5143a	-0.00010160399
77	0xb9395501	-0.00017674641
78	0xb8a1f3b8	-7.7224744e-05
79	0xb94cbe08	-0.00019525748
80	0x378d4eab	1.6845142e-05
81	0x3853af78	5.046974e-05
82	0xb7751bf8	-1.460965e-05
83	0x385ae21a	5.2185824e-05
84	0x38652f20	5.4641743e-05
85	0xb8f5793c	-0.00011705092
86	0xb8be0e1a	-9.0625326e-05
87	0xb7c3f2b5	-2.335883e-05
88	0xb9321b0e	-0.00016985481
89	0x396afccf	0.00022410158
90	0xba05b0d6	-0.0005099898
91	0xb98c48af	-0.00026757034
92	0x38f103db	0.00011492494
93	0xb634ce16	-2.6942048e-06
94	0x37f3be52	2.9056482e-05
95	0xb922516a	-0.00015479853
96	0xb9542d67	-0.00020234809
97	0x3aa2fff0	0.0012435894
98	0xb7c8b284	-2.3924986e-05
99	0xb7eac0c7	-2.7984743e-05
100	0x38855a13	6.358712e-05
101	0x399752b4	0.00028862583
102	0x39a6c7c8	0.00031810836
103	0xb98a55a4	-0.00026385218
104	0x391e01bf	0.00015068705
105	0x39e27955	0.00043196479
106	0x37dfd425	2.6682459e-05
107	0xb42ad0de	-1.5908469e-07
108	0x3a04a540	0.00050600246
109	0x3576f02a	9.1991626e-07
110	0xb6021f83	-1.9389852e-06
111	0xb7d04a05	-2.483e-05
112	0x37aaa291	2.034128e-05
113	0x378d59a0	1.6850245e-05
114	0x39b36544	0.0003421699
115	0x38891f23	6.538469e-05
116	0xb8872b82	-6.4454056e-05
117	0xb91c75fc	-0.00014921272
118	0x3a5ae17e	0.0008349641
119	0x39582a7b	0.0002061519
120	0x36b2b172	5.3254707e-06
121	0x3823ed20	3.908307e-05
122	0x38ef31f4	0.000114057126
123	0xb843fe59	-4.6728503e-05
124	0xb784d1be	-1.5833295e-05
125	0xba01803e	-0.0004940069
126	0x39466990	0.00018922077
127	0x3a089fab	0.00052117807
128	0xbb90ea8b	-0.004422491
129	0xba8f0f17	-0.0010914531
130	0x3a4d5ff8	0.000783443
131	0x3bc8986b	0.0061216853
132	0x3aab2139	0.0013056166
133	0xb90396bc	-0.00012549286
134	0xb8d68091	-0.000102282625
135	0x38d114db	9.969781e-05
136	0x3addf798	0.0016934751
137	0x369fa518	4.7577887e-06
138	0x3b875a07	0.004130605
139	0x3a3fb2ca	0.00073127134
140	0xba8290a1	-0.0009961316
141	0xbbca086a	-0.006165554
142	0xbb509bcc	-0.0031831143
143	0x3b9c789b	0.0047751195
144	0xbb7993dc	-0.0038082516
145	0x3afeaa09	0.0019429337
146	0x3b0974f8	0.002097426
147	0x3b1a911f	0.0023585034
148	0x3aa731b2	0.0012755899
149	0x3b3992be	0.0028316225
150	0xbad40241	-0.0016174988
151	0x3acc3059	0.0015578374
152	0xbb94d7be	-0.00454232
153	0x3b7763d4	0.0037748711
154	0xbbaaf0a5	-0.0052166753
155	0xbbc725c5	-0.0060775005
156	0x3c0a6d81	0.008448959
157	0xbb0a9478	-0.0021145623
158	0xbaccdd1d	-0.0015629862
159	0xbb893be3	-0.0041880473
160	0x3ba4ec7d	0.0050330744
161	0xbc0089d5	-0.007845362
162	0x3b112609	0.0022147915
163	0xbad9bd85	-0.0016612267
164	0x3bb5d8b6	0.0055495156
165	0x3b0fc9c2	0.0021940325
166	0x3b8bd33e	0.0042671254
167	0xbbc9c65e	-0.0061576804
168	0x3b7405f6	0.0037234998
169	0x3b93685e	0.0044985255
170	0x3a58ddb8	0.0008272785
171	0xba8e5180	-0.0010858029
172	0x3bb5ffee	0.005554191
173	0x3991eb2b	0.0002783177
174	0x397fef98	0.0002440795
175	0xbb841b9f	-0.004031613
176	0x3a0b3606	0.00053104793
177	0xb97c9cef	-0.00024091055
178	0xbb4d8b83	-0.0031363673
179	0x3b9959e3	0.004679905
180	0x3b76ee60	0.0037678704
181	0xbaf88e27	-0.0018963263
182	0x3bd10be8	0.006379593
183	0x3b4746be	0.0030407156
184	0xba4660e2	-0.0007567537
185	0xba9bb4e0	-0.0011879466
186	0x3b8c4a01	0.004281283
187	0x3abe878a	0.0014536243
188	0xba8d62c5	-0.0010786882
189	0xbb884ac4	-0.0041593034
190	0xbb2bcad2	-0.002621342
191	0x3b9a5c53	0.004710713
192	0xb928369e	-0.00016042075
193	0xb8a1b914	-7.711552e-05
194	0x37be7c1d	2.270756e-05
195	0xb91d6d72	-0.00015013458
196	0x386a229e	5.5822187e-05
197	0x37dce7da	2.6334008e-05
198	0x359b2fdb	1.1562328e-06
199	0x37e7999f	2.7608881e-05
200	0xb8a02854	-7.636906e-05
201	0xb6bbf6e3	-5.6017757e-06
202	0xb9201af2	-0.00015268827
203	0x384e784b	4.922626e-05
204	0xb8db4f81	-0.000104575425
205	0xb93c73c7	-0.00017972208
206	0xb8a55eb1	-7.885451e-05
207	0xb9494c27	-0.00019197223
208	0x3790d5a4	1.7265622e-05
209	0x385263f3	5.0160987e-05
210	0xb778bc41	-1.4825783e-05
211	0x385ad981	5.2177817e-05
212	0x386c91dd	5.640263e-05
213	0xb8ef3295	-0.0001140583
214	0xb8b6fdc2	-8.725702e-05
215	0xb7cd6481	-2.4484705e-05
216	0xb9390e82	-0.0001764838
217	0x397ab851	0.00023910521
218	0xba0b6783	-0.00053178536
219	0xb98db1b0	-0.00027026003
220	0x38ece28a	0.00011295553
221	0xb6381e1f	-2.743567e-06
222	0x37eaf0b7	2.8007065e-05
223	0xb924d469	-0.00015719388
224	0xb953e226	-0.00020206775
225	0x3a9ecf4f	0.0012116226
226	0xb7c9ffd4	-2.4080196e-05
227	0xb7ee13ad	-2.8380973e-05
228	0x387a8025	5.972399e-05
229	0x39978387	0.0002889896
230	0x39a5f508	0.00031653815
231	0xb98bbd78	-0.0002665331
232	0x392045a1	0.00015284728
233	0x39ece819	0.00045186354
234	0x37df0515	2.6586038e-05
235	0xb4336277	-1.6706495e-07
236	0x3a0c8c40	0.0005361475
237	0x357ec910	9.491496e-07
238	0xb61c5ab6	-2.3298612e-06
239	0xb7cc1bb7	-2.43316e-05
240	0x37abfb80	2.0501902e-05
241	0x3790f8eb	1.728205e-05
242	0x39bbdeb2	0.0003583334
243	0x3889c237	6.5688444e-05
244	0xb884fd92	-6.341482e-05
245	0xb91c84b9	-0.00014926762
246	0x3a5a0b9a	0.0008317769
247	0x395151d1	0.00019962272
248	0x36c6b48e	5.921879e-06
249	0x382aebd2	4.0750783e-05
250	0x38f77b4b	0.00011800843
251	0xb838b85a	-4.404071e-05
252	0xb786e690	-1.6081409e-05
253	0xba05d61d	-0.0005105453
254	0x3941d203	0.0001848415
255	0x3a09a341	0.0005250462

lstms.1.weight_ih_l0 f4 [64, 64]
0	0xbe44a5c0	-0.19203854
1	0xbd6d118d	-0.057878066
2	0xbe287a3f	-0.16452883
3	0xbda37503	-0.079813026
4	0x3c6825fa	0.014169211
5	0xbe860cbd	-0.26181594
6	0xbe80bcbc	-0.25143993
7	0xbe013dd3	-0.1262124
8	0xbe4e5880	-0.20150948
9	0xbe11bcf1	-0.14232232
10	0x3d941896	0.07231252
11	0xbe2b8c94	-0.16752845
12	0x3d2c514a	0.04206971
13	0x3d1d27ae	0.03836792
14	0xbd40b1f0	-0.047044694
15	0x3cca9e63	0.024733728
16	0x3dc668be	0.09687947
17	0xbc81c6b2	-0.015841816
18	0x3e1e8e63	0.15484004
19	0x3d304afd	0.043040264
20	0x3ea41e40	0.3205433
21	0x3c9824bc	0.018572204
22	0xbdf0dbe5	-0.117606916
23	0x3d475a38	0.048670024
24	0x3e58c8fb	0.21170418
25	0x3d249120	0.040177464
26	0xbe0d47ca	-0.13796917
27	0xbe2d61b5	-0.16931804
28	0x3db4f51b	0.08835813
29	0x3d63fa2f	0.055658516
30	0xbe1f60a2	-0.15564206
31	0x3de7998e	0.11308585
32	0xbe3044a6	-0.17213687
33	0xbbe8ec69	-0.0071082604
34	0x3e765fd0	0.24059987
35	0x3e829e16	0.25511235
36	0xbc8ea208	-0.017411247
37	0x3da07dba	0.078364804
38	0xbe8a97de	-0.2706899
39	0xbb36288a	-0.002779516
40	0xbdafa0ea	-0.08575614
41	0x3c82d574	0.015970923
42	0xbdca991b	-0.09892484
43	0xbe8be839	-0.2732561
44	0x3dbd214f	0.09234869
45	0x3e2ecce9	0.17070355
46	0xbba1a258	-0.004932683
47	0x3dcdb14b	0.100435816
48	0x3e299985	0.1656247
49	0xbd853215	-0.06503693
50	0x39b63493	0.00034752916
51	0xbd94c25f	-0.07263636
52	0xbe3a9450	-0.18220639
53	0x3e3ac6c1	0.18239881
54	0x3d3b5f85	0.04574539
55	0x3e8a5b92	0.27022988
56	0x3ddfd277	0.10928815
57	0x3d0f3ab6	0.0349681
58	0x3daf717b	0.085665666
59	0x3d94d7a7	0.07267695
60	0x3d189493	0.037251066
61	0xbbfef32b	-0.0077804527
62	0xbe5231a9	-0.20526756
63	0xbdd75aec	-0.10515389
64	0x3b373986	0.002795787
65	0x3d7078fe	0.058709137
66	0x3e2c58dc	0.16830772
67	0xbdb4a338	-0.08820194
68	0x3e86566a	0.26237804
69	0xbd60942d	-0.05482881
70	0x3da5a7ad	0.08088622
71	0x3d559fd3	0.052154373
72	0xbde2f65e	-0.11082147
73	0xbd70ef96	-0.058822237
74	0xbc8f3f58	-0.01748626
75	0x3dac203a	0.08404584
76	0x3ea9652e	0.33085006
77	0x3e148bc4	0.14506441
78	0x3e3d533d	0.18488784
79	0x3e386792	0.18008259
80	0x3da787ed	0.08180223
81	0x3d162ed2	0.036665745
82	0xbdd7dd50	-0.10540259
83	0x3e5689c1	0.20950986
84	0xbd58bb36	-0.052912913
85	0x3de5b4df	0.11216139
86	0xbdf86acb	-0.12129744
87	0x3d0b9798	0.034080118
88	0xbe16c5d9	-0.1472391
89	0x3e2049b0	0.1565311
90	0xbe4ae08f	-0.19812225
91	0xbd0f1812	-0.034935065
92	0xbde4cfcc	-0.111724466
93	0xbd437eed	-0.047728468
94	0xbd0b0388	-0.033938915
95	0xbd558c46	-0.05213573
96	0xbdc6463e	-0.096813664
97	0x3d972abc	0.07381198
98	0xbe0fced3	-0.14043741
99	0xbe80d158	-0.25159717
100	0xbc85b4db	-0.01632159
101	0xbdcd728d	-0.100316145
102	0xbe21ec95	-0.15812905
103	0xbd40f759	-0.04711089
104	0x3d9ab142	0.075533405
105	0x3d9e1702	0.07719232
106	0xbdb3c3cd	-0.087775804
107	0x3da96e95	0.08273045
108	0x3db72976	0.08943455
109	0xbd604ae4	-0.05475892
110	0xbe8ff2a6	-0.28114814
111	0xbcb54e99	-0.022132205
112	0x3da0f84b	0.07859858
113	0x3e5eea84	0.21769148
114	0x3d96b66f	0.07359015
115	0xbc3a8278	-0.011383645
116	0xbd61972f	-0.05507582
117	0xbd5cb2cb	-0.053881448
118	0xbe71d794	-0.23617393
119	0xbdc6652f	-0.09687268
120	0x3d3c7002	0.046005256
121	0x3db9cefe	0.09072684
122	0xbd91e7dc	-0.07124302
123	0xbced90f7	-0.028999789
124	0xbd996d80	-0.074915886
125	0x3d6e2fab	0.05815093
126	0x3ae58434	0.0017510713
127	0xbe7f7547	-0.24947082
128	0x3de9f876	0.11424343
129	0xbd076509	-0.03305534
130	0xbe83b782	-0.25725943
131	0xbdacc1c5	-0.08435396
132	0x3dc12cc3	0.09432366
133	0xbe02bae6	-0.12766609
134	0xbda2442d	-0.0792316
135	0xbe714fe8	-0.23565638
136	0xbd4fbe92	-0.05071885
137	0x3c17673b	0.009240921
138	0xbc39df62	-0.0113447625
139	0xbe1679f7	-0.14694963
140	0xbe3ec2c2	-0.18628982
141	0x3ca8e329	0.02061613
142	0x3c833ac8	0.01601924
143	0x3e214136	0.15747532
144	0xbe477f92	-0.19482258
145	0xbe3ee7c4	-0.18643099
146	0xbe1b5569	-0.151693
147	0xbd2d5776	-0.042319737
148	0xbe6f11bb	-0.23346607
149	0x3c21ea29	0.009882488
150	0xbdf44cd4	-0.11928716
151	0x3e301c28	0.17198241
152	0x3d1d3808	0.038383514
153	0x3e18040b	0.14845292
154	0x3c6c5646	0.014424866
155	0xbdbcb7b7	-0.09214728
156	0x3dd8678b	0.10566624
157	0xbe22fa9a	-0.1591591
158	0xbe04734b	-0.12934606
159	0x3e28b698	0.16475904
160	0xbcb7a3ed	-0.022417033
161	0x3d351327	0.04420772
162	0xbd826db4	-0.063685805
163	0xbdd8a338	-0.105780065
164	0xbd41671d	-0.047217477
165	0x3d0e3272	0.034716077
166	0xbe04c87c	-0.12967104
167	0x3da14045	0.078735866
168	0x3d10a866	0.035316847
169	0xbd89841e	-0.067146525
170	0xbb6482e5	-0.0034868058
171	0xbd74cfa1	-0.059768323
172	0xbe918314	-0.28420317
173	0xbe789dad	-0.24278899
174	0x3cc51f61	0.024062814
175	0xbdadf91c	-0.084947795
176	0x3e2e9c45	0.170518
177	0x3de5b5f9	0.11216349
178	0x3def2d82	0.11678602
179	0xbdd8869f	-0.10572552
180	0x3daafb76	0.083487436
181	0x3e3ff15f	0.1874442
182	0xbd8c7bbe	-0.068595394
183	0xbe20ef06	-0.1571618
184	0xbdeb247e	-0.1148157
185	0x3e8b118c	0.27161825
186	0x3e105a05	0.1409684
187	0x3d4e5ec5	0.050383348
188	0xbd8e7517	-0.06955927
189	0xbcf4f596	-0.02990226
190	0x3e005939	0.12534036
191	0x3d9e692b	0.07734903
192	0x3d8a6317	0.06757181
193	0x3e068692	0.13137272
194	0x3e44ec0f	0.19230674
195	0xbe17ec74	-0.14836293
196	0x3e1d16e0	0.15340757
197	0xbe6ad57f	-0.22933005
198	0x3d77ca83	0.060495865
199	0xbc9aeca0	-0.01891166
200	0xbe30e1a1	-0.1727357
201	0xbe479eed	-0.19494219
202	0x3ddce113	0.10785117
203	0xbd6f5501	-0.058430675
204	0x3d816c6c	0.06319508
205	0xbdb975d8	-0.0905568
206	0x3d7ebd7f	0.062192436
207	0xbe14a06e	-0.14514324
208	0xbe17ef86	-0.14837465
209	0xbbbf2cfe	-0.005834221
210	0x3e39f25d	0.1815886
211	0xbc90b33e	-0.017663594
212	0xbce53043	-0.027977115
213	0xbd85cd0d	-0.06533251
214	0x3d184159	0.037171695
215	0xbda7dade	-0.081960425
216	0xbdbc7603	-0.092021964
217	0xbe196399	-0.149794
218	0xbd0686f4	-0.032843545
219	0xbe4f0455	-0.20216496
220	0xbd0a71d2	-0.033799954
221	0xbc9faacf	-0.019490628
222	0x3df95423	0.12174251
223	0x3e6fac0f	0.23405479
224	0x3d88b186	0.06674485
225	0x3d81b285	0.06332878
226	0x3d15e5ca	0.036596097
227	0xbd4d28ad	-0.05008762
228	0x3e05609f	0.1302514
229	0x3de30391	0.110846646
230	0x3da28383	0.0793524
231	0x3d415911	0.04720408
232	0x3c6684e0	0.014069766
233	0x3e9641f8	0.29347205
234	0x3e12958e	0.14314863
235	0xbe28e50b	-0.16493623
236	0xbe4ed60c	-0.2019884
237	0x3d5100d0	0.051026165
238	0xbdb7f8e4	-0.08983019
239	0x3c3ca8d5	0.011514862
240	0x3b56e44c	0.0032789884
241	0x3cce915d	0.025215799
242	0x3e2bf5ad	0.16792937
243	0x3cfb9a8d	0.030713344
244	0x3d3dca98	0.046335787
245	0xbc2469b1	-0.010034964
246	0xbdecbe6b	-0.11559757
247	0x3d5238e9	0.051323805
248	0x3e05599e	0.13022467
249	0x3d3bc918	0.045846075
250	0x3d39b5c8	0.045339376
251	0xbdc9ce54	-0.09853807
252	0xbc41083f	-0.011781751
253	0x3e407da7	0.18797933
254	0x3ae28afd	0.0017283853
255	0x3e6c7d6f	0.23094724

lstms.1.weight_hh_l0 f4 [64, 16]
0	0xbdc97fa9	-0.09838802
1	0x3c9ccdc4	0.019141085
2	0xbd28cab6	-0.041208945
3	0xbb1bef57	-0.002379378
4	0x3d6d3778	0.057914227
5	0xbe4b904e	-0.19879267
6	0xbca09f97	-0.019607348
7	0x3ec29bae	0.380094
8	0xbe4f6581	-0.20253564
9	0xbeeb5be1	-0.45968536
10	0xbdcbe103	-0.09955027
11	0x3d0eb990	0.034844935
12	0xbe9c6167	-0.30543062
13	0xbe2036bd	-0.15645881
14	0xbcd371f4	-0.025811173
15	0x3c4cf277	0.01250898
16	0xbe3a9760	-0.18221807
17	0xbd154a70	-0.036447942
18	0xbcf08b92	-0.029363427
19	0x3e4a1a9d	0.19736715
20	0xbd04f47e	-0.03245973
21	0xbe0e09e1	-0.13870956
22	0x3e4bbaee	0.19895527
23	0xbde1a35d	-0.11017487
24	0x3e5965a2	0.21230176
25	0xbdb68d33	-0.0891365
26	0x3e2d1b8d	0.16905041
27	0xbe248663	-0.1606689
28	0x3e9df182	0.30848318
29	0x3dbb9edd	0.0916116
30	0x3d82bea1	0.06384016
31	0x3d7eb259	0.062181804
32	0xbcc27572	-0.023737643
33	0xbd9601a9	-0.073245354
34	0x3eb6054a	0.3555091
35	0x3e803227	0.25038263
36	0x3d511a37	0.05105039
37	0xbde00a36	-0.109394476
38	0xbd1a44b8	-0.03766319
39	0x3df8a371	0.12140549
40	0x3e9edff4	0.31030238
41	0x3d549a6b	0.051905077
42	0x3e7cd3f1	0.24690224
43	0xbe5476f4	-0.20748502
44	0x3e415b5d	0.18882509
45	0xbde2757e	-0.11057566
46	0xbd279b9f	-0.040919896
47	0xbd662c0a	-0.056194343
48	0xbb48161f	-0.0030530763
49	0x3df6efe9	0.12057478
50	0x3e5465ac	0.2074191
51	0xbe5822b7	-0.21106993
52	0xbcfedb54	-0.031110443
53	0xbde072fd	-0.10959432
54	0xbdd406d2	-0.10352863
55	0xbdb5d00c	-0.088775724
56	0x3db07fe7	0.086181454
57	0xbdd9e261	-0.106388815
58	0xbc62e7c2	-0.013849201
59	0xbe5d35a1	-0.21602489
60	0x3e388de5	0.18022878
61	0x3ea8899f	0.32917497
62	0xbd514dba	-0.051099516
63	0xbd888cde	-0.06667493
64	0x3cce5adc	0.02518981
65	0x3d8a3f53	0.067503594
66	0x3dac46cb	0.0841194
67	0x3db4ff89	0.08837802
68	0xbaa12c84	-0.0012296592
69	0x3d5e63a4	0.054294243
70	0x3dbc832c	0.092047065
71	0x3e82e2f7	0.25563785
72	0xbde49a6b	-0.111622654
73	0xbda33846	-0.07969718
74	0xbe9a53d1	-0.30142072
75	0x3e2174f7	0.15767275
76	0x3e0f3709	0.13985838
77	0x3e567ccf	0.20946048
78	0x3e6ecdeb	0.23320739
79	0xbc8add2f	-0.016951172
80	0x3c323bb0	0.010878488
81	0xbc4c5573	-0.012471545
82	0x3d0481c5	0.03235032
83	0xbdd1038f	-0.10205757
84	0x3e0e3e8d	0.13891049
85	0xbd1e9101	-0.038712505
86	0xbdadd6d0	-0.08488238
87	0x3e72e538	0.23720253
88	0x3bc7c420	0.006096378
89	0x3e842803	0.25811777
90	0x3d43416c	0.047669813
91	0xbd6a9958	-0.057275146
92	0xbe85ddc3	-0.26145753
93	0xbaf52761	-0.0018703752
94	0xbd85f20f	-0.0654031
95	0xbe43e256	-0.19129309
96	0x3e8de8af	0.27716586
97	0xbda2b7f9	-0.07945246
98	0xbd6d7d34	-0.05798073
99	0xbee52dd3	-0.44761524
100	0xbcc087d0	-0.02350226
101	0x3e3dd52b	0.18538348
102	0xbd94b854	-0.0726172
103	0xbdd6eca2	-0.10494353
104	0x3e05e810	0.13076806
105	0x3dae6f32	0.085173026
106	0xbe18dd5b	-0.1492819
107	0x3d9fa084	0.07794288
108	0xbe419a3d	-0.18906493
109	0xbdec6b19	-0.11543865
110	0xbbdd8852	-0.0067606354
111	0xbe197db8	-0.14989364
112	0xbddc33c9	-0.10752065
113	0x3da33d7f	0.07970714
114	0xbe6dcbef	-0.23222326
115	0xbe63f875	-0.22262748
116	0xbdb6b6f8	-0.08921617
117	0x3d46800c	0.04846196
118	0x3e82cd60	0.25547314
119	0xbd5032b1	-0.050829593
120	0xbd3b665e	-0.04575192
121	0xbe23c6d1	-0.15993811
122	0xbdaf68de	-0.08564924
123	0xbe47d0c9	-0.19513239
124	0x3d7cd583	0.06172706
125	0x3e85ffc8	0.26171708
126	0xbdbec7cf	-0.09315454
127	0x3c8b7b08	0.01702644
128	0x3ba1e4b5	0.004940594
129	0xbdf1a0b4	-0.1179823
130	0xbcd63dcc	-0.026152514
131	0x3de4e2b3	0.11176052
132	0xbdbfc6f4	-0.09364119
133	0x3dd0dabe	0.10197972
134	0x3eaa3e3c	0.33250606
135	0xbe0cdc8e	-0.1375601
136	0x3e008a42	0.12552741
137	0x3dc13f88	0.09435946
138	0xbea356d1	-0.31902173
139	0xbda3b18e	-0.0799285
140	0x3e5221f2	0.20520762
141	0x3d2e5e40	0.042570353
142	0x3dbf310c	0.09335527
143	0x3e372129	0.17883743
144	0xbc41bca0	-0.011824757
145	0x3e6a6111	0.2288859
146	0x3cdd4e6e	0.027014937
147	0x3e48e8c3	0.19620042
148	0x3db55c47	0.08855491
149	0xbde53f7d	-0.1119375
150	0x3e137243	0.14399056
151	0xbb6eb39d	-0.0036422976
152	0xbd251f2e	-0.04031294
153	0xbdedd990	-0.116137624
154	0x3d9577ec	0.07298264
155	0xbd0d1e23	-0.03445257
156	0xbd4c3f64	-0.04986514
157	0xbc913f0f	-0.017730264
158	0xbe2cbec1	-0.16869642
159	0xbd98de8f	-0.07464325
160	0xbcea5e5a	-0.028609443
161	0xbea4d029	-0.32190064
162	0x3e7c8eef	0.246639
163	0x3d0d0c51	0.034435574
164	0x3de70bac	0.11281523
165	0xbdeac2aa	-0.114629105
166	0x3c9a8753	0.018863356
167	0x3d8526e8	0.065015614
168	0x3d79bc00	0.060970306
169	0xbea633b4	-0.3246132
170	0xbc9a9dd4	-0.018874086
171	0xbd4f0027	-0.050537255
172	0xbd753b33	-0.05987091
173	0x3da16403	0.07880404
174	0xbe8b5660	-0.27214336
175	0xbd15feb9	-0.036619876
176	0xbdc0a3bc	-0.0940623
177	0xbd08cda1	-0.033399228
178	0xbd1e5877	-0.038658585
179	0xbdb73518	-0.08945674
180	0x3e840ed5	0.25792566
181	0x3e44814c	0.19189948
182	0x3b98c1ca	0.0046617733
183	0xbdf16375	-0.11786548
184	0xbdb6da0d	-0.08928309
185	0xbc830f6d	-0.015998567
186	0x3e30ecc0	0.17277813
187	0x3e92424d	0.28566208
188	0x3eba57f5	0.3639523
189	0x3d7d2479	0.06180236
190	0x3e6a6e77	0.22893701
191	0xbeaa288d	-0.33234063
192	0xbdfa213d	-0.12213371
193	0xbd89ac04	-0.067222625
194	0xbdb9e044	-0.090759784
195	0xbe95eea4	-0.2928363
196	0xbe06b9d3	-0.13156824
197	0xbd9e9d5f	-0.0774486
198	0x3d9d2c6a	0.07674487
199	0xbd3614ec	-0.044453546
200	0x3e8dc66a	0.2769044
201	0x3daba105	0.083803214
202	0x3e996016	0.2995612
203	0x3d05c371	0.03265709
204	0xbddc5d91	-0.10760034
205	0x3e143326	0.14472637
206	0x3e35669f	0.17714928
207	0x3e51564f	0.2044308
208	0xbc9145bf	-0.017733453
209	0xbdff528a	-0.12466915
210	0xbdb3266d	-0.087475635
211	0xbe3a6099	-0.18200912
212	0x3ea00074	0.31250346
213	0x3d8a25e4	0.06745508
214	0xbccdde8f	-0.025130538
215	0x3b030f85	0.0019998264
216	0xbd8ab6eb	-0.0677317
217	0xbc97a282	-0.018510107
218	0xbe12c8a0	-0.14334345
219	0xbd808173	-0.062746905
220	0x3e244505	0.16041954
221	0x3d1f4628	0.038885266
222	0xbdc3ecd0	-0.09566653
223	0xbd4110bf	-0.04713511
224	0xbcff53f5	-0.031167964
225	0xbc7cbad8	-0.015425406
226	0x3d9cfc4c	0.07665309
227	0xbec64f15	-0.3873221
228	0xbe412947	-0.18863402
229	0xbe3f3168	-0.1867119
230	0x3d75252e	0.05984991
231	0x3cb0367f	0.02151036
232	0xbe0e2497	-0.13881145
233	0x3daacf7d	0.083403565
234	0x3dbb6658	0.0915038
235	0x3e3afa68	0.18259585
236	0xbea7af34	-0.32750857
237	0x3d395551	0.04524738
238	0x3c75119c	0.014957812
239	0xbe76929d	-0.24079366
240	0xbeb1c00b	-0.3471683
241	0x3e8141b0	0.25245428
242	0xbe2c796c	-0.16843194
243	0x3d26729e	0.04063665
244	0xbe1947f2	-0.14968851
245	0x3e9ee165	0.31031337
246	0x3e6a0599	0.22853698
247	0xbe1cec1d	-0.15324445
248	0x3e831ca8	0.256078
249	0xbe672d08	-0.22575772
250	0x3bee5bdf	0.0072741355
251	0x3dd7d1c2	0.10538055
252	0xbd83e90b	-0.06440934
253	0x3e9259c9	0.28584126
254	0x3b93b34f	0.0045074592
255	0x3cdd1163	0.02698583

lstms.1.bias_ih_l0 f4 [64]
0	0x37c42fb9	2.3387243e-05
1	0x3a20e65c	0.0006137842
2	0x3aaa0d53	0.0012973942
3	0xb9af345f	-0.0003341762
4	0x38f991b7	0.00011900387
5	0x37b2704f	2.1271551e-05
6	0xb8f92320	-0.00011879788
7	0xb7478139	-1.1891411e-05
8	0x39f656b4	0.00046985375
9	0x39465ac7	0.00018916569
10	0x3a30dca2	0.0006746744
11	0x37de801b	2.6524116e-05
12	0x3913c828	0.00014093576
13	0x3ad84164	0.001649898
14	0x3918095f	0.0001449934
15	0x3797286c	1.8019426e-05
16	0x37b92885	2.2072587e-05
17	0x3a19a384	0.00058608525
18	0x3aa19b9b	0.0012329699
19	0xb9a9f60c	-0.0003241751
20	0x38eda22e	0.00011331249
21	0x37de055b	2.6466956e-05
22	0xb8f5930e	-0.000117099014
23	0xb7481c7f	-1.1927564e-05
24	0x39f28d93	0.00046263318
25	0x394b40d3	0.00019383738
26	0x3a357ac5	0.0006922896
27	0x37d727b7	2.5648491e-05
28	0x39159778	0.00014266174
29	0x3ad7dff4	0.0016469941
30	0x3912bcc9	0.00013993973
31	0x379c89a4	1.8660743e-05
32	0x3bcea53e	0.0063063195
33	0x3c306130	0.010765359
34	0x3c9c7988	0.01910092
35	0x3ca0b9b1	0.019619795
36	0xbbce5db7	-0.006297793
37	0xbc73f1f1	-0.014889226
38	0xbb99c411	-0.0046925624
39	0xbb9e161b	-0.0048244125
40	0x3c6108e7	0.013735033
41	0x3bfd7011	0.0077343066
42	0xbc7c39e3	-0.015394661
43	0x3bb55c8c	0.005534714
44	0xbbc76335	-0.0060848244
45	0x3cd9a540	0.026568055
46	0xbb9e45da	-0.0048301043
47	0x3a8140e5	0.0009861259
48	0x37c98d6d	2.4026924e-05
49	0x3a1f0e38	0.00060674874
50	0x3aa3e444	0.0012503942
51	0xb9a917b8	-0.00032251864
52	0x38eb3ef8	0.00011217402
53	0x37f7579d	2.9485493e-05
54	0xb8ef621f	-0.000114146846
55	0xb7434729	-1.1639474e-05
56	0x39f22098	0.0004618212
57	0x39489f4c	0.00019132829
58	0x3a37af5b	0.0007007026
59	0x37d0a708	2.4873312e-05
60	0x3918d65a	0.00014575702
61	0x3ad601bb	0.001632742
62	0x391944ba	0.0001461682
63	0x379db450	1.8799823e-05

lstms.1.bias_hh_l0 f4 [64]
0	0x37c42fb9	2.3387243e-05
1	0x3a20e65c	0.0006137842
2	0x3aaa0d53	0.0012973942
3	0xb9af345f	-0.0003341762
4	0x38f991b7	0.00011900387
5	0x37b2704f	2.1271551e-05
6	0xb8f92320	-0.00011879788
7	0xb7478139	-1.1891411e-05
8	0x39f656b4	0.00046985375
9	0x39465ac7	0.00018916569
10	0x3a30dca2	0.0006746744
11	0x37de801b	2.6524116e-05
12	0x3913c828	0.00014093576
13	0x3ad84164	0.001649898
14	0x3918095f	0.0001449934
15	0x3797286c	1.8019426e-05
16	0x37b92885	2.2072587e-05
17	0x3a19a384	0.00058608525
18	0x3aa19b9b	0.0012329699
19	0xb9a9f60c	-0.0003241751
20	0x38eda22e	0.00011331249
21	0x37de055b	2.6466956e-05
22	0xb8f5930e	-0.000117099014
23	0xb7481c7f	-1.1927564e-05
24	0x39f28d93	0.00046263318
25	0x394b40d3	0.00019383738
26	0x3a357ac5	0.0006922896
27	0x37d727b7	2.5648491e-05
28	0x39159778	0.00014266174
29	0x3ad7dff4	0.0016469941
30	0x3912bcc9	0.00013993973
31	0x379c89a4	1.8660743e-05
32	0x3bcea53e	0.0063063195
33	0x3c306130	0.010765359
34	0x3c9c7988	0.01910092
35	0x3ca0b9b1	0.019619795
36	0xbbce5db7	-0.006297793
37	0xbc73f1f1	-0.014889226
38	0xbb99c411	-0.0046925624
39	0xbb9e161b	-0.0048244125
40	0x3c6108e7	0.013735033
41	0x3bfd7011	0.0077343066
42	0xbc7c39e3	-0.015394661
43	0x3bb55c8c	0.005534714
44	0xbbc76335	-0.0060848244
45	0x3cd9a540	0.026568055
46	0xbb9e45da	-0.0048301043
47	0x3a8140e5	0.0009861259
48	0x37c98d6d	2.4026924e-05
49	0x3a1f0e38	0.00060674874
50	0x3aa3e444	0.0012503942
51	0xb9a917b8	-0.00032251864
52	0x38eb3ef8	0.00011217402
53	0x37f7579d	2.9485493e-05
54	0xb8ef621f	-0.000114146846
55	0xb7434729	-1.1639474e-05
56	0x39f22098	0.0004618212
57	0x39489f4c	0.00019132829
58	0x3a37af5b	0.0007007026
59	0x37d0a708	2.4873312e-05
60	0x3918d65a	0.00014575702
61	0x3ad601bb	0.001632742
62	0x391944ba	0.0001461682
63	0x379db450	1.8799823e-05

fc.weight f4 [1, 16]
0	0xbdcd0b7f	-0.10011958
1	0xbe360501	-0.17775346
2	0xbe6c6773	-0.23086338
3	0xbe6522b3	-0.22376518
4	0x3de9aff9	0.11410517
5	0x3e633e16	0.22191653
6	0x3db6ba47	0.08922248
7	0x3dfab436	0.12241404
8	0xbe809a14	-0.25117552
9	0xbd9bf36b	-0.07614788
10	0x3e33c4a5	0.17555483
11	0xbca3910d	-0.019966627
12	0x3deab136	0.114595816
13	0xbe6c1b9a	-0.23057404
14	0x3d8f21f4	0.06988898
15	0x3d886b76	0.066611215
