labs/models/USD/14_8.pth (torch, 3327 bytes, 5 tensors)

lstms.0.weight_ih_l0 f4 [32, 1]
00000000: 26d2 9c3b feee 3d3d f5ac c1bc f9e1 d23d
00000010: 0fd6 833e 55a4 c03e e253 d23e 69a2 58bd
00000020: 9173 033c b1d6 4cbf 9ae0 0fbe d604 9f3e
00000030: 4963 0ebf 731b 833e 80f4 7dbe 3e0d fbbe
00000040: d08a ad3e 1749 d73e dc51 a73e e726 e3be
00000050: df0b f83d 4c6a dcbd daf2 48bd 8f80 0a3e
00000060: 4c20 36be 699b 9dbe 131a 1d3c af37 b43e
00000070: b100 72be 0e49 923d e52e 8dbd 2065 81be
0.004785794 0.0463705 -0.023642043 0.10297007 0.2574925 0.37625375 0.41079623 -0.05288926
0.008023159 -0.80015093 -0.14050522 0.31058377 -0.5562025 0.2560688 -0.248003 -0.4903354
0.33894968 0.4204795 0.3267964 -0.44365618 0.12111639 -0.10762462 -0.049059726 0.13525604
-0.17785758 -0.3078263 0.009588736 0.35198733 -0.23633076 0.0714284 -0.0689371 -0.25272465

lstms.0.weight_hh_l0 f4 [32, 8]
00000000: 3f20 c6be d52c 29be 5cbd 913d c3fa 28bd
00000010: 7b58 993e 6758 64be 47f3 be3e 20e6 c8be
00000020: e62d d3bc 7d8c c8bc 3717 5ebe cca0 123e
00000030: 5df0 09bf 80c8 9cbe 7203 a5be 0464 2bbe
00000040: 9ae7 f5bd 39e0 c8be 83e7 b93e c29a 8e3d
00000050: bfbf 513e 8656 7ebe e0ea af3e e7c0 2b3e
00000060: d017 f7be 35b1 4ebd a7ee 33be 794b f5be
00000070: ff3b ce3e c05c 38be 7974 f53e 227d 123e
00000080: 8c88 443e fe5f 433e 8698 87be fc0c cdbe
00000090: d6a9 a33e c435 093e 8a47 5e3e dfcc a63e
000000a0: ea77 0a3e c99c 0a3f cd49 f8bd 5382 b2bd
000000b0: 9d3e ba3e a35c 58be 9940 7c3e 5896 75be
000000c0: 34e9 7abd 8a66 c2bc 5734 4c3d 62ed 873e
000000d0: 6665 0bbd 0d10 5f3e c87d 663d be3e 073d
000000e0: e508 fcbe 402e acbd b96b 49be 35ef a23e
000000f0: 20a6 1ebe 438b eebe 5604 a3be 685b e3be
00000100: 24f5 c43d c918 35be 0565 16bf 13c9 753d
00000110: c886 25be d1f5 85bd 275a 6b3e 4cf1 243e
00000120: 3dfb b0be 6bd0 44bd 47c7 cebe 64c3 3fbc
00000130: 09a5 183d de8b 3a3d 313c 5dbe 5ce5 a2bd
00000140: 0f23 10be 7190 b63c 0422 e4bd 8f48 6dbd
00000150: 9b12 743e 73ca fdbd 04d1 0b3e 450a 8abe
00000160: f2ea 1dbe 7e3a 4cbe b655 8c3e ce03 86be
00000170: 42fe b53e 5e5c 7a3e 7a2e 79be 8162 1abf
00000180: dab6 7abe 26ed cbbc c82b c3bb f8e9 463e
00000190: fc17 8abd b6d9 943e fb13 1bbe 110e 13be
000001a0: 44a3 663e 7c2e 5c3e ea76 1d3e 91cc 2cbf
000001b0: 6e24 033d b08e d7be 7b07 8a3e a529 4e3e
000001c0: a50b cebd dbc0 513e ebec b03c cb9a da3e
000001d0: 6cf0 a4bc b1ec 1fbf de4f 4cbe 029c 68be
000001e0: cfd8 0d3e 6683 b23e 83d4 d3be 6144 4abe
000001f0: 0e2c 8f3e 82a3 66bd 35b8 503e 141f 77be
00000200: ddd5 673e 0143 4d3e 8af2 b43d 5e68 72ba
00000210: b397 01be acfd ef3d e08b 60bd 26a8 58be
00000220: 9858 5d3e c4cd dc3e 5cff 83bd 3d32 973e
00000230: a13f 973e d612 813c 562d 0cbc 90be c23d
00000240: cff0 9bbc 5ec9 133c 5779 acbd 7acd 92be
00000250: 17da 4a3e 2827 4abe 2c8e 453e c1d3 273e
00000260: 9558 68be 4f1e 543e dc93 77be 958c 953c
00000270: 2ca6 44be 09fa 5d3e 0079 cfbe 7353 7c3e
00000280: 3187 98bd 17c0 5bbe 4e53 a43e 81e5 91be
00000290: 8d1d c4bd 206d 7d3d 942d 0cbe e5d4 ef3d
000002a0: 274a a73d 213f 8c3d 8065 66be d5fb b33d
000002b0: d900 c8be 94c9 dbbd 5584 7bbd eb5b 71bd
000002c0: 82ca 283e 7e42 213f 0497 d83e 27b4 69bd
000002d0: 127f c13e ebaa f3be c6be b2bd 4411 c43d
000002e0: cceb 993e 1e5f db3e 0309 943e cc78 1cbd
000002f0: 023d 273e 4dcb 96be fa6e 1abd f49b 123d
00000300: 8b01 edbe 1ae5 f2bc ede4 783d b54c 813e
00000310: f558 dfbe 9089 acbe a1be 46bb a214 85be
00000320: 7c29 5ebe f9d2 123e 9f67 40be b8ca 003c
00000330: b85b 823d a10d 82bd c0b5 b3be e061 24be
00000340: 80c8 70be 2a13 c1bc 51f5 d7be f469 dabe
00000350: 9079 87bd 39bc fc3d c35b de3d 0388 02bd
00000360: 7c77 0ebf 31e5 9f3d b5f9 0a3e bea7 ebbd
00000370: 2157 d73d d746 82bd cc57 473e e937 73be
00000380: 93ce 093e 0855 e93d c459 dfbd 9895 073e
00000390: 236a 513e 5f5c e93d c9f9 5e3e 4d34 10bc
000003a0: e247 e13a a248 96bd 9ecb 39be 3b87 bdbd
000003b0: 0be5 de3d 7da8 58be 2b30 1ebd b00f da3d
000003c0: 2ea4 81be 4181 e43c 691e 863e 1508 773d
000003d0: e8c7 eb3d 5598 93be 4d99 693e e01e cbbd
000003e0: 890d b9be 11ee 6b3e 5612 9abe a03e 0b3e
000003f0: 7be9 92be 38f2 02bf 9adf bdbd 6c0f 76be
-0.38696477 -0.16521008 0.071161956 -0.04125477 0.29950318 -0.22299348 0.3729498 -0.3923807
-0.025778722 -0.024481053 -0.21688543 0.14319152 -0.5388239 -0.3062172 -0.3222919 -0.16737372
-0.12007065 -0.39233568 0.36309442 0.069631115 0.20483302 -0.24837694 0.34358883 0.16772805
-0.48260355 -0.050461967 -0.17571507 -0.47909144 0.40280148 -0.18004131 0.47940424 0.14305547
0.19192713 0.19079587 -0.26483554 -0.4004897 0.31965512 0.13399416 0.21706977 0.3257818
0.13522306 0.54145485 -0.121234514 -0.087162636 0.36375895 -0.21129088 0.24634017 -0.23983133
-0.061257556 -0.023730535 0.049854603 0.26548296 -0.034032248 0.21783467 0.056272298 0.03301882
-0.49225536 -0.08407259 -0.19669999 0.31823125 -0.15493059 -0.46590623 -0.31839246 -0.44405675
0.09617069 -0.17685236 -0.58747894 0.060006212 -0.16164696 -0.065410264 0.22983609 0.16107672
-0.3456668 -0.048050325 -0.40386412 -0.0117043 0.037266765 0.045543544 -0.21604992 -0.07953903
-0.14075874 0.022285672 -0.111393005 -0.057930525 0.23835222 -0.1239213 0.13653952 -0.2696096
-0.15421656 -0.19944188 0.27409142 -0.26174778 0.35545546 0.24449298 -0.24334136 -0.60306555
-0.24483815 -0.024893355 -0.005956147 0.1942519 -0.06742856 0.2907235 -0.1514434 -0.14360835
0.22523218 0.21502107 0.15377393 -0.67499644 0.032017164 -0.4210105 0.26958832 0.20133074
-0.10060815 0.20483725 0.021597346 0.42696223 -0.020134173 -0.6247054 -0.19952342 -0.22715762
0.13852237 0.34865874 -0.4137307 -0.19752647 0.279633 -0.056308277 0.2038277 -0.24132949
0.22640176 0.20045091 0.08835323 -0.00092471193 -0.12655525 0.11718306 -0.054820895 -0.21157894
0.21615827 0.43125737 -0.0644519 0.29530516 0.29540733 0.015756052 -0.008555731 0.09509003
-0.019035725 0.009020178 -0.08421581 -0.2867239 0.19809757 -0.197415 0.19292516 0.16389371
-0.22690041 0.20714687 -0.24177498 0.018255511 -0.19204015 0.21677412 -0.40522003 0.24641208
-0.07447661 -0.21459995 0.32094806 -0.2849541 -0.09575949 0.061871648 -0.13689262 0.11710528
0.0816844 0.068479784 -0.22499657 0.087882675 -0.39063147 -0.10731807 -0.0614055 -0.05892555
0.164835 0.62992084 0.42302716 -0.057056572 0.3779226 -0.47591338 -0.087277934 0.09573606
0.3006271 0.42846006 0.28913125 -0.03820114 0.16331866 -0.2945198 -0.03770349 0.03579326
-0.4629024 -0.02965026 0.060765196 0.25253835 -0.43622556 -0.33698702 -0.0030326026 -0.25992304
-0.21695513 0.14338292 -0.18789528 0.007860832 0.0636515 -0.06350256 -0.35099602 -0.16052961
-0.23513985 -0.023568708 -0.4217935 -0.4265896 -0.06614983 0.12340588 0.10857346 -0.031867992
-0.5565107 0.07807387 0.13571818 -0.11506604 0.105146654 -0.06361168 0.19467086 -0.23751797
0.13457708 0.113931715 -0.10905793 0.13240659 0.20450644 0.113945715 0.21774973 -0.008801532
0.001718756 -0.07338072 -0.1814408 -0.09254309 0.1088353 -0.21158023 -0.038620155 0.106475234
-0.25320572 0.027893664 0.26195076 0.060310442 0.115127385 -0.28827158 0.22812386 -0.09917998
-0.3614314 0.23040034 -0.30092114 0.13598108 -0.28693756 -0.51150846 -0.09271164 -0.2402932

lstms.0.bias_ih_l0 f4 [32]
00000000: 4b3a be3d f5cc e03d 22aa 013e d5fa ef3d
00000010: 1695 3fbd a58c f53d 158f 093e fec4 053e
00000020: cf85 c03d 81e3 eb3d 6d1a 063e 99b1 fd3d
00000030: b935 42bd f968 013e 6c51 0a3e 09be 093e
00000040: a193 e6bd d3df c33b e4f3 043d 88b4 6cbd
00000050: d984 843c dd7d d2bd ddc8 6d3d 146a d8bd
00000060: 0953 be3d 52fc ea3d 9e81 033e 7b33 f73d
00000070: 0b0b 34bd 7b3d ff3d c358 063e 9740 0b3e
0.09288462 0.109765925 0.12662557 0.11717764 -0.04677304 0.119897164 0.13433488 0.13063428
0.09400522 0.11518002 0.13096018 0.1238739 -0.047414515 0.126377 0.13507622 0.13451399
-0.11258627 0.0059776097 0.032459155 -0.057789356 0.016176628 -0.10277913 0.058052886 -0.10567108
0.092931814 0.114739075 0.12842414 0.12070366 -0.043955844 0.12462898 0.13119797 0.13598858

lstms.0.bias_hh_l0 f4 [32]
00000000: 4b3a be3d f5cc e03d 22aa 013e d5fa ef3d
00000010: 1695 3fbd a58c f53d 158f 093e fec4 053e
00000020: cf85 c03d 81e3 eb3d 6d1a 063e 99b1 fd3d
00000030: b935 42bd f968 013e 6c51 0a3e 09be 093e
00000040: a193 e6bd d3df c33b e4f3 043d 88b4 6cbd
00000050: d984 843c dd7d d2bd ddc8 6d3d 146a d8bd
00000060: 0953 be3d 52fc ea3d 9e81 033e 7b33 f73d
00000070: 0b0b 34bd 7b3d ff3d c358 063e 9740 0b3e
0.09288462 0.109765925 0.12662557 0.11717764 -0.04677304 0.119897164 0.13433488 0.13063428
0.09400522 0.11518002 0.13096018 0.1238739 -0.047414515 0.126377 0.13507622 0.13451399
-0.11258627 0.0059776097 0.032459155 -0.057789356 0.016176628 -0.10277913 0.058052886 -0.10567108
0.092931814 0.114739075 0.12842414 0.12070366 -0.043955844 0.12462898 0.13119797 0.13598858

fc.weight f4 [1, 8]
00000000: 9f0d a03d ac46 363d 8e6f 943e 4ce3 aabe
00000010: e26d 5fbe 9122 2cbe fe95 f53e abd0 3c3e
0.07815098 0.04450099 0.2899136 -0.3337654 -0.2181926 -0.16810061 0.47965997 0.18438976
