labs/models/USD/7_32.pth (torch, 19903 bytes, 5 tensors)

lstms.0.weight_ih_l0 f4 [128, 1]
0	0xbe32cbb9	-0.17460527
1	0xbca424f9	-0.020037161
2	0x3a79abfa	0.00095242227
3	0xbe903aea	-0.28169948
4	0xbc85b3ea	-0.016321141
5	0x3b05d34b	0.002042013
6	0xbdd87ffc	-0.10571286
7	0xbc8f1737	-0.017467124
8	0x3df1f03f	0.118134014
9	0xbde46f84	-0.111540824
10	0xbd4566f8	-0.0481939
11	0xbe4bc6d5	-0.19900067
12	0x3c4801a4	0.012207422
13	0xbd9032d7	-0.07040947
14	0xbe501d8c	-0.20323771
15	0x3d735698	0.059408754
16	0xbde1e5e4	-0.11030176
17	0x3d88b99e	0.06676029
18	0x3da26b8b	0.079306684
19	0x3e7c9fa8	0.24670279
20	0xbda63189	-0.08114917
21	0xbd832a2e	-0.064045295
22	0xbce10f4a	-0.02747311
23	0x3d0af48d	0.033924628
24	0x3da9c3be	0.08289288
25	0xbe77fb46	-0.24216947
26	0x3d927f08	0.071531355
27	0xbd19f2bd	-0.03758501
28	0xbce2b956	-0.027676266
29	0x3e393497	0.18086468
30	0x3e41dc34	0.18931657
31	0x3cad1a2f	0.02113065
32	0x3d594cc8	0.05305174
33	0xbac6f998	-0.0015180586
34	0xbe746618	-0.2386707
35	0xbe15528d	-0.14582272
36	0x3e4ef51e	0.20210692
37	0xbe826f62	-0.25475603
38	0x3dc9c978	0.0985288
39	0xbdaf4077	-0.085572176
40	0x3c3a9049	0.011386939
41	0xbd8523b3	-0.0650095
42	0xbe026e7b	-0.12737457
43	0xbdd91480	-0.10599613
44	0xbd65eb37	-0.05613252
45	0x3daacb19	0.08339519
46	0x3bf9548f	0.007608957
47	0xbdd08f85	-0.10183624
48	0xbc8c80d2	-0.01715127
49	0xbcf53540	-0.029932618
50	0xbdbd0a11	-0.09230436
51	0xbddf2bd3	-0.10897031
52	0xbeb09e8e	-0.34495968
53	0xbb7c294c	-0.0038476763
54	0x3c5469f4	0.012964714
55	0xbd79fe15	-0.061033327
56	0xbd467e95	-0.04846056
57	0x3d26b521	0.04070008
58	0x3d2fd071	0.042923395
59	0xbd975959	-0.073900886
60	0xbe7489c4	-0.23880678
61	0x3c8a6ca2	0.016897503
62	0xbd60ef12	-0.054915495
63	0xbd981e30	-0.07427633
64	0x3d0e5b14	0.034754828
65	0x3c3eb4f0	0.011639819
66	0xbd02dc26	-0.03194823
67	0xbdbe3c37	-0.09288829
68	0x3e0b1d71	0.1358545
69	0xbe478092	-0.1948264
70	0x3e04ef56	0.12981924
71	0x3e697e80	0.22802162
72	0xbd1c27f2	-0.038124032
73	0xbe35d592	-0.17757252
74	0x3d9852f7	0.07437699
75	0xbe020bdd	-0.12699838
76	0xbca105de	-0.019656118
77	0x3dbe8642	0.093029514
78	0xbe00c3a1	-0.12574627
79	0xbdf446f4	-0.11927596
80	0xbda50451	-0.08057464
81	0xbd87f857	-0.06639164
82	0xbde2130e	-0.11038791
83	0xbbf7fd21	-0.007568017
84	0x3db9875b	0.0905902
85	0xbe311fe6	-0.17297325
86	0x3e803a3b	0.25044426
87	0x3db5750c	0.088602155
88	0x3e4f47ef	0.20242284
89	0x3ddf1f68	0.10894662
90	0x3df525f5	0.1197013
91	0x3d9447db	0.07240268
92	0xbd25de1b	-0.04049502
93	0x3e64e445	0.22352703
94	0x3e4317b1	0.19052006
95	0x3e244181	0.16040613
96	0x3d2aeeff	0.04173183
97	0x3c68f52e	0.014218612
98	0xbc16b158	-0.0091975555
99	0xbd1bbd55	-0.038022358
100	0xbe100d02	-0.14067462
101	0xbdc1f1a1	-0.09469915
102	0xbe38b5c5	-0.1803809
103	0x3d894895	0.06703297
104	0xbe368e04	-0.17827612
105	0x3e3c109a	0.18365708
106	0xbda280f0	-0.07934749
107	0xbe76d663	-0.2410522
108	0xbd49d5e9	-0.049276266
109	0x3debf9f7	0.115222864
110	0xbdd9bdb4	-0.10631886
111	0x3d0dea18	0.034647077
112	0x3d250b1f	0.04029381
113	0xbe244011	-0.16040064
114	0xbe22f18f	-0.1591246
115	0x3dd19b15	0.10234658
116	0x3d8517b7	0.06498664
117	0xbe9135a6	-0.28361243
118	0xbdd35878	-0.103196084
119	0xbdc71827	-0.097214036
120	0x3ea891b0	0.3292365
121	0x3ca18152	0.019714985
122	0xbc8277df	-0.0159263
123	0xbd34905e	-0.04408299
124	0x3e19216a	0.14954153
125	0xbd8e4877	-0.06947415
126	0xbbaa92f2	-0.0052055055
127	0xbd07e535	-0.033177573

lstms.0.weight_hh_l0 f4 [128, 32]
0	0xbd3f47c7	-0.04669931
1	0x3d44f099	0.048081014
2	0xbd4c0ea0	-0.049818635
3	0x3d606941	0.054787878
4	0xbdfb5032	-0.122711554
5	0xbd01ffe0	-0.031738162
6	0xbe0aa7db	-0.13540594
7	0x3db16869	0.08662493
8	0xbdaa24cb	-0.08307799
9	0xbd6d65ae	-0.057958297
10	0xbe1f7e46	-0.15575513
11	0x3db9afad	0.090667106
12	0xbda0f362	-0.078589216
13	0xbe280c1c	-0.1641087
14	0xbe506573	-0.203512
15	0x3d1a0201	0.037599567
16	0x3e36d0f0	0.17853141
17	0x3d910ffd	0.07083128
18	0x3ca6b78e	0.020351198
19	0xbe607deb	-0.21923034
20	0x3d9e13e5	0.07718638
21	0x3cc90802	0.024539951
22	0xbd47cdfa	-0.04878042
23	0xbe7859a3	-0.24252944
24	0xbdc04cc0	-0.09389639
25	0xbdd04dab	-0.10171064
26	0x3e115a9d	0.14194722
27	0x3da1c718	0.07899302
28	0x3e6667e2	0.22500566
29	0x3dad251a	0.08454342
30	0x3e7bfdc9	0.2460853
31	0xbe30c9e2	-0.17264512
32	0xbdedb41f	-0.11606621
33	0xbc4d0b22	-0.012514861
34	0x3d9c45b8	0.07630485
35	0x3d8a76d8	0.06760949
36	0xbd20e58b	-0.03928141
37	0xbc93b0f1	-0.018028708
38	0xbde4ae5d	-0.1116607
39	0xbcf901bb	-0.030396333
40	0xbe44ccc8	-0.19218743
41	0x3dc384c3	0.09546807
42	0xbd239fbe	-0.039947264
43	0x3e475fa4	0.19470078
44	0xbd536e02	-0.051618584
45	0xbe11bbe3	-0.1423183
46	0x3ca4a26c	0.02009698
47	0x3cb88551	0.022524508
48	0xbd5e9103	-0.054337513
49	0xbe5f2e83	-0.21795087
50	0x3e61031a	0.2197384
51	0xbd07f3f3	-0.033191632
52	0x3d147ad7	0.03624996
53	0x3dd2aea4	0.10287216
54	0x3e1784b8	0.14796722
55	0x3d526daa	0.051374115
56	0xba979344	-0.0011564274
57	0xbe751fe5	-0.23937948
58	0xbdbad255	-0.09122149
59	0xbe373122	-0.17889836
60	0xbd5ed394	-0.054400995
61	0x3cf16ab7	0.02946983
62	0xbe12e034	-0.14343339
63	0x3d8bef34	0.06832734
64	0x3d9990e6	0.0749834
65	0x3ca7d4b9	0.020487176
66	0x3e868876	0.26275986
67	0x3c11c13b	0.008896167
68	0xbe049c1a	-0.12950173
69	0xbda1e35a	-0.07904692
70	0xbca81804	-0.020519264
71	0xbdc231b8	-0.09482139
72	0x3dba59c3	0.09099152
73	0x3e91c64f	0.2847161
74	0xbca33948	-0.019924775
75	0xbde755d1	-0.11295665
76	0x3def67e1	0.11689735
77	0xbdcc7081	-0.09982396
78	0x3e404750	0.18777204
79	0xbe379a8c	-0.17930049
80	0x3e0d2977	0.13785349
81	0x3d65673d	0.05600666
82	0x3e3bfae6	0.18357429
83	0x3e4beb6a	0.19914022
84	0xbe476890	-0.19473481
85	0x3e20018f	0.15625595
86	0x3d92bd85	0.07165054
87	0xbcbc0a5c	-0.022954158
88	0xbd08572f	-0.03328627
89	0x3cf4a58b	0.029864093
90	0x3d6d5543	0.05794264
91	0x3df0114f	0.11722051
92	0x3d0cb91e	0.03435623
93	0x3cea751e	0.028620299
94	0x3d50d129	0.05098072
95	0x3e45810e	0.19287512
96	0xbcc4558a	-0.02396657
97	0xbe13ef4f	-0.14446758
98	0x3e01d894	0.12680274
99	0x3d82cc18	0.06386584
100	0xbe689ac5	-0.2271529
101	0x3e62eac3	0.22159867
102	0xbe063ebd	-0.1310987
103	0x3d8ec141	0.06970454
104	0x3e36d490	0.17854524
105	0x3e069e31	0.13146283
106	0x3cdb835f	0.026796041
107	0xbd65e128	-0.05612293
108	0xbe046d1e	-0.1293225
109	0x3ce3a61c	0.027789168
110	0xbe020d04	-0.12700278
111	0x3c52210a	0.01282526
112	0xbd0b1b10	-0.033961356
113	0xbc78607d	-0.015159723
114	0x3eab6cd9	0.33481482
115	0xbd3b026b	-0.045656603
116	0x3e0461f7	0.12927996
117	0x3e0f0c1a	0.1396946
118	0xbcb1267c	-0.021624796
119	0xbc13032c	-0.008972924
120	0xbddcc01e	-0.10778831
121	0xbe35e174	-0.17761785
122	0x3dc68a30	0.09694326
123	0xbe0b8073	-0.13623218
124	0x3d25f866	0.040520094
125	0x3e11fede	0.1425738
126	0xbb504d7e	-0.003178447
127	0xbc037b3f	-0.00802499
128	0xbda0f56b	-0.0785931
129	0xbce23678	-0.027613863
130	0x3c82dec9	0.015975373
131	0x3e94dd64	0.29075158
132	0x3dd904eb	0.10596641
133	0xbd73734a	-0.05943612
134	0x3da5abdd	0.08089421
135	0xbd689809	-0.056785617
136	0x3da72255	0.08160845
137	0xbe357869	-0.17721714
138	0xbd7ef005	-0.06224062
139	0xbe0c60a4	-0.1370874
140	0xbb80e975	-0.0039340802
141	0xbe08c098	-0.13354719
142	0xbd82cd30	-0.06386793
143	0x3d02dd67	0.031949427
144	0xbce6ae87	-0.028159393
145	0x3c43f2c5	0.011959736
146	0x3dceb276	0.100926325
147	0x3d124aee	0.03571599
148	0x3de2c9c1	0.11073638
149	0x3df645be	0.12025021
150	0xbd861254	-0.065464646
151	0xbd8cc3b3	-0.06873264
152	0xbd7be4f4	-0.061497644
153	0xbc9ba274	-0.018998362
154	0x3dd4b82a	0.10386689
155	0x3dffe253	0.1249434
156	0xbd0b12fe	-0.03395366
157	0x3bfe42a6	0.00775941
158	0xbc77c30a	-0.0151221845
159	0xbcbbff97	-0.022949023
160	0x3c89e5c8	0.016833201
161	0x3da92708	0.08259398
162	0x3d46d380	0.048541546
163	0x3e755d54	0.23961383
164	0xbe658d60	-0.22417212
165	0x3d67269b	0.0564333
166	0xbd4dcc4a	-0.050243653
167	0xbe036159	-0.12830104
168	0x3e621863	0.22079615
169	0x3d869473	0.06571283
170	0xbdc2a77f	-0.095046036
171	0x3d810906	0.06300549
172	0xbd681689	-0.056662116
173	0xbd810ae1	-0.06300903
174	0xbdb1aab5	-0.08675138
175	0xbeb566d2	-0.35430008
176	0x3d25d49a	0.040485956
177	0x3dffbd83	0.12487318
178	0xbe0280b3	-0.12744407
179	0xbd6f7252	-0.058458634
180	0x3e054513	0.13014631
181	0x3e98d927	0.29853174
182	0xbc81c80b	-0.015842458
183	0xbba51e32	-0.005039
184	0xbe8520af	-0.26001498
185	0x3ddad2bf	0.10684728
186	0x3ca22748	0.019794121
187	0x3de6eb95	0.112754025
188	0xbe450ed4	-0.19243938
189	0xbe2891ba	-0.1646184
190	0x3e444339	0.19166268
191	0x3e6c8fad	0.23101683
192	0x3d2a264b	0.041540425
193	0xbe318faf	-0.17339967
194	0x3e10736e	0.14106533
195	0x3dfe06b3	0.124036215
196	0xbbecb212	-0.007223376
197	0x3e1a827e	0.15088841
198	0xbe4b30c4	-0.19842821
199	0xbd9a7d76	-0.07543461
200	0x3ded3a74	0.11583415
201	0x3e2eeada	0.17081776
202	0x3cf40b96	0.02979068
203	0xbbb5c894	-0.0055475924
204	0xbe8a277c	-0.2698325
205	0xbe700e6b	-0.23443
206	0xbdaaae13	-0.08333983
207	0x3d68f118	0.05687055
208	0xbc911ace	-0.017712977
209	0x3d7d0187	0.061769035
210	0x3e30238f	0.17201065
211	0x3e18284e	0.14859125
212	0xbcb95ee6	-0.022628259
213	0x3e652e84	0.22381026
214	0x3e14dc35	0.14537127
215	0x3d347389	0.044055495
216	0xbdaa14f3	-0.08304777
217	0xbb845991	-0.0040389975
218	0xbdcfc153	-0.101442955
219	0xbe24b345	-0.16084011
220	0xbe3fc70c	-0.18728274
221	0x3c3a5d93	0.011374849
222	0xbb8273fe	-0.0039811125
223	0x3d039098	0.032120317
224	0x3d8756cd	0.06608353
225	0x3e3f1e45	0.1866389
226	0xbe964e6f	-0.29356715
227	0xbd7bcde6	-0.061475657
228	0x3d37096e	0.044686727
229	0x3d5cbfb3	0.053893756
230	0xbd9ce58c	-0.0766097
231	0x3d6513af	0.055926975
232	0xbe0f5f28	-0.14001143
233	0xbbbd257f	-0.005772292
234	0x3e465e1a	0.19371834
235	0x3e042cf2	0.1290777
236	0xbdc44c3f	-0.09584855
237	0x3e85d394	0.26137984
238	0xbe3b5cec	-0.18297166
239	0x3e0f5a2a	0.13999239
240	0xbbf71216	-0.007539998
241	0x3e860c1b	0.2618111
242	0xbd20c385	-0.039248962
243	0xbdb6dc87	-0.08928781
244	0x3e0c0264	0.13672787
245	0x3b0561a7	0.0020352395
246	0x3c097dd2	0.008391814
247	0xbd73e13a	-0.059540965
248	0x3df24f51	0.11831535
249	0xbd1518ac	-0.036400482
250	0x3c3f068c	0.011659276
251	0xbd6e4fe0	-0.058181643
252	0xbdde7c00	-0.10863495
253	0x3dcde990	0.10054314
254	0x3e084386	0.13307008
255	0x3e148ac2	0.14506057

lstms.0.bias_ih_l0 f4 [128]
0	0x3d0de6ce	0.03464394
1	0xbcca0591	-0.024660857
2	0x3d5a0b9d	0.05323373
3	0x3d386128	0.04501453
4	0x3d6eca7f	0.058298584
5	0x3d746340	0.059664965
6	0x3d84abdf	0.06478094
7	0xbbeefc13	-0.007293233
8	0xbaeb84e6	-0.0017968684
9	0x3d849a17	0.06474703
10	0x3d6f811b	0.058472734
11	0x3d747f16	0.05969151
12	0xbc7cb0bc	-0.015422996
13	0xbcd6ea36	-0.026234727
14	0x3d6eba5c	0.058283195
15	0xbccba10c	-0.024857067
16	0xbd201278	-0.039080113
17	0x3c423794	0.011854071
18	0x3d8fb30f	0.070165746
19	0x3c39ffbc	0.011352476
20	0xbd1d2805	-0.038368244
21	0x3d31d4ba	0.043415762
22	0x3d7cb58d	0.061696578
23	0x3cf6616c	0.030075751
24	0x3bc8a644	0.006123336
25	0x3d804de5	0.06264857
26	0x3d842636	0.06452601
27	0x3cd0103e	0.02539837
28	0x3ad434c3	0.0016190041
29	0x3c50d511	0.0127461115
30	0x3d3d73fb	0.046253186
31	0xbcd4faa9	-0.02599843
32	0x3d05f5c4	0.032705083
33	0xbccab838	-0.024746045
34	0x3d533505	0.051564235
35	0x3d411708	0.047141105
36	0x3d626aae	0.05527752
37	0x3d73b2d8	0.05949673
38	0x3d7449dd	0.059640754
39	0xbc294399	-0.010331058
40	0xbba03608	-0.0048892535
41	0x3d8027ae	0.06257568
42	0x3d62b528	0.055348545
43	0x3d68a450	0.056797326
44	0xbc8aebc5	-0.016958127
45	0xbcd471db	-0.025933197
46	0x3d63ff08	0.05566314
47	0xbcd6404d	-0.026153708
48	0xbd1c9ced	-0.038235594
49	0x3bd86ead	0.0066049905
50	0x3d82d6fa	0.0638866
51	0x3c07c5c8	0.008286901
52	0xbd117a7a	-0.035517193
53	0x3d228e92	0.039686747
54	0x3d744f59	0.059645984
55	0x3ce755b9	0.028239118
56	0x3bc5e2e3	0.00603901
57	0x3d734d26	0.059399746
58	0x3d773bc0	0.060359716
59	0x3cbf9352	0.023385677
60	0xbb76d13b	-0.0037661332
61	0x3c596106	0.013267761
62	0x3d47a94e	0.048745446
63	0xbcd904a4	-0.02649147
64	0xbcb7bc02	-0.022428516
65	0xbcb65562	-0.02225751
66	0x3cdad851	0.026714476
67	0x3ced4345	0.02896274
68	0xbca70fbe	-0.020393249
69	0x3cc2fd25	0.02380235
70	0xbcee40b1	-0.029083582
71	0x3d098e62	0.033583052
72	0x3ccc560e	0.024943378
73	0x3cbc557d	0.022989983
74	0xbce5016c	-0.02795478
75	0x3cfd1e5a	0.030898262
76	0xbc2c4613	-0.010514754
77	0x3cf8a8fb	0.030354014
78	0x3ce4dbf8	0.02793692
79	0xbcc3c782	-0.023898844
80	0xbcf15ef3	-0.02946422
81	0xbcd06d1f	-0.025442658
82	0x3ce1b0ff	0.027550219
83	0xbc93839c	-0.018007092
84	0x3cd5dc3e	0.026105996
85	0x3c446cce	0.011988832
86	0xbcc175fb	-0.023615828
87	0xbcdaf206	-0.026726734
88	0x3d22507c	0.039627537
89	0xbce4670b	-0.027881166
90	0xbcb493a7	-0.022043062
91	0xbcb96e50	-0.022635609
92	0xbd060782	-0.032722004
93	0x3d144102	0.03619481
94	0x3d02af22	0.0319053
95	0x3d011d2d	0.031521965
96	0x3d0d5880	0.03450823
97	0xbcc3acee	-0.02388617
98	0x3d52c7dd	0.051460136
99	0x3d4197f9	0.047264073
100	0x3d6e390c	0.058159873
101	0x3d7418a1	0.0595938
102	0x3d7126c8	0.058874875
103	0xbbf2ccd7	-0.0074096727
104	0xbbefe90e	-0.0073214835
105	0x3d836362	0.0641544
106	0x3d61e758	0.055152267
107	0x3d67f961	0.05663431
108	0xbc8b94c7	-0.017038716
109	0xbcd59cad	-0.026075685
110	0x3d6e5594	0.058187082
111	0xbcd44084	-0.02590967
112	0xbd1c9d05	-0.038235683
113	0x3c9588d9	0.01825373
114	0x3d8e4e3a	0.06948514
115	0x3c1b7021	0.009487183
116	0xbd1602c3	-0.036623728
117	0x3d1faa12	0.03898055
118	0x3d79ae32	0.06095714
119	0x3ceb58b5	0.028728822
120	0x3b67218d	0.00352678
121	0x3d80cedc	0.06289455
122	0x3d830a9c	0.06398508
123	0x3cd3958d	0.025828147
124	0xba66decc	-0.0008807003
125	0x3c858393	0.016298091
126	0x3d449d7e	0.04800176
127	0xbcd8f8b6	-0.026485782

lstms.0.bias_hh_l0 f4 [128]
0	0x3d0de6ce	0.03464394
1	0xbcca0591	-0.024660857
2	0x3d5a0b9d	0.05323373
3	0x3d386128	0.04501453
4	0x3d6eca7f	0.058298584
5	0x3d746340	0.059664965
6	0x3d84abdf	0.06478094
7	0xbbeefc13	-0.007293233
8	0xbaeb84e6	-0.0017968684
9	0x3d849a17	0.06474703
10	0x3d6f811b	0.058472734
11	0x3d747f16	0.05969151
12	0xbc7cb0bc	-0.015422996
13	0xbcd6ea36	-0.026234727
14	0x3d6eba5c	0.058283195
15	0xbccba10c	-0.024857067
16	0xbd201278	-0.039080113
17	0x3c423794	0.011854071
18	0x3d8fb30f	0.070165746
19	0x3c39ffbc	0.011352476
20	0xbd1d2805	-0.038368244
21	0x3d31d4ba	0.043415762
22	0x3d7cb58d	0.061696578
23	0x3cf6616c	0.030075751
24	0x3bc8a644	0.006123336
25	0x3d804de5	0.06264857
26	0x3d842636	0.06452601
27	0x3cd0103e	0.02539837
28	0x3ad434c3	0.0016190041
29	0x3c50d511	0.0127461115
30	0x3d3d73fb	0.046253186
31	0xbcd4faa9	-0.02599843
32	0x3d05f5c4	0.032705083
33	0xbccab838	-0.024746045
34	0x3d533505	0.051564235
35	0x3d411708	0.047141105
36	0x3d626aae	0.05527752
37	0x3d73b2d8	0.05949673
38	0x3d7449dd	0.059640754
39	0xbc294399	-0.010331058
40	0xbba03608	-0.0048892535
41	0x3d8027ae	0.06257568
42	0x3d62b528	0.055348545
43	0x3d68a450	0.056797326
44	0xbc8aebc5	-0.016958127
45	0xbcd471db	-0.025933197
46	0x3d63ff08	0.05566314
47	0xbcd6404d	-0.026153708
48	0xbd1c9ced	-0.038235594
49	0x3bd86ead	0.0066049905
50	0x3d82d6fa	0.0638866
51	0x3c07c5c8	0.008286901
52	0xbd117a7a	-0.035517193
53	0x3d228e92	0.039686747
54	0x3d744f59	0.059645984
55	0x3ce755b9	0.028239118
56	0x3bc5e2e3	0.00603901
57	0x3d734d26	0.059399746
58	0x3d773bc0	0.060359716
59	0x3cbf9352	0.023385677
60	0xbb76d13b	-0.0037661332
61	0x3c596106	0.013267761
62	0x3d47a94e	0.048745446
63	0xbcd904a4	-0.02649147
64	0xbcb7bc02	-0.022428516
65	0xbcb65562	-0.02225751
66	0x3cdad851	0.026714476
67	0x3ced4345	0.02896274
68	0xbca70fbe	-0.020393249
69	0x3cc2fd25	0.02380235
70	0xbcee40b1	-0.029083582
71	0x3d098e62	0.033583052
72	0x3ccc560e	0.024943378
73	0x3cbc557d	0.022989983
74	0xbce5016c	-0.02795478
75	0x3cfd1e5a	0.030898262
76	0xbc2c4613	-0.010514754
77	0x3cf8a8fb	0.030354014
78	0x3ce4dbf8	0.02793692
79	0xbcc3c782	-0.023898844
80	0xbcf15ef3	-0.02946422
81	0xbcd06d1f	-0.025442658
82	0x3ce1b0ff	0.027550219
83	0xbc93839c	-0.018007092
84	0x3cd5dc3e	0.026105996
85	0x3c446cce	0.011988832
86	0xbcc175fb	-0.023615828
87	0xbcdaf206	-0.026726734
88	0x3d22507c	0.039627537
89	0xbce4670b	-0.027881166
90	0xbcb493a7	-0.022043062
91	0xbcb96e50	-0.022635609
92	0xbd060782	-0.032722004
93	0x3d144102	0.03619481
94	0x3d02af22	0.0319053
95	0x3d011d2d	0.031521965
96	0x3d0d5880	0.03450823
97	0xbcc3acee	-0.02388617
98	0x3d52c7dd	0.051460136
99	0x3d4197f9	0.047264073
100	0x3d6e390c	0.058159873
101	0x3d7418a1	0.0595938
102	0x3d7126c8	0.058874875
103	0xbbf2ccd7	-0.0074096727
104	0xbbefe90e	-0.0073214835
105	0x3d836362	0.0641544
106	0x3d61e758	0.055152267
107	0x3d67f961	0.05663431
108	0xbc8b94c7	-0.017038716
109	0xbcd59cad	-0.026075685
110	0x3d6e5594	0.058187082
111	0xbcd44084	-0.02590967
112	0xbd1c9d05	-0.038235683
113	0x3c9588d9	0.01825373
114	0x3d8e4e3a	0.06948514
115	0x3c1b7021	0.009487183
116	0xbd1602c3	-0.036623728
117	0x3d1faa12	0.03898055
118	0x3d79ae32	0.06095714
119	0x3ceb58b5	0.028728822
120	0x3b67218d	0.00352678
121	0x3d80cedc	0.06289455
122	0x3d830a9c	0.06398508
123	0x3cd3958d	0.025828147
124	0xba66decc	-0.0008807003
125	0x3c858393	0.016298091
126	0x3d449d7e	0.04800176
127	0xbcd8f8b6	-0.026485782

fc.weight f4 [1, 32]
0	0x3e2f3edc	0.17113823
1	0x3dfa3800	0.122177124
2	0xbdf8d29d	-0.12149546
3	0xbe1a76a0	-0.15084314
4	0x3e3dc77a	0.18533126
5	0xbe6d27c9	-0.23159708
6	0x3e249b9b	0.16074984
7	0xbd3ac6b3	-0.04559965
8	0xbdf6d498	-0.12052268
9	0xbe6fc60b	-0.23415391
10	0x3e10e352	0.14149216
11	0xbdab1815	-0.08354203
12	0xbbf4a1a3	-0.0074655577
13	0xbd60b7cc	-0.054862782
14	0xbe42fad0	-0.1904099
15	0x3e00941e	0.12556502
16	0x3daf7103	0.08566477
17	0x3d2c782e	0.0421068
18	0xbdc3b3c3	-0.09555771
19	0x3e165b58	0.14683282
20	0xbd94f7da	-0.072738364
21	0xbc4fc689	-0.012681612
22	0x3e6bb18e	0.2301695
23	0x3e272c87	0.1632558
24	0xbd1797f9	-0.037010167
25	0x3dd574ab	0.10422643
26	0x3e5582fb	0.20850746
27	0x3d9877ce	0.07444726
28	0x3da44dca	0.080226496
29	0x3c8c4030	0.01712045
30	0xbd230082	-0.039795406
31	0xbd9df2f0	-0.07712352
