labs/models/USD/7_64_8_sgd.pth (torch, 81451 bytes, 9 tensors)

lstms.0.weight_ih_l0 f4 [256, 1]
0	0xbd8ca646	-0.06867652
1	0x3d9834ea	0.074319676
2	0xbca63697	-0.020289702
3	0x3e37f576	0.1796473
4	0xbda31b9d	-0.07964251
5	0x3e29d32b	0.1658446
6	0xbdddcf02	-0.10830499
7	0x3de9588f	0.11393844
8	0xbdd5fd10	-0.104486585
9	0xbde85ee3	-0.11346223
10	0x3d6cc3aa	0.057803787
11	0x3d4b5daf	0.04964989
12	0xbc2fbd3c	-0.010726269
13	0xbd1f931d	-0.038958658
14	0x3da30595	0.07960049
15	0x3cac9438	0.02106677
16	0xbdc96e1c	-0.09835455
17	0xbc1df9a7	-0.009642041
18	0x3d8ba6ff	0.06818961
19	0x3dcd891a	0.10035916
20	0x3d4efe16	0.050535284
21	0x3de419d5	0.111377396
22	0x3c62d91f	0.013845711
23	0xbd8ad198	-0.06778258
24	0xbdbb8038	-0.09155315
25	0x3c440a5c	0.0119653605
26	0x3a62b7c3	0.00086485985
27	0x3e43cc83	0.19120984
28	0xbd509663	-0.05092467
29	0xbe741af2	-0.23838404
30	0xbc6c8622	-0.014436277
31	0xbdb70111	-0.0893575
32	0x3e153b8c	0.14573497
33	0xbe44f20f	-0.19232963
34	0x3ba11a28	0.004916448
35	0xbd334fc0	-0.043777227
36	0xbdc36cdc	-0.09542248
37	0x3e2443e2	0.1604152
38	0x3e155c5f	0.14586018
39	0xbc1f88f1	-0.009737239
40	0x3b4c6199	0.0031186102
41	0xbc080f28	-0.008304395
42	0x3c7400ad	0.014892739
43	0x3d3e4955	0.046456654
44	0xbda42f2b	-0.08016809
45	0x3e243ac2	0.1603804
46	0x3ce82012	0.028335605
47	0x3cdc2181	0.026871445
48	0xbc62e5ac	-0.013848703
49	0x3d309eff	0.04312038
50	0xbd9643f9	-0.073371835
51	0x3d247625	0.040151734
52	0x3e362ffe	0.17791745
53	0x3e09e2b6	0.1346539
54	0x3d524e51	0.05134422
55	0x3e7fcced	0.24980517
56	0x3d95f6c7	0.0732246
57	0xbd0d890c	-0.034554526
58	0xbe03f0e7	-0.12884866
59	0x3d52663b	0.051367026
60	0x3ddd3aa2	0.10802199
61	0xbd61b6d1	-0.055105988
62	0xbda1b731	-0.07896269
63	0x3da3fd94	0.080073506
64	0xbe7c088c	-0.24612635
65	0xbbf4eabc	-0.0074742716
66	0xbdc8ab1c	-0.097982615
67	0xbdc229db	-0.094806395
68	0xbdb3d8cc	-0.08781585
69	0xbde8b4f3	-0.11362638
70	0xbd8c2cd3	-0.06844487
71	0xbe07a989	-0.13248266
72	0xbd40728c	-0.04698424
73	0x3d8a7f53	0.067625664
74	0x3dc40463	0.09571149
75	0x3e17907d	0.14801212
76	0x3ab052fa	0.0013452463
77	0x3d7f0bee	0.062267236
78	0x3d209e11	0.039213244
79	0xbdaa262d	-0.08308063
80	0xbd02605b	-0.031830173
81	0x3dccc1c3	0.099978946
82	0xbd899526	-0.06717901
83	0x3d12dcca	0.035855092
84	0xbde120fa	-0.10992618
85	0x3d4465bc	0.047948584
86	0x3e2e7fc2	0.17040923
87	0x3e001473	0.12507801
88	0x3e085b62	0.1331611
89	0x3c81a298	0.015824601
90	0xbd8cb264	-0.06869963
91	0xbe334f9c	-0.17510837
92	0x3d114050	0.035461724
93	0xbd748bf7	-0.059703793
94	0xbe2423db	-0.16029303
95	0x3b3241b6	0.0027199811
96	0xbe2460d2	-0.16052559
97	0xbd3fe2e7	-0.04684725
98	0xbe861ee8	-0.26195455
99	0x3bdde423	0.006771581
100	0x3d052c62	0.03251303
101	0xbc0c9363	-0.008580062
102	0x3b85fc43	0.00408891
103	0xbd9ca609	-0.07648856
104	0xbdce5f92	-0.10076822
105	0x3cd6d2a8	0.026223496
106	0xbdd561d4	-0.1041905
107	0xbc8b575d	-0.017009431
108	0xbe203b24	-0.1564756
109	0x3c04dc95	0.0081092315
110	0x3e11d08e	0.14239714
111	0xbe0789e5	-0.13236196
112	0xbd112bec	-0.035442278
113	0xbdb879f3	-0.09007635
114	0x3ca90a6b	0.02063485
115	0xbdfb5193	-0.122714184
116	0xbdd1dce4	-0.1024721
117	0x3c859fee	0.016311612
118	0xbe06fb4d	-0.13181801
119	0x3de49e3d	0.11162994
120	0x3c9617cf	0.0183219
121	0x3d936d12	0.07198538
122	0xbd366ddb	-0.04453836
123	0xbda57647	-0.080792
124	0xbe984c9b	-0.29745945
125	0x3d4a442c	0.04938142
126	0x3d5ea354	0.05435498
127	0xbd0a7bf5	-0.03380962
128	0x3d105d6a	0.035245337
129	0xbd2805ee	-0.04102128
130	0xbd4680f5	-0.048462827
131	0x3e52684f	0.20547603
132	0xbd39e72f	-0.04538649
133	0x3d147899	0.036247823
134	0xbc4512b9	-0.01202839
135	0xbd2008e9	-0.039070997
136	0xbd123b37	-0.035701003
137	0x3d6cb668	0.057791144
138	0xbcc478bf	-0.023983357
139	0x3e19d7aa	0.15023676
140	0x3d1f8b9d	0.038951505
141	0x3d5c9dd2	0.053861447
142	0xbc3b321c	-0.011425521
143	0x3d449508	0.04799369
144	0x3da51f55	0.08062617
145	0xbc521789	-0.012822994
146	0x3d70ec13	0.058818888
147	0x3d6d5c39	0.05794928
148	0x3d88c57b	0.066782914
149	0x3db3aa4f	0.08772718
150	0x3d3be4db	0.04587255
151	0x3d9e1495	0.077187695
152	0xbd45284b	-0.04813413
153	0xbc68d305	-0.014210467
154	0xbdaaf766	-0.08347969
155	0xbdce0524	-0.10059574
156	0xbc613b75	-0.013747086
157	0xbd5d2253	-0.053987812
158	0xbdce365b	-0.10068961
159	0x3d582fd4	0.052779987
160	0x3d9fca30	0.07802236
161	0xbdeb58e1	-0.11491562
162	0xbe140da8	-0.14458334
163	0xbd444875	-0.047920663
164	0xbb9e518a	-0.0048314976
165	0xbcfe8ec7	-0.03107394
166	0x3dc56d3c	0.096399754
167	0x3e133ff4	0.14379865
168	0x3c0dd0b7	0.0086557185
169	0xbc8ec4e7	-0.017427875
170	0xbdf55b14	-0.119802624
171	0x3d5e9c40	0.05434823
172	0x3d450203	0.04809762
173	0x3d2f8f7b	0.042861443
174	0xbd6290ab	-0.055313747
175	0xbd9669b4	-0.0734438
176	0x3dca0eb2	0.09866084
177	0x3dc0d64e	0.094158754
178	0xbd8fc0a7	-0.070191674
179	0x3c172a90	0.009226456
180	0xbb7537bb	-0.003741725
181	0x3d09dfba	0.033660628
182	0xbc7028ca	-0.014658162
183	0xbdc71d22	-0.097223535
184	0x3d9dc6ea	0.077039555
185	0xbd283bf1	-0.04107279
186	0x3da1caa4	0.07899979
187	0x3e024d0f	0.12724708
188	0xbda09d40	-0.07842493
189	0x3cfa93f8	0.030588135
190	0xbd3c9cf3	-0.046048116
191	0xbbda2238	-0.006656911
192	0x3b4b8e0a	0.0031060004
193	0x3d3c15b5	0.04591914
194	0x3d8a72cf	0.06760179
195	0x3d51ed13	0.051251482
196	0xbd2163e5	-0.039401907
197	0xbcb0c899	-0.021580027
198	0xbdbd5b75	-0.0924596
199	0xbe6ebbbd	-0.23313804
200	0xba966968	-0.0011475505
201	0xbb8c0672	-0.0042732293
202	0x3e16f858	0.14743173
203	0xbdba0f6b	-0.09084972
204	0xbd95fc6d	-0.07323537
205	0x3dd5e2f4	0.104436785
206	0x3d96241a	0.073311046
207	0x3c369eea	0.0111462865
208	0xbcdfd5dc	-0.027323656
209	0xb81fd3d5	-3.8105838e-05
210	0xbdf4d4e9	-0.11954672
211	0xbcfa7f98	-0.03057842
212	0xbd20245b	-0.03909717
213	0xbc1c11b5	-0.009525706
214	0xbd9df599	-0.0771286
215	0x3b9dfa0a	0.0048210667
216	0xbda6279b	-0.08113023
217	0x3dcd54a9	0.10025913
218	0xbda43a47	-0.08018928
219	0x3d132cf8	0.035931557
220	0xbd5622de	-0.052279346
221	0xbe18640d	-0.14881916
222	0x3cefc677	0.02926944
223	0x3d133491	0.035938803
224	0xbdd9f36a	-0.10642131
225	0x3db7fddd	0.089839675
226	0xbd5faba6	-0.054607056
227	0xbd166128	-0.03671375
228	0xbc646bd1	-0.013941721
229	0xbd6673d2	-0.0562628
230	0x3d28521f	0.04109394
231	0x3cbb72ff	0.022881983
232	0x3caf9b46	0.021436345
233	0xbcb71cb6	-0.022352558
234	0x3dfb1e74	0.12261668
235	0x3d0c5631	0.034261886
236	0x3d43e57b	0.04782627
237	0xbca5fa15	-0.02026085
238	0xbdfa4531	-0.122202285
239	0x3d115349	0.035479818
240	0x3cea03b8	0.028566226
241	0x3d819b97	0.063285045
242	0x3e2662ab	0.16248576
243	0xbbc762a2	-0.006084756
244	0xbd8014e7	-0.06253987
245	0xbe007c60	-0.12547445
246	0xbdae65e4	-0.08515528
247	0x3d7188ab	0.058968227
248	0x3bda505b	0.006662411
249	0x3d79e354	0.061007813
250	0xbdce06d4	-0.10059896
251	0xbce68c22	-0.028142992
252	0x3d484866	0.04889717
253	0xbdf8a02f	-0.121399276
254	0xbde873da	-0.11350222
255	0xb8376e5f	-4.373339e-05

lstms.0.weight_hh_l0 f4 [256, 64]
0	0x3e035587	0.12825595
1	0xbdc8713f	-0.09787225
2	0x3d497666	0.04918518
3	0xbd4b6987	-0.049661186
4	0xbc8e5bae	-0.0173777
5	0xbe4e98f5	-0.20175536
6	0x3d2572b6	0.0403926
7	0xbd95222a	-0.07281907
8	0x3d0e14d7	0.034687843
9	0x3d8cd2bf	0.06876134
10	0x3d03c0f2	0.03216643
11	0xbdff40b6	-0.124635145
12	0x3c6a42ef	0.014298185
13	0x3c66883f	0.01407057
14	0x3e3daab0	0.18522143
15	0xbdc945e2	-0.09827782
16	0x3d2b56d5	0.041830856
17	0x3db7671b	0.08955213
18	0xbd001d32	-0.031277843
19	0x3dcf1478	0.10111326
20	0x3d12e125	0.035859246
21	0xbe067665	-0.13131101
22	0xbda95c45	-0.08269552
23	0x3cd74573	0.026278233
24	0xbdb8edab	-0.090297066
25	0xbdeb0332	-0.11475219
26	0x3d63c3b6	0.055606566
27	0xbd6f2d40	-0.058392763
28	0xbd2b6103	-0.041840564
29	0x3cb2d3c9	0.021829503
30	0x3d06b784	0.032889858
31	0xbd8c6aa3	-0.06856277
32	0xbcfabb9b	-0.030607035
33	0x3db9630d	0.090520956
34	0xbd60a90c	-0.054848716
35	0xbced164a	-0.028941292
36	0xbbd3b11a	-0.006460321
37	0x3d3f34fe	0.046681397
38	0xbcfefac1	-0.031125428
39	0xbdad67aa	-0.08467038
40	0xbd7b48a3	-0.06134857
41	0x3d573924	0.052544728
42	0x3db659a3	0.089038156
43	0xbcc3d9c2	-0.023907546
44	0xbcb04926	-0.021519255
45	0xbdad3402	-0.08457185
46	0xbdc7dbb9	-0.09758706
47	0xbe1cf466	-0.15327606
48	0xbc26190b	-0.010137807
49	0xbd912e78	-0.07088941
50	0x3d2a3894	0.041557863
51	0x3d956cad	0.07296119
52	0x3dc1d847	0.0946508
53	0x3de028ec	0.10945305
54	0xbd3101de	-0.04321467
55	0xbd946f05	-0.07247738
56	0xbde68965	-0.11256675
57	0x3d68897d	0.056771744
58	0xbd94ac8b	-0.072594725
59	0x3dacff78	0.08447164
60	0xbd8a0873	-0.06739893
61	0x3dbb6d3e	0.09151696
62	0xbc0945c9	-0.0083784545
63	0xbd98a3ac	-0.07453093
64	0xbcd09e6d	-0.025466168
65	0x3ce407c7	0.02783574
66	0xbcc8a27d	-0.024491543
67	0xbc9dccc1	-0.019262673
68	0xbc722308	-0.01477886
69	0x3ca904f0	0.020632237
70	0x3daa6f0d	0.083219625
71	0xbdaeaeec	-0.085294574
72	0xbdd9e1a1	-0.106387384
73	0x3dab4aef	0.08363902
74	0xbc04e011	-0.008110062
75	0xbc28fe02	-0.010314466
76	0x3d115c00	0.03548813
77	0x3ddebe8d	0.108761884
78	0x3d9172a3	0.07101943
79	0xba19149a	-0.00058395567
80	0x3ce4df2c	0.027938448
81	0xbe315e8d	-0.17321225
82	0xbdaecf50	-0.085356355
83	0xbd9922db	-0.07477351
84	0xbc756813	-0.0149784265
85	0x3a73f218	0.0009305789
86	0xbd11dbe8	-0.03561011
87	0xbdbbd662	-0.0917175
88	0xbe1efec9	-0.1552688
89	0xbd8abfe5	-0.06774882
90	0xbd512d9b	-0.051068883
91	0xbdd6f789	-0.10496432
92	0xbe075400	-0.13215637
93	0xbe27f193	-0.16400747
94	0xbd55fa71	-0.052240793
95	0xbda8d61b	-0.082439624
96	0x3db1cb30	0.08681333
97	0xbd439d46	-0.04775741
98	0xbd6518ec	-0.05593197
99	0xbe019f87	-0.12658511
100	0xbdc5a5ef	-0.0965079
101	0x3d81190f	0.06303608
102	0xbddcc237	-0.10779231
103	0xbe2f46d5	-0.17116864
104	0x3d1c07d0	0.038093388
105	0x3d8b05ad	0.06788192
106	0x3da11464	0.07865217
107	0xbcce3cb0	-0.025175422
108	0x3d0894b7	0.03334495
109	0x3e08dcf6	0.1336554
110	0xbba40897	-0.005005907
111	0xbdcf4759	-0.1012103
112	0x3be67978	0.007033523
113	0x3d8000e2	0.062501684
114	0xbcd2fa87	-0.025754226
115	0xbdfac341	-0.12244273
116	0xbdbb42b5	-0.09143583
117	0x3de717a8	0.11283809
118	0xbe4f122e	-0.20221779
119	0x3d27a8aa	0.040932335
120	0x3dd2dbce	0.10295831
121	0x3daf8a62	0.08571316
122	0xbc93a033	-0.018020725
123	0xbcca145a	-0.024667908
124	0x3d46ab36	0.048503123
125	0x3e23688e	0.15957853
126	0xbd104b63	-0.035228144
127	0x3d5e7c10	0.054317534
128	0xbd5dea7c	-0.0541787
129	0x3c0d7ff1	0.008636461
130	0xbd274c1d	-0.04084407
131	0x3c5d9352	0.013523893
132	0xbcf53bc5	-0.029935727
133	0x3db1314e	0.08651982
134	0x3e1fca71	0.15604569
135	0x3d214d07	0.0393801
136	0x3b88a44e	0.0041699773
137	0x3db84453	0.08997407
138	0xbd0069aa	-0.03135077
139	0x3dcf3a96	0.10118596
140	0x3d7db620	0.061941266
141	0x3dabdc79	0.08391661
142	0x3d2ce58b	0.042211097
143	0x3df2fec9	0.11865003
144	0x3c42bf48	0.011886425
145	0x3d955c74	0.07293025
146	0xbdbf047b	-0.093270265
147	0x3ce0da55	0.027447859
148	0x3dd0e4e8	0.101999104
149	0x3e2344b8	0.15944183
150	0x3da6e1a5	0.08148507
151	0x3cad5fad	0.021163786
152	0x3deea012	0.11651625
153	0x3c2653e5	0.010151838
154	0x3ce17c20	0.027525008
155	0xbd818d87	-0.06325822
156	0xbccfdb34	-0.025373079
157	0x3c44ec00	0.012019157
158	0xbe0699c5	-0.13144596
159	0x3d96bd6a	0.073603466
160	0x3de5b62a	0.11216386
161	0xbd15d6f6	-0.036581956
162	0x3e2bc792	0.16775349
163	0x3d71585c	0.058922157
164	0xbdeeab60	-0.11653781
165	0x3d46fcf8	0.048581094
166	0xbe14de3e	-0.14537904
167	0xbd707e7d	-0.05871438
168	0x3de31eb0	0.110898376
169	0xbd777bfe	-0.060420983
170	0xbcbd84fc	-0.023134701
171	0x3d033ccd	0.032040406
172	0xbc2027b7	-0.009775094
173	0xbd969b55	-0.07353846
174	0xbd9b9f4a	-0.07598741
175	0xbd7e0945	-0.06202056
176	0x3db11dad	0.08648238
177	0x3d0c6737	0.03427812
178	0x3ca154fc	0.019693844
179	0x3c5ad732	0.013356971
180	0xbd43e8d0	-0.04782945
181	0xbd925ea2	-0.07146956
182	0x3d54302a	0.051803745
183	0xbd4a0423	-0.04932035
184	0x3cb8e4f8	0.022570118
185	0xbdf88222	-0.12134196
186	0xbcc2ed8c	-0.023794912
187	0xbce0ed05	-0.02745677
188	0x3d5c5b99	0.05379829
189	0x3dd11ede	0.102109656
190	0xbbd23e2c	-0.006416103
191	0xbdd5271b	-0.104078494
192	0x3b976483	0.004620136
193	0xbd7a0005	-0.061035175
194	0x3d23e37e	0.040011875
195	0x3dd99526	0.10624151
196	0xbd810ab0	-0.063008666
197	0xbd9688ff	-0.07350349
198	0xbd18820e	-0.037233405
199	0x3c41d113	0.011829632
200	0x3cf2c447	0.029634608
201	0x3d565bd7	0.05233368
202	0x3e143c34	0.1447609
203	0x3da00dce	0.07815133
204	0x3d40ae23	0.04704107
205	0x3de30e0d	0.11086664
206	0x3e2753b2	0.16340521
207	0x3d95c4e6	0.07312946
208	0x3e44ffd6	0.19238219
209	0x3d0b0638	0.033941478
210	0xbd74c6e3	-0.059759986
211	0xbc92a145	-0.017899165
212	0xbc8f205c	-0.017471485
213	0xbce34ee1	-0.027747573
214	0xbc8d52c5	-0.017251382
215	0xbd21a3c1	-0.03946281
216	0xbe1ed30e	-0.15510198
217	0x3d9d18d5	0.07670752
218	0x3d88c694	0.06678501
219	0xbd42142b	-0.047382515
220	0xbc6a00a4	-0.014282379
221	0xbd548ec3	-0.05189396
222	0xbe36b7c1	-0.17843534
223	0x3df8774b	0.12132128
224	0xbd7feb69	-0.062480364
225	0xbda95bfb	-0.08269497
226	0xbdb73aab	-0.08946737
227	0x3d944ae8	0.0724085
228	0x3d8c0e16	0.06838624
229	0x3dcd3ddc	0.10021564
230	0x3cff9476	0.031198721
231	0xbc0a4b80	-0.008440852
232	0xbd448182	-0.04797507
233	0xbdadf2e8	-0.08493596
234	0x3bbac0a6	0.005699235
235	0xbc9b3b13	-0.018949067
236	0x3d3d7450	0.046253502
237	0xbbd8d415	-0.006617079
238	0xbd98d22f	-0.07461964
239	0xbddb11e7	-0.10696774
240	0xbb8dc4d6	-0.004326443
241	0xbd976f8a	-0.07394321
242	0xbcdedcac	-0.027204834
243	0xbc2f216f	-0.0106891235
244	0x3e16a3dc	0.14710945
245	0xbcc7ee52	-0.024405632
246	0x3df1bf66	0.118040845
247	0x3ce7c63d	0.02829277
248	0x3dac1d1d	0.084039904
249	0x3d9a8610	0.07545102
250	0xbd5a61e8	-0.053316027
251	0x3dad5c0f	0.084648244
252	0x3bb94a0b	0.0056545786
253	0x3d42350d	0.047413874
254	0xbc57086c	-0.0131245665
255	0xbcdfa311	-0.027299436

lstms.0.bias_ih_l0 f4 [256]
0	0xb8c197db	-9.2312424e-05
1	0xb96899f9	-0.00022182603
2	0x38d95af0	0.00010364305
3	0x390161d3	0.00012338841
4	0xb967f275	-0.00022120199
5	0x38ba8a52	8.894935e-05
6	0xb64cc5eb	-3.0513572e-06
7	0x37c78c48	2.3787972e-05
8	0xb70785be	-8.077766e-06
9	0x38cc3b7d	9.7385586e-05
10	0xb75ad968	-1.3044431e-05
11	0x39fa9ef0	0.00047802133
12	0x394114ea	0.00018413705
13	0xb78168cb	-1.5426796e-05
14	0xb7c3fdfe	-2.3364086e-05
15	0x391f6b21	0.0001520333
16	0x39d559f1	0.00040693537
17	0xb9d1100f	-0.0003987555
18	0x3917f0b5	0.00014490153
19	0xb9cb2042	-0.0003874321
20	0x38ab79be	8.176592e-05
21	0x3990a4a4	0.00027588487
22	0x3989af2a	0.00026261184
23	0xb931dafe	-0.00016961616
24	0x37f8ede6	2.9674684e-05
25	0x380e5f68	3.3944292e-05
26	0x388f8455	6.84342e-05
27	0xb90ea412	-0.00013603296
28	0x3834c20c	4.3096064e-05
29	0x389ca1f7	7.468828e-05
30	0xb903ae57	-0.0001255808
31	0x378270d1	1.5549742e-05
32	0x388ad2e7	6.6196364e-05
33	0x37990cc4	1.8244966e-05
34	0xb984a01d	-0.00025296296
35	0x373f9164	1.14183385e-05
36	0x387f62f4	6.0888895e-05
37	0xb7fa80d6	-2.9862316e-05
38	0xb820660c	-3.824201e-05
39	0xb889196d	-6.537405e-05
40	0x36a29919	4.845799e-06
41	0xb6872e80	-4.028727e-06
42	0x39aebb93	0.0003332762
43	0xb81e1ae2	-3.7695172e-05
44	0x39852a72	0.0002539936
45	0x35331193	6.670827e-07
46	0xb7edda32	-2.8354207e-05
47	0xb569454a	-8.690009e-07
48	0x389d5ffd	7.5042226e-05
49	0xb933dd3f	-0.00017153191
50	0xb68d654a	-4.213919e-06
51	0xb7c40cb8	-2.3370943e-05
52	0x36ec0f84	7.0351543e-06
53	0xb888b1e8	-6.518123e-05
54	0xb7176b69	-9.02531e-06
55	0xb9bf71dd	-0.00036515194
56	0xb8a350e7	-7.787515e-05
57	0xb80b1ee7	-3.3168963e-05
58	0x37bfb179	2.2851616e-05
59	0x38e68576	0.00010992114
60	0xb9b70cb6	-0.0003491395
61	0x37e4ab15	2.7259384e-05
62	0xb841fded	-4.6251273e-05
63	0x3882b1fb	6.2320345e-05
64	0xb8cd7018	-9.796041e-05
65	0xb962a96c	-0.00021616154
66	0x38daf81a	0.000104412626
67	0x38fa8769	0.00011946151
68	0xb96dd795	-0.00022682392
69	0x38b7055d	8.727119e-05
70	0xb651ed5d	-3.128159e-06
71	0x37c64591	2.3635834e-05
72	0xb70a09ed	-8.227752e-06
73	0x38cbd89d	9.720142e-05
74	0xb752e9b3	-1.2571388e-05
75	0x39f2cd1c	0.00046310655
76	0x393ebe78	0.00018190767
77	0xb7800f8d	-1.526603e-05
78	0xb7c05b2f	-2.2930644e-05
79	0x391dda93	0.00015054112
80	0x39d5bb32	0.00040765997
81	0xb9c83a9e	-0.00038190646
82	0x3915c9d3	0.00014284933
83	0xb9c2d1fe	-0.0003715902
84	0x38ab913d	8.180968e-05
85	0x398c2b08	0.00026734942
86	0x398582e6	0.00025465264
87	0xb92ea836	-0.00016656597
88	0x37f557e9	2.9247212e-05
89	0x380c8cd8	3.3509772e-05
90	0x3891afc9	6.946881e-05
91	0xb90d65ac	-0.00013484684
92	0x382ff665	4.1952724e-05
93	0x38a2d2c0	7.764017e-05
94	0xb9059eed	-0.00012743073
95	0x37824923	1.5531265e-05
96	0x3889ff7a	6.580255e-05
97	0x37930170	1.7524435e-05
98	0xb9893426	-0.0002616953
99	0x373ec9ce	1.1371869e-05
100	0x387e540d	6.0636597e-05
101	0xb7ecb0b5	-2.8215678e-05
102	0xb81c13c5	-3.721171e-05
103	0xb88903a3	-6.5333465e-05
104	0x36a512c0	4.919566e-06
105	0xb6843971	-3.9405936e-06
106	0x39af0f92	0.00033390202
107	0xb81bb0ec	-3.711965e-05
108	0x39892f08	0.00026165717
109	0x350a301f	5.147903e-07
110	0xb7e331c1	-2.7083677e-05
111	0xb58657c3	-1.000932e-06
112	0x389cd1e4	7.477755e-05
113	0xb9320e8a	-0.00016980819
114	0xb689d708	-4.107951e-06
115	0xb7c4faec	-2.3481865e-05
116	0x36eb8949	7.019528e-06
117	0xb882b4de	-6.232572e-05
118	0xb71c2645	-9.307235e-06
119	0xb9b3ba8d	-0.00034280532
120	0xb89e4674	-7.54715e-05
121	0xb8075196	-3.226249e-05
122	0x37c24365	2.3157985e-05
123	0x38e642c4	0.00010979691
124	0xb9bddd8a	-0.0003621395
125	0x37e29dda	2.7014805e-05
126	0xb84234ee	-4.63025e-05
127	0x3880a201	6.133691e-05
128	0xba1e8697	-0.0006047277
129	0x3b85ae28	0.004079599
130	0xbb37b066	-0.0028028726
131	0x39fe6103	0.00048518935
132	0x3b20651d	0.002447433
133	0x3b06534c	0.0020496426
134	0xb9ddef19	-0.00042330546
135	0xba99da35	-0.0011738004
136	0xba6e037c	-0.00090794987
137	0x3b1bf9eb	0.0023800086
138	0x3a1026dc	0.00054989546
139	0x3b7c0e84	0.00384608
140	0x3b379a48	0.0028015543
141	0xb9fc3447	-0.00048104135
142	0x3a8e8931	0.0010874626
143	0x3b1a114e	0.002350885
144	0x3bafc261	0.005363748
145	0xbc038271	-0.008026705
146	0x3ae663a9	0.0017577308
147	0xbbc9f238	-0.006162908
148	0x3a94faf3	0.0011366293
149	0x3b59626b	0.0033170234
150	0x3b2ac8df	0.002605967
151	0xbb2518f6	-0.002519188
152	0xba4b7616	-0.00077614316
153	0xba52bd76	-0.0008039096
154	0xb96d910f	-0.0002265612
155	0x3aa29a43	0.0012405593
156	0x3b93c766	0.004509854
157	0xb9fa307d	-0.00047719842
158	0x3a50375c	0.00079428195
159	0x3a0ff5f9	0.000549167
160	0x3a1ce22b	0.00059846294
161	0xba41a073	-0.00073862745
162	0x3a3177b0	0.0006769849
163	0xba03aa08	-0.000502259
164	0x3b3ec4db	0.0029109034
165	0x3b402d1b	0.002932376
166	0xba1b374f	-0.00059210224
167	0xb990afac	-0.00027596706
168	0xb9a15f20	-0.00030779187
169	0x39c56b3f	0.00037654673
170	0xbb132bb2	-0.0022456464
171	0xba9e74c2	-0.001208924
172	0x3b079e7d	0.0020693832
173	0xb905127e	-0.00012690757
174	0x3abcc089	0.0014400642
175	0xb93d0d2b	-0.0001802935
176	0x39e6fdd2	0.0004405813
177	0xbb006206	-0.0019589677
178	0x393376b7	0.00017114995
179	0x3b06a3bc	0.002054437
180	0x3aaa9dc4	0.0013016989
181	0xbb1be333	-0.0023786544
182	0x3ab01ccf	0.001343632
183	0x3b8d227f	0.004307091
184	0xbaa4fe8c	-0.0012588068
185	0x3a4559b8	0.0007528323
186	0x3931f37d	0.00016970742
187	0x3a1e227c	0.000603236
188	0x3b820cf2	0.0039688284
189	0x39e48412	0.0004358595
190	0x39bdfdaf	0.00036237898
191	0xbae00843	-0.0017092306
192	0xb8c5876d	-9.418917e-05
193	0xb966c164	-0.00022006553
194	0x38da5447	0.00010410748
195	0x38fe240b	0.00012118377
196	0xb969d4b7	-0.00022299854
197	0x38b7117a	8.729375e-05
198	0xb64a5de3	-3.0154995e-06
199	0x37c4c965	2.3458802e-05
200	0xb70a4674	-8.241845e-06
201	0x38cefd7d	9.870061e-05
202	0xb75e7cc9	-1.3261285e-05
203	0x39f7b0b2	0.0004724316
204	0x393fb98e	0.00018284304
205	0xb784d76b	-1.5835938e-05
206	0xb7c433ce	-2.3389144e-05
207	0x391f5d2a	0.00015198128
208	0x39d6c113	0.00040961112
209	0xb9d148cb	-0.0003991782
210	0x3914434f	0.00014139454
211	0xb9c562c4	-0.00037648354
212	0x38a8fdde	8.058151e-05
213	0x398ef650	0.00027267868
214	0x39888f2f	0.00026046621
215	0xb935913e	-0.00017315612
216	0x37f892ad	2.9632205e-05
217	0x38107dfd	3.444961e-05
218	0x388da297	6.753689e-05
219	0xb90bd1eb	-0.00013334274
220	0x383141ee	4.226149e-05
221	0x389d16ae	7.490568e-05
222	0xb904ed46	-0.00012676892
223	0x37840aa6	1.5740585e-05
224	0x38860390	6.3902815e-05
225	0x3794138b	1.7652075e-05
226	0xb984b3d5	-0.00025310987
227	0x373ff0bd	1.1440538e-05
228	0x388011e4	6.106848e-05
229	0xb7ee5728	-2.8412396e-05
230	0xb81e4c18	-3.7741003e-05
231	0xb88a2543	-6.587293e-05
232	0x36a2952b	4.8453417e-06
233	0xb68608c7	-3.994533e-06
234	0x39b30bb8	0.00034150272
235	0xb81e1b44	-3.769553e-05
236	0x3987fdf3	0.00025938413
237	0x350ef8d6	5.3261226e-07
238	0xb7e98313	-2.78368e-05
239	0xb5719104	-8.999052e-07
240	0x389f2726	7.589003e-05
241	0xb934225f	-0.00017178942
242	0xb6922982	-4.355971e-06
243	0xb7c36a70	-2.3295375e-05
244	0x36edb9ec	7.0847946e-06
245	0xb880e409	-6.1459905e-05
246	0xb70ef827	-8.521637e-06
247	0xb9ba8078	-0.000355724
248	0xb8a098dd	-7.6578675e-05
249	0xb80dd0f9	-3.381164e-05
250	0x37c0bb77	2.2975479e-05
251	0x38e49aa7	0.000109006935
252	0xb9b5eeb0	-0.00034700846
253	0x37e37dca	2.7119084e-05
254	0xb840ee31	-4.59982e-05
255	0x3881a873	6.1825755e-05

lstms.0.bias_hh_l0 f4 [256]
0	0xb8c197db	-9.2312424e-05
1	0xb96899f9	-0.00022182603
2	0x38d95af0	0.00010364305
3	0x390161d3	0.00012338841
4	0xb967f275	-0.00022120199
5	0x38ba8a52	8.894935e-05
6	0xb64cc5eb	-3.0513572e-06
7	0x37c78c48	2.3787972e-05
8	0xb70785be	-8.077766e-06
9	0x38cc3b7d	9.7385586e-05
10	0xb75ad968	-1.3044431e-05
11	0x39fa9ef0	0.00047802133
12	0x394114ea	0.00018413705
13	0xb78168cb	-1.5426796e-05
14	0xb7c3fdfe	-2.3364086e-05
15	0x391f6b21	0.0001520333
16	0x39d559f1	0.00040693537
17	0xb9d1100f	-0.0003987555
18	0x3917f0b5	0.00014490153
19	0xb9cb2042	-0.0003874321
20	0x38ab79be	8.176592e-05
21	0x3990a4a4	0.00027588487
22	0x3989af2a	0.00026261184
23	0xb931dafe	-0.00016961616
24	0x37f8ede6	2.9674684e-05
25	0x380e5f68	3.3944292e-05
26	0x388f8455	6.84342e-05
27	0xb90ea412	-0.00013603296
28	0x3834c20c	4.3096064e-05
29	0x389ca1f7	7.468828e-05
30	0xb903ae57	-0.0001255808
31	0x378270d1	1.5549742e-05
32	0x388ad2e7	6.6196364e-05
33	0x37990cc4	1.8244966e-05
34	0xb984a01d	-0.00025296296
35	0x373f9164	1.14183385e-05
36	0x387f62f4	6.0888895e-05
37	0xb7fa80d6	-2.9862316e-05
38	0xb820660c	-3.824201e-05
39	0xb889196d	-6.537405e-05
40	0x36a29919	4.845799e-06
41	0xb6872e80	-4.028727e-06
42	0x39aebb93	0.0003332762
43	0xb81e1ae2	-3.7695172e-05
44	0x39852a72	0.0002539936
45	0x35331193	6.670827e-07
46	0xb7edda32	-2.8354207e-05
47	0xb569454a	-8.690009e-07
48	0x389d5ffd	7.5042226e-05
49	0xb933dd3f	-0.00017153191
50	0xb68d654a	-4.213919e-06
51	0xb7c40cb8	-2.3370943e-05
52	0x36ec0f84	7.0351543e-06
53	0xb888b1e8	-6.518123e-05
54	0xb7176b69	-9.02531e-06
55	0xb9bf71dd	-0.00036515194
56	0xb8a350e7	-7.787515e-05
57	0xb80b1ee7	-3.3168963e-05
58	0x37bfb179	2.2851616e-05
59	0x38e68576	0.00010992114
60	0xb9b70cb6	-0.0003491395
61	0x37e4ab15	2.7259384e-05
62	0xb841fded	-4.6251273e-05
63	0x3882b1fb	6.2320345e-05
64	0xb8cd7018	-9.796041e-05
65	0xb962a96c	-0.00021616154
66	0x38daf81a	0.000104412626
67	0x38fa8769	0.00011946151
68	0xb96dd795	-0.00022682392
69	0x38b7055d	8.727119e-05
70	0xb651ed5d	-3.128159e-06
71	0x37c64591	2.3635834e-05
72	0xb70a09ed	-8.227752e-06
73	0x38cbd89d	9.720142e-05
74	0xb752e9b3	-1.2571388e-05
75	0x39f2cd1c	0.00046310655
76	0x393ebe78	0.00018190767
77	0xb7800f8d	-1.526603e-05
78	0xb7c05b2f	-2.2930644e-05
79	0x391dda93	0.00015054112
80	0x39d5bb32	0.00040765997
81	0xb9c83a9e	-0.00038190646
82	0x3915c9d3	0.00014284933
83	0xb9c2d1fe	-0.0003715902
84	0x38ab913d	8.180968e-05
85	0x398c2b08	0.00026734942
86	0x398582e6	0.00025465264
87	0xb92ea836	-0.00016656597
88	0x37f557e9	2.9247212e-05
89	0x380c8cd8	3.3509772e-05
90	0x3891afc9	6.946881e-05
91	0xb90d65ac	-0.00013484684
92	0x382ff665	4.1952724e-05
93	0x38a2d2c0	7.764017e-05
94	0xb9059eed	-0.00012743073
95	0x37824923	1.5531265e-05
96	0x3889ff7a	6.580255e-05
97	0x37930170	1.7524435e-05
98	0xb9893426	-0.0002616953
99	0x373ec9ce	1.1371869e-05
100	0x387e540d	6.0636597e-05
101	0xb7ecb0b5	-2.8215678e-05
102	0xb81c13c5	-3.721171e-05
103	0xb88903a3	-6.5333465e-05
104	0x36a512c0	4.919566e-06
105	0xb6843971	-3.9405936e-06
106	0x39af0f92	0.00033390202
107	0xb81bb0ec	-3.711965e-05
108	0x39892f08	0.00026165717
109	0x350a301f	5.147903e-07
110	0xb7e331c1	-2.7083677e-05
111	0xb58657c3	-1.000932e-06
112	0x389cd1e4	7.477755e-05
113	0xb9320e8a	-0.00016980819
114	0xb689d708	-4.107951e-06
115	0xb7c4faec	-2.3481865e-05
116	0x36eb8949	7.019528e-06
117	0xb882b4de	-6.232572e-05
118	0xb71c2645	-9.307235e-06
119	0xb9b3ba8d	-0.00034280532
120	0xb89e4674	-7.54715e-05
121	0xb8075196	-3.226249e-05
122	0x37c24365	2.3157985e-05
123	0x38e642c4	0.00010979691
124	0xb9bddd8a	-0.0003621395
125	0x37e29dda	2.7014805e-05
126	0xb84234ee	-4.63025e-05
127	0x3880a201	6.133691e-05
128	0xba1e8697	-0.0006047277
129	0x3b85ae28	0.004079599
130	0xbb37b066	-0.0028028726
131	0x39fe6103	0.00048518935
132	0x3b20651d	0.002447433
133	0x3b06534c	0.0020496426
134	0xb9ddef19	-0.00042330546
135	0xba99da35	-0.0011738004
136	0xba6e037c	-0.00090794987
137	0x3b1bf9eb	0.0023800086
138	0x3a1026dc	0.00054989546
139	0x3b7c0e84	0.00384608
140	0x3b379a48	0.0028015543
141	0xb9fc3447	-0.00048104135
142	0x3a8e8931	0.0010874626
143	0x3b1a114e	0.002350885
144	0x3bafc261	0.005363748
145	0xbc038271	-0.008026705
146	0x3ae663a9	0.0017577308
147	0xbbc9f238	-0.006162908
148	0x3a94faf3	0.0011366293
149	0x3b59626b	0.0033170234
150	0x3b2ac8df	0.002605967
151	0xbb2518f6	-0.002519188
152	0xba4b7616	-0.00077614316
153	0xba52bd76	-0.0008039096
154	0xb96d910f	-0.0002265612
155	0x3aa29a43	0.0012405593
156	0x3b93c766	0.004509854
157	0xb9fa307d	-0.00047719842
158	0x3a50375c	0.00079428195
159	0x3a0ff5f9	0.000549167
160	0x3a1ce22b	0.00059846294
161	0xba41a073	-0.00073862745
162	0x3a3177b0	0.0006769849
163	0xba03aa08	-0.000502259
164	0x3b3ec4db	0.0029109034
165	0x3b402d1b	0.002932376
166	0xba1b374f	-0.00059210224
167	0xb990afac	-0.00027596706
168	0xb9a15f20	-0.00030779187
169	0x39c56b3f	0.00037654673
170	0xbb132bb2	-0.0022456464
171	0xba9e74c2	-0.001208924
172	0x3b079e7d	0.0020693832
173	0xb905127e	-0.00012690757
174	0x3abcc089	0.0014400642
175	0xb93d0d2b	-0.0001802935
176	0x39e6fdd2	0.0004405813
177	0xbb006206	-0.0019589677
178	0x393376b7	0.00017114995
179	0x3b06a3bc	0.002054437
180	0x3aaa9dc4	0.0013016989
181	0xbb1be333	-0.0023786544
182	0x3ab01ccf	0.001343632
183	0x3b8d227f	0.004307091
184	0xbaa4fe8c	-0.0012588068
185	0x3a4559b8	0.0007528323
186	0x3931f37d	0.00016970742
187	0x3a1e227c	0.000603236
188	0x3b820cf2	0.0039688284
189	0x39e48412	0.0004358595
190	0x39bdfdaf	0.00036237898
191	0xbae00843	-0.0017092306
192	0xb8c5876d	-9.418917e-05
193	0xb966c164	-0.00022006553
194	0x38da5447	0.00010410748
195	0x38fe240b	0.00012118377
196	0xb969d4b7	-0.00022299854
197	0x38b7117a	8.729375e-05
198	0xb64a5de3	-3.0154995e-06
199	0x37c4c965	2.3458802e-05
200	0xb70a4674	-8.241845e-06
201	0x38cefd7d	9.870061e-05
202	0xb75e7cc9	-1.3261285e-05
203	0x39f7b0b2	0.0004724316
204	0x393fb98e	0.00018284304
205	0xb784d76b	-1.5835938e-05
206	0xb7c433ce	-2.3389144e-05
207	0x391f5d2a	0.00015198128
208	0x39d6c113	0.00040961112
209	0xb9d148cb	-0.0003991782
210	0x3914434f	0.00014139454
211	0xb9c562c4	-0.00037648354
212	0x38a8fdde	8.058151e-05
213	0x398ef650	0.00027267868
214	0x39888f2f	0.00026046621
215	0xb935913e	-0.00017315612
216	0x37f892ad	2.9632205e-05
217	0x38107dfd	3.444961e-05
218	0x388da297	6.753689e-05
219	0xb90bd1eb	-0.00013334274
220	0x383141ee	4.226149e-05
221	0x389d16ae	7.490568e-05
222	0xb904ed46	-0.00012676892
223	0x37840aa6	1.5740585e-05
224	0x38860390	6.3902815e-05
225	0x3794138b	1.7652075e-05
226	0xb984b3d5	-0.00025310987
227	0x373ff0bd	1.1440538e-05
228	0x388011e4	6.106848e-05
229	0xb7ee5728	-2.8412396e-05
230	0xb81e4c18	-3.7741003e-05
231	0xb88a2543	-6.587293e-05
232	0x36a2952b	4.8453417e-06
233	0xb68608c7	-3.994533e-06
234	0x39b30bb8	0.00034150272
235	0xb81e1b44	-3.769553e-05
236	0x3987fdf3	0.00025938413
237	0x350ef8d6	5.3261226e-07
238	0xb7e98313	-2.78368e-05
239	0xb5719104	-8.999052e-07
240	0x389f2726	7.589003e-05
241	0xb934225f	-0.00017178942
242	0xb6922982	-4.355971e-06
243	0xb7c36a70	-2.3295375e-05
244	0x36edb9ec	7.0847946e-06
245	0xb880e409	-6.1459905e-05
246	0xb70ef827	-8.521637e-06
247	0xb9ba8078	-0.000355724
248	0xb8a098dd	-7.6578675e-05
249	0xb80dd0f9	-3.381164e-05
250	0x37c0bb77	2.2975479e-05
251	0x38e49aa7	0.000109006935
252	0xb9b5eeb0	-0.00034700846
253	0x37e37dca	2.7119084e-05
254	0xb840ee31	-4.59982e-05
255	0x3881a873	6.1825755e-05

lstms.1.weight_ih_l0 f4 [32, 64]
0	0x3ddcc7fd	0.10780332
1	0x3e205951	0.15659072
2	0xbc50f518	-0.012753747
3	0xbe4f530a	-0.2024652
4	0x3aa68c48	0.0012706602
5	0xbe46a74f	-0.1939976
6	0xbea1fdd3	-0.31638965
7	0xbd91241a	-0.07086964
8	0xbb9518cb	-0.0045500747
9	0x3db380ad	0.08764777
10	0xbe4d56c9	-0.20052637
11	0x3ddc7d3e	0.107660756
12	0x3e0f4ce7	0.1399418
13	0x3e233e85	0.15941818
14	0xbe7730a7	-0.24139653
15	0xbd93ed80	-0.07223034
16	0xbd4b3a27	-0.049616005
17	0x3dcc588d	0.09977827
18	0x3daf849e	0.085702166
19	0x3e03fbf0	0.12889075
20	0xbe947881	-0.28998187
21	0xbe421245	-0.18952282
22	0x3d037e74	0.032103017
23	0xbd8827d9	-0.06648225
24	0x3d19ef3f	0.03758168
25	0x3cca979b	0.024730494
26	0xbe395e54	-0.1810239
27	0x3d8ef0a9	0.06979496
28	0x3c81deb8	0.01585327
29	0xbe4809f6	-0.1953505
30	0xbc5cee68	-0.013484575
31	0xbd9e28cd	-0.07722626
32	0xbcd53e05	-0.02603055
33	0x3da00b55	0.078146614
34	0x3c8d8224	0.01727397
35	0xbdd7332a	-0.10507806
36	0x3e04b0dc	0.12958091
37	0x3de40b42	0.1113496
38	0xbda423dc	-0.08014652
39	0x3e2051d9	0.15656222
40	0x3e487917	0.19577442
41	0x3d98e96e	0.07466398
42	0xbe955641	-0.2916737
43	0xbc0a08ba	-0.008424932
44	0xbe954dbb	-0.29160866
45	0xbdff6567	-0.12470513
46	0x3c26873e	0.01016408
47	0xbde3767e	-0.11106585
48	0xbd9209dd	-0.071307875
49	0xbdca4f16	-0.09878366
50	0xbe3505a6	-0.17677936
51	0xbd5d5f50	-0.054045975
52	0xbc6bff84	-0.014404181
53	0xbd14407a	-0.036194302
54	0x3bf8f4bc	0.007597534
55	0xbd5806e0	-0.05274093
56	0x3d7c6de1	0.061628226
57	0xb962f7ba	-0.00021645325
58	0x3e0b66ac	0.13613385
59	0x3e01c885	0.12674148
60	0x3e11e2c3	0.14246659
61	0xbd3d9e91	-0.0462938
62	0xbc174291	-0.009232179
63	0x3e3f2781	0.18667413
64	0xbe2a3ce6	-0.16624793
65	0xbc3f8d6d	-0.011691433
66	0xbea4b165	-0.3216659
67	0x3d1f8622	0.03894628
68	0xbe6e4295	-0.23267587
69	0x3d6ac00a	0.05731205
70	0xbda5a7a7	-0.08088618
71	0xbe2c4389	-0.16822638
72	0xbe29799a	-0.16550294
73	0xbd501103	-0.050797474
74	0xbca6d695	-0.020365993
75	0x3b911826	0.0044279275
76	0xbde3c0a3	-0.11120727
77	0x3db7d782	0.08976652
78	0xbe29428a	-0.16529289
79	0x3e2735d9	0.16329135
80	0xbde46511	-0.111520894
81	0x3db92c0f	0.09041607
82	0x3db813a8	0.08988124
83	0xbe883ecc	-0.2661041
84	0xbd9d4a4a	-0.07680185
85	0x3bd63d56	0.0065380735
86	0xbb32e637	-0.0027297863
87	0xbe6cd538	-0.23128211
88	0xbd9669ca	-0.073443964
89	0x3c47046f	0.012147053
90	0x3d1daf9a	0.038497545
91	0xbe13e9d1	-0.14444663
92	0x3df56eea	0.11984046
93	0x3cd0b7f8	0.025478348
94	0x3d10c58c	0.035344645
95	0xbde0b8b5	-0.1097273
96	0x3cee6286	0.029099714
97	0xbdf1ac03	-0.11800387
98	0xbdd62a4e	-0.10457288
99	0xbbd7ce97	-0.0065859067
100	0x3e82afe3	0.25524816
101	0xbdc2bc4e	-0.095085725
102	0x3d2acc19	0.04169855
103	0x3e7348f8	0.23758304
104	0xbe8b5ae5	-0.27217785
105	0xbdb0ff8c	-0.08642492
106	0x3e7ec72c	0.24880666
107	0xbe07c7f8	-0.13259876
108	0xbe56cf69	-0.20977558
109	0x3d57f952	0.052728005
110	0xba7b3d3e	-0.0009584016
111	0x3dc17aa1	0.09447218
112	0xbdb6405d	-0.08898995
113	0xbe011eff	-0.1260948
114	0xbf070d41	-0.527546
115	0xbe5754ca	-0.21028438
116	0x3d4cb0fb	0.04997347
117	0x3d81bc41	0.06334735
118	0xbdca048c	-0.098641485
119	0x3d42e9a7	0.04758611
120	0xbee17cfa	-0.44040662
121	0xbd814d08	-0.06313521
122	0xbd19381e	-0.037407033
123	0x3d4f5410	0.050617278
124	0xbdaaed1c	-0.08346006
125	0x3d8a1b31	0.067434676
126	0x3dd37841	0.10325671
127	0x3e1f5828	0.15560973
128	0xbe107ee0	-0.14110899
129	0xbe1c0308	-0.15235531
130	0xbcebda5e	-0.028790649
131	0x3d7a7cb9	0.0611541
132	0xbd3c388f	-0.045952376
133	0xbdd216bb	-0.10258242
134	0x3e11c8df	0.14236782
135	0xbbdde8f4	-0.006772155
136	0xbe1ace32	-0.1511772
137	0xbc86e24b	-0.016465327
138	0xbd9d0d96	-0.07668607
139	0x3cf27c66	0.029600333
140	0xbe2360fb	-0.15954964
141	0x3cd1eb0c	0.025624774
142	0x3e06d2b9	0.13166322
143	0x3d427791	0.04747731
144	0xbd3533fd	-0.044239033
145	0xbd192ac5	-0.037394304
146	0x3e5f50b8	0.21808136
147	0xbe9e5c5b	-0.30929837
148	0xbe14398c	-0.14475077
149	0x3e25a29e	0.16175315
150	0x3de06f59	0.10958738
151	0xbe072194	-0.13196403
152	0xbe268ce6	-0.16264686
153	0xbdcbabea	-0.099448994
154	0x3cac3a30	0.02102384
155	0xbd6986cf	-0.05701333
156	0xbd634233	-0.055483054
157	0x3df8ccf1	0.121484645
158	0x3e2080a7	0.15674077
159	0x3e0607c5	0.13088901
160	0x3e53ec39	0.2069558
161	0xbe0ab3c4	-0.13545138
162	0x3d2f982b	0.042869728
163	0x3d9fd140	0.07803583
164	0xbdfff93b	-0.12498709
165	0xbc484703	-0.012223962
166	0xbc596496	-0.01326861
167	0x3c9c30fd	0.019066328
168	0x3ecc9b33	0.39962158
169	0xbe514500	-0.20436478
170	0x3e2dfc6c	0.16990823
171	0xbe052c37	-0.13005148
172	0xbe9dcb0d	-0.30818978
173	0xbd8ee1bd	-0.0697665
174	0xbdd5e087	-0.10443216
175	0xbe650e10	-0.22368646
176	0xbe458b04	-0.19291312
177	0x3d03c958	0.03217444
178	0x3d81df1f	0.06341385
179	0xbe2651cc	-0.1624214
180	0xbdcac6c1	-0.099011905
181	0x3daf0512	0.08545889
182	0x3dc29225	0.09500531
183	0xbe748916	-0.23880419
184	0xbdc10825	-0.094253816
185	0xbe88c6e9	-0.26714256
186	0x3dbac6b4	0.09119931
187	0x3dca7ceb	0.098871075
188	0x3e323c08	0.17405713
189	0x3e4fe6de	0.20302913
190	0x3edb8c41	0.42880443
191	0x3d40171d	0.046897043
192	0xbcb74b64	-0.022374816
193	0x3d147868	0.03624764
194	0x3e158aff	0.14603804
195	0x3c37f82a	0.0112286005
196	0xbd8b3795	-0.06797711
197	0x3d302ddd	0.04301249
198	0xbcab2518	-0.020891711
199	0x3d767e35	0.060178954
200	0xbe4aacba	-0.19792452
201	0xbcdb86dc	-0.026797704
202	0xbdd0b468	-0.1019066
203	0x3dfaf80f	0.12254345
204	0xbe23712b	-0.15961139
205	0xbc7eab67	-0.015543795
206	0xbd9eb9a5	-0.07750253
207	0xbe21b37f	-0.15791129
208	0xbe99b127	-0.3001797
209	0x3d974b57	0.07387417
210	0x3d075264	0.03303756
211	0x3c3febbc	0.011713918
212	0x3d9f192a	0.077684715
213	0xbe620b27	-0.22074567
214	0x3c44d396	0.012013337
215	0x3da503f3	0.08057394
216	0xbea32ffd	-0.3187255
217	0xbe2a03d0	-0.16603017
218	0xbc25bc99	-0.010115766
219	0x3dba7144	0.09103635
220	0x3e0aec11	0.13566615
221	0x3d13e0a9	0.036102924
222	0x3c048842	0.008089127
223	0x3e4371ba	0.19086352
224	0x3c119100	0.008884668
225	0xbe149733	-0.14510803
226	0x3ca9dd6b	0.020735463
227	0x3e2faa47	0.171548
228	0xbe0237e7	-0.12716638
229	0xbdb64a34	-0.08900872
230	0x3cdd09fd	0.026982302
231	0x3d177fba	0.036987044
232	0x3e01abea	0.12663236
233	0xbe884b0a	-0.2661975
234	0x3c38b73c	0.011274155
235	0x3c63d64f	0.013906076
236	0xbe3310d5	-0.1748689
237	0x3df3041a	0.11866017
238	0xbd84f14e	-0.06491338
239	0x3da26609	0.07929618
240	0x3da0b0e3	0.078462385
241	0xbdd01280	-0.101597786
242	0xbd7f2e5f	-0.062300082
243	0x3e212777	0.15737711
244	0xbd25c2c1	-0.040468935
245	0xbd1ff84c	-0.039055154
246	0xbdddb4fb	-0.10825535
247	0xbe2aa521	-0.16664554
248	0x3dc87a60	0.09788966
249	0xbd7cd76e	-0.061728887
250	0x3d62261a	0.055212118
251	0xbe07a684	-0.13247114
252	0x3e83f377	0.25771686
253	0x3e02b3a3	0.12763838
254	0xbdef5eed	-0.116880275
255	0x3e511da9	0.2042147

lstms.1.weight_hh_l0 f4 [32, 8]
0	0xbd8aec7e	-0.067833886
1	0x3dd4f792	0.10398783
2	0xbe56b33d	-0.20966811
3	0x3cb02b96	0.021505158
4	0x3ec87873	0.39154395
5	0xbe5e170b	-0.21688478
6	0xbf197067	-0.5993714
7	0x3ddb1ee0	0.10699248
8	0x3ea3222e	0.31862015
9	0xbe711730	-0.23544002
10	0xbc6982b2	-0.014252352
11	0xbea928fd	-0.33039084
12	0x3a4cc852	0.00078118325
13	0xbe8506cf	-0.25981757
14	0x3e8b985d	0.2726468
15	0x3e85e24d	0.26149216
16	0x3e684592	0.22682789
17	0x3dbcf63e	0.092266545
18	0xbddef7a5	-0.10887078
19	0x3d81e5f1	0.06342686
20	0xbebc1e9b	-0.367421
21	0xbcb1a9a7	-0.021687342
22	0x3e5baaec	0.2145192
23	0x3e7a69a2	0.24454358
24	0x3dbd8704	0.09254268
25	0xbd59b9fe	-0.05315589
26	0xbe0e38e1	-0.13888885
27	0x3e80394e	0.2504372
28	0x3d3f2769	0.046668444
29	0x3d4ec0a7	0.050476696
30	0xbd257bdd	-0.04040133
31	0x3e4e0b9d	0.20121618
32	0x3d7c0d55	0.061536152
33	0xbe5eedd1	-0.21770407
34	0x3d891a05	0.06694416
35	0x3e9232f5	0.28554502
36	0xbe1b61ea	-0.1517407
37	0xbe136780	-0.14394951
38	0xbe335739	-0.17513742
39	0x3edf9225	0.43666187
40	0xbe3c5586	-0.18392
41	0x3ea85b14	0.32881987
42	0x3e80dfae	0.25170654
43	0xbe0355af	-0.12825654
44	0xbda62b03	-0.081136726
45	0x3d9e1b4e	0.07720052
46	0xbe065d41	-0.13121511
47	0xbe8561bc	-0.26051128
48	0x3deb2790	0.11482155
49	0xbeaf66b4	-0.34258044
50	0xbe919924	-0.2843715
51	0xbd8abf63	-0.06774785
52	0xbdec52df	-0.11539244
53	0xbe72c981	-0.2370968
54	0xbe5e038a	-0.21681038
55	0xbdadd4d9	-0.08487863
56	0xbdc26d16	-0.09493463
57	0x3f137efd	0.57615644
58	0xbe837e4c	-0.25682294
59	0xbeaeef4f	-0.34166953
60	0x3e2c01cd	0.16797562
61	0x3e943a57	0.2895076
62	0xbe6b3220	-0.2296834
63	0x3df92233	0.12164726
64	0xbe8cc1ec	-0.274917
65	0xbd5bfba1	-0.05370677
66	0x3dc2bb6a	0.09508403
67	0xbe4c07cc	-0.1992485
68	0xbe6c4be6	-0.23075828
69	0xbe8fe2a2	-0.28102595
70	0x3d60b9ac	0.05486457
71	0xbefd346c	-0.49454057
72	0xbcf8ea68	-0.030385211
73	0xbd43ecc9	-0.047833238
74	0xbe261e6b	-0.16222541
75	0xbed05d4a	-0.40696174
76	0xbec1c39e	-0.37844557
77	0xbe26942a	-0.16267458
78	0xbe941a5c	-0.2892636
79	0xbd19cb4f	-0.037547406
80	0x3da7cbda	0.081931785
81	0x3e219415	0.15779145
82	0x3cc7471f	0.024325905
83	0x3e708305	0.2348748
84	0xbf17462d	-0.59091455
85	0x3e164eb2	0.14678457
86	0x3e087080	0.13324165
87	0x3ebfb217	0.3744056
88	0x3e6683ac	0.22511166
89	0x3e0697e3	0.13143878
90	0xbd9d11db	-0.07669421
91	0x3d60dd92	0.054898806
92	0x3ed49fa8	0.41528058
93	0x3e6699f8	0.22519672
94	0x3e35b62a	0.17745271
95	0xbe9e1488	-0.3087504
96	0xbdc47b12	-0.09593786
97	0xbecfbaef	-0.40572307
98	0xbecca6bf	-0.39970967
99	0xbdc7bf85	-0.09753326
100	0xbc95f904	-0.018307216
101	0xbc9c7345	-0.019097934
102	0xbc6d884b	-0.014497827
103	0xbe2a9c1e	-0.16661116
104	0x3e72c215	0.23706849
105	0x3d526f37	0.051375594
106	0x3e44f6b0	0.19234729
107	0x3eafa021	0.34301856
108	0x3dbf5e8a	0.09344204
109	0xbd516783	-0.051124107
110	0xbe476c70	-0.1947496
111	0xbd1c6b8a	-0.038188495
112	0x3e6d0d63	0.23149638
113	0x3e60356d	0.2189538
114	0xbacf40f7	-0.0015812208
115	0xbe3303a6	-0.1748186
116	0x3e145d56	0.1448873
117	0x3dd7dd04	0.10540202
118	0xbd9468da	-0.07246561
119	0x3e970806	0.2949831
120	0xbeb5fc8a	-0.35544235
121	0x3efe4b17	0.49666664
122	0xbe4061d4	-0.18787318
123	0x3e4325ff	0.19057463
124	0xbe7bffc1	-0.24609281
125	0xbe109255	-0.14118321
126	0x3e4d2308	0.20032895
127	0x3e89011d	0.26758662
128	0xbce352b4	-0.027749397
129	0xbec74c2b	-0.389253
130	0xbd822bdc	-0.06356022
131	0x3e1c224e	0.15247461
132	0xbe819e18	-0.25315928
133	0x3e15eb2d	0.14640494
134	0x3b0a472c	0.002109955
135	0xbe044899	-0.12918319
136	0x3e45d4b4	0.19319421
137	0x3d096396	0.03354224
138	0x3df0950b	0.11747178
139	0xbead4841	-0.33844188
140	0x3d4362c7	0.047701623
141	0xbe67a517	-0.2262157
142	0x3d0e274f	0.034705456
143	0x3ef61c01	0.4806824
144	0xbe978a90	-0.29597902
145	0x3d163c33	0.036678504
146	0xbe385a31	-0.18003155
147	0x3e919cb2	0.28439862
148	0xbde2a3f8	-0.11066431
149	0x3d27ba03	0.04094888
150	0xbbd3fda4	-0.0064694453
151	0xbeca1fa2	-0.3947726
152	0x3ea3297c	0.31867588
153	0x3e82dee7	0.25560686
154	0xbe61ccae	-0.22050735
155	0xbe3b466a	-0.1828858
156	0xbe9191ee	-0.28431648
157	0xbdea3ecc	-0.11437759
158	0xbd47a549	-0.048741613
159	0xbe2319db	-0.15927832
160	0xbe18017d	-0.14844318
161	0xbf000073	-0.50000685
162	0x3ea474e3	0.32120427
163	0xbe8f4c2b	-0.279878
164	0x3e7de077	0.24792658
165	0xbd80e46b	-0.06293567
166	0x3e8d3d43	0.275858
167	0xbf137975	-0.57607204
168	0xbd2e2717	-0.042517748
169	0x3e7a15fc	0.24422449
170	0xbe14f86f	-0.14547895
171	0xb83f00fc	-4.5538865e-05
172	0xbdeb09c5	-0.11476473
173	0xbeb0edba	-0.3455637
174	0xbe37fd7c	-0.1796779
175	0xbe7f011a	-0.24902764
176	0x3e973955	0.29535928
177	0xbf0128ae	-0.504527
178	0x3e18f057	0.14935432
179	0xbf01f8a9	-0.5077005
180	0x3e1168a3	0.14200072
181	0xbe409872	-0.18808153
182	0x3d127c78	0.035763234
183	0x3d94a9df	0.07258963
184	0xbf25d77a	-0.64781916
185	0xbe3f9f34	-0.18713075
186	0x3e2d3558	0.1691488
187	0x3ebc210c	0.36743963
188	0xbe129d02	-0.14317706
189	0xbdf815fc	-0.12113568
190	0xbeb4871b	-0.35259327
191	0x3cdb990b	0.026806375
192	0x3ea0c66d	0.31401387
193	0xbd8e240d	-0.0694047
194	0xbea00923	-0.3125697
195	0x3d530160	0.051514983
196	0xbe8ae232	-0.27125698
197	0xbefeaef1	-0.49742845
198	0x3ec387da	0.38189584
199	0x3dbbc005	0.09167484
200	0xbea05ec9	-0.31322315
201	0xbd811d6f	-0.06304442
202	0x3e8b896e	0.27253288
203	0x3e646419	0.22303809
204	0xbe8889e9	-0.26667717
205	0xbde0c235	-0.10974542
206	0xbe92eea2	-0.28697687
207	0x3e33959d	0.17537542
208	0x3dcd4f82	0.100249305
209	0xbe1be84f	-0.15225337
210	0x3efc4f00	0.49279022
211	0x3e38928c	0.18024653
212	0x3dbb59fc	0.091480225
213	0x3e563823	0.20919852
214	0x3d9a6915	0.07539574
215	0x3c6fbc5c	0.014632311
216	0xbde29587	-0.11063676
217	0x3d2f1cc3	0.04275204
218	0xbe8a937c	-0.27065647
219	0x3e09561c	0.13411754
220	0x3e2470ba	0.16058627
221	0x3d749376	0.059710942
222	0x3e982885	0.29718414
223	0x3e736760	0.23769903
224	0xbeaaf26a	-0.33388072
225	0xbe913278	-0.28358817
226	0x3e1066f1	0.14101769
227	0xbe26e997	-0.16300045
228	0x3cc826f6	0.02443264
229	0x3e80a0ac	0.25122583
230	0x3b49524e	0.0030719223
231	0x3e509473	0.20369129
232	0xbe3081be	-0.17236993
233	0xbe186dcd	-0.14885636
234	0xbda68ddd	-0.08132527
235	0xbd0166cd	-0.03159218
236	0x3d2aa3a3	0.041659962
237	0xbe01e631	-0.12685467
238	0xbe830a5a	-0.25593835
239	0x3e1450cd	0.14483948
240	0xbe0cda78	-0.13755214
241	0xbd19b624	-0.03752722
242	0xbe74e398	-0.23914945
243	0x3e5d2fdf	0.21600293
244	0x3db07fff	0.08618163
245	0x3e178b36	0.14799199
246	0x3db76399	0.089545436
247	0xbe1ed9df	-0.15512799
248	0x3d0955d6	0.033529125
249	0xbd8958d3	-0.06706395
250	0x3e020e27	0.12700711
251	0x3ea6fe82	0.3261605
252	0x3e626933	0.22110443
253	0xbdf38d73	-0.11892214
254	0xbde990f3	-0.114046
255	0x3d0cdf18	0.034392446

lstms.1.bias_ih_l0 f4 [32]
0	0xb72bdf1d	-1.0244342e-05
1	0xb708c868	-8.152892e-06
2	0xb9c7959b	-0.00038067703
3	0xb80b96ba	-3.3280558e-05
4	0x3a6b4706	0.0008975122
5	0x397ce38d	0.00024117362
6	0xba0e6a43	-0.00054327043
7	0x3a859a58	0.0010193093
8	0xb7272729	-9.963093e-06
9	0xb71ca00b	-9.3355875e-06
10	0xb9c137c6	-0.00036853383
11	0xb8098afe	-3.2792792e-05
12	0x3a69f52c	0.0008924778
13	0x397c9c1a	0.00024090745
14	0xba0ac9a2	-0.0005294328
15	0x3a86b06f	0.001027597
16	0xbba06dd8	-0.004895907
17	0x3c331beb	0.010931949
18	0x3bfb6d16	0.007672916
19	0xbb2d6fa1	-0.002646424
20	0xbc2b03ea	-0.010437945
21	0xbbe33923	-0.0069343015
22	0xbc299d13	-0.010352391
23	0x3c322d91	0.010875122
24	0xb759ca79	-1.298135e-05
25	0xb7802bd6	-1.5279202e-05
26	0xb9c6b876	-0.00037902937
27	0xb80bb79d	-3.3311186e-05
28	0x3a6ed359	0.0009110473
29	0x397d8a18	0.00024179404
30	0xba055e6f	-0.0005087619
31	0x3a867a14	0.0010259771

lstms.1.bias_hh_l0 f4 [32]
0	0xb72bdf1d	-1.0244342e-05
1	0xb708c868	-8.152892e-06
2	0xb9c7959b	-0.00038067703
3	0xb80b96ba	-3.3280558e-05
4	0x3a6b4706	0.0008975122
5	0x397ce38d	0.00024117362
6	0xba0e6a43	-0.00054327043
7	0x3a859a58	0.0010193093
8	0xb7272729	-9.963093e-06
9	0xb71ca00b	-9.3355875e-06
10	0xb9c137c6	-0.00036853383
11	0xb8098afe	-3.2792792e-05
12	0x3a69f52c	0.0008924778
13	0x397c9c1a	0.00024090745
14	0xba0ac9a2	-0.0005294328
15	0x3a86b06f	0.001027597
16	0xbba06dd8	-0.004895907
17	0x3c331beb	0.010931949
18	0x3bfb6d16	0.007672916
19	0xbb2d6fa1	-0.002646424
20	0xbc2b03ea	-0.010437945
21	0xbbe33923	-0.0069343015
22	0xbc299d13	-0.010352391
23	0x3c322d91	0.010875122
24	0xb759ca79	-1.298135e-05
25	0xb7802bd6	-1.5279202e-05
26	0xb9c6b876	-0.00037902937
27	0xb80bb79d	-3.3311186e-05
28	0x3a6ed359	0.0009110473
29	0x397d8a18	0.00024179404
30	0xba055e6f	-0.0005087619
31	0x3a867a14	0.0010259771

fc.weight f4 [1, 8]
0	0x3cbb9d3a	0.02290212
1	0x3e4643bb	0.19361775
2	0x3e7a0000	0.24414062
3	0xbe844022	-0.2583018
4	0xbe989857	-0.29803726
5	0xbe775879	-0.24154843
6	0xbe837d55	-0.25681558
7	0x3e1c5992	0.15268543
