labs/models/USD/7_64_64.pth (torch, 204743 bytes, 9 tensors)

lstms.0.weight_ih_l0 f4 [256, 1]
-0.14719266 0.11805788 0.081823565 -0.050106414 0.03560683 0.17609006 -0.0925794 -0.023713717
0.075709276 -0.046120256 0.14822908 -0.08372884 -0.017361 -0.034639455 -0.007287614 0.09002643
-0.109662645 -0.10569616 -0.08093712 0.07999939 0.0767998 0.023363886 0.026880143 -0.053357486
-0.12227009 0.046881344 0.034274496 -0.048777334 -0.0095994845 -0.030602194 -0.053697847 0.068969585
0.01406802 0.005964298 -0.11411376 0.23005992 -0.0735244 -0.067126915 0.1418205 0.043340664
-0.1156878 0.07856695 -0.018680014 -0.1369251 0.027468834 -0.05243146 0.019357974 -0.05062369
0.1236911 0.058306802 -0.074517354 -0.13154024 -0.15794554 -0.05130033 0.05919751 -0.081035584
0.059741385 -0.009343394 -0.074381284 0.043286454 -0.11077956 0.061787862 -0.16304435 0.0645479
-0.028619668 -0.02629342 0.2151585 -0.059835095 -0.016205054 -0.06796264 0.025310595 0.0033699642
0.017218102 0.07394067 0.1783239 -0.10897927 0.12815012 -0.117831215 0.11017744 -0.015316263
-0.01316376 -0.09269688 0.026860492 -0.15866774 -0.06753624 -0.02573487 -0.01690094 -0.051932868
-0.00010885055 0.058091287 -0.039315302 0.11278693 -0.034841202 -0.0269955 -0.052851807 0.10854378
-0.029332388 -0.09069523 -0.0227253 0.0813269 -0.1792186 -0.14316143 0.022460971 -0.09868933
-0.010371748 -3.3716424e-05 -0.05874722 -0.10247873 0.052149467 -0.07024661 0.20229487 -0.060398087
-0.052780133 0.04789254 -0.030370811 -0.10486861 0.07815011 -0.13157731 0.02737589 0.029389437
-0.2505374 0.016933242 0.095450155 0.022771433 0.011663692 -0.043824226 -0.14220847 0.033407707
0.036350437 0.005676837 0.03328625 -0.019783327 0.14422454 0.0772566 0.048711095 -0.08806427
-0.008430223 -0.11159825 0.2621793 0.073199905 -0.1524387 -0.12703048 0.13167892 0.039454307
0.01298311 -0.046202574 0.22327079 -0.10200613 0.026299097 -0.071937315 0.12749651 -0.0012249568
0.06767204 0.035346474 0.08532933 -0.004290377 0.11018128 -0.038325157 0.07735325 0.083826564
0.13101277 0.15572496 0.01432511 0.21542169 -0.060729217 -0.12826936 -0.06393996 -0.054736596
-0.045289468 -0.18090303 -0.10109261 -0.031775214 0.1335386 0.017950833 0.14138283 -0.058261055
0.10285176 0.10683316 -0.030392852 -0.002068201 4.377953e-05 -0.0957125 0.057724137 -0.099140465
0.096511334 -0.04410062 0.11297898 -0.07127195 0.07452541 0.13026133 -0.2297434 0.107186906
-0.23384966 -0.1646703 0.14041644 0.03984939 -0.046796728 0.1459663 0.025050918 0.018985564
0.023395551 -0.12967347 -0.014366972 -0.07727416 -0.10961113 -0.029672835 -0.08780384 0.14738253
-0.092093915 -0.03907722 0.038496874 0.019562118 -0.10318192 -0.019340338 -0.13839649 0.083533354
-0.0940532 0.003625455 -0.0528114 -0.03639146 -0.07270436 -0.03062437 0.012018103 0.07139994
0.030021189 0.12147902 0.082775936 0.041551244 -0.0151673695 0.038547616 0.19542971 -0.04335334
0.09707298 -0.076683715 0.13106237 -0.029874252 -0.043968637 0.10008566 0.07755859 0.1730475
0.031081246 -0.05021083 -0.015599019 -0.16496298 0.11111102 -0.04047908 -0.17991781 0.005041729
-0.019261353 0.024861973 -0.21065947 0.07737134 0.023365187 0.0060576466 -0.038315754 -0.02663456
00000000: acb9 16be 54c8 f13d 1d93 a73d 623c 4dbd
00000010: 78d8 113d f450 343e 459a bdbd 4543 c2bc
00000020: 770d 9b3d 98e8 3cbd 5dc9 173e 077a abbd
00000030: a838 8ebc 1ae2 0dbd f0cc eebb c75f b83d
00000040: cf96 e0bd 3a77 d8bd 5cc2 a5bd b8d6 a33d
00000050: 3749 9d3d 9f65 bf3c bf33 dc3c 618d 5abd
00000060: be68 fabd a706 403d 6a63 0c3d beca 47bd
00000070: 2847 1dbc 74b1 fabc 46f2 5bbd ed3f 8d3d
00000080: 8d7d 663c 2870 c33b 7ab4 e9bd d494 6b3e
00000090: f693 96bd d679 89bd 6539 113e fb85 313d
000000a0: baed ecbd b6e7 a03d d406 99bc 1836 0cbe
000000b0: 5206 e13c 5fc2 56bd 9d94 9e3c c95a 4fbd
000000c0: c251 fd3d 1dd3 6e3d 8e9c 98bd 7cb2 06be
000000d0: 7abc 21be 4b20 52bd 1779 723d fcf5 a5bd
000000e0: 62b3 743d 0915 19bc 3755 98bd 234d 313d
000000f0: 65e0 e2bd 4515 7d3d 19f5 26be b031 843d
00000100: cb73 eabc 4c65 d7bc 8352 5c3e a515 75bd
00000110: 76c0 84bc ff2f 8bbd 2a58 cf3c 9eda 5c3b
00000120: fa0c 8d3c 356e 973d 8a9a 363e 8630 dfbd
00000130: c939 033e 7e51 f1bd b6a4 e13d 10f1 7abc
00000140: d0ac 57bc ddd7 bdbd 890a dc3c cc79 22be
00000150: 7150 8abd efd1 d2bc d773 8abc 8fb7 54bd
00000160: b246 e4b8 21f1 6d3d 1509 21bd d5fc e63d
00000170: a6b5 0ebd ab25 ddbc 237b 58bd 344c de3d
00000180: 7a4a f0bc 6cbe b9bd 692a babc b88e a63d
00000190: 1585 37be e998 12be 1200 b83c a21d cabd
000001a0: 44ee 29bc bc6a 0db8 eda0 70bd 5ee0 d1bd
000001b0: ae9a 553d 74dd 8fbd 6326 4f3e fc63 77bd
000001c0: fb2f 58bd f82a 443d 35cc f8bc 5bc5 d6bd
000001d0: 2a0d a03d 34bc 06be 6743 e03c 1ec2 f03c
000001e0: 7046 80be 95b7 8a3c 5f7b c33d 288b ba3c
000001f0: 1219 3f3c 0881 33bd 199f 11be 85d6 083d
00000200: 32e4 143d c304 ba3b 2a57 083d a510 a2bc
00000210: 99af 133e b538 9e3d 4985 473d 0a5b b4bd
00000220: eb1e 0abc a08d e4bd 5d3c 863e d5e9 953d
00000230: e418 1cbe 4714 02be d7d6 063e d79a 213d
00000240: 1cb7 543c e93e 3dbd 19a1 643e 97e8 d0bd
00000250: 3471 d73c df53 93bd 728e 023e bb8e a0ba
00000260: a397 8a3d 77c7 103d 25c1 ae3d 4a96 8cbb
00000270: b9a6 e13d d7fa 1cbd 616b 9e3d 43ad ab3d
00000280: 3628 063e 5d76 1f3e deb3 6a3c 8197 5c3e
00000290: 33bf 78bd 0b59 03be f4f2 82bd 7b33 60bd
000002a0: 7381 39bd a53e 39be a409 cfbd ba26 02bd
000002b0: 58be 083e a00d 933c a9c6 103e 25a3 6ebd
000002c0: f2a3 d23d 58cb da3d 6efa f8bc a88a 07bb
000002d0: ea9f 3738 ea04 c4bd 2570 6c3d 280a cbbd
000002e0: bca7 c53d daa2 34bd 8661 e73d 07f7 91bd
000002f0: c7a0 983d 3a63 053e db41 6bbe cf84 db3d
00000300: 4976 6fbe 559f 28be 54c9 0f3e 1d39 233d
00000310: edad 3fbd 3178 153e 9537 cd3c 9d87 9b3c
00000320: 07a8 bf3c 1fc9 04be 7363 6bbc ea41 9ebd
00000330: cd7b e0bd 7214 f3bc 80d2 b3bd 72eb 163e
00000340: bc9b bcbd 6f0f 20bd e6ae 1d3d bc40 a03c
00000350: 0b51 d3bd a16f 9ebc cfb7 0dbe 8913 ab3d
00000360: f79e c0bd 0b99 6d3b c450 58bd 360f 15bd
00000370: 06e6 94bd f5df fabc 94e7 443c 223a 923d
00000380: ffee f53c fec9 f83d 6e86 a93d a331 2a3d
00000390: 8f80 78bc 1be4 1d3d ba1e 483e 4693 31bd
000003a0: 33ce c63d 5a0c 9dbd 3735 063e d9ba f4bc
000003b0: 7518 34bd b6f9 cc3d 0ad7 9e3d 5d33 313e
000003c0: 199e fe3c dfa9 4dbd 0793 7fbc 0eec 28be
000003d0: 2d8e e33d 64cd 25bd 603c 38be 1735 a53b
000003e0: fcc9 9dbc 56ab cb3c 1eb7 57be dd74 9e3d
000003f0: 5968 bf3c 397f c63b fbf0 1cbd b930 dabc

lstms.0.weight_hh_l0 f4 [256, 64]
-0.21544111 -0.14572105 -0.2156352 0.005920591 0.17791252 -0.18570249 -0.013713363 0.050815824
-0.016322935 -0.08057368 0.0059994804 -0.024241457 -0.056622583 0.02796074 -0.100564726 0.21101241
0.07839198 -0.05836441 0.07325333 -0.032573864 0.036434457 -0.06259169 -0.10403462 0.14957938
-0.015748363 -0.08445966 -0.008819956 -0.0009313412 0.06212787 0.02899083 -0.050912045 0.03597351
-0.004778308 -0.044306785 -0.1943109 -0.047694597 -0.056850895 0.11387492 -0.04110065 0.088487275
0.038382366 0.01604212 -0.018241275 0.009980222 -0.10816768 -0.11876485 0.014256785 -0.08222414
-0.005382924 -0.062150754 -0.017721785 0.017933814 -0.024385545 0.095241584 -0.14421548 -0.0022210153
-0.08538308 -0.030000318 -0.18449208 0.028219463 -0.08289904 0.02652651 0.13014448 0.081014104
-0.09277684 -0.101391606 0.037044063 0.03033773 0.0028355923 -0.03577042 0.041900408 0.009525676
0.01260789 0.023967855 0.06315738 -0.06122023 0.090055436 -0.028782152 -0.04342911 -0.004131258
0.057013843 -0.045177016 -0.13730083 0.06450078 0.04373483 0.08005019 -0.073923506 0.0125925075
0.07347367 -0.125146 0.0047395304 -0.04433334 0.10291076 -0.0777707 -0.03214222 -0.056829773
-0.054676455 0.088717565 -0.0529724 0.10087027 0.033247232 -0.095373176 -0.0009950429 0.03974939
-0.020586777 -0.07810211 -0.062171012 -0.036582764 0.0387334 -0.019058695 0.12873292 0.10394928
-0.046367027 0.066277504 -0.022677895 -0.05906352 0.0803408 0.17647517 0.082195275 0.10272234
0.05403448 0.075031474 0.024477396 -0.037373513 0.050710693 -0.026931109 0.041300874 -0.019097216
0.07575442 0.0896588 -0.04799799 0.14242959 -0.06785491 0.14046724 -0.17479648 0.024743168
0.025321301 0.066936605 -0.028580952 -0.055177085 -0.008379621 -0.1140075 -0.023636868 -0.041736804
-0.0042655086 0.0060810475 0.056577187 -0.083308265 -0.097698085 -0.02678216 0.012061039 -0.03715322
0.09048119 0.13169108 -0.016118499 -0.0045343004 0.04921568 -0.15337098 0.050503317 -0.1456744
-0.04668733 0.070280634 0.059099622 -0.05519973 -0.13876358 -0.07027986 0.062396564 0.015749626
0.12252418 0.16615528 -0.022890747 -0.04386245 0.04518712 -0.1488594 -0.012887617 -0.03565895
0.09708284 0.15666093 -0.096433245 -0.11146602 0.03523588 -0.008075235 -0.046602078 -0.091084175
0.061607778 -0.008822192 0.06174861 -0.022965819 0.02438881 -0.04648533 0.07272068 -0.05116285
-0.03627491 -0.0033453077 0.122273624 0.117101096 0.078783244 -0.000829889 -0.0559551 0.004317039
0.011055831 0.0241368 0.055741068 0.19000655 0.04117718 0.11922165 -0.048992567 0.16328919
0.06777905 -0.083227426 0.024422288 -0.037338242 -0.110028975 -0.13831104 0.097178824 -0.055809267
-0.033348504 0.01531768 -0.008701737 0.09193738 -0.07111119 0.033289127 0.086249664 0.093533
-0.14272594 0.06612072 0.06971048 0.026458267 0.034556445 0.0061267563 0.04545606 -0.076807804
-0.13622586 -0.05678499 -0.07455001 -0.083010815 -0.10613852 -0.22225976 -0.20631862 0.1365079
-0.1913275 -0.0990929 0.014279381 0.051512305 -0.19319157 0.20672768 0.016570617 -0.118847474
-0.12530123 -0.04403713 0.105319 0.07389653 -0.036272667 0.039385077 -0.1006029 -0.13714793
00000000: 989c 5cbe e637 15be 79cf 5cbe 8401 c23b
00000010: b32e 363e cb28 3ebe 03ae 60bc 4124 503d
00000020: adb7 85bc d003 a5bd 4a97 c43b 0596 c6bc
00000030: 15ed 67bd ec0d e53c e1f4 cdbd a313 583e
00000040: f98b a03d 850f 6fbd d805 963d 2c6c 05bd
00000050: 4c3c 153d 1230 80bd 1a10 d5bd 562b 193e
00000060: b602 81bc 30f9 acbd 9481 10bc 4025 74ba
00000070: cb79 7e3d 2d7e ed3c 2689 50bd f658 133d
00000080: 5a93 9cbb 087b 35bd 70f9 46be 695b 43bd
00000090: 7cdc 68bd 4137 e93d 2859 28bd d138 b53d
000000a0: d436 1d3d c46a 833c ba6e 95bc 1684 233c
000000b0: 0487 ddbd fc3a f3bd 4a95 693c 2165 a8bd
000000c0: 3d63 b0bb ca91 7ebd 472d 91bc efe9 923c
000000d0: 32c4 c7bc 050e c33d 39ad 13be 748e 11bb
000000e0: 53dd aebd 3ac3 f5bc 7eeb 3cbe 812c e73c
000000f0: f9c6 a9bd 204e d93c 9844 053e b9ea a53d
00000100: c901 bebd 67a6 cfbd 84bb 173d d586 f83c
00000110: 58d5 393b 0184 12bd c39f 2b3d 9511 1c3c
00000120: 5391 4e3c 3c58 c43c a858 813d 10c2 7abd
00000130: fc6e b83d 8cc8 ebbc b9e2 31bd 815f 87bb
00000140: 5987 693d 890b 39bd 9798 0cbe fc18 843d
00000150: 4b23 333d 5bf1 a33d 3565 97bd ce50 4e3c
00000160: 5d79 963d 4626 00be 104e 9b3b e096 35bd
00000170: e0c2 d23d 3f46 9fbd 8fa7 03bd 56c6 68bd
00000180: 6bf4 5fbd 8eb1 b53d 96f9 58bd 1295 ce3d
00000190: 402e 083d 0353 c3bd 196c 82ba 42d0 223d
000001a0: 9aa5 a8bc 00f4 9fbd 08a7 7ebd cfd7 15bd
000001b0: eaa6 1e3d fb20 9cbc 90d2 033e 5ce3 d43d
000001c0: 5aeb 3dbd 80bc 873d fec6 b9bc 97ec 71bd
000001d0: b889 a43d e8b5 343e ff55 a83d 1760 d23d
000001e0: 4253 5d3d 1aaa 993d d284 c83c f814 19bd
000001f0: 04b6 4f3d a19e dcbc 1b2b 293d c471 9cbc
00000200: 2225 9b3d 089f b73d 8a99 44bd 10d9 113e
00000210: 84f7 8abd a5d6 0f3e d9fd 32be 2fb2 ca3c
00000220: 9e6e cf3c 0f16 893d 9a22 eabc 5e01 62bd
00000230: ae4a 09bc c47c e9bd 1ba2 c1bc 36f4 2abd
00000240: aec5 8bbb 8643 c73b 7bbd 673d 869d aabd
00000250: ef15 c8bd 4366 dbbc aa9b 453c fa2d 18bd
00000260: 344e b93d 07da 063e f10a 84bc 7894 94bb
00000270: 6296 493d 480d 1dbe 91dc 4e3d ab2b 15be
00000280: 373b 3fbd 4bef 8f3d 7212 723d 1d19 62bd
00000290: 0a18 0ebe e3ee 8fbd 8a93 7f3d 5c05 813c
000002a0: f5ed fa3d 9c24 2a3e 6085 bbbc 1da9 33bd
000002b0: 2116 393d 996e 18be 9526 53bc 1f0f 12bd
000002c0: 5ed3 c63d b96b 203e cb7e c5bd 4c48 e4bd
000002d0: 8053 103d fe4d 04bc d2e1 3ebd 578a babd
000002e0: 7058 7c3d f58a 10bc 1cec 7c3d d022 bcbc
000002f0: 0bcb c73c 6767 3ebd 94ee 943d 2390 51bd
00000300: 0095 14bd f33c 5bbb 986a fa3d b3d2 ef3d
00000310: 1c59 a13d e88c 59ba 2d31 65bd f375 8d3b
00000320: 8423 353c 8aba c53c bf50 643d 1491 423e
00000330: 67a9 283d 7b2a f43d 6eac 48bd 4835 273e
00000340: becf 8a3d 2473 aabd 4011 c83c fcef 18bd
00000350: df56 e1bd 69a1 0dbe b105 c73d 4298 64bd
00000360: 7198 08bd 02f7 7a3c bb91 0ebc aa49 bc3d
00000370: bea2 91bd 2e5a 083d aaa3 b03d 3b8e bf3d
00000380: c026 12be 4d6a 873d 5ec4 8e3d 02bf d83c
00000390: 0f8b 0d3d f5c2 c83b 2230 3a3d 694d 9dbd
000003a0: cb7e 0bbe 6197 68bd adad 98bd 9301 aabd
000003b0: 275f d9bd 1098 63be 3045 53be bac8 0b3e
000003c0: 5beb 43be 38f1 cabd 11f4 693c 91fe 523d
000003d0: 03d4 45be 6cb0 533e 1abf 873c 4e66 f3bd
000003e0: f74e 00be 4760 34bd 7db1 d73d 1057 973d
000003f0: a692 14bd 3f52 213d e508 cebd 8270 0cbe

lstms.0.bias_ih_l0 f4 [256]
0.0023489636 -0.015224227 0.004859977 -0.00083615846 0.044036098 0.007766672 0.020336352 0.026306104
-0.008498178 0.031326234 0.03870237 0.0233552 0.031697825 0.028061884 0.028113741 0.0017107812
-0.0040391395 0.021113222 0.038702004 0.014409736 0.016383959 0.008915181 0.030683534 -0.018301692
0.029636165 0.025684448 0.026591051 -0.004908234 0.030618668 0.014211102 0.021751797 0.031235263
0.0276457 0.021711567 -0.0069733374 0.02684441 0.017671056 0.026769778 0.019001057 0.014446304
0.0130887125 0.015160555 0.021718623 0.030337641 0.03359631 0.019846128 0.030313965 0.015030032
0.0074661407 0.024971116 -0.010223655 -0.014009446 0.018097319 0.03142182 0.012204957 0.012857141
0.020660741 -0.009399924 0.03104242 -0.008725535 0.021343898 0.027256163 0.0351613 0.025339248
-0.0011870044 -0.015064252 0.0006240588 -0.0050467774 0.034664802 0.0037168197 0.013908403 0.018439576
-0.011822165 0.024458984 0.0339246 0.017379165 0.023708615 0.021542238 0.019343061 -0.0014893257
-0.005162819 0.016464224 0.032115903 0.007893994 0.010671438 0.0039115017 0.024973202 -0.01900072
0.024413038 0.018570574 0.020309629 -0.006910966 0.02388006 0.0057898774 0.01654141 0.023266345
0.021496385 0.013793622 -0.008747428 0.02233727 0.013551412 0.020799488 0.011477049 0.0066457945
0.0045334105 0.00895725 0.016929558 0.021989668 0.028601 0.015137406 0.025061438 0.010721706
0.0035691494 0.01785123 -0.011786453 -0.013834901 0.013501943 0.025527978 0.0077509563 0.0064212033
0.0145430695 -0.011040774 0.023476165 -0.012116961 0.016224049 0.021883419 0.02659859 0.01773626
-0.011072699 -0.005924021 0.0064237695 0.0047063413 -0.0028347308 0.013248552 -0.0063219825 -0.00061530335
-0.01634519 0.0064167446 -0.0053142286 -0.0075575165 -0.00057329104 0.006482541 0.012837227 -0.0023962383
0.005686834 0.003476619 -0.0062945136 -0.009470594 -0.006428209 -0.012711693 -0.007339821 0.0040858025
-0.005715407 -0.005146852 -0.0066402573 -0.0004312101 -0.0067324783 0.0018375262 -0.004315394 -0.004297713
-0.004921712 0.016503712 -0.0031280613 0.012888623 0.006679966 0.007968461 -0.006671116 -0.0037879033
-0.014961117 -0.009910616 0.0048962682 0.008168011 -0.0059553585 -0.0049550114 -0.0037749475 0.0050094053
0.016886989 0.008820235 0.00091752515 -0.003074478 0.0060101254 0.0075869355 -0.004089908 -0.01201636
0.0013425204 -0.016434602 -0.0051796446 -0.015201084 -0.0064897626 -0.0054225163 -0.0015945496 0.008626537
0.00089898467 -0.01689081 0.004963477 -0.00067759264 0.044186786 0.007902864 0.020905644 0.02743874
-0.00725129 0.030004434 0.039746366 0.022952093 0.030558856 0.026271595 0.027804237 0.0020851947
-0.0031796948 0.020933172 0.03779869 0.015558334 0.017273586 0.008906176 0.02932539 -0.0180276
0.029007036 0.024104767 0.027578551 -0.0049312143 0.031210054 0.014117536 0.021550303 0.031162998
0.026924968 0.019115008 -0.0069273217 0.027294599 0.017761366 0.025990315 0.017485855 0.01584626
0.009283564 0.015719071 0.021335939 0.029356724 0.03289646 0.019976005 0.030756827 0.0148554575
0.0086399205 0.024794694 -0.010196418 -0.014173994 0.017742792 0.030648489 0.011283774 0.012827023
0.020601602 -0.00970047 0.030430872 -0.009567906 0.021588368 0.02724623 0.03503583 0.026305795
00000000: 12f1 193b 096f 79bc 7140 9f3b a531 5bba
00000010: 325f 343d 917f fe3b 6c98 a63c e67f d73c
00000020: f13b 0bbc f04f 003d 6086 1e3d 6853 bf3c
00000030: 94d5 013d 09e2 e53c ca4e e63c 4b3c e03a
00000040: c25a 84bb a3f5 ac3c fe85 1e3d d016 6c3c
00000050: a737 863c fb10 123c 095c fb3c 6eed 95bc
00000060: 8bc7 f23c 3168 d23c 7ad5 d93c 40d5 a0bb
00000070: 00d4 fa3c afd5 683c d330 b23c 18e1 ff3c
00000080: 3c79 e23c 75dc b13c 9880 e4bb cfe8 db3c
00000090: e4c2 903c 4b4c db3c 1ba8 9b3c 31b0 6c3c
000000a0: 0a72 563c fa63 783c 41eb b13c a586 f83c
000000b0: 499c 093d 5994 a23c fe54 f83c 8640 763c
000000c0: 87a6 f43b 3a90 cc3c 1e81 27bc e087 65bc
000000d0: d440 943c 2bb4 003d 4df7 473c c2a6 523c
000000e0: b740 a93c 2402 1abc ac4c fe3c 8cf5 0ebc
000000f0: 66d9 ae3c 5148 df3c 4c05 103d 4194 cf3c
00000100: 4295 9bba 0dd0 76bc e197 233a 705f a5bb
00000110: aefc 0d3d e395 733b 12e0 633c 980e 973c
00000120: c1b1 41bc 355e c83c 85f4 0a3d c05e 8e3c
00000130: 9238 c23c 5979 b03c 5775 9e3c 7a35 c3ba
00000140: dd2c a9bb fbdf 863c f78b 033d d055 013c
00000150: 41d7 2e3c 0e2c 803b 9a94 cc3c 66a7 9bbc
00000160: dafd c73c 5121 983c 6160 a63c 6275 e2bb
00000170: 1ea0 c33c 03b9 bd3b da81 873c 1099 be3c
00000180: 3019 b03c a5fe 613c 5f51 0fbc a7fc b63c
00000190: be06 5e3c b063 aa3c 3c0a 3c3c f7c4 d93b
000001a0: 018d 943b 6ec1 123c dbaf 8a3c ad23 b43c
000001b0: a54c ea3c e202 783c a54d cd3c 18aa 2f3c
000001c0: 64e8 693b be3c 923c f81b 41bc c8ab 62bc
000001d0: 4137 5d3c 0d20 d13c bcfb fd3b f568 d23b
000001e0: 0e46 6e3c 5de4 34bc 1651 c03c 3886 46bc
000001f0: 4ce8 843c db44 b33c 49e5 d93c a24b 913c
00000200: 446a 35bc 4a1e c2bb 7c7e d23b a737 9a3b
00000210: e4c6 39bb 7410 593c a228 cfbb 4f4c 21ba
00000220: 59e6 85bc 8e43 d23b fb22 aebb 0ba5 f7bb
00000230: e948 16ba 7f6b d43b 3c53 523c 350a 1dbb
00000240: 9f58 ba3b fdd7 633b 3542 cebb 8d2a 1bbc
00000250: baa3 d2bb b444 50bc e282 f0bb 32e2 853b
00000260: 4f48 bbbb eda6 a8bb 8496 d9bb 0a14 e2b9
00000270: 1f9c dcbb 26d9 f03a 2668 8dbb d4d3 8cbb
00000280: 5046 a1bb cb32 873c 2900 4dbb ce2a 533c
00000290: 9ee3 da3b 268e 023c 6199 dabb 793e 78bb
000002a0: 791f 75bc 2360 22bc e070 a03b 1fd3 053c
000002b0: 2b25 c3bb a65d a2bb 1c65 77bb f025 a43b
000002c0: 9556 8a3c bf82 103c 1286 703a 2e7d 49bb
000002d0: 96f0 c43b d49b f83b a304 86bb 44e0 44bc
000002e0: 82f7 af3a dca1 86bc 02ba a9bb f80d 79bc
000002f0: 13a8 d4bb 5daf b1bb 3500 d1ba 5256 0d3c
00000300: d7a9 6b3a 995e 8abc aaa4 a23b 79a0 31ba
00000310: 34fd 343d 047b 013c 5042 ab3c 35c7 e03c
00000320: 3b9c edbb dccb f53c 16cd 223d 0706 bc3c
00000330: 9156 fa3c 8737 d73c b6c5 e33c c3a7 083b
00000340: 6d62 50bb 0b7c ab3c cdd2 1a3d 62e8 7e3c
00000350: 5681 8d3c 36eb 113c cd3b f03c 9eae 93bc
00000360: 2aa0 ed3c 5c77 c53c 6aec e13c 0696 a1bb
00000370: 3aac ff3c 3d4d 673c 438a b03c 8b49 ff3c
00000380: c091 dc3c 1497 9c3c 96fe e2bb ec98 df3c
00000390: 4980 913c a4e9 d43c 7f3e 8f3c 04d0 813c
000003a0: 171a 183c 48c5 803c b5c8 ae3c 837d f03c
000003b0: 70be 063d b8a4 a33c bef5 fb3c 4e64 733c
000003c0: 748e 0d3c 3e1e cb3c e00e 27bc 0a3a 68bc
000003d0: 5559 913c 8a12 fb3c 94df 383c 6f28 523c
000003e0: b1c4 a83c b8ee 1ebc 2a4a f93c b5c2 1cbc
000003f0: 17da b03c 7c33 df3c bb81 0f3d 407f d73c

lstms.0.bias_hh_l0 f4 [256]
0.0023489636 -0.015224227 0.004859977 -0.00083615846 0.044036098 0.007766672 0.020336352 0.026306104
-0.008498178 0.031326234 0.03870237 0.0233552 0.031697825 0.028061884 0.028113741 0.0017107812
-0.0040391395 0.021113222 0.038702004 0.014409736 0.016383959 0.008915181 0.030683534 -0.018301692
0.029636165 0.025684448 0.026591051 -0.004908234 0.030618668 0.014211102 0.021751797 0.031235263
0.0276457 0.021711567 -0.0069733374 0.02684441 0.017671056 0.026769778 0.019001057 0.014446304
0.0130887125 0.015160555 0.021718623 0.030337641 0.03359631 0.019846128 0.030313965 0.015030032
0.0074661407 0.024971116 -0.010223655 -0.014009446 0.018097319 0.03142182 0.012204957 0.012857141
0.020660741 -0.009399924 0.03104242 -0.008725535 0.021343898 0.027256163 0.0351613 0.025339248
-0.0011870044 -0.015064252 0.0006240588 -0.0050467774 0.034664802 0.0037168197 0.013908403 0.018439576
-0.011822165 0.024458984 0.0339246 0.017379165 0.023708615 0.021542238 0.019343061 -0.0014893257
-0.005162819 0.016464224 0.032115903 0.007893994 0.010671438 0.0039115017 0.024973202 -0.01900072
0.024413038 0.018570574 0.020309629 -0.006910966 0.02388006 0.0057898774 0.01654141 0.023266345
0.021496385 0.013793622 -0.008747428 0.02233727 0.013551412 0.020799488 0.011477049 0.0066457945
0.0045334105 0.00895725 0.016929558 0.021989668 0.028601 0.015137406 0.025061438 0.010721706
0.0035691494 0.01785123 -0.011786453 -0.013834901 0.013501943 0.025527978 0.0077509563 0.0064212033
0.0145430695 -0.011040774 0.023476165 -0.012116961 0.016224049 0.021883419 0.02659859 0.01773626
-0.011072699 -0.005924021 0.0064237695 0.0047063413 -0.0028347308 0.013248552 -0.0063219825 -0.00061530335
-0.01634519 0.0064167446 -0.0053142286 -0.0075575165 -0.00057329104 0.006482541 0.012837227 -0.0023962383
0.005686834 0.003476619 -0.0062945136 -0.009470594 -0.006428209 -0.012711693 -0.007339821 0.0040858025
-0.005715407 -0.005146852 -0.0066402573 -0.0004312101 -0.0067324783 0.0018375262 -0.004315394 -0.004297713
-0.004921712 0.016503712 -0.0031280613 0.012888623 0.006679966 0.007968461 -0.006671116 -0.0037879033
-0.014961117 -0.009910616 0.0048962682 0.008168011 -0.0059553585 -0.0049550114 -0.0037749475 0.0050094053
0.016886989 0.008820235 0.00091752515 -0.003074478 0.0060101254 0.0075869355 -0.004089908 -0.01201636
0.0013425204 -0.016434602 -0.0051796446 -0.015201084 -0.0064897626 -0.0054225163 -0.0015945496 0.008626537
0.00089898467 -0.01689081 0.004963477 -0.00067759264 0.044186786 0.007902864 0.020905644 0.02743874
-0.00725129 0.030004434 0.039746366 0.022952093 0.030558856 0.026271595 0.027804237 0.0020851947
-0.0031796948 0.020933172 0.03779869 0.015558334 0.017273586 0.008906176 0.02932539 -0.0180276
0.029007036 0.024104767 0.027578551 -0.0049312143 0.031210054 0.014117536 0.021550303 0.031162998
0.026924968 0.019115008 -0.0069273217 0.027294599 0.017761366 0.025990315 0.017485855 0.01584626
0.009283564 0.015719071 0.021335939 0.029356724 0.03289646 0.019976005 0.030756827 0.0148554575
0.0086399205 0.024794694 -0.010196418 -0.014173994 0.017742792 0.030648489 0.011283774 0.012827023
0.020601602 -0.00970047 0.030430872 -0.009567906 0.021588368 0.02724623 0.03503583 0.026305795
00000000: 12f1 193b 096f 79bc 7140 9f3b a531 5bba
00000010: 325f 343d 917f fe3b 6c98 a63c e67f d73c
00000020: f13b 0bbc f04f 003d 6086 1e3d 6853 bf3c
00000030: 94d5 013d 09e2 e53c ca4e e63c 4b3c e03a
00000040: c25a 84bb a3f5 ac3c fe85 1e3d d016 6c3c
00000050: a737 863c fb10 123c 095c fb3c 6eed 95bc
00000060: 8bc7 f23c 3168 d23c 7ad5 d93c 40d5 a0bb
00000070: 00d4 fa3c afd5 683c d330 b23c 18e1 ff3c
00000080: 3c79 e23c 75dc b13c 9880 e4bb cfe8 db3c
00000090: e4c2 903c 4b4c db3c 1ba8 9b3c 31b0 6c3c
000000a0: 0a72 563c fa63 783c 41eb b13c a586 f83c
000000b0: 499c 093d 5994 a23c fe54 f83c 8640 763c
000000c0: 87a6 f43b 3a90 cc3c 1e81 27bc e087 65bc
000000d0: d440 943c 2bb4 003d 4df7 473c c2a6 523c
000000e0: b740 a93c 2402 1abc ac4c fe3c 8cf5 0ebc
000000f0: 66d9 ae3c 5148 df3c 4c05 103d 4194 cf3c
00000100: 4295 9bba 0dd0 76bc e197 233a 705f a5bb
00000110: aefc 0d3d e395 733b 12e0 633c 980e 973c
00000120: c1b1 41bc 355e c83c 85f4 0a3d c05e 8e3c
00000130: 9238 c23c 5979 b03c 5775 9e3c 7a35 c3ba
00000140: dd2c a9bb fbdf 863c f78b 033d d055 013c
00000150: 41d7 2e3c 0e2c 803b 9a94 cc3c 66a7 9bbc
00000160: dafd c73c 5121 983c 6160 a63c 6275 e2bb
00000170: 1ea0 c33c 03b9 bd3b da81 873c 1099 be3c
00000180: 3019 b03c a5fe 613c 5f51 0fbc a7fc b63c
00000190: be06 5e3c b063 aa3c 3c0a 3c3c f7c4 d93b
000001a0: 018d 943b 6ec1 123c dbaf 8a3c ad23 b43c
000001b0: a54c ea3c e202 783c a54d cd3c 18aa 2f3c
000001c0: 64e8 693b be3c 923c f81b 41bc c8ab 62bc
000001d0: 4137 5d3c 0d20 d13c bcfb fd3b f568 d23b
000001e0: 0e46 6e3c 5de4 34bc 1651 c03c 3886 46bc
000001f0: 4ce8 843c db44 b33c 49e5 d93c a24b 913c
00000200: 446a 35bc 4a1e c2bb 7c7e d23b a737 9a3b
00000210: e4c6 39bb 7410 593c a228 cfbb 4f4c 21ba
00000220: 59e6 85bc 8e43 d23b fb22 aebb 0ba5 f7bb
00000230: e948 16ba 7f6b d43b 3c53 523c 350a 1dbb
00000240: 9f58 ba3b fdd7 633b 3542 cebb 8d2a 1bbc
00000250: baa3 d2bb b444 50bc e282 f0bb 32e2 853b
00000260: 4f48 bbbb eda6 a8bb 8496 d9bb 0a14 e2b9
00000270: 1f9c dcbb 26d9 f03a 2668 8dbb d4d3 8cbb
00000280: 5046 a1bb cb32 873c 2900 4dbb ce2a 533c
00000290: 9ee3 da3b 268e 023c 6199 dabb 793e 78bb
000002a0: 791f 75bc 2360 22bc e070 a03b 1fd3 053c
000002b0: 2b25 c3bb a65d a2bb 1c65 77bb f025 a43b
000002c0: 9556 8a3c bf82 103c 1286 703a 2e7d 49bb
000002d0: 96f0 c43b d49b f83b a304 86bb 44e0 44bc
000002e0: 82f7 af3a dca1 86bc 02ba a9bb f80d 79bc
000002f0: 13a8 d4bb 5daf b1bb 3500 d1ba 5256 0d3c
00000300: d7a9 6b3a 995e 8abc aaa4 a23b 79a0 31ba
00000310: 34fd 343d 047b 013c 5042 ab3c 35c7 e03c
00000320: 3b9c edbb dccb f53c 16cd 223d 0706 bc3c
00000330: 9156 fa3c 8737 d73c b6c5 e33c c3a7 083b
00000340: 6d62 50bb 0b7c ab3c cdd2 1a3d 62e8 7e3c
00000350: 5681 8d3c 36eb 113c cd3b f03c 9eae 93bc
00000360: 2aa0 ed3c 5c77 c53c 6aec e13c 0696 a1bb
00000370: 3aac ff3c 3d4d 673c 438a b03c 8b49 ff3c
00000380: c091 dc3c 1497 9c3c 96fe e2bb ec98 df3c
00000390: 4980 913c a4e9 d43c 7f3e 8f3c 04d0 813c
000003a0: 171a 183c 48c5 803c b5c8 ae3c 837d f03c
000003b0: 70be 063d b8a4 a33c bef5 fb3c 4e64 733c
000003c0: 748e 0d3c 3e1e cb3c e00e 27bc 0a3a 68bc
000003d0: 5559 913c 8a12 fb3c 94df 383c 6f28 523c
000003e0: b1c4 a83c b8ee 1ebc 2a4a f93c b5c2 1cbc
000003f0: 17da b03c 7c33 df3c bb81 0f3d 407f d73c

lstms.1.weight_ih_l0 f4 [256, 64]
-0.122000225 0.014373097 0.10001184 0.012625722 -0.18699808 -0.059764735 -0.0021067143 0.047905236
0.1354505 -0.009770744 -0.0126842 -0.052028622 0.026891874 -0.018182108 -0.045420792 0.026279863
0.036186915 -0.02480746 0.013723846 0.08210944 0.054165 -0.10467105 0.022220436 -0.159822
-0.025192862 -0.038546972 -0.10044567 -0.09240036 -0.08463274 0.065016694 -0.002097714 0.14643285
-0.051173624 -0.037584744 0.1510247 0.0042565246 -0.10127928 -0.012942015 -0.118489616 -0.10210866
0.0039613955 0.23761328 -0.020776307 0.07424543 0.052531276 -0.015422422 0.08219576 -0.028591862
-0.07569006 -0.046868198 -0.05814223 -0.16837186 0.00034239603 0.088308126 0.024487015 0.062118016
0.042090986 0.035755705 -0.040413592 0.052727457 -0.077261835 -0.12322762 0.056267343 -0.15684491
-0.16545065 -0.24779059 -0.060245357 -0.08088945 -0.046880763 -0.0056139664 0.13227822 0.059392516
-0.05439201 0.02037046 -0.04729006 0.033801705 -0.026425999 -0.00037312676 0.027221452 0.03063956
-0.013440315 0.11758813 -0.056324676 0.13446666 0.12769045 0.13674091 0.08151449 0.10011295
0.12642153 0.1471697 0.024425656 0.08927003 -0.23334327 0.0117235305 0.028903846 0.0055903355
0.018277049 0.09317114 -0.15250424 0.09149034 0.19610804 0.017111681 -0.11570966 -0.014019719
0.028640015 0.03507966 0.013219956 0.039499562 0.0037775747 0.02747772 0.004498182 -0.047192574
0.04426928 0.19866969 -0.051170595 -0.11465814 0.12736656 0.11944637 -0.11007266 -0.008215314
0.11505674 0.015542304 0.037763007 0.05233349 -0.09616887 -0.050555453 0.20524961 0.10102261
-0.07514753 -0.10615619 0.00941215 0.043733574 0.10268196 -0.005090403 -0.1130349 -0.14349498
-0.116119996 -0.055576097 -0.06465307 -0.032110922 0.03391418 0.030441165 0.052141733 0.011583163
0.11005403 -0.100255385 -0.06531598 -0.14512989 -0.14527401 0.058302183 0.007007089 0.0015633359
-0.10245135 -0.04697519 -0.07635792 -0.05585966 0.070503496 -0.08426773 0.04535464 0.07426313
-0.068394564 0.016642636 0.14682181 0.032690953 -0.05995555 0.0027424647 0.024469838 -0.046158735
-0.023340855 0.04223145 0.046283863 0.07692824 -0.08578629 0.018123422 -0.030144626 0.06617436
-0.042092975 -0.10245325 0.1785967 -0.08625952 0.042623196 -0.025398891 -0.09397023 0.03381919
-0.004912013 0.031574257 0.039289042 0.054462995 0.074627884 -0.05939208 -0.010183808 0.0050084856
-0.02274036 -0.047607232 0.05349031 -0.111928664 -0.15108532 -0.16041847 -0.020961627 -0.024400517
-0.033405706 0.06890137 0.14327784 -0.10436165 -0.011685145 -0.0020512345 -0.1208991 0.109474115
-0.023202121 0.0019830405 -0.11990412 -0.042081002 0.033240546 0.0413502 -0.061069656 0.066970155
0.12694944 0.08220899 0.04934761 -0.109200634 -0.07355458 0.038848113 -0.12386191 -0.22629146
-0.065921314 -0.030691782 0.11973537 -0.18701613 0.042243637 -0.010904304 0.10713451 0.018528175
0.12946323 0.011170348 -0.008244288 0.008928959 -0.028625978 -0.04957555 -0.053963427 0.038209826
0.082637176 -0.024166305 0.15466493 0.17173223 0.07812987 0.00944474 -0.001957437 0.15334153
0.059377253 0.07858108 0.030118294 0.11792201 -0.1722891 -0.027877271 0.07430531 -0.0051908805
00000000: 41db f9bd 237d 6b3c 02d3 cc3d 1edc 4e3c
00000010: 6d7c 3fbe decb 74bd cd10 0abb 4838 443d
00000020: 89b3 0a3e 7815 20bc 64d1 4fbc f71b 55bd
00000030: 594c dc3c a5f2 94bc 270b 3abd de48 d73c
00000040: bb38 143d 0439 cbbc fbd9 603c fe28 a83d
00000050: 1edc 5d3d c75d d6bd a207 b63c 61a8 23be
00000060: 4361 cebc 6ee3 1dbd 76b6 cdbd 663c bdbd
00000070: ee53 adbd 7927 853d cd79 09bb 7ef2 153e
00000080: 6f9b 51bd 76f2 19bd 38a6 1a3e 517a 8b3b
00000090: 836b cfbd bf0a 54bc afaa f2bd 581e d1bd
000000a0: 98ce 813b e550 733e 1333 aabc fd0d 983d
000000b0: 092b 573d 54ae 7cbc 4056 a83d 7b39 eabc
000000c0: 6403 9bbd def8 3fbd 8c26 6ebd ac69 2cbe
000000d0: 9e83 b339 e4da b43d fe98 c83c 766f 7e3d
000000e0: 9967 2c3d 9374 123d b988 25bd bff8 573d
000000f0: 743b 9ebd c35e fcbd 9678 663d f49b 20be
00000100: e56b 29be d1bc 7dbe d6c3 76bd 5ea9 a5bd
00000110: 0b06 40bd 5df5 b7bb f173 073e 9145 733d
00000120: 28ca 5ebd f3df a63c 39b3 41bd a873 0a3d
00000130: 567b d8bc 3aa0 c3b9 86ff de3c d1ff fa3c
00000140: c434 5cbc 0cd2 f03d b4b4 66bd a1b1 093e
00000150: 49c1 023e cf05 0c3e 12f1 a63d 0508 cd3d
00000160: a574 013e a7b3 163e 5018 c83c 35d3 b63d
00000170: 8af1 6ebe 0d14 403c c2c7 ec3c 222f b73b
00000180: c0b9 953c 83d0 be3d 122a 1cbe 4a5f bb3d
00000190: 8cd0 483e cc2d 8c3c 30f9 ecbd f7b2 65bc
000001a0: 779e ea3c b1af 0f3d 8498 583c 4bca 213d
000001b0: 3091 773b f518 e13c 7c65 933b 004d 41bd
000001c0: b453 353d 1170 4b3e 4298 51bd e3d1 eabd
000001d0: 616c 023e 4ca0 f43d c66d e1bd 8699 06bc
000001e0: dea2 eb3d 26a5 7e3c 62ad 1a3d a45b 563d
000001f0: 2ff4 c4bd 3c13 4fbd f42c 523e f1e4 ce3d
00000200: f3e6 99bd 6b68 d9bd 6b35 1a3c fa21 333d
00000210: eb4a d23d 65cd a6bb d77e e7bd 59f0 12be
00000220: 52d0 edbd c3a3 63bd d468 84bd be86 03bd
00000230: 98e9 0a3d c05f f93c 9292 553d 4fc7 3d3c
00000240: 0264 e13d b252 cdbd 62c4 85bd ee9c 14be
00000250: b6c2 14be 45ce 6e3d b99b e53b d9e8 cc3a
00000260: 03d2 d1bd 0f69 40bd 8b61 9cbd 19cd 64bd
00000270: 2364 903d 8f94 acbd c9c5 393d 4517 983d
00000280: 7312 8cbd 2356 883c 7558 163e f3e6 053d
00000290: f393 75bd ecba 333b f874 c83c f110 3dbd
000002a0: 5235 bfbc e3fa 2c3d 2694 3d3d 8e8c 9d3d
000002b0: b9b0 afbd 9277 943c ddf1 f6bc 6c86 873d
000002c0: af69 2cbd 02d3 d1bd 0ee2 363e d5a8 b0bd
000002d0: a995 2e3d 5611 d0bc 7773 c0bd fe85 0a3d
000002e0: f4f4 a0bb 0254 013d 8ced 203d 9714 5f3d
000002f0: 81d6 983d 1c45 73bd fdd9 26bc 391e a43b
00000300: fe49 babc cdff 42bd a818 5b3d db3a e5bd
00000310: 1cb6 1abe bd44 24be b8b7 abbc 98e3 c7bc
00000320: 6cd4 08bd 291c 8d3d 6db7 123e 90bb d5bd
00000330: 0d73 3fbc 016e 06bb f399 f7bd f733 e03d
00000340: 6012 bebc e6f5 013b 4b90 f5bd 215d 2cbd
00000350: 3d27 083d d45e 293d 2d24 7abd a627 893d
00000360: 09ff 013e 305d a83d b820 4a3d 95a4 dfbd
00000370: c9a3 96bd 331f 1f3d 50ab fdbd f3b8 67be
00000380: c101 87bd 556d fbbc d137 f53d 2881 3fbe
00000390: aa07 2d3d f7a7 32bc 5769 db3d 66c8 973c
000003a0: 0292 043e d603 373c 0d13 07bc c54a 123c
000003b0: 0781 eabc bb0f 4bbd c108 5dbd e881 1c3d
000003c0: ae3d a93d 6af8 c5bc 7c60 1e3e 93da 2f3e
000003d0: 8e02 a03d 1cbe 1a3c 5848 00bb 9005 1d3e
000003e0: 9035 733d 1eef a03d a4ba f63c 1881 f13d
000003f0: 8e6c 30be e05e e4bc 622d 983d 4318 aabb

lstms.1.weight_hh_l0 f4 [256, 64]
0.023920478 -0.04903791 -0.12259997 -0.05667327 -0.07801877 -0.05056692 -0.1639122 -0.114264324
0.036153186 -0.08359686 0.05753607 -0.010936304 -0.101123676 0.06716168 -0.084807046 -0.02317882
0.05806479 -0.12712364 -0.078237295 -0.0059354664 -0.039203785 0.059966635 0.058463722 -0.13643558
-0.018362053 -0.020554416 -0.049744375 -0.06554538 0.031868197 0.013282861 -0.0031836503 0.015276499
-0.14062968 -0.04279507 -0.04961817 -0.018309947 0.15249054 0.15053399 -0.0034844596 0.09121365
0.10169112 -0.02186545 0.08596209 -0.025700873 -0.0114396 -0.07565804 -0.0038227937 -0.097079396
-0.0086794 0.06525323 -0.1369907 0.010798133 0.0038722763 0.04942888 -0.12624669 0.12596522
0.080962464 -0.15769793 0.012571728 -0.013961272 0.08318871 0.02397505 -0.1871646 0.027314829
-0.01963081 -0.11058642 0.055817608 -0.09760297 0.021447416 0.16096109 -0.0011666425 0.12232812
-0.038877256 0.1030861 0.104821034 0.05818065 0.117846034 -0.0035235698 0.06591791 -0.031713404
0.07702888 -0.018536758 0.056846697 -0.036114812 0.06857602 -0.04941361 0.011902046 -0.044898976
0.03695049 0.009658442 -0.15774263 0.01558519 0.08641168 -0.040470235 -0.11511852 -0.025668645
-0.03439711 -0.127406 -0.096321166 0.028824164 -0.06593877 -0.052365866 0.016394097 0.013083974
0.010326578 -0.1553404 -0.046960525 0.14520262 0.11104353 -0.084039494 -0.10392173 0.030784357
0.08406297 -0.066960424 -0.041146796 -0.11416307 -0.020880729 -0.032322366 0.11269141 -0.039072692
0.0700777 0.02101589 -0.16051178 -0.070364006 -0.024726989 0.04962046 0.0140797235 0.015107115
-0.10255071 -0.026766997 -0.21355617 -0.04714543 -0.057318665 -0.022788689 -0.077669434 -0.1358796
-0.002357039 -0.10978657 -0.078651875 0.021308891 0.04091562 -0.08134352 0.097076006 -0.027709795
0.108133994 0.055730794 0.049567446 0.039626606 0.07422162 0.07939392 -0.019210666 0.10988732
0.1058518 -0.1985342 0.04384254 0.032419335 0.11402621 0.08253422 -0.123641744 -0.013475701
0.0610817 0.03458095 0.03317328 -0.0985982 0.029746922 0.17160976 -0.12663648 -0.039217006
0.01050218 0.04465437 -0.065470584 -0.13308194 0.074981645 0.06371369 0.050081607 0.08441668
0.13969769 -0.026273819 0.09145192 0.08836761 0.035677932 -0.021287635 0.061571825 0.06299568
-0.10756784 -0.024854964 0.020609627 -0.030714849 0.042838857 -0.016325193 -0.02118944 -0.051772293
0.006292387 0.0870291 0.0024622397 -0.042090133 0.13994293 -0.024633858 -0.017835258 -0.056130342
0.109849975 0.04127978 -0.12900677 0.040970694 0.022402393 -0.0050694677 -0.1328112 -0.04450803
0.04477215 0.04211382 0.07944575 -0.058468148 -0.040874112 0.10278379 0.07734876 -0.018657703
0.025214331 -0.04132168 0.06454823 0.041298173 0.040293567 -0.04343071 -0.11130397 -0.09121446
0.08554378 0.10248241 -0.09518136 0.05459622 -0.12511663 0.18456267 0.27397573 -0.03913032
-0.124131106 0.028579697 0.066262074 0.0011737904 -0.10843616 0.076420054 -0.02755796 0.21661381
0.0072270976 0.08079926 -0.076696075 -0.07492005 0.048716675 0.091006026 0.090383634 -0.074896954
-0.115187034 0.027101977 -0.08270835 0.011211479 -0.09101804 0.15204492 0.01739394 0.0148982555
00000000: e1f4 c33c fadb 48bd b115 fbbd 3b22 68bd
00000010: 4ec8 9fbd 421f 4fbd 9ad8 27be 6a03 eabd
00000020: 5d15 143d d534 abbd f1aa 6b3d 2f2e 33bc
00000030: ee19 cfbd 108c 893d 51af adbd 82e1 bdbc
00000040: 58d5 6d3d b32c 02be e03a a0bd 4d7e c2bb
00000050: 2694 20bd 939f 753d a877 6f3d c5b5 0bbe
00000060: 046c 96bc bc61 a8bc c2c0 4bbd a83c 86bd
00000070: 3a88 023d 5ba0 593c caa4 50bb 484a 7a3c
00000080: 3a01 10be e249 2fbd 6c3c 4bbd befe 95bc
00000090: 7b26 1c3e 9525 1a3e 885b 64bb 39ce ba3d
000000a0: 6f43 d03d 2c1f b3bc e40c b03d a38a d2bc
000000b0: 296d 3bbc 9af2 9abd d687 7abb 90d1 c6bd
000000c0: 0b34 0ebc 7ca3 853d 4a47 0cbe a7ea 303c
000000d0: 04c6 7d3b f075 4a3d d046 01be 07fd 003e
000000e0: a6cf a53d 917b 21be a6f9 4d3c d2bd 64bc
000000f0: d85e aa3d 5367 c43c 14a8 3fbe 59c3 df3c
00000100: cbd0 a0bc 227b e2bd 01a1 643d 11e4 c7bd
00000110: 7eb2 af3c fcd2 243e 07ea 98ba 2a87 fa3d
00000120: c23d 1fbd ce1e d33d 69ac d63d d54e 6e3d
00000130: 4359 f13d b1eb 66bb f8ff 863d eae5 01bd
00000140: 51c1 9d3d 66da 97bc 15d8 683d 20ed 13bd
00000150: 9671 8c3d ed65 4abd cd00 433c fde7 37bd
00000160: 6659 173d 713e 1e3c 4987 21be 0659 7f3c
00000170: 9bf8 b03d 1ec4 25bd 42c3 ebbd 0d47 d2bc
00000180: fce3 0cbd b876 02be 0844 c5bd a720 ec3c
00000190: e80a 87bd 977d 56bd ea4c 863c 2a5e 563c
000001a0: cf30 293c 8e11 1fbe ae59 40bd ffaf 143e
000001b0: ca6a e33d e61c acbd ead4 d4bd 7a2f fc3c
000001c0: 3529 ac3d 8c22 89bd 8b89 28bd 54ce e9bd
000001d0: 100e abbc 7564 04bd c1ca e63d b00a 20bd
000001e0: e684 8f3d 8429 ac3c 335d 24be 011b 90bd
000001f0: 4190 cabc d33e 4b3d a4ae 663c d583 773c
00000200: 1b06 d2bd 7646 dbbc 78ae 5abe 911b 41bd
00000210: fac6 6abd 58af babc 2711 9fbd 0624 0bbe
00000220: 8d78 1abb c8d7 e0bd 3c14 a1bd fc8f ae3c
00000230: 2397 273d 6e97 a6bd c9cf c63d a7ff e2bc
00000240: 5b75 dd3d f945 643d 3c07 4b3d 824f 223d
00000250: 8101 983d 4899 a23d b05f 9dbc 9a0c e13d
00000260: d4c8 d83d 8d4c 4bbe 3c94 333d 23ca 043d
00000270: 9386 e93d b307 a93d e237 fdbd 30c9 5cbc
00000280: ce30 7a3d c1a4 0d3d b5e0 073d daed c9bd
00000290: d1af f33c 78ba 2f3e feac 01be 03a2 20bd
000002a0: 5611 2c3c 80e7 363d 7115 86bd a246 08be
000002b0: fa8f 993d 537c 823d 5f22 4d3d a7e2 ac3d
000002c0: e90c 0f3e 313c d7bc 254b bb3d 14fa b43d
000002d0: 0623 123d 6863 aebc bd32 7c3d e103 813d
000002e0: 874c dcbd a39c cbbc 85d5 a83c b59d fbbc
000002f0: cc77 2f3d 69bc 85bc 7a95 adbc 2f0f 54bd
00000300: 5e30 ce3b 503c b23d 875d 213b b466 2cbd
00000310: 334d 0f3e f2cc c9bc 3f1b 92bc eee8 65bd
00000320: 06f9 e03d fd14 293d 5a1a 04be e3d0 273d
00000330: 3985 b73c c71d a6bb a9ff 07be 0d4e 36bd
00000340: 0163 373d 8a7f 2c3d 74b4 a23d 4c7c 6fbd
00000350: 9d6b 27bd 4f80 d23d 0769 9e3d 0ad8 98bc
00000360: 498e ce3c ec40 29bd dd31 843d 4628 293d
00000370: de0a 253d 66e4 31bd 56f3 e3bd a6ce babd
00000380: 9431 af3d 4ce2 d13d 72ee c2bd 49a0 5f3d
00000390: 931e 00be fffd 3c3e 8c46 8c3e 1d47 20bd
000003a0: 7338 febd f81f ea3c 69b4 873d dfd9 993a
000003b0: c713 debd 1e82 9c3d 3bc1 e1bc 03d0 5d3e
000003c0: 4ad1 ec3b 157a a53d d512 9dbd af6f 99bd
000003d0: 238b 473d 5e61 ba3d 0e1b b93d 9363 99bd
000003e0: 2ee7 ebbd f704 de3c ff62 a9bd 5ab0 373c
000003f0: ab67 babd aab1 1b3e bc7d 8e3c d017 743c

lstms.1.bias_ih_l0 f4 [256]
0.015719922 0.013780719 0.004918556 0.021050094 0.0077772327 0.008557668 0.022441588 0.01492874
0.008237567 0.033082046 0.021071423 -0.013266726 -0.010742389 0.01981967 0.026614504 0.03698218
0.026948184 0.014592053 -0.024649424 0.0038313237 -0.0042975815 0.012721508 0.0028010982 0.024612905
0.011900127 0.018902471 0.019179871 0.015447541 -0.0026801317 0.021474332 0.028429441 0.013646693
0.0020032704 0.0075321365 0.026451007 0.015839096 -0.0021561363 0.0026276107 0.020196889 0.019602245
-0.016193535 -0.011442293 0.021376904 0.009654188 0.019466126 0.013761266 0.024331065 0.03552113
0.026694525 -0.0053645186 0.07698041 0.020243755 0.013688582 0.0069957287 0.010045088 0.015478595
0.030105125 -0.019090362 0.015490871 0.023949647 0.023490176 -0.009444183 0.004547996 0.0131767
0.009613894 0.007308582 0.0009811098 0.016898844 0.0030699926 0.0033533566 0.015381802 0.010281952
0.0035723476 0.023739696 0.015051009 -0.014218164 -0.01259762 0.01529022 0.019659393 0.028827475
0.018997004 0.011062557 -0.024835598 0.00077779137 -0.0077207196 0.008697892 -0.0015706164 0.018258007
0.009089034 0.013763538 0.013206062 0.01001744 -0.0064817974 0.016284203 0.023444863 0.0087887505
-0.0011923037 0.00433814 0.019656334 0.010459181 -0.005771621 0.0001571698 0.014858796 0.015383501
-0.018370744 -0.012152651 0.016556585 0.006638527 0.012705148 0.009766052 0.018355269 0.026865814
0.020931536 -0.007641927 0.056115378 0.016314982 0.009978975 0.0024867004 0.0071673924 0.011519399
0.022713557 -0.020495428 0.011602387 0.017721426 0.01767585 -0.012081438 0.00049079227 0.003839264
0.004326955 0.0074403887 0.007245994 -0.008153155 -0.004558389 0.0053491094 0.006370728 0.0060692015
0.008574948 0.004510358 -0.0064969393 0.004565424 -0.014005539 0.006804584 0.0052456767 -0.007439887
-0.0073900484 -0.004116432 -0.019649379 0.004700031 -0.0148168085 0.0034990453 -0.005262718 -0.00694996
0.00403258 0.0066870246 0.005666275 0.0060118195 0.008769951 -0.006567111 -0.0057001063 0.0065272655
-0.009322217 -0.0057134144 -0.007515461 -0.006318082 -0.005444641 0.003642165 0.0068628876 -0.00602996
-0.012054354 0.0037628172 0.0057493867 -0.0053595244 0.005873369 0.0054908637 0.0069190534 0.007903419
-0.005974499 -0.010170247 0.0071076164 -0.004927769 -0.0057106083 -0.00475497 0.0052468604 -0.0038594021
0.006950451 -0.007934206 -0.005459664 0.006700079 0.005537253 -0.004179996 -0.0009031108 0.0065807626
0.017616691 0.011898707 0.005023992 0.018714882 0.0069251345 0.009151907 0.021462508 0.014565936
0.0086774165 0.03245331 0.021660747 -0.01304716 -0.012391 0.019667609 0.024929035 0.036116183
0.02526754 0.013614009 -0.02474073 0.0028644833 -0.0028711583 0.012458834 0.0012820277 0.02364762
0.010162388 0.016662793 0.019492129 0.014595994 -0.0027864594 0.018293398 0.029195419 0.0130114695
0.0014269468 0.006864544 0.026194474 0.015874753 -0.0021345406 0.0027747029 0.019857014 0.020574762
-0.01644392 -0.011670224 0.019993179 0.008793119 0.01872534 0.012412102 0.02252116 0.03596363
0.026520772 -0.005495983 0.07879485 0.02030944 0.014183235 0.0069683855 0.010150605 0.016388513
0.028429294 -0.019384058 0.014097319 0.023341507 0.024748288 -0.009145849 0.00477496 0.008635159
00000000: 11c7 803c 86c8 613c d72b a13b 3f71 ac3c
00000010: 28d8 fe3b 7635 0c3c 6cd7 b73c ad97 743c
00000020: dcf6 063c 0a81 073d fa9d ac3c af5c 59bc
00000030: d800 30bc dc5c a23c a906 da3c a07a 173d
00000040: 70c2 dc3c 8213 6f3c 97ed c9bc f216 7b3b
00000050: bad2 8cbb df6d 503c a192 373b 01a1 c93c
00000060: c0f8 423c 5bd9 9a3c 1b1f 9d3c af17 7d3c
00000070: 26a5 2fbb f0ea af3c dce4 e83c 6196 5f3c
00000080: 4d49 033b 24d0 f63b c8af d83c fec0 813c
00000090: f74d 0dbb fe33 2c3b f273 a53c e394 a03c
000000a0: 4ea8 84bc 7578 3bbc 9e1e af3c 992c 1e3c
000000b0: 6d77 9f3c ef76 613c f151 c73c 9b7e 113d
000000c0: 7aae da3c d8c8 afbb e8a7 9d3d 3bd6 a53c
000000d0: 1346 603c 6d3c e53b 2794 243c ef99 7d3c
000000e0: 069f f63c 6463 9cbc 6ccd 7d3c 0d32 c43c
000000f0: 786e c03c c6bb 1abc 5b07 953b 16e3 573c
00000100: 9883 1d3c d47c ef3b 9598 803a 726f 8a3c
00000110: ee31 493b fdc3 5b3b f403 7c3c a275 283c
00000120: 0c1e 6a3b c079 c23c 8298 763c 4df3 68bc
00000130: 3f66 4ebc d583 7a3c bc0c a13c 9927 ec3c
00000140: 9b9f 9b3c ba3f 353c 0674 cbbc b2e4 4b3a
00000150: 17fe fcbb 9a81 0e3c 24dd cdba d191 953c
00000160: 2cea 143c 7680 613c 3d5e 583c 3020 243c
00000170: 4265 d4bb 7366 853c 710f c03c b1fe 0f3c
00000180: 1347 9cba f526 8e3b 5206 a13c fc5c 2b3c
00000190: de1f bdbb f2cd 2439 4f72 733c 140b 7c3c
000001a0: 3e7e 96bc ea1b 47bc ada1 873c 0088 d93b
000001b0: 4129 503c ca01 203c ca5d 963c b215 dc3c
000001c0: 9d78 ab3c 2169 fabb 3dd9 653d ffa6 853c
000001d0: db7e 233c e9f7 223b 72dc ea3b dcbb 3c3c
000001e0: c811 ba3c 07e6 a7bc f017 3e3c 862c 913c
000001f0: f2cc 903c 39f1 45bc 83a8 003a 299c 7b3b
00000200: 21c9 8d3b 81ce f33b ce6f ed3b d094 05bc
00000210: 8a5e 95bb 9547 af3b 8ac1 d03b 27e0 c63b
00000220: f07d 0c3c a0cb 933b 47e4 d4bb 8d99 953b
00000230: 7d77 65bc fdf8 de3b ede3 ab3b 4cca f3bb
00000240: 3828 f2bb 22e3 86bb bcf7 a0bc b802 9a3b
00000250: 33c2 72bc 3d50 653b e172 acbb 7dbc e3bb
00000260: bc23 843b d41e db3b 29ac b93b ccfe c43b
00000270: d7af 0f3c eb30 d7bb f5c7 babb ace2 d53b
00000280: 36bc 18bc 9837 bbbb 4244 f6bb ea07 cfbb
00000290: f668 b2bb 64b1 6e3b 13e2 e03b f896 c5bb
000002a0: a07f 45bc 9999 763b 5a65 bc3b f39e afbb
000002b0: 6475 c03b b4ec b33b 3ab9 e23b 587d 013c
000002c0: bbc5 c3bb 1ca1 26bc 02e7 e83b 1f79 a1bb
000002d0: 0e20 bbbb 94cf 9bbb dbed ab3b 06ee 7cbb
000002e0: 9cc0 e33b 79fe 01bc fbe6 b2bb 568c db3b
000002f0: d871 b53b 59f8 88bb bdbe 6cba 70a3 d73b
00000300: e150 903c cbf2 423c 4da0 a43b f44f 993c
00000310: 3dec e23b e1f1 153c 24d2 af3c f7a5 6e3c
00000320: b92b 0e3c c3ed 043d e171 b13c c1c3 55bc
00000330: 9f03 4bbc f71d a13c fa37 cc3c 90ee 133d
00000340: dffd ce3c 4b0d 5f3c 12ad cabc 0eba 3b3b
00000350: 0b2a 3cbb 2320 4c3c b609 a83a a7b8 c13c
00000360: 2580 263c 6980 883c f5ad 9f3c 0924 6f3c
00000370: 089d 36bb 09dc 953c 3b2b ef3c 0f2e 553c
00000380: 6408 bb3a f8ef e03b cb95 d63c c50b 823c
00000390: a6e3 0bbb cad7 353b 2dab a23c 678c a83c
000003a0: 66b5 86bc 7834 3fbc bcc8 a33c 0411 103c
000003b0: e265 993c 215c 4b3c 4c7e b83c 994e 133d
000003c0: 1742 d93c a617 b4bb 325f a13d fc5f a63c
000003d0: cd60 683c 0e57 e43b b94e 263c 3441 863c
000003e0: 8de4 e83c 51cb 9ebc 71f8 663c b036 bf3c
000003f0: ecbc ca3c 79d8 15bc 4577 9c3b 7b7a 0d3c
