labs/models/USD/9_64.pth (torch, 70719 bytes, 5 tensors)

lstms.0.weight_ih_l0 f4 [256, 1]
0	0x3e019409	0.12654127
1	0xbd4890d3	-0.04896624
2	0xbdca041b	-0.09864064
3	0xbd99f360	-0.07517123
4	0x3d8d6907	0.06904798
5	0x3daf23d3	0.08551755
6	0x3dada5e8	0.0847891
7	0x3dd9f168	0.10641748
8	0xbb854079	-0.0040665236
9	0x3e03da46	0.12876233
10	0xbe2dee2c	-0.16985387
11	0xbd4a9080	-0.049454212
12	0x3d4cbe3d	0.049986113
13	0xbd838304	-0.064214736
14	0x3e4a5adc	0.19761223
15	0x3cfcd3b7	0.030862672
16	0xbce9a413	-0.02852062
17	0xbd6e62c0	-0.058199644
18	0x3c70bf89	0.014694103
19	0xbc86f841	-0.016475799
20	0x3e6222fb	0.22083656
21	0x3b92447b	0.00446373
22	0x3d8aa899	0.06770439
23	0x3bc04e22	0.005868689
24	0x3c4d4ab5	0.012530019
25	0xbd942d42	-0.07235195
26	0xbdd6fc86	-0.10497384
27	0x3d0de31a	0.03464041
28	0x3d476cbb	0.048687678
29	0xbcee16be	-0.029063579
30	0x3d0e51f0	0.03474611
31	0x3db2a754	0.087233216
32	0x3ddeee8b	0.10885342
33	0x3b4a0ad0	0.0030829199
34	0x3d5ed7c2	0.05440498
35	0xbcd3288b	-0.025776168
36	0xbc0a44b4	-0.008439232
37	0x3e0d3e7b	0.13793366
38	0xbd932e0f	-0.07186519
39	0xbdbb037e	-0.091315255
40	0x3da675b0	0.08127916
41	0xbd4d9c83	-0.05019809
42	0x3d88fcea	0.066888645
43	0x3d5e6dd7	0.05430397
44	0x3ad106e6	0.001594749
45	0x3e00ec1f	0.12590073
46	0xbddb7c39	-0.10717053
47	0x3dac8735	0.08424226
48	0xbcdd5eb4	-0.027022697
49	0x3da93acf	0.0826317
50	0x3dcff7af	0.10154664
51	0x3dab3e78	0.08361524
52	0x3e5e2392	0.21693256
53	0xbd1c0138	-0.0380871
54	0xbdfccbc4	-0.12343553
55	0x3eba6ee5	0.3641273
56	0xbd220b4b	-0.03956155
57	0xbd94a23b	-0.072575055
58	0x3d867926	0.06566076
59	0xbd89a25c	-0.06720421
60	0x3da03b5b	0.07823821
61	0x3d38ae48	0.045088083
62	0xbe72dd80	-0.23717308
63	0xbe11889a	-0.14212266
64	0xbdc446d4	-0.09583822
65	0xbb5dc453	-0.0033838942
66	0xbcf3bc3b	-0.029752841
67	0xbd83467a	-0.06409927
68	0x3d660894	0.056160524
69	0xbd294041	-0.041321043
70	0xbcdd45b9	-0.027010785
71	0xbd3c3b7c	-0.045955166
72	0x3dfe6de5	0.124233045
73	0xbe322ec7	-0.17400657
74	0xbbe6f612	-0.007048377
75	0x3d6e9d92	0.05825574
76	0xbe049aa1	-0.12949611
77	0xb9b220b9	-0.00033975186
78	0x3ca2a342	0.019853238
79	0x3b84578d	0.004038757
80	0x3dbefae1	0.09325195
81	0xbe0c71f4	-0.13715345
82	0x3db3a106	0.08770947
83	0x3d8180b4	0.06323376
84	0x3e61b8b6	0.22043118
85	0xbd4fb8d1	-0.050713364
86	0x3e1be31b	0.15223353
87	0x3e060c6b	0.13090675
88	0x3c3c3c40	0.011488974
89	0xbdb277b7	-0.0871424
90	0xbcba8e11	-0.02277282
91	0x3cdf2542	0.027239446
92	0xbc36b4b3	-0.0111514805
93	0xbbe3e8da	-0.0069552483
94	0x3ada9182	0.0016675445
95	0xbde6e018	-0.11273211
96	0x3d8691a6	0.06570749
97	0x3d87b325	0.06625966
98	0xbd72ce95	-0.059279043
99	0x3a5459bc	0.00081005297
100	0x3cc29553	0.023752844
101	0x3dfa367c	0.12217423
102	0xbd1e7b25	-0.03869166
103	0x3dfb78d5	0.12278906
104	0xbe0ecb4d	-0.1394474
105	0xbd2e0ebf	-0.04249453
106	0x3d81e173	0.06341829
107	0xbe205bae	-0.15659973
108	0x3cf38a79	0.029729115
109	0xbe1d8597	-0.15382992
110	0xbd9ba8d6	-0.07600562
111	0xbde6b16e	-0.11264311
112	0xbdc9b398	-0.09848708
113	0xbd8d140d	-0.0688859
114	0x3d1434fa	0.036183335
115	0xbdbf8067	-0.09350663
116	0x3d675141	0.056473974
117	0x3e016620	0.12636614
118	0x3caa7366	0.02080698
119	0x3c2c26b3	0.0105072735
120	0xbdc2a96c	-0.09504971
121	0x3d63290b	0.055459064
122	0xbd5c9d92	-0.05386121
123	0x3c9c076e	0.019046512
124	0xbe318cfc	-0.17338938
125	0x3d254f73	0.04035897
126	0x3da4a6ae	0.08039604
127	0xbd2a28a2	-0.041542657
128	0xbd4fecc7	-0.050762918
129	0x3d5bee63	0.05369414
130	0xbcfcdbf3	-0.030866599
131	0x3d91c76d	0.071181156
132	0x3e293dfa	0.16527548
133	0x3c971550	0.01844278
134	0xbdf07fbd	-0.11743114
135	0x3e881dbd	0.26585189
136	0xbc678d9e	-0.014132885
137	0xbd874c46	-0.06606345
138	0xbc84cec7	-0.01621188
139	0x3d57272d	0.052527595
140	0x3dcd3eea	0.100217655
141	0xbdc81778	-0.09770101
142	0xbdebddb6	-0.115168974
143	0x3e2a706d	0.1664445
144	0x3d941fdf	0.072326414
145	0x3ca270ed	0.019829238
146	0xbe540a53	-0.20707063
147	0xbe3ce23b	-0.18445675
148	0x3d2c3f84	0.04205276
149	0xbd8f1d2d	-0.06987987
150	0x3d6ab714	0.057303503
151	0xbcbca8eb	-0.023029765
152	0x3db65617	0.08903139
153	0x3dc1d46a	0.09464343
154	0xbe4a8c54	-0.19780093
155	0xbdca861e	-0.09888862
156	0x3d320b36	0.043467723
157	0x3e30b40a	0.1725618
158	0x3e017863	0.1264358
159	0x3dfd9217	0.1238138
160	0xbd114a91	-0.035471503
161	0xbdcf6a28	-0.101276696
162	0xbe47a954	-0.19498187
163	0xbd70628b	-0.058687728
164	0x3de755d4	0.11295667
165	0x3e2f6a34	0.17130357
166	0x3b60c0d7	0.003429463
167	0xbd6ffb05	-0.058589
168	0x3e41042e	0.1884925
169	0x3e4e33d6	0.20136961
170	0x3de0599b	0.10954591
171	0x3e3f8a93	0.18705206
172	0x3e2b5489	0.16731466
173	0x3dffaf59	0.12484617
174	0x3e487f3b	0.19579785
175	0xbd5cdb76	-0.05392023
176	0xbd5068e6	-0.05088129
177	0xbe37cf68	-0.17950213
178	0xbdb9e8fd	-0.09077642
179	0x3da7f8e5	0.0820177
180	0xbd24957b	-0.04018162
181	0x3d859a61	0.06523586
182	0xbe2ce265	-0.16883238
183	0xbe1b4d45	-0.15166195
184	0xbe00d04a	-0.12579456
185	0x3dd7c3dd	0.10535405
186	0xbccf4cf6	-0.025305253
187	0x3e0697d9	0.13143863
188	0x3d895f94	0.06707683
189	0x3dc3733d	0.09543464
190	0xbe5b030e	-0.21387884
191	0x3dc867b4	0.09785405
192	0x3d101c11	0.035183016
193	0xbcdbc931	-0.026829334
194	0x3d368d12	0.04456813
195	0x3cc74189	0.024323242
196	0xbe163cba	-0.14671603
197	0xbd776189	-0.06039575
198	0xbd5e34a9	-0.05424944
199	0x3db23cf8	0.08703035
200	0x3cb43aae	0.022000637
201	0x3bdd2fa2	0.006750063
202	0x3c071467	0.00824461
203	0xbcc7a86d	-0.024372304
204	0x3d830d4e	0.06399022
205	0xbc711d5c	-0.0147164725
206	0xbdeb7358	-0.114966094
207	0xbc72de8f	-0.01482357
208	0xbd5b8f3c	-0.053603396
209	0xbc33fe25	-0.010985886
210	0xbd9572d2	-0.07297291
211	0x3ab27f1b	0.0013618203
212	0x3e257208	0.1615678
213	0xbd4a2445	-0.049350996
214	0xbd373d45	-0.044736166
215	0x3d106e72	0.03526158
216	0x3e0531c7	0.1300727
217	0xbc1c4f5c	-0.009540405
218	0xbc4a0c81	-0.012332083
219	0x3dfb860e	0.12281428
220	0x3e1f51c7	0.1555854
221	0xbd297780	-0.04137373
222	0x3e3108b3	0.17288475
223	0x3d0164d5	0.0315903
224	0x3ed48db0	0.4151435
225	0x3b88f090	0.004179068
226	0x3cc1916a	0.02362891
227	0x3d447ce8	0.047970682
228	0xbd8648a8	-0.06556827
229	0x3bed61ca	0.0072443234
230	0xbc92621b	-0.017869046
231	0x3da3541f	0.07975029
232	0x3e777d42	0.24168876
233	0xbe85b5df	-0.2611532
234	0xbd1df942	-0.03856779
235	0xbd3a784f	-0.04552489
236	0xbda65f97	-0.08123701
237	0x3d144178	0.03619525
238	0xbdb9a863	-0.0906532
239	0x3cfa102e	0.030525293
240	0xbdaad98a	-0.083422735
241	0xbd511118	-0.051041692
242	0xbd6df9cb	-0.05809955
243	0xbddc8d5e	-0.10769151
244	0xba5af53d	-0.00083525834
245	0x3cbb8da6	0.022894692
246	0xbbcf3b67	-0.00632422
247	0x3cd08914	0.025455989
248	0x3d530f04	0.051527992
249	0xbd426868	-0.04746285
250	0xbd6edde8	-0.058317095
251	0xbe0d4af1	-0.13798119
252	0xbe4c82a3	-0.19971709
253	0x3b0aff69	0.0021209365
254	0xbe2bcc61	-0.16777183
255	0x3d6fab4b	0.058512967

lstms.0.weight_hh_l0 f4 [256, 64]
0	0xbc670e6e	-0.014102561
1	0x3b339e6b	0.0027407657
2	0x3d2d19fd	0.042261112
3	0xbd6cf7a2	-0.05785335
4	0xbe369505	-0.17830284
5	0x3daf781f	0.08567833
6	0x3dfc5fdd	0.12322972
7	0x3dc36a26	0.095417306
8	0x3da14288	0.07874018
9	0x3d050a94	0.03248079
10	0xbbdb4435	-0.0066914805
11	0x3ca4c7fc	0.020114891
12	0x3d7d97f8	0.061912507
13	0x3d924afc	0.071432084
14	0x3dc145a4	0.09437111
15	0x3dd40bf5	0.10353843
16	0xbd07f47a	-0.033192135
17	0x3d193466	0.037403487
18	0x3e377383	0.17915158
19	0xbd12f466	-0.035877608
20	0xbcaf36ee	-0.021388497
21	0x3dc29718	0.09501475
22	0xbcea93c0	-0.028634906
23	0xbde78469	-0.11304552
24	0x3cc28e42	0.023749474
25	0xbd8efa72	-0.069813624
26	0xbceb3749	-0.028712885
27	0xbdd29c36	-0.10283701
28	0xbde9a0c0	-0.11407614
29	0x3ce712e2	0.028207246
30	0x3d035a48	0.03206852
31	0xbe4d6430	-0.2005775
32	0xbd00317d	-0.031297196
33	0x3de63bb1	0.11241854
34	0x3d9e5a81	0.07732106
35	0x3da4e6fd	0.0805187
36	0x3e16fbd0	0.14744496
37	0x3d73c582	0.05951453
38	0x3e3fb375	0.18720801
39	0xbd592d24	-0.053021565
40	0x3b99ef17	0.004697691
41	0xbd1f6202	-0.038911827
42	0x3c5d8905	0.0135214375
43	0x3d5aa6ba	0.05338166
44	0x3bf2aa43	0.0074055507
45	0x3aa668b8	0.0012696004
46	0x3baecb5d	0.0053343014
47	0xbe703228	-0.23456633
48	0xbd7a83c2	-0.06116081
49	0x3d52a2d8	0.05142483
50	0xbd8c5a82	-0.068532005
51	0xbdd15838	-0.102219045
52	0xbe1b8bd5	-0.1519006
53	0xbc59a142	-0.013283076
54	0xbce820d3	-0.028335964
55	0xbce63f44	-0.02810634
56	0xbdc8ba8c	-0.09801206
57	0xbd81bbdf	-0.06334662
58	0x3d259bd2	0.040431805
59	0x3de98e50	0.11404097
60	0xbcb4d842	-0.022075776
61	0x3dda6e21	0.10665537
62	0xbd79cb8a	-0.060985126
63	0x3c36542c	0.011128467
64	0x3becf86e	0.0072317636
65	0x3db7025c	0.08935997
66	0x3c6bca25	0.014391457
67	0x3c3706c1	0.011171044
68	0xbe33e246	-0.17566785
69	0x3cf5e1a8	0.030014828
70	0xbd0ae32d	-0.033908058
71	0xbd576aca	-0.052592076
72	0xbd764170	-0.060121
73	0xbdc28f76	-0.09500019
74	0x3cba4654	0.022738613
75	0xbdb77f97	-0.08959883
76	0xbc1d1516	-0.009587547
77	0x3da3bf7d	0.07995508
78	0x3d81c394	0.06336132
79	0xbde05983	-0.10954573
80	0xbd9cae2c	-0.07650408
81	0xbc82545d	-0.015909368
82	0x3d6fd129	0.05854908
83	0xbc0991e3	-0.0083965985
84	0xbcd23a6c	-0.025662623
85	0x3db804d7	0.08985298
86	0x3db5250e	0.08844958
87	0x3e0765d0	0.13222432
88	0x3c8ae7b9	0.016956197
89	0xbe2d1cd3	-0.16905527
90	0x3d607396	0.05479773
91	0x3cff973d	0.031200046
92	0x3d11b062	0.035568602
93	0x3e0b0e09	0.13579573
94	0xbdf54b5a	-0.11977263
95	0x3deb94ce	0.115029916
96	0x3cb00746	0.021487843
97	0x3d373711	0.04473025
98	0xbcc11a24	-0.023572035
99	0x3dc1e695	0.09467808
100	0x3de7406c	0.11291584
101	0x3d2e73fc	0.04259108
102	0xbe792979	-0.24332227
103	0xbcc4d5b3	-0.024027681
104	0xbcb89016	-0.022529643
105	0xbc6645ad	-0.014054698
106	0xbd8f0339	-0.069830365
107	0x3d425e55	0.047453243
108	0xbd553e9f	-0.052061673
109	0x3cfbf30a	0.030755538
110	0x3db4a868	0.088211834
111	0xbd676041	-0.05648828
112	0x3e2ec059	0.17065562
113	0x3d9b3650	0.07578719
114	0xbdcfd405	-0.101478614
115	0x3db28e02	0.08718492
116	0x3a48c8b0	0.00076592993
117	0x3d8b0df9	0.067897744
118	0xbc3d2bd0	-0.01154609
119	0x3cfaf85c	0.030636005
120	0x3e05f864	0.13083035
121	0xbd77c6eb	-0.060492437
122	0x3e1dabaa	0.15397516
123	0xbc89ca09	-0.01681997
124	0xbcf482ef	-0.02984759
125	0x3b128691	0.002235804
126	0xbd0ec711	-0.034857813
127	0x3d936c6f	0.071984164
128	0xbdf28bf1	-0.11843098
129	0x3e5b3e69	0.21410526
130	0x3ca0b0ce	0.019615557
131	0xbcf722ff	-0.030168055
132	0x3df766a7	0.12080126
133	0x3d1364c4	0.03598477
134	0x3d873f36	0.066038534
135	0x3d0385d8	0.032110065
136	0x3d38d81d	0.045127977
137	0xbd807041	-0.06271411
138	0x3e018381	0.12647821
139	0xbacaa3c9	-0.0015460189
140	0xbc3b044b	-0.011414598
141	0xbe173e7f	-0.14769934
142	0x3d1202d2	0.03564722
143	0x3bad18b4	0.005282486
144	0xbd9e0dba	-0.07717462
145	0xbd75a06c	-0.059967443
146	0xbe084663	-0.133081
147	0xbab1d0dc	-0.0013566273
148	0xbbd70c21	-0.006562725
149	0x3d49515a	0.04914985
150	0x3c7eb1f2	0.015545355
151	0x3d021347	0.031756666
152	0xbd5a27a8	-0.053260475
153	0x3c395a82	0.011313083
154	0xbd897eff	-0.06713676
155	0x3bd150c5	0.0063878023
156	0x3daadf59	0.083433814
157	0xbd5e7254	-0.05430825
158	0x3d8ccfdb	0.06875583
159	0x3db8c809	0.09022529
160	0xbc30d597	-0.010793111
161	0xbdd8fda6	-0.105952546
162	0x3d938a93	0.07204165
163	0x3d80e433	0.062935255
164	0xbcfc2c68	-0.030782893
165	0x3dc57ca2	0.096429124
166	0xbca70ba8	-0.0203913
167	0x3d34e715	0.04416569
168	0xbe1be94c	-0.15225714
169	0x3dbaf67d	0.09129045
170	0x3d700ef7	0.05860802
171	0x3d720ac0	0.059092283
172	0x3d85455c	0.0650737
173	0xbe033194	-0.12811881
174	0xbdf51c69	-0.119683094
175	0xbd98065a	-0.074230865
176	0x3bb720e2	0.0055886367
177	0x3c6d6c43	0.014491144
178	0x39d5fcd7	0.00040814906
179	0xbd0e1801	-0.03469086
180	0x3d9d32b4	0.076756865
181	0xbd897cb7	-0.067132406
182	0xbe6c68bd	-0.2308683
183	0x3dc29c2e	0.09502445
184	0xbd95c7af	-0.07313477
185	0xbe1ccfa7	-0.15313588
186	0x3ceb73de	0.028741773
187	0xbcfa761d	-0.030573899
188	0x3b4b53ad	0.0031025216
189	0xbd7d108e	-0.061783366
190	0x3bdf248d	0.006809777
191	0xbd1e5330	-0.038653553
192	0x3d2a7077	0.04161116
193	0x3db998bb	0.09062334
194	0xbcb446a4	-0.02200634
195	0x3ca3bf4d	0.01998868
196	0x3ac7b827	0.0015237377
197	0x3cf23962	0.029568378
198	0x3d9e7007	0.07736211
199	0xbd1c8d81	-0.038220886
200	0x3daf001f	0.08544945
201	0x3b143ccc	0.0022619246
202	0xbe04e104	-0.12976462
203	0x3e111f4d	0.14172097
204	0x3cffa2c4	0.031205542
205	0x3cdcad32	0.026938055
206	0xbd71172c	-0.05885999
207	0xbded9907	-0.11601453
208	0x3dad1238	0.084507406
209	0xbd85e05b	-0.06536933
210	0xbe043dd9	-0.12914218
211	0x3ca3b5f8	0.01998423
212	0x3cb76e79	0.022391545
213	0xbd2ff28a	-0.042955913
214	0x3da9de50	0.08294356
215	0x3df13935	0.117784895
216	0x3dd049f2	0.10170354
217	0x3db54cd6	0.08852546
218	0x3c7925d7	0.015206776
219	0x3e1690d1	0.1470368
220	0xbe14a9e1	-0.14517929
221	0xbdace028	-0.08441192
222	0x3d72ec42	0.059307344
223	0xbd61a96e	-0.05509322
224	0x3e051207	0.12995158
225	0xbd93d09e	-0.07217525
226	0x3dc57207	0.096408896
227	0xbb20a647	-0.0024513172
228	0xbcc0c8a1	-0.023533167
229	0x3d761489	0.060078178
230	0x3dcc3175	0.09970371
231	0x3e1d952e	0.15388939
232	0x3c0bc6da	0.008531297
233	0x3d3a016e	0.04541152
234	0xbd65f76d	-0.056144167
235	0x3d55cacf	0.052195366
236	0xbc109047	-0.008823461
237	0xbd325fe2	-0.043548472
238	0x3ca28500	0.01983881
239	0x3c9f5a2f	0.019452183
240	0xbdbcb844	-0.092148334
241	0xbdbd8da0	-0.092555285
242	0x3d8e109a	0.0693676
243	0xbe03d87c	-0.12875551
244	0x39c7ea44	0.0003813078
245	0x3c485259	0.012226664
246	0xbcee953f	-0.0291239
247	0x3b8cf133	0.004301214
248	0x3df1696b	0.11787685
249	0x3dcbca9f	0.09950756
250	0x3dac5f51	0.08416618
251	0x3d6f2ef2	0.05839438
252	0xbe2cac16	-0.1686252
253	0x3e13985e	0.14413592
254	0x3cac2fc3	0.021018868
255	0xbd881b25	-0.066458024

lstms.0.bias_ih_l0 f4 [256]
0	0x3cc8dfba	0.024520744
1	0xbbded65a	-0.006800455
2	0xbc9bcc98	-0.019018456
3	0x3ca986b5	0.020694116
4	0x3d0a0d67	0.033704188
5	0xba6f6016	-0.00091314444
6	0x3d05d959	0.032677982
7	0x3d1b62dc	0.037936077
8	0x3c077237	0.008266977
9	0x3ce855d1	0.028361233
10	0x3bc7cb7c	0.0060972553
11	0x3b18f67d	0.0023340278
12	0x3ce463d1	0.027879627
13	0xbcc8a433	-0.024492359
14	0x3cfb31b6	0.030663352
15	0x3cc0849e	0.023500737
16	0x3cbfe7a3	0.023425883
17	0x3c136bf6	0.008997908
18	0x3d164f1b	0.036696535
19	0x3d1e0a0f	0.03858381
20	0xbb320290	-0.0027162172
21	0x3ccd9e94	0.02510003
22	0xbbee2850	-0.007267989
23	0x3c86baca	0.01644649
24	0xbc2aa8ee	-0.010416253
25	0x3d02685e	0.031837814
26	0x3d1c5805	0.03816988
27	0x3d048fe3	0.032363784
28	0xbbe19695	-0.006884406
29	0x3d23055b	0.03980003
30	0x3d766962	0.060159095
31	0x3cf6ff54	0.030151047
32	0x3d08ef86	0.033431552
33	0x3d520438	0.051273555
34	0x3cfc2825	0.030780861
35	0x3cdee42d	0.027208412
36	0x3bbfde48	0.0058553554
37	0x3d105d19	0.035245035
38	0xbc98c260	-0.018647373
39	0x3cd55f25	0.026046345
40	0x3d110fe3	0.03541554
41	0x3cc5a501	0.024126532
42	0x3cdb8476	0.02679656
43	0x3d1dd986	0.038537525
44	0x3d32729e	0.04356634
45	0x3cf94f91	0.030433448
46	0x3d1e0087	0.03857472
47	0xbc7ea099	-0.015541219
48	0x3c440e71	0.011966334
49	0x39979ce8	0.0002891787
50	0xbcbaade4	-0.022787996
51	0x3cc27f8a	0.023742456
52	0xbb9e5e05	-0.0048329853
53	0xbcbdc393	-0.023164546
54	0x3d21d16e	0.03950637
55	0xbc0017ab	-0.007818143
56	0x3d02c833	0.031929206
57	0x3cdb0e63	0.026740259
58	0x3cd6fdb8	0.02624403
59	0x3d213dcc	0.039365575
60	0x3ca36818	0.019947097
61	0x3ced093d	0.02893507
62	0x3d1792ca	0.037005223
63	0xbb485fec	-0.0030574752
64	0x3ca97dd8	0.02068989
65	0xbbe6ad96	-0.007039736
66	0xbca44368	-0.020051673
67	0x3c84399c	0.016140752
68	0x3ce7fbcd	0.02831831
69	0xbb89ce0e	-0.004205472
70	0x3cda4720	0.026645243
71	0x3d0339e3	0.032037627
72	0x3baa3b42	0.0051950524
73	0x3cc63c76	0.024198752
74	0x3b1d37f9	0.002398966
75	0x39bb00f6	0.00035668135
76	0x3cc5f946	0.024166714
77	0xbccf882b	-0.025333485
78	0x3cd2539e	0.025674637
79	0x3c9c27e2	0.019061986
80	0x3ca80397	0.020509524
81	0x3be9a5c5	0.007130357
82	0x3cfb498a	0.030674715
83	0x3d095b50	0.033534348
84	0xb9aabb09	-0.0003256428
85	0x3cae1d82	0.021254305
86	0xbbf118e0	-0.0073577017
87	0x3c4e544d	0.012593341
88	0xbc373ad4	-0.011183459
89	0x3cd9e1bb	0.026596894
90	0x3d05e110	0.03268534
91	0x3ce20f52	0.027595196
92	0xbc0c7e20	-0.008574992
93	0x3d0b2d02	0.03397847
94	0x3d532ccd	0.051556397
95	0x3cd9b7e0	0.026576936
96	0x3d01c247	0.031679418
97	0x3d332792	0.04373891
98	0x3cb96fc1	0.022636296
99	0x3cbf321a	0.02333932
100	0x3b21c5f3	0.0024684637
101	0x3d0c5968	0.034264952
102	0xbc993a40	-0.018704534
103	0x3cb131ff	0.021630285
104	0x3cfb8885	0.030704746
105	0x3c9d2b3e	0.019185659
106	0x3cba8ef8	0.022773251
107	0x3d06c61d	0.03290378
108	0x3d19d621	0.037557725
109	0x3cd1d982	0.025616411
110	0x3d061f6d	0.032744814
111	0xbc80c28e	-0.01571777
112	0x3c2720a4	0.010200653
113	0xb95b8096	-0.0002093337
114	0xbcc59b02	-0.024121765
115	0x3ca0eb31	0.019643398
116	0xbb02c4c2	-0.0019953703
117	0xbcc2d891	-0.023784908
118	0x3d0c22d2	0.034212895
119	0xbbf5a344	-0.0074962694
120	0x3ce5b3eb	0.028039893
121	0x3cb76c0c	0.022390388
122	0x3cbc28c7	0.022968663
123	0x3d0a3852	0.033745117
124	0x3c86ee6c	0.01647111
125	0x3caaf4db	0.02086871
126	0x3d013830	0.031547725
127	0xbbeed2c6	-0.0072883097
128	0x3bc59d3f	0.006030708
129	0x3c6eeb76	0.014582505
130	0xbc310bfe	-0.010806082
131	0xbc06e844	-0.008234087
132	0xbc0aa501	-0.008462192
133	0x3bda50d2	0.0066624666
134	0x3c05987b	0.00815403
135	0xbb8dd27a	-0.0043280693
136	0xbbbeef36	-0.005826856
137	0x3bbfc98c	0.0058528837
138	0x3c2aa224	0.010414634
139	0xbbc7e86d	-0.0061007054
140	0xbbf5b9d2	-0.007498958
141	0xbc41c155	-0.011825879
142	0x3c09e5bc	0.008416589
143	0x3bb46152	0.0055047655
144	0xbbcfbd99	-0.0063397405
145	0xbbdaaee5	-0.006673681
146	0xbb99827b	-0.004684744
147	0x3ba34d6f	0.004983596
148	0x3cd8df26	0.026473593
149	0x3c028ed1	0.00796862
150	0x3ca97eac	0.020690285
151	0x3b9d85e3	0.0048072203
152	0x3cce77d0	0.025203615
153	0xbc20abbe	-0.0098065715
154	0x3be68d5c	0.0070358943
155	0x3ba713ee	0.0050988114
156	0x3c5ed6d7	0.0136010265
157	0xbbc59d30	-0.006030701
158	0x3969cd09	0.00022296993
159	0xbc02abd3	-0.007975536
160	0x3d162eac	0.036665604
161	0x3bbce93b	0.005765108
162	0xbca7626c	-0.020432673
163	0x3bc17a12	0.0059044445
164	0x3ce02492	0.027361188
165	0x3d073c4b	0.033016484
166	0xbb5af01f	-0.0033407283
167	0x3b91d395	0.0044502714
168	0xbbb747e4	-0.005593287
169	0xbb4caf2e	-0.0031232345
170	0xbc03655c	-0.008019771
171	0xbc11aa6b	-0.0088907285
172	0xbbefa98b	-0.0073139123
173	0xbbdf0521	-0.0068060313
174	0xbc2e182e	-0.010625882
175	0xbcd1d7b8	-0.025615558
176	0x3c17c1ff	0.009262561
177	0xbce178ed	-0.027523482
178	0xbc5ba988	-0.013407119
179	0xbc1dda72	-0.009634601
180	0xbcf8c445	-0.030367026
181	0x3c6d7731	0.0144937495
182	0x3bf2139c	0.0073875915
183	0xbcc33e4a	-0.023833413
184	0x3c09e290	0.008415833
185	0xbc17c19f	-0.009262471
186	0x3c0e3ea6	0.008681929
187	0xbc27154f	-0.010197951
188	0xbc112317	-0.008858464
189	0x3cb2c1cf	0.02182093
190	0x3c167899	0.009184026
191	0x3ccddb0f	0.02512887
192	0x3cbfa72c	0.023395143
193	0xbbb61c66	-0.0055575846
194	0xbc94d9da	-0.018170286
195	0x3ca23558	0.019800827
196	0x3d03ccc4	0.0321777
197	0xbac073c0	-0.0014682934
198	0x3d064e7b	0.03278969
199	0x3d15be0f	0.036558207
200	0x3c159c60	0.009131521
201	0x3cdd68fc	0.0270276
202	0x3bd7741b	0.00657512
203	0x3b0bb947	0.002132015
204	0x3cdfa6de	0.027301248
205	0xbcc9a19e	-0.024613198
206	0x3ceea004	0.029129036
207	0x3cbdea9c	0.02318316
208	0x3cc38091	0.023865016
209	0x3c1d3856	0.009595951
210	0x3d1d8d87	0.03846505
211	0x3d1edc5c	0.03878437
212	0xbaa12f96	-0.0012297507
213	0x3cc00e14	0.023444213
214	0xbbe3f8a1	-0.006957129
215	0x3c9014f9	0.017588126
216	0xbc31c35b	-0.010849799
217	0x3cf9e3c5	0.030504117
218	0x3d1aa084	0.037750736
219	0x3cffd180	0.031227827
220	0xbbe04828	-0.006844539
221	0x3d23917f	0.039933678
222	0x3d784d88	0.060620815
223	0x3cf78e00	0.030219078
224	0x3cc3f201	0.023919107
225	0x3d4e8a15	0.050424654
226	0x3d02cf0d	0.03193574
227	0x3cdd2834	0.02699671
228	0x3be79a94	0.0070679877
229	0x3d224037	0.03961202
230	0xbc990c23	-0.018682545
231	0x3cc1c017	0.023651166
232	0x3d08e054	0.03341706
233	0x3cacde87	0.021102203
234	0x3cdd9fa8	0.02705367
235	0x3d1e5526	0.038655423
236	0x3d34fa3f	0.044183966
237	0x3ceff22f	0.029290287
238	0x3d1329f7	0.035928693
239	0xbc7c45e1	-0.01539752
240	0x3c3bac07	0.011454589
241	0x3a7191f8	0.00092151714
242	0xbcc58bae	-0.024114456
243	0x3cb5c888	0.022190347
244	0xba682b9a	-0.0008856595
245	0xbcba2bcd	-0.022725964
246	0x3d2678b8	0.04064247
247	0xbbe8dc3c	-0.007106332
248	0x3cfabdb0	0.030608028
249	0x3cd6b9ec	0.026211701
250	0x3cd7e570	0.026354522
251	0x3d1e0fb3	0.03858919
252	0x3c9631aa	0.018334229
253	0x3ccd3df4	0.025053956
254	0x3d222236	0.039583407
255	0xbba737fc	-0.0051031094

lstms.0.bias_hh_l0 f4 [256]
0	0x3cc8dfba	0.024520744
1	0xbbded65a	-0.006800455
2	0xbc9bcc98	-0.019018456
3	0x3ca986b5	0.020694116
4	0x3d0a0d67	0.033704188
5	0xba6f6016	-0.00091314444
6	0x3d05d959	0.032677982
7	0x3d1b62dc	0.037936077
8	0x3c077237	0.008266977
9	0x3ce855d1	0.028361233
10	0x3bc7cb7c	0.0060972553
11	0x3b18f67d	0.0023340278
12	0x3ce463d1	0.027879627
13	0xbcc8a433	-0.024492359
14	0x3cfb31b6	0.030663352
15	0x3cc0849e	0.023500737
16	0x3cbfe7a3	0.023425883
17	0x3c136bf6	0.008997908
18	0x3d164f1b	0.036696535
19	0x3d1e0a0f	0.03858381
20	0xbb320290	-0.0027162172
21	0x3ccd9e94	0.02510003
22	0xbbee2850	-0.007267989
23	0x3c86baca	0.01644649
24	0xbc2aa8ee	-0.010416253
25	0x3d02685e	0.031837814
26	0x3d1c5805	0.03816988
27	0x3d048fe3	0.032363784
28	0xbbe19695	-0.006884406
29	0x3d23055b	0.03980003
30	0x3d766962	0.060159095
31	0x3cf6ff54	0.030151047
32	0x3d08ef86	0.033431552
33	0x3d520438	0.051273555
34	0x3cfc2825	0.030780861
35	0x3cdee42d	0.027208412
36	0x3bbfde48	0.0058553554
37	0x3d105d19	0.035245035
38	0xbc98c260	-0.018647373
39	0x3cd55f25	0.026046345
40	0x3d110fe3	0.03541554
41	0x3cc5a501	0.024126532
42	0x3cdb8476	0.02679656
43	0x3d1dd986	0.038537525
44	0x3d32729e	0.04356634
45	0x3cf94f91	0.030433448
46	0x3d1e0087	0.03857472
47	0xbc7ea099	-0.015541219
48	0x3c440e71	0.011966334
49	0x39979ce8	0.0002891787
50	0xbcbaade4	-0.022787996
51	0x3cc27f8a	0.023742456
52	0xbb9e5e05	-0.0048329853
53	0xbcbdc393	-0.023164546
54	0x3d21d16e	0.03950637
55	0xbc0017ab	-0.007818143
56	0x3d02c833	0.031929206
57	0x3cdb0e63	0.026740259
58	0x3cd6fdb8	0.02624403
59	0x3d213dcc	0.039365575
60	0x3ca36818	0.019947097
61	0x3ced093d	0.02893507
62	0x3d1792ca	0.037005223
63	0xbb485fec	-0.0030574752
64	0x3ca97dd8	0.02068989
65	0xbbe6ad96	-0.007039736
66	0xbca44368	-0.020051673
67	0x3c84399c	0.016140752
68	0x3ce7fbcd	0.02831831
69	0xbb89ce0e	-0.004205472
70	0x3cda4720	0.026645243
71	0x3d0339e3	0.032037627
72	0x3baa3b42	0.0051950524
73	0x3cc63c76	0.024198752
74	0x3b1d37f9	0.002398966
75	0x39bb00f6	0.00035668135
76	0x3cc5f946	0.024166714
77	0xbccf882b	-0.025333485
78	0x3cd2539e	0.025674637
79	0x3c9c27e2	0.019061986
80	0x3ca80397	0.020509524
81	0x3be9a5c5	0.007130357
82	0x3cfb498a	0.030674715
83	0x3d095b50	0.033534348
84	0xb9aabb09	-0.0003256428
85	0x3cae1d82	0.021254305
86	0xbbf118e0	-0.0073577017
87	0x3c4e544d	0.012593341
88	0xbc373ad4	-0.011183459
89	0x3cd9e1bb	0.026596894
90	0x3d05e110	0.03268534
91	0x3ce20f52	0.027595196
92	0xbc0c7e20	-0.008574992
93	0x3d0b2d02	0.03397847
94	0x3d532ccd	0.051556397
95	0x3cd9b7e0	0.026576936
96	0x3d01c247	0.031679418
97	0x3d332792	0.04373891
98	0x3cb96fc1	0.022636296
99	0x3cbf321a	0.02333932
100	0x3b21c5f3	0.0024684637
101	0x3d0c5968	0.034264952
102	0xbc993a40	-0.018704534
103	0x3cb131ff	0.021630285
104	0x3cfb8885	0.030704746
105	0x3c9d2b3e	0.019185659
106	0x3cba8ef8	0.022773251
107	0x3d06c61d	0.03290378
108	0x3d19d621	0.037557725
109	0x3cd1d982	0.025616411
110	0x3d061f6d	0.032744814
111	0xbc80c28e	-0.01571777
112	0x3c2720a4	0.010200653
113	0xb95b8096	-0.0002093337
114	0xbcc59b02	-0.024121765
115	0x3ca0eb31	0.019643398
116	0xbb02c4c2	-0.0019953703
117	0xbcc2d891	-0.023784908
118	0x3d0c22d2	0.034212895
119	0xbbf5a344	-0.0074962694
120	0x3ce5b3eb	0.028039893
121	0x3cb76c0c	0.022390388
122	0x3cbc28c7	0.022968663
123	0x3d0a3852	0.033745117
124	0x3c86ee6c	0.01647111
125	0x3caaf4db	0.02086871
126	0x3d013830	0.031547725
127	0xbbeed2c6	-0.0072883097
128	0x3bc59d3f	0.006030708
129	0x3c6eeb76	0.014582505
130	0xbc310bfe	-0.010806082
131	0xbc06e844	-0.008234087
132	0xbc0aa501	-0.008462192
133	0x3bda50d2	0.0066624666
134	0x3c05987b	0.00815403
135	0xbb8dd27a	-0.0043280693
136	0xbbbeef36	-0.005826856
137	0x3bbfc98c	0.0058528837
138	0x3c2aa224	0.010414634
139	0xbbc7e86d	-0.0061007054
140	0xbbf5b9d2	-0.007498958
141	0xbc41c155	-0.011825879
142	0x3c09e5bc	0.008416589
143	0x3bb46152	0.0055047655
144	0xbbcfbd99	-0.0063397405
145	0xbbdaaee5	-0.006673681
146	0xbb99827b	-0.004684744
147	0x3ba34d6f	0.004983596
148	0x3cd8df26	0.026473593
149	0x3c028ed1	0.00796862
150	0x3ca97eac	0.020690285
151	0x3b9d85e3	0.0048072203
152	0x3cce77d0	0.025203615
153	0xbc20abbe	-0.0098065715
154	0x3be68d5c	0.0070358943
155	0x3ba713ee	0.0050988114
156	0x3c5ed6d7	0.0136010265
157	0xbbc59d30	-0.006030701
158	0x3969cd09	0.00022296993
159	0xbc02abd3	-0.007975536
160	0x3d162eac	0.036665604
161	0x3bbce93b	0.005765108
162	0xbca7626c	-0.020432673
163	0x3bc17a12	0.0059044445
164	0x3ce02492	0.027361188
165	0x3d073c4b	0.033016484
166	0xbb5af01f	-0.0033407283
167	0x3b91d395	0.0044502714
168	0xbbb747e4	-0.005593287
169	0xbb4caf2e	-0.0031232345
170	0xbc03655c	-0.008019771
171	0xbc11aa6b	-0.0088907285
172	0xbbefa98b	-0.0073139123
173	0xbbdf0521	-0.0068060313
174	0xbc2e182e	-0.010625882
175	0xbcd1d7b8	-0.025615558
176	0x3c17c1ff	0.009262561
177	0xbce178ed	-0.027523482
178	0xbc5ba988	-0.013407119
179	0xbc1dda72	-0.009634601
180	0xbcf8c445	-0.030367026
181	0x3c6d7731	0.0144937495
182	0x3bf2139c	0.0073875915
183	0xbcc33e4a	-0.023833413
184	0x3c09e290	0.008415833
185	0xbc17c19f	-0.009262471
186	0x3c0e3ea6	0.008681929
187	0xbc27154f	-0.010197951
188	0xbc112317	-0.008858464
189	0x3cb2c1cf	0.02182093
190	0x3c167899	0.009184026
191	0x3ccddb0f	0.02512887
192	0x3cbfa72c	0.023395143
193	0xbbb61c66	-0.0055575846
194	0xbc94d9da	-0.018170286
195	0x3ca23558	0.019800827
196	0x3d03ccc4	0.0321777
197	0xbac073c0	-0.0014682934
198	0x3d064e7b	0.03278969
199	0x3d15be0f	0.036558207
200	0x3c159c60	0.009131521
201	0x3cdd68fc	0.0270276
202	0x3bd7741b	0.00657512
203	0x3b0bb947	0.002132015
204	0x3cdfa6de	0.027301248
205	0xbcc9a19e	-0.024613198
206	0x3ceea004	0.029129036
207	0x3cbdea9c	0.02318316
208	0x3cc38091	0.023865016
209	0x3c1d3856	0.009595951
210	0x3d1d8d87	0.03846505
211	0x3d1edc5c	0.03878437
212	0xbaa12f96	-0.0012297507
213	0x3cc00e14	0.023444213
214	0xbbe3f8a1	-0.006957129
215	0x3c9014f9	0.017588126
216	0xbc31c35b	-0.010849799
217	0x3cf9e3c5	0.030504117
218	0x3d1aa084	0.037750736
219	0x3cffd180	0.031227827
220	0xbbe04828	-0.006844539
221	0x3d23917f	0.039933678
222	0x3d784d88	0.060620815
223	0x3cf78e00	0.030219078
224	0x3cc3f201	0.023919107
225	0x3d4e8a15	0.050424654
226	0x3d02cf0d	0.03193574
227	0x3cdd2834	0.02699671
228	0x3be79a94	0.0070679877
229	0x3d224037	0.03961202
230	0xbc990c23	-0.018682545
231	0x3cc1c017	0.023651166
232	0x3d08e054	0.03341706
233	0x3cacde87	0.021102203
234	0x3cdd9fa8	0.02705367
235	0x3d1e5526	0.038655423
236	0x3d34fa3f	0.044183966
237	0x3ceff22f	0.029290287
238	0x3d1329f7	0.035928693
239	0xbc7c45e1	-0.01539752
240	0x3c3bac07	0.011454589
241	0x3a7191f8	0.00092151714
242	0xbcc58bae	-0.024114456
243	0x3cb5c888	0.022190347
244	0xba682b9a	-0.0008856595
245	0xbcba2bcd	-0.022725964
246	0x3d2678b8	0.04064247
247	0xbbe8dc3c	-0.007106332
248	0x3cfabdb0	0.030608028
249	0x3cd6b9ec	0.026211701
250	0x3cd7e570	0.026354522
251	0x3d1e0fb3	0.03858919
252	0x3c9631aa	0.018334229
253	0x3ccd3df4	0.025053956
254	0x3d222236	0.039583407
255	0xbba737fc	-0.0051031094

fc.weight f4 [1, 64]
0	0xbdc5ce97	-0.096585445
1	0xbdba8623	-0.09107616
2	0x3d84de95	0.06487767
3	0x3e13063d	0.14357848
4	0x3dd465ff	0.10371017
5	0xbd932686	-0.07185082
6	0xbdcb6703	-0.09931757
7	0x3d602c94	0.054730013
8	0x3da0b01e	0.07846092
9	0xbde4a9b6	-0.11165182
10	0xbe07672c	-0.1322295
11	0x3d0cd7fa	0.03438566
12	0x3e06ae91	0.1315253
13	0x3d94e8b7	0.07270949
14	0xbe254478	-0.161394
15	0x3d5bbf25	0.053649087
16	0x3db0559a	0.08610077
17	0x3ccaba15	0.024746934
18	0xbd85a7d3	-0.065261506
19	0xbdc88a78	-0.09792036
20	0x3caec80a	0.02133562
21	0xbd66b3fa	-0.056323983
22	0xbdb8e657	-0.09028309
23	0xbda84490	-0.08216202
24	0xbd13190e	-0.035912566
25	0x3e0619f6	0.13095841
26	0xbdabf322	-0.08395983
27	0xbdf51ec8	-0.11968762
28	0xbdd5aaba	-0.10432954
29	0x3da9d56f	0.08292662
30	0x3d9fc0a6	0.07800417
31	0x3d7e3edb	0.062071662
32	0x3ce46d79	0.027884232
33	0xbe20d8e3	-0.15707736
34	0xbd67f21a	-0.05662737
35	0xbda4eb60	-0.08052707
36	0xbca6c73d	-0.020358676
37	0x3d8d33b9	0.06894631
38	0x3c1ff140	0.009762108
39	0xbd415c31	-0.04720706
40	0x3e0e4f95	0.13897546
41	0x3d03e077	0.03219649
42	0x3db30c8d	0.08742628
43	0x3e116f0d	0.14202519
44	0x3db31681	0.08744527
45	0x3dcd6da8	0.10030681
46	0x3e27dfef	0.16394018
47	0x3b259770	0.0025267266
48	0xba686974	-0.00088658114
49	0x3d2f7356	0.042834602
50	0x3cfe8c15	0.031072656
51	0x3da6d0e1	0.08145309
52	0x3cd5e7b1	0.026111456
53	0xbbc69858	-0.0060606413
54	0xbdaaf9a2	-0.08348395
55	0x3d66382c	0.056205913
56	0xbe167176	-0.1469172
57	0x3d004290	0.03131348
58	0xbe13e128	-0.14441359
59	0x3d8780ca	0.066163614
60	0x3df40111	0.11914266
61	0xbc853573	-0.016260838
62	0xbd1bf9eb	-0.038080137
63	0x3c331e60	0.010932535
