labs/models/USD/9_8.pth (torch, 3319 bytes, 5 tensors)

lstms.0.weight_ih_l0 f4 [32, 1]
0	0x3e2a3994	0.16623527
1	0x3e809a91	0.25117925
2	0xbdf86c9c	-0.121300906
3	0xbd1920da	-0.037384845
4	0xbf0361f8	-0.51321363
5	0xbe48ffc2	-0.19628814
6	0x3e1ff6a1	0.15621425
7	0x3d94a59d	0.07258151
8	0xbef11492	-0.47086006
9	0xbe0e08a0	-0.13870478
10	0xbd5fc30d	-0.054629374
11	0x3dc680f4	0.096925646
12	0x3eade397	0.339627
13	0xbed4614c	-0.41480482
14	0x3e4861f3	0.19568615
15	0xbf21eefb	-0.6325528
16	0xbe660d28	-0.22465956
17	0xbeabb2b9	-0.33534792
18	0x3e842116	0.25806493
19	0x3e5b91cc	0.21442336
20	0x3ef049b3	0.46931228
21	0x3ef3d725	0.4762508
22	0x3dd329cb	0.10310706
23	0xbd92296d	-0.071368076
24	0x3d39bd4a	0.045346536
25	0x3e7bb3a0	0.2458024
26	0xbf05df84	-0.5229418
27	0xbde8a769	-0.11360056
28	0xbebcd4bc	-0.36881053
29	0x3d1fe1fe	0.039033882
30	0xbe626cab	-0.22111766
31	0xbd9678fe	-0.07347296

lstms.0.weight_hh_l0 f4 [32, 8]
0	0x3ecacbdb	0.39608654
1	0x3e71a6e2	0.23598817
2	0xbeb412ee	-0.35170692
3	0xbc4cd9b9	-0.012503081
4	0xbe0c6b1d	-0.13712735
5	0xbde48763	-0.111586355
6	0x3dc1808b	0.09448346
7	0xbeed6062	-0.46362597
8	0xbddac58d	-0.10682211
9	0x3d9fd2c1	0.0780387
10	0xbe5a0623	-0.21291403
11	0xbdc096dd	-0.09403775
12	0xbdb2a2d9	-0.08722467
13	0xbd6e2cfa	-0.05814836
14	0x3e6f6183	0.23377042
15	0xbe0c6eb2	-0.13714102
16	0x3efcb89e	0.49359602
17	0x3c950376	0.018190127
18	0xbcb2c074	-0.021820284
19	0x3e48d406	0.1961213
20	0xbc45c4a4	-0.012070809
21	0x3d8c3c59	0.06847448
22	0xbe2c76b8	-0.16842163
23	0x3e8fe1b2	0.2810188
24	0xbdc5ca27	-0.09657698
25	0xbd8675e6	-0.06565456
26	0xbdf297c0	-0.1184535
27	0x3d5dfaf8	0.05419442
28	0x3eb4829f	0.35255906
29	0x3e765bd0	0.24058461
30	0xbde5ba90	-0.112172246
31	0xbf1bce02	-0.6086122
32	0xbdc3c9d5	-0.09559981
33	0xbe7a08f3	-0.24417476
34	0x3da66ba7	0.08126002
35	0xbd97a092	-0.07403673
36	0xbe375d4b	-0.17906682
37	0xbdd23a0f	-0.1026498
38	0x3eb7a9a8	0.35871625
39	0x3d908f5a	0.07058592
40	0x3dd9cd67	0.106348805
41	0xbd17e881	-0.037086967
42	0xbedb124f	-0.42787406
43	0xbdc28c00	-0.09499359
44	0x3e490962	0.19632486
45	0xbea4ec10	-0.3221135
46	0xbead3432	-0.33828884
47	0xbd961ed9	-0.073301025
48	0x3e59970c	0.21249026
49	0xbcc19416	-0.023630183
50	0xbda9e319	-0.082952686
51	0x3eb21acf	0.34786078
52	0xbe8ab413	-0.2709051
53	0xbf10288d	-0.56311876
54	0x3ea06af0	0.31331587
55	0xbd1541a8	-0.036439568
56	0x3dc49bfd	0.09600065
57	0x3e675bc3	0.22593598
58	0x3df61422	0.12015559
59	0xbea8e04a	-0.3298362
60	0xbe1a0aa4	-0.15043122
61	0x3eb0ed38	0.34555984
62	0x3e2b4065	0.16723783
63	0xbd190dcb	-0.03736667
64	0xbe06a9dd	-0.13150735
65	0xbdc106d7	-0.09425133
66	0xbd4f4e2b	-0.050611656
67	0xbd9aec3c	-0.075645894
68	0x3ddada86	0.10686211
69	0xbe071a17	-0.13193546
70	0xbdb971f1	-0.09054936
71	0xbe5bad02	-0.21452716
72	0x3f0053ce	0.50127876
73	0x3ec13ad0	0.37740183
74	0xbcdbfe5b	-0.026854685
75	0xbf01f35f	-0.5076198
76	0x3e82136c	0.25405443
77	0xbc400639	-0.011720234
78	0xbe2fdda7	-0.17174397
79	0xbdf81879	-0.12114043
80	0x3d5a25a9	0.05325857
81	0xbe7e167a	-0.24813262
82	0xbef97833	-0.48724517
83	0x3e1b8c67	0.15190278
84	0x3ee50c68	0.44736028
85	0xbdb3ab97	-0.087729625
86	0xbf002e10	-0.50070286
87	0xbea77755	-0.3270823
88	0xbe0dd70e	-0.13851568
89	0xbe032c8e	-0.12809965
90	0x3e8cde4c	0.2751335
91	0xbb8d6188	-0.004314605
92	0xbeceebc3	-0.40414247
93	0x3c979194	0.018502034
94	0xbac86da6	-0.0015291467
95	0x3e093684	0.13399702
96	0xbe00e750	-0.12588239
97	0x3ec135b5	0.37736288
98	0x3d3b5001	0.045730595
99	0x3e1afa1e	0.15134475
100	0x3dd76ede	0.10519193
101	0xbe9cb92f	-0.30610034
102	0x3e84013a	0.25782186
103	0xbe334f7e	-0.17510793
104	0xbe2c8f41	-0.16851522
105	0x3d5fb996	0.054620348
106	0xbf0c4cd4	-0.5480473
107	0x3c6e4750	0.014543369
108	0xbc7f2fe2	-0.015575381
109	0xbdf2bcae	-0.11852394
110	0xbd1b3662	-0.03789366
111	0xbba21091	-0.0049458225
112	0xbdb87917	-0.09007471
113	0x3d266009	0.04061893
114	0xbe10f94e	-0.14157602
115	0xbdcdfd4d	-0.10058079
116	0xbe998c51	-0.29989865
117	0xbd1b38c7	-0.037895944
118	0x3e71c120	0.23608828
119	0x3dbe828b	0.09302243
120	0x3e538263	0.20655207
121	0x3ed9fc4e	0.42575306
122	0xbe3bd604	-0.18343359
123	0x3ea74e7a	0.3267706
124	0xbe31dea3	-0.17370085
125	0xbcef04fc	-0.029177181
126	0xbcedfc90	-0.029051095
127	0xbeb5379f	-0.35393998
128	0x3e6c4c25	0.23075922
129	0x3e6f2c39	0.23356713
130	0x3c92f939	0.017941104
131	0xbc53a052	-0.012916641
132	0xbe733812	-0.23751858
133	0x3e8a8414	0.27053893
134	0x3e4c86ca	0.19973293
135	0x3c75aee7	0.014995313
136	0xbdd13a6b	-0.102162205
137	0x3dd16691	0.10224641
138	0xbe44f9ae	-0.1923587
139	0xbc040c70	-0.008059606
140	0xbd0f027e	-0.034914486
141	0xbe6cca00	-0.23123932
142	0x3da1eeb0	0.07906854
143	0x3e347293	0.17621832
144	0xbe13136a	-0.14362875
145	0xbeeb1bd8	-0.4591968
146	0x3e8916b0	0.26775122
147	0xbe575d6b	-0.2103173
148	0x3e9a83de	0.30178732
149	0x3e27511c	0.16339535
150	0xbdb9ce4e	-0.090725526
151	0xbd9d84b1	-0.076913245
152	0x3dd2a5bb	0.10285517
153	0xbe45190d	-0.19247837
154	0xbec1ab50	-0.37826014
155	0xbda7a4a9	-0.08185703
156	0xbe1592d7	-0.14606796
157	0x3dfb6098	0.12274283
158	0x3dbc01b9	0.09180016
159	0x3c6dc392	0.01451196
160	0xbe8f56fb	-0.27996048
161	0xbe423598	-0.18965757
162	0xbd1ec1d0	-0.038759053
163	0xbe0f1993	-0.139746
164	0x3e6523e0	0.22376966
165	0x3e543c19	0.2072605
166	0xbdcddfa5	-0.100524224
167	0x3eb013f7	0.34390232
168	0xbbed83d8	-0.007248383
169	0xbcde260b	-0.02711775
170	0x3d7d506b	0.06184427
171	0x3e6a0d44	0.22856623
172	0x3e3fb5de	0.1872172
173	0xbe0215e3	-0.12703662
174	0xbf0f231d	-0.55912954
175	0x3e20de4d	0.15709801
176	0xbc852728	-0.016254023
177	0x3ce48be6	0.02789874
178	0xbe5b717b	-0.21430008
179	0xbe135dc3	-0.14391236
180	0xbea06d4a	-0.3133338
181	0x3ddf30c8	0.10897976
182	0xbede363d	-0.43400756
183	0x3dc097bd	0.09403942
184	0xbd2824ab	-0.041050594
185	0x3da12a23	0.07869365
186	0x3ec638f1	0.38715318
187	0x3eb6915b	0.35657772
188	0x3ea2f600	0.31828308
189	0x3dfe7b44	0.12425855
190	0x3e14558a	0.14485756
191	0x3e1b76a4	0.15181977
192	0xbd136aab	-0.0359904
193	0xbad25f29	-0.0016050088
194	0xbe4065e8	-0.18788874
195	0xbe26dd13	-0.1629527
196	0xbef22958	-0.47297168
197	0xbe98c694	-0.29839003
198	0x3d1c17a3	0.03810848
199	0xbdb3abd7	-0.0877301
200	0xbd4b6ada	-0.04966245
201	0x3ec91193	0.3927122
202	0xbf0308ef	-0.51185507
203	0xbeb46415	-0.35232607
204	0xbd2d9a27	-0.04238334
205	0xbc48378c	-0.012220275
206	0xbdc59dc5	-0.09649233
207	0xbe3d8224	-0.18506676
208	0x3bc03ab0	0.005866371
209	0x3cd8d9f7	0.026471121
210	0xbdd6c9db	-0.104877196
211	0xbd589fd9	-0.052886818
212	0xbe8a3530	-0.26993704
213	0xbec1a5b4	-0.37821734
214	0x3c957b0e	0.018247154
215	0xbe90aeca	-0.28258353
216	0x3dfade7a	0.12249465
217	0x3e8374b2	0.2567497
218	0x3da09dcd	0.07842598
219	0xbe32620a	-0.17420211
220	0x3e29d32c	0.16584462
221	0xbdcbb641	-0.099468715
222	0x3dbfaac1	0.093587406
223	0x3d68bff0	0.05682367
224	0x3ef68b01	0.48152927
225	0x3dee33e4	0.11630991
226	0xbe32cd36	-0.17461094
227	0xbdfea399	-0.124335475
228	0x3e19e1c3	0.15027528
229	0xbe6fe8a5	-0.2342859
230	0x3e0f03b8	0.13966262
231	0xbe8f2e13	-0.2796484
232	0xbeaaccf8	-0.33359504
233	0x3f020d81	0.50801855
234	0x3d3f197f	0.046655174
235	0x3ca8155e	0.020518001
236	0x3d6d20e2	0.057892688
237	0xbe62a49b	-0.22133105
238	0xbd951aa1	-0.0728047
239	0xbd35b750	-0.044364274
240	0x3e5282cb	0.20557706
241	0x3e325365	0.17414625
242	0xbc87ff20	-0.016601145
243	0xbb9814fe	-0.0046411743
244	0xbeb7bc3b	-0.35885796
245	0xbee8da4d	-0.4547905
246	0xbe6e835b	-0.23292296
247	0x3cff9110	0.0311971
248	0xbe9f4345	-0.3110601
249	0x3dc00507	0.09375959
250	0xbe47d776	-0.19515786
251	0x3cdc104f	0.026863245
252	0xbe48a3c6	-0.19593725
253	0x3ed05f56	0.40697736
254	0x3e9a0d12	0.30088097
255	0xbd2dfdae	-0.042478256

lstms.0.bias_ih_l0 f4 [32]
0	0x3dc52f6d	0.096281864
1	0x3dc658a8	0.096848786
2	0x3db04db8	0.08608574
3	0xbd151359	-0.036395404
4	0x3daacc6d	0.083397724
5	0x3db9d99e	0.0907471
6	0xbc1bb48e	-0.009503497
7	0x3d951939	0.072802015
8	0x3dcfba88	0.10143
9	0x3dcb4f7d	0.099272706
10	0x3db04701	0.08607293
11	0xbd1650e7	-0.03669825
12	0x3dabe4c0	0.0839324
13	0x3dc28ea9	0.094998665
14	0xbc04303d	-0.0080681415
15	0x3d999b4f	0.07500326
16	0x3d95cf20	0.073148966
17	0x3d9138ef	0.07090937
18	0xbd88e62a	-0.06684525
19	0x3d6545a5	0.05597462
20	0xbd830db2	-0.063990965
21	0xbd8f3289	-0.06992061
22	0x3d66473f	0.05622029
23	0xbd95fd9d	-0.073237635
24	0x3dd0de79	0.10198683
25	0x3dcb9af7	0.099416666
26	0x3dadc6ba	0.0848517
27	0xbd1a89bd	-0.037729014
28	0x3db41649	0.08793313
29	0x3dd22636	0.102611944
30	0xbc5572d2	-0.013027864
31	0x3da492d3	0.08035817

lstms.0.bias_hh_l0 f4 [32]
0	0x3dc52f6d	0.096281864
1	0x3dc658a8	0.096848786
2	0x3db04db8	0.08608574
3	0xbd151359	-0.036395404
4	0x3daacc6d	0.083397724
5	0x3db9d99e	0.0907471
6	0xbc1bb48e	-0.009503497
7	0x3d951939	0.072802015
8	0x3dcfba88	0.10143
9	0x3dcb4f7d	0.099272706
10	0x3db04701	0.08607293
11	0xbd1650e7	-0.03669825
12	0x3dabe4c0	0.0839324
13	0x3dc28ea9	0.094998665
14	0xbc04303d	-0.0080681415
15	0x3d999b4f	0.07500326
16	0x3d95cf20	0.073148966
17	0x3d9138ef	0.07090937
18	0xbd88e62a	-0.06684525
19	0x3d6545a5	0.05597462
20	0xbd830db2	-0.063990965
21	0xbd8f3289	-0.06992061
22	0x3d66473f	0.05622029
23	0xbd95fd9d	-0.073237635
24	0x3dd0de79	0.10198683
25	0x3dcb9af7	0.099416666
26	0x3dadc6ba	0.0848517
27	0xbd1a89bd	-0.037729014
28	0x3db41649	0.08793313
29	0x3dd22636	0.102611944
30	0xbc5572d2	-0.013027864
31	0x3da492d3	0.08035817

fc.weight f4 [1, 8]
0	0xbeaf48c3	-0.342352
1	0xbec2e158	-0.3806255
2	0x3d076bef	0.033061918
3	0xbe6813a6	-0.22663745
4	0x3d5993d7	0.053119507
5	0x3e652d01	0.22380449
6	0xbcb9b47a	-0.022669066
7	0x3e929548	0.28629518
