labs/models/USD/lr_0.001.pth (torch, 2207 bytes, 4 tensors)

lstms.0.weight_ih_l0 f4 [4, 1]
-0.2597727 0.17633429 0.8105039 0.48243997
00000000: ed00 85be fa90 343e 2f7d 4f3f 5f02 f73e

lstms.0.weight_hh_l0 f4 [4, 1]
0.14314218 0.13466728 0.5402579 0.9117937
00000000: dd93 123e 38e6 093e 574e 0a3f 506b 693f

lstms.0.bias_ih_l0 f4 [4]
0.1580874 0.1887869 0.11698996 0.17753793
00000000: aae1 213e 5a51 413e 6f98 ef3d 81cc 353e

lstms.0.bias_hh_l0 f4 [4]
0.1580874 0.1887869 0.11698996 0.17753793
00000000: aae1 213e 5a51 413e 6f98 ef3d 81cc 353e
