labs/lr_0.01.pth (torch, 2199 bytes, 4 tensors)

lstms.0.weight_ih_l0 f4 [4, 1]
0.5395508 -0.023665162 -0.15015489 0.016188188
00000000: 0020 0a3f 71dd c1bc 34c2 19be 179d 843c

lstms.0.weight_hh_l0 f4 [4, 1]
-0.93903995 -0.22571872 -1.0126269 -0.48298648
00000000: ec64 70bf cf22 67be c29d 81bf 014a f7be

lstms.0.bias_ih_l0 f4 [4]
0.04806009 -0.0081727365 -0.34932572 0.022466695
00000000: a8da 443d f1e6 05bc d2da b2be 130c b83c

lstms.0.bias_hh_l0 f4 [4]
0.04806009 -0.0081727365 -0.34932572 0.022466695
00000000: a8da 443d f1e6 05bc d2da b2be 130c b83c
