labs/lr_0.1.pth (torch, 2191 bytes, 4 tensors)

lstms.0.weight_ih_l0 f4 [4, 1]
0	0x3eb2c7fb	0.34918198
1	0x3f854c8c	1.0413985
2	0xbf2fde0e	-0.68698204
3	0x3e9f9904	0.3117143

lstms.0.weight_hh_l0 f4 [4, 1]
0	0xbe1b9189	-0.15192236
1	0xbf81509a	-1.0102723
2	0xbf34c1b7	-0.70608085
3	0xbf64ce3c	-0.8937719

lstms.0.bias_ih_l0 f4 [4]
0	0xbe6e5a66	-0.23276672
1	0xbf14c1aa	-0.5810801
2	0x3f3fd316	0.74931467
3	0xbf0f18bc	-0.55897117

lstms.0.bias_hh_l0 f4 [4]
0	0xbe6e5a66	-0.23276672
1	0xbf14c1aa	-0.5810801
2	0x3f3fd316	0.74931467
3	0xbf0f18bc	-0.55897117
