labs/models/JPY/14_16.pth (torch, 6791 bytes, 5 tensors)

lstms.0.weight_ih_l0 f4 [64, 1]
00000000: 3f1f b2bd 8403 d93d 1e3a 60be e6b4 373e
00000010: 72b2 dc3c 0a73 05be 4a4e 3c3d 010d 433e
00000020: 5801 493e ef09 543d de77 4d3e aa5d 08be
00000030: 9644 e6bd e33b 223d e0a8 d13d 901e 683e
00000040: f911 f4be b860 7fbe 9b25 803e aa2c c7bd
00000050: 25c7 aebd 0eb9 3a3d ff86 f9bd 4b4b 3b3e
00000060: 7765 9e3c 04c8 6abd 548f 24bd d74e 0abf
00000070: 0808 0e3e 77f9 8ebe c3ea 9bbe 516e e83d
00000080: d9a2 b3be afd2 26bd b786 6b3e fd58 bebb
00000090: 7c85 39bd d717 6ebd cf53 a73e b3e3 45be
000000a0: 7172 ce3d 1f04 8bbe 728f cebe a5a2 6cbe
000000b0: fca1 063e ca61 8cbe d71e f83d ddcf 79be
000000c0: 8477 d93d 205c 53be 136c bebc a3f3 c1be
000000d0: 148e 0a3e d7cc 863d b96e 433e 1d9f 313e
000000e0: 9eb5 c8be 1fcf 5c3c 635b c23e de97 9bbd
000000f0: 2644 8fbe 16b2 c0be 6c03 a63e 042c 14be
-0.08697366 0.10596374 -0.2189717 0.17940101 0.026940558 -0.13032165 0.0459731 0.1904793
0.19629419 0.051767286 0.20065257 -0.1331698 -0.112435505 0.039607894 0.102372885 0.22667909
-0.47669962 -0.24939239 0.2502869 -0.09725316 -0.085340776 0.04558664 -0.121839516 0.1829044
0.019335492 -0.057319656 -0.04017575 -0.5402655 0.13870251 -0.27924702 -0.30452546 0.11349166
-0.3508518 -0.040728267 0.23000608 -0.005808948 -0.045293316 -0.058128204 0.32681128 -0.19325142
0.10080422 -0.27151582 -0.40343815 -0.23108919 0.1314773 -0.27418357 0.12115257 -0.243957
0.10618499 -0.20640612 -0.023244893 -0.37881193 0.13530761 0.06582039 0.19085206 0.17345853
-0.39201063 0.013477116 0.37960348 -0.07597326 -0.2798168 -0.3763587 0.32424486 -0.14469916

lstms.0.weight_hh_l0 f4 [64, 16]
00000000: 5c50 21be 46e5 91bd 1151 873b 9f65 673e
00000010: bfd6 abbd b2dd df3c 1730 1fbe 1a1a a7be
00000020: 462b a53d 55a5 2b3d 2ce3 bc3e 3d07 543d
00000030: f336 25be 81a3 bcbd 1a24 2f3e 5de4 e63d
00000040: 41e0 cd3c 31a2 f6bc 7aa0 793e 3270 81bd
00000050: 02ff ddbb 478d 7d3e 5bb4 cf3c 4037 6cbc
00000060: 4f2b ee3d b1ec 5d3e f6a2 683e a0a1 783e
00000070: 010d 73bd e5e8 edbd 58ba cabd 0853 873e
00000080: 1d5d 393e 739c 133e 5c01 babd 6a2c 373d
00000090: 2041 a5bd 4e25 9f3d f621 e5bd 8c9c c73d
000000a0: aab2 38be 35be 2dbe af7d 0b3d cdb8 ab3c
000000b0: 4de8 8dbe fe82 4a3c 7b19 443d 8837 423e
000000c0: 78f6 033e 3957 523d a811 63be 9aa6 b4bd
000000d0: a109 f73d 8f97 96bd a3f6 0cbe e85f dcbd
000000e0: 0df1 293e d55d 85b9 4353 1c3e 6ccd f03d
000000f0: 784d 90be 1114 873e 7098 ac3c a22f 013e
00000100: 331c 28be 92af 83be a5cc 7abe ae97 c4be
00000110: b5b0 d3bc faee 8c3e bee4 963d 98f1 5abe
00000120: 56b1 36be 8b45 9e3d 2b46 6e3d d473 7fbe
00000130: 2c16 84be 9024 05be 2436 18bd 9dfe 2a3d
00000140: fa1d cd3e f215 04bd 2c11 2ebd 9a93 05bd
00000150: 9de0 a5bc 1210 ac3d 3a31 92be 9898 26be
00000160: 519e 233e a4a9 d2bc e8f5 1fbd 5662 7abd
00000170: 2a75 94bd b6ad dcbd 1a20 e63e e9e0 643e
00000180: 2041 fd3c 29af 493e 6a80 6e3c dfd6 6ebc
00000190: f5e8 21bd 3632 543d 74cd 4a3e 6217 8abe
000001a0: 2422 103d 5483 a13d 90b6 673e 88e3 83bc
000001b0: a300 a5bd 2f57 7e3e 34a3 f3bd c898 763e
000001c0: 632b 6abd 47b3 153d 396a ccbd a015 693d
000001d0: c369 4b3d 0849 153e b691 863e 1a6e 913e
000001e0: 94d0 713e 0f06 db3d 6ba4 91be 1bbe 2d3e
000001f0: c6df 00be fc7f 71bd f13c 01be f529 28bd
00000200: 6478 b53d 1d35 a33d 9cff 90bd 8026 93bc
00000210: 67f5 aa3d 2bee bfbd ead1 4b3d a85f 77bc
00000220: dccf dcbd 9e1c ad3d ad4a 903e 68e8 89bd
00000230: 0be2 a0bd 6aff 893e 70fb e93d f254 43be
00000240: db85 ffbd f176 c43c e1fb 8ebd 561a 0a3c
00000250: 430a c339 b45d a43d 94b8 683e ccd8 42be
00000260: 9928 133e 33cf 043c 1ab7 e63b fa44 16be
00000270: f59d 2d3c f8e9 5dbe 5788 a03d 36c7 2abe
00000280: 3fe9 933e b849 2ebc 9054 a7bc 109b 85be
00000290: ecb4 3f3c 1288 a2bd 7933 8cbe 2150 7f3e
000002a0: 0acc 8dbe 78a0 6abe e9d2 97be c4db b03e
000002b0: a991 3f3d d4b0 ce3d 86f0 1fbe c8da 983d
000002c0: d18e 863e dd0b acbd 4988 85be bbb7 213e
000002d0: 63f4 293e 60a5 b93c f379 4bbd 6864 bb3d
000002e0: 16a5 1cbe 204f 743e ad7a cbbe bfee 95bb
000002f0: f240 4fbe 7538 1f3e 284b dbbc d442 96bc
00000300: 7372 3c3e 25f4 b93e 883c 5d3e 80a2 663e
00000310: 115e 643e 993f 863e 40bf 403e ec47 37bd
00000320: 9ddc be3d f952 163e 367f 8b3d f871 00bd
00000330: 003e 243b dfa5 6a3d b330 ff3d 1000 393e
00000340: ee7f 463e 95f1 d33d d6cf 3fbd 1974 35be
00000350: a46c 8fbe 917b 403e 13a8 86be a8f1 c13e
00000360: fc12 243c ee63 a23d 07cc d73d 78a1 ff3d
00000370: 277d 46ba 669f 7bbc d445 bbbe 6d21 37be
00000380: a753 54bb c3cf 663d 2652 79bc 270b 98bd
00000390: f2a3 6a3e 3ebc 86bd 0fde f9bd aace 9c3e
000003a0: 7ee8 c3bd 0561 013e e9a9 fabd 68fa 90bd
000003b0: 30d9 b5bd 9d7b acbd 4b4e ca3d 6471 f6bd
000003c0: d91c 613e 50ab 753e 595a 52be 237a c03d
000003d0: 2a9b 283e 74da 4e3e cc5b 3f3d 264b 5c3c
000003e0: 8813 083e 9042 f83c 8f7b d1bc 7ee3 843e
000003f0: f1d3 b7be 0d00 0f3e 7502 4a3e 66b8 94be
-0.15753311 -0.071238086 0.004129537 0.22597359 -0.08390569 0.027327392 -0.15545689 -0.326371
0.080648944 0.04190572 0.36892068 0.051764715 -0.16134243 -0.092108734 0.17103615 0.112740256
0.025131347 -0.030106636 0.24377623 -0.06320228 -0.006774784 0.24760924 0.025354555 -0.0144174695
0.11629354 0.21672322 0.22718415 0.24280405 -0.059338573 -0.11616687 -0.098988235 0.26430535
0.18101926 0.1441515 -0.090822905 0.04472009 -0.08069062 0.07770787 -0.11188118 0.09746656
-0.18036905 -0.1696709 0.034055408 0.020962143 -0.27716294 0.0123603325 0.047875863 0.18966496
0.12886989 0.051352713 -0.22174704 -0.08820839 0.120623834 -0.07353126 -0.1376596 -0.1076048
0.1659586 -0.00025437647 0.15266137 0.11757931 -0.28184104 0.26382497 0.021068782 0.12615827
-0.16417007 -0.25719887 -0.24492128 -0.38396972 -0.025841096 0.27526075 0.07367848 -0.21381223
-0.17841086 0.07728108 0.058172386 -0.24946529 -0.25798166 -0.13002229 -0.037161008 0.041746724
0.40061933 -0.03224749 -0.042496845 -0.032611467 -0.020248706 0.08401503 -0.28553182 -0.16269147
0.15978362 -0.025715657 -0.039052874 -0.061128937 -0.0724891 -0.1077532 0.44946367 0.22351421
0.030914843 0.19695725 0.0145569835 -0.014577596 -0.039528806 0.051805697 0.19804937 -0.26970965
0.03518881 0.07886377 0.22628236 -0.016099706 -0.08056762 0.24837945 -0.11896363 0.24081719
-0.057170283 0.036547925 -0.09981198 0.05690539 0.04966141 0.1457864 0.26283044 0.28404313
0.23614722 0.10694515 -0.28445753 0.1696705 -0.12585363 -0.058959946 -0.12620904 -0.04105564
0.08860853 0.07969115 -0.070800036 -0.017962694 0.08347588 -0.09371599 0.049760737 -0.01509849
-0.107818335 0.08452724 0.28181973 -0.06733781 -0.07855614 0.26952678 0.11424911 -0.19075373
-0.12476703 0.023982497 -0.06981636 0.008429131 0.00037200944 0.08025685 0.22726661 -0.19028014
0.14370956 0.008106041 0.0070408704 -0.1467475 0.010596742 -0.21671283 0.07838505 -0.16677555
0.2888889 -0.010637693 -0.020426065 -0.26094866 0.01170085 -0.079361096 -0.2738302 0.2493291
-0.27694732 -0.22912776 -0.296531 0.34542668 0.04676977 0.10092321 -0.15619096 0.07463604
0.26280835 -0.084007 -0.2608054 0.15792744 0.16597132 0.022661865 -0.049676847 0.0915001
-0.1529735 0.23858309 -0.39742032 -0.00457558 -0.20239618 0.1554888 -0.026769236 -0.018342413
0.18403034 0.3631908 0.21605122 0.22522926 0.22301508 0.26220396 0.18822956 -0.044746324
0.093194224 0.14680089 0.06811373 -0.03135869 0.002506137 0.057287093 0.124604605 0.1806643
0.19384739 0.103488125 -0.046829067 -0.17720069 -0.28012574 0.18797137 -0.26300105 0.37879682
0.010014292 0.07929216 0.10536962 0.124819696 -0.000757175 -0.015357828 -0.36576712 -0.17883845
-0.0032398493 0.05635048 -0.01521734 -0.07424002 0.22914103 -0.06578873 -0.122005574 0.30626422
-0.09565829 0.12634666 -0.12239439 -0.07079011 -0.08879316 -0.08422015 0.098782144 -0.12033346
0.21983661 0.23991132 -0.20542277 0.09398296 0.1646544 0.20200521 0.046718404 0.013445651
0.132887 0.030305177 -0.025571613 0.25954813 -0.35903886 0.13964863 0.197275 -0.29046935

lstms.0.bias_ih_l0 f4 [64]
00000000: a34e 0b3d 859a 733d 1c1e 783d 7af8 6d3d
00000010: 546c 223d a9d1 aabc fd81 893d a02d 6e3d
00000020: 709a 613d 4658 07bd 6281 7a3d cf20 743d
00000030: 06eb 673d 3829 793d 1c5b 5abd ea3e 7a3d
00000040: 693d 0a3d e5ef 763d ea64 7b3d 72af 6d3d
00000050: ff95 123d 284f afbc 6582 8b3d 20c3 713d
00000060: 8f29 5c3d 2761 06bd f85f 793d 47be 7b3d
00000070: 17d4 603d 458e 7d3d 91bd 4fbd 35b3 793d
00000080: c8b4 5cbc 88e2 053d 3677 d8bc b99b f73c
00000090: 4ab6 b93c 10f6 26bd 5bcc cdbc 14b2 e8bc
000000a0: d6d2 b1bc 74be 1ebd 4dac 853c 62fb d53c
000000b0: afcd ebbc 1535 e43c eca2 d33c 0b06 c63c
000000c0: 85fa 193d 0d04 693d c44d 823d 4f54 643d
000000d0: 987e 1a3d e1c9 a8bc 4984 8e3d f849 793d
000000e0: 9033 4f3d 9d29 07bd dd21 833d afad 833d
000000f0: 4368 6c3d 5e0b 803d 176f 4cbd 16ad 7c3d
0.03401054 0.059473533 0.06057559 0.058098294 0.03965409 -0.020851927 0.067142464 0.05814898
0.055078924 -0.03304317 0.061158545 0.0596016 0.05662062 0.060830325 -0.053309545 0.061095156
0.03374997 0.060287375 0.061375536 0.058028646 0.03578758 -0.02140005 0.0681198 0.059023976
0.05375057 -0.032807495 0.06088254 0.06146076 0.054889765 0.061903257 -0.050717894 0.06096192
-0.013470836 0.03268674 -0.026424032 0.030225622 0.02266993 -0.040762007 -0.025121858 -0.028405227
-0.02170698 -0.03875585 0.016317511 0.026120845 -0.028784601 0.027857343 0.025834523 0.024172803
0.03759243 0.05688863 0.06362489 0.055744465 0.037718385 -0.020604076 0.06958825 0.060861558
0.050586283 -0.03299867 0.06402943 0.06429612 0.05771662 0.06252168 -0.04991063 0.061688505

lstms.0.bias_hh_l0 f4 [64]
00000000: a34e 0b3d 859a 733d 1c1e 783d 7af8 6d3d
00000010: 546c 223d a9d1 aabc fd81 893d a02d 6e3d
00000020: 709a 613d 4658 07bd 6281 7a3d cf20 743d
00000030: 06eb 673d 3829 793d 1c5b 5abd ea3e 7a3d
00000040: 693d 0a3d e5ef 763d ea64 7b3d 72af 6d3d
00000050: ff95 123d 284f afbc 6582 8b3d 20c3 713d
00000060: 8f29 5c3d 2761 06bd f85f 793d 47be 7b3d
00000070: 17d4 603d 458e 7d3d 91bd 4fbd 35b3 793d
00000080: c8b4 5cbc 88e2 053d 3677 d8bc b99b f73c
00000090: 4ab6 b93c 10f6 26bd 5bcc cdbc 14b2 e8bc
000000a0: d6d2 b1bc 74be 1ebd 4dac 853c 62fb d53c
000000b0: afcd ebbc 1535 e43c eca2 d33c 0b06 c63c
000000c0: 85fa 193d 0d04 693d c44d 823d 4f54 643d
000000d0: 987e 1a3d e1c9 a8bc 4984 8e3d f849 793d
000000e0: 9033 4f3d 9d29 07bd dd21 833d afad 833d
000000f0: 4368 6c3d 5e0b 803d 176f 4cbd 16ad 7c3d
0.03401054 0.059473533 0.06057559 0.058098294 0.03965409 -0.020851927 0.067142464 0.05814898
0.055078924 -0.03304317 0.061158545 0.0596016 0.05662062 0.060830325 -0.053309545 0.061095156
0.03374997 0.060287375 0.061375536 0.058028646 0.03578758 -0.02140005 0.0681198 0.059023976
0.05375057 -0.032807495 0.06088254 0.06146076 0.054889765 0.061903257 -0.050717894 0.06096192
-0.013470836 0.03268674 -0.026424032 0.030225622 0.02266993 -0.040762007 -0.025121858 -0.028405227
-0.02170698 -0.03875585 0.016317511 0.026120845 -0.028784601 0.027857343 0.025834523 0.024172803
0.03759243 0.05688863 0.06362489 0.055744465 0.037718385 -0.020604076 0.06958825 0.060861558
0.050586283 -0.03299867 0.06402943 0.06429612 0.05771662 0.06252168 -0.04991063 0.061688505

fc.weight f4 [1, 16]
00000000: 607a 64bd 86ac 8abe cf0d 613e 2190 85be
00000010: 2f75 7dbe b8ee 203e 1d38 1d3e 45dd 8bbd
00000020: cb94 213e 823f 7a3d 148a 24be d094 0ebe
00000030: 4515 903e ff32 7abe e66b 32be 9135 80be
-0.05578077 -0.2708475 0.21977924 -0.26086524 -0.24751733 0.15716064 0.15353437 -0.06829313
0.15779416 0.061095722 -0.16068298 -0.13923955 0.28141227 -0.24433516 -0.17423972 -0.25040868
