labs/models/JPY/14_16.pth (torch, 6791 bytes, 5 tensors)

lstms.0.weight_ih_l0 f4 [64, 1]
00000000: a17e 303c 8fa7 813d d78c 9d3d 1758 1c3e
00000010: 7255 9bbd 6510 2fbe adea 89be c2c7 2d3e
00000020: 5480 333a a41d b6bd 5028 c2be bbbe e8be
00000030: a5e3 193e c3eb 5c3e 8b86 1dbc 2075 d93d
00000040: e874 c6bd 8a27 efbd 9cbe dcbe 392b a6be
00000050: 5abd 79bd a3bf 1c3e 2593 31be bef7 aa3c
00000060: 93d0 973c fb20 863d 624f 03be 52cb 56be
00000070: 847d cc3d cea3 4abe 73c6 12be 6544 3e3e
00000080: f696 bebe 179c 7bbe 9c9c 61be 6138 09be
00000090: eff1 94be 2683 c0bb 33e4 fabe c72c 383e
000000a0: efa9 98be 2a95 47bd ca2a b83d 6809 babd
000000b0: 8bf0 4f3e 1171 38be 55a7 9a3d c4be b1bd
000000c0: f5d2 683e 7db8 f7bc d998 9dbe f631 aebd
000000d0: d2a9 06be 34d5 d2bd 8b04 c7bd 1e28 7b3e
000000e0: 43c6 26be 7633 d23d 4fa2 99bd 65ce bf3b
000000f0: 5e45 6a3d fce3 36bd 637d f13c 8f18 6a3e
0.010772378 0.063307874 0.07692879 0.15267979 -0.07584657 -0.17096098 -0.26936856 0.16970733
0.00068474305 -0.08892372 -0.3792138 -0.45458016 0.15028246 0.21574311 -0.009614597 0.10618043
-0.09690267 -0.11677463 -0.43114173 -0.3245485 -0.060971595 0.15307479 -0.17341287 0.020870086
0.018532073 0.06549259 -0.12823251 -0.20975998 0.09984878 -0.19789049 -0.14333515 0.18580778
-0.3722455 -0.24571262 -0.22032398 -0.13400413 -0.2909083 -0.005875009 -0.49002227 0.17985831
-0.2981715 -0.04872624 0.08992536 -0.09083825 0.20306604 -0.18011881 0.07551447 -0.08678964
0.22736724 -0.030239338 -0.30780676 -0.08505623 -0.13150719 -0.102945715 -0.097176634 0.24527022
-0.16286568 0.10263722 -0.07501661 0.0058534616 0.05719506 -0.044651017 0.029478734 0.22860931

lstms.0.weight_hh_l0 f4 [64, 16]
00000000: 9a4e 16bd ec51 ccbc 9d9b bb3e ac3d 473c
00000010: 4433 893e 3655 8cbc 04cd 40bd 45e8 3e3d
00000020: d370 34bd bc65 24be 64e3 b5be 27e6 6fbe
00000030: 4e96 b33d f3e3 3b3e dba1 043f 622b 6fbe
00000040: 1f86 003e b2f3 d93d 1ec1 3c3e e02f 603d
00000050: f05d 7d3e 8809 583c edb7 42bd 1496 9d3c
00000060: 8a6c 853d 61fa 063e 20bf 933d 9b28 3b3c
00000070: 9b7a 31be 11c2 94be f35b 973d d09f edbd
00000080: 9f1e d33c 1619 b53c a107 953e 61ed a23c
00000090: 523b ff3b f9b6 6ebd 0f8d 6cbb 6798 8a3d
000000a0: 8184 49bd 8ad2 23be ef3f 67be 84f6 983d
000000b0: 4b3d 34bc 8920 393e 08b0 563e b2d3 a1bd
000000c0: 3b34 763e 073d 2d3e c9f7 32be 33c9 a83d
000000d0: 4c09 343d 3db8 20be b9a9 19bc ee40 283d
000000e0: b38a 06bd dbb7 c93d b9b2 cfbd f3f7 e9bd
000000f0: 13d3 6b3e cc51 dc3d a606 59b9 9d12 20bd
00000100: 7778 3d3e 41f8 e73d a669 1e3e 2bc8 593d
00000110: c287 6b3e 119e 353e 2868 70bc fd07 173d
00000120: f6dc 813d 1b45 523d 12cd 3abe 9c63 f83d
00000130: 1a50 bebd 7edd 5d3e 2f34 04bd 0198 51bc
00000140: 8402 21be 716e 893e 658a b4bd 5bc0 303e
00000150: 9537 d8bd fc61 e23c 6b4a b53d 0206 8e3d
00000160: c377 443d 3c72 cabd c0a9 203b a6f9 ffbd
00000170: 68a2 21be 64c7 e3bd 4b8a 69bd ec90 4fbd
00000180: 4da1 bebc 4904 b1bd 98fc 933e cd10 aebe
00000190: 5e17 3ebe a28e 2a3b a130 803e 6bcc 7dbe
000001a0: 4eab 93be ba8d 153e 3168 2bbe 6ae2 b3be
000001b0: a9b8 febd 8070 92bc 5820 453d 9ffa 37bc
000001c0: 5abb 203c 4c32 2abd eb8c 74be 81b6 27bd
000001d0: 4ea6 37bd a8f6 543e ab0c 04be 9e26 393e
000001e0: c1a7 34be dc19 b93d 12f1 003e f6db 18be
000001f0: fd80 eabd 5d57 053e aa4f 5b3e 9320 40bd
00000200: 1f64 99bd 825f 46bd 162e 663e 5dfe e43d
00000210: 003f bb3b b584 c5bb d7cb ea3d f74b 22be
00000220: fe9a 043d b683 03be 077e c0bd fda9 01be
00000230: ba2a 4abc 4357 08bd a53a 5a3d 2c89 e63b
00000240: 0c67 7cbd a9f0 ba3e 3bb7 27be b547 91be
00000250: 8e1f 273e c470 6e3d a60a 4fbe 4bdf ce3e
00000260: acb0 4ebe 5289 b8be caf2 4e3e d545 fbbd
00000270: c43b b23e f356 66bd 3b7f a33d 24d7 c9be
00000280: a434 8cbc e288 c43d 363f a4bc 74a7 743e
00000290: d9e3 433e d5ad 163e e804 a93d b759 2b3e
000002a0: 2fee 583e fd40 1fbd b617 72bd 15ec 35be
000002b0: 7234 a3bd 835e b7bd 80e3 b7bd b81c 43bd
000002c0: 7294 15be 0e2c 093d 7f40 acbd e426 e23d
000002d0: 7875 b4bd a321 5f3e 87d1 bebe c1cb c93d
000002e0: e462 063e 2a99 c6bc 731d 713e 1bcc 38be
000002f0: 7767 34be 82a5 e03d f816 223e 428c da3d
00000300: dd22 a7be 93a1 293e 96a8 ba3c 2ecb 93bb
00000310: 2ef9 ad3d 510c e23c 3a1b a7bd 1c1d 40be
00000320: 6ae6 e7bb bf5a 373d d4af 92bb c803 943e
00000330: d908 413d 0281 8b3b 9063 d2bd c9dc 6abe
00000340: 233a e63d 4ef6 fd3c 5ed5 dcbe 6abf 3c3e
00000350: 4ffa 46be 6f37 4a3e f7ea 72bd 6d07 733d
00000360: 7b3f f33e 960d b7bd 397b 563d 1be7 6ebe
00000370: 92eb 623d 2934 83bd 2986 a0bc 483d 4bbe
00000380: 4476 193e 0817 4b3c 3dec 27be c190 6b3d
00000390: aea1 30be 9d2b 423e ef53 7c3d e0dc bf3d
000003a0: 5728 2e3e a513 613e 6a01 013e 07e3 683c
000003b0: 5bb3 4ebd 8dc5 953e 44e1 5abe 94b4 983e
000003c0: f870 773d dfde 2d3e 4fb2 843e 315c 39be
000003d0: c87d 403e ea05 a83a 11ea 7ebe 59af b1be
000003e0: 05ec 6bbe aad4 7dbe e649 26be f74d 80be
000003f0: 8c71 a43d 4e67 bd3c 88ad abbe dbd4 71be
-0.036696054 -0.024941407 0.3664216 0.0121607 0.26796925 -0.017130475 -0.047070518 0.04660823
-0.04405291 -0.16054434 -0.35525048 -0.2342764 0.08768903 0.18348674 0.5180947 -0.23356393
0.12551163 0.10642184 0.18433043 0.054733157 0.24742866 0.013185866 -0.047538687 0.019236602
0.06514843 0.1318145 0.072141886 0.011423255 -0.17331927 -0.2905431 0.07390585 -0.116027474
0.025771437 0.022106688 0.29107383 0.019888582 0.007789054 -0.058279965 -0.003609482 0.0676735
-0.04919863 -0.15998283 -0.22582982 0.07468894 -0.0110009415 0.18078817 0.20965588 -0.07901706
0.24043362 0.16917811 -0.17477335 0.08241501 0.04395418 -0.15695281 -0.009378844 0.041077547
-0.032847118 0.09849521 -0.101415105 -0.11424246 0.23029737 0.10757789 -0.0002069721 -0.03908025
0.18502985 0.113266475 0.15469989 0.05316941 0.23001006 0.17736079 -0.01467327 0.036872853
0.06340973 0.051335435 -0.1824229 0.12128374 -0.09292622 0.21666524 -0.03227633 -0.012792588
-0.15723616 0.26842073 -0.08815459 0.17260878 -0.105574764 0.027634613 0.08852085 0.0693474
0.047965776 -0.0988507 0.0024515241 -0.124987885 -0.1578461 -0.11122015 -0.057016652 -0.050675318
-0.023270274 -0.086433955 0.2890365 -0.33997193 -0.18563601 0.0026024957 0.250371 -0.2478501
-0.28841633 0.14604846 -0.16738965 -0.35133678 -0.12437565 -0.01787591 0.04812655 -0.011229186
0.009810293 -0.041551873 -0.23881881 -0.040945534 -0.044836335 0.20797217 -0.12895457 0.18081138
-0.17642118 0.090381354 0.12591961 -0.14927658 -0.11450384 0.13021608 0.21417108 -0.046906065
-0.074898 -0.048430927 0.22478518 0.111813284 0.0057142973 -0.006027783 0.114646606 -0.15849291
0.032374375 -0.12843212 -0.09399038 -0.12662502 -0.012339288 -0.033286344 0.053278584 0.007035395
-0.06162171 0.36511734 -0.1637849 -0.2837502 0.16320631 0.05821301 -0.20218906 0.40404734
-0.20184582 -0.36042267 0.20209804 -0.12269179 0.34811223 -0.056235265 0.07983252 -0.39421952
-0.017114945 0.09596421 -0.020049673 0.23892003 0.19129886 0.14714749 0.08252889 0.16733442
0.2118461 -0.038880337 -0.059104644 -0.1776584 -0.079689875 -0.089535736 -0.08978939 -0.04763481
-0.14607409 0.03348928 -0.08410739 0.11042574 -0.08811468 0.21790175 -0.37269232 0.09853316
0.13123661 -0.024242956 0.2354639 -0.1804661 -0.17617594 0.10969068 0.15829074 0.10671283
-0.32643786 0.16565542 0.022785466 -0.004510305 0.08494793 0.027593764 -0.0815949 -0.18761104
-0.007077028 0.044764277 -0.0044765268 0.28909135 0.04712758 0.0042573223 -0.10272896 -0.22935785
0.112415574 0.031001236 -0.43131536 0.18432394 -0.19431423 0.19747709 -0.05930611 0.059333254
0.4750937 -0.08938138 0.052363608 -0.23330347 0.05540044 -0.06406433 -0.019595223 -0.19847596
0.14986521 0.012395628 -0.16398712 0.057511095 -0.17249176 0.1896195 0.061603483 0.093683004
0.17007576 0.2198015 0.12598196 0.014214284 -0.050464015 0.29252282 -0.21374995 0.2982527
0.06041047 0.1697955 0.2591729 -0.18101574 0.18797982 0.0012819145 -0.24893977 -0.34704092
-0.23039253 -0.24788156 -0.16239128 -0.25059482 0.0802947 0.023120549 -0.3353083 -0.23616354

lstms.0.bias_ih_l0 f4 [64]
00000000: 0fbc b83d ed30 a23d a164 cd3d 2406 d03d
00000010: a3dc cb3d 5628 6f3b 8e00 833d d873 e8bc
00000020: 5213 b73d 5a20 753d 9cfe 853d 8e81 49bc
00000030: 252b cb3d f261 47bd 5e73 33bd 1e4e cb3d
00000040: fbf4 ba3d 4108 9b3d 4be1 c83d ac81 cc3d
00000050: c7d9 ca3d 37a8 243a f7c0 793d 80a3 dbbc
00000060: 9fbf bc3d 0ae5 6e3d fee6 893d e4d2 eabb
00000070: 0eb2 cd3d d08f 42bd e8b6 2ebd 41e8 cf3d
00000080: 0531 52bd 6439 c23d 30ac a43d f0af 873c
00000090: 2ce0 a53d ae86 99bc f773 06bd e6fa a6bd
000000a0: bac3 48bd 96a3 d5bd 03c6 c4bd 1265 7ebd
000000b0: 9a95 b23d 16f0 f43b 5614 9b3d 4a9b bdbd
000000c0: 1542 bb3d 5081 9d3d 2ecd c83d 2e60 cd3d
000000d0: 5b85 d03d 0fc4 253b 06f0 843d a217 e9bc
000000e0: 5de5 b63d 0e74 703d 310f 873d 9c27 12bc
000000f0: 6b75 cf3d bb54 4bbd 59a0 31bd ec70 cd3d
0.09020244 0.07919488 0.10028959 0.10157421 0.099541925 0.0036492548 0.0639659 -0.028375551
0.08939232 0.059845306 0.065427035 -0.012298955 0.099203385 -0.048677392 -0.043811195 0.09927009
0.091287576 0.07569934 0.09808596 0.099856704 0.09904819 0.00062811695 0.06097504 -0.026811361
0.09216236 0.058323897 0.067335114 -0.0071662534 0.10043727 -0.04750043 -0.0426549 0.10151721
-0.05131628 0.09483603 0.08040655 0.016563386 0.08099398 -0.018740978 -0.032825436 -0.08153324
-0.049014784 -0.10431592 -0.0960808 -0.062108107 0.087199405 0.0074749095 0.07572238 -0.09258135
0.091434635 0.0769068 0.0980476 0.100281104 0.101816855 0.0025293862 0.06491093 -0.028453652
0.08930466 0.05870443 0.065946944 -0.008920576 0.101298176 -0.049641352 -0.04336581 0.10031304

lstms.0.bias_hh_l0 f4 [64]
00000000: 0fbc b83d ed30 a23d a164 cd3d 2406 d03d
00000010: a3dc cb3d 5628 6f3b 8e00 833d d873 e8bc
00000020: 5213 b73d 5a20 753d 9cfe 853d 8e81 49bc
00000030: 252b cb3d f261 47bd 5e73 33bd 1e4e cb3d
00000040: fbf4 ba3d 4108 9b3d 4be1 c83d ac81 cc3d
00000050: c7d9 ca3d 37a8 243a f7c0 793d 80a3 dbbc
00000060: 9fbf bc3d 0ae5 6e3d fee6 893d e4d2 eabb
00000070: 0eb2 cd3d d08f 42bd e8b6 2ebd 41e8 cf3d
00000080: 0531 52bd 6439 c23d 30ac a43d f0af 873c
00000090: 2ce0 a53d ae86 99bc f773 06bd e6fa a6bd
000000a0: bac3 48bd 96a3 d5bd 03c6 c4bd 1265 7ebd
000000b0: 9a95 b23d 16f0 f43b 5614 9b3d 4a9b bdbd
000000c0: 1542 bb3d 5081 9d3d 2ecd c83d 2e60 cd3d
000000d0: 5b85 d03d 0fc4 253b 06f0 843d a217 e9bc
000000e0: 5de5 b63d 0e74 703d 310f 873d 9c27 12bc
000000f0: 6b75 cf3d bb54 4bbd 59a0 31bd ec70 cd3d
0.09020244 0.07919488 0.10028959 0.10157421 0.099541925 0.0036492548 0.0639659 -0.028375551
0.08939232 0.059845306 0.065427035 -0.012298955 0.099203385 -0.048677392 -0.043811195 0.09927009
0.091287576 0.07569934 0.09808596 0.099856704 0.09904819 0.00062811695 0.06097504 -0.026811361
0.09216236 0.058323897 0.067335114 -0.0071662534 0.10043727 -0.04750043 -0.0426549 0.10151721
-0.05131628 0.09483603 0.08040655 0.016563386 0.08099398 -0.018740978 -0.032825436 -0.08153324
-0.049014784 -0.10431592 -0.0960808 -0.062108107 0.087199405 0.0074749095 0.07572238 -0.09258135
0.091434635 0.0769068 0.0980476 0.100281104 0.101816855 0.0025293862 0.06491093 -0.028453652
0.08930466 0.05870443 0.065946944 -0.008920576 0.101298176 -0.049641352 -0.04336581 0.10031304

fc.weight f4 [1, 16]
00000000: 7e7c 79be d071 05be 6826 94bd bf3b 77be
00000010: e772 b3bd 0041 fabc 4562 efbc 08da 4dbe
00000020: 80f9 88be de29 74be 2e2d fd3d 3b09 363e
00000030: 3969 cc3d 1fc0 083e 4b75 c2bd 6482 84be
-0.24363896 -0.13031697 -0.07233888 -0.24143885 -0.0876215 -0.030548573 -0.029221663 -0.20102704
-0.26752853 -0.23844096 0.12362133 0.17776959 0.09981007 0.13354538 -0.09495028 -0.2588073
