labs/models/JPY/14_32.pth (torch, 19911 bytes, 5 tensors)

lstms.0.weight_ih_l0 f4 [128, 1]
0.23449135 -0.028098151 -0.10551662 0.100893386 0.06982024 0.05990319 0.030307814 -0.0001364461
0.065065734 -0.082671486 -0.043965656 -0.12015821 0.056424122 -0.06748015 -0.031046411 -0.029297257
-0.025222298 -0.019489575 -0.08643403 -0.15151559 -0.031092124 0.018244399 0.06913148 0.08084084
-0.2628428 -0.22288854 0.067496456 0.14056644 0.26492018 -0.10539166 0.0018821498 -0.024044566
0.015082563 0.12312061 -0.12764214 0.1339962 0.09904196 0.32073516 0.23057468 -0.010904848
-0.19717933 -0.08240567 -0.022118786 0.09049249 0.06697394 -0.09607978 -0.0631352 -0.0008706084
0.1578177 -0.0037321341 -0.11532949 -0.14829196 0.19601826 0.011268867 0.13745776 0.040149957
0.07474914 -0.015132475 0.073969565 -0.18674992 0.10500855 0.20308872 -0.1104176 -0.060507998
0.076454036 -0.24239518 0.05770825 0.24663053 -0.15636848 -0.17015468 0.002154741 0.035356585
0.10506142 -0.22437647 -0.13646045 0.11078574 0.067472145 0.18379742 0.025789198 0.12374672
-0.31607693 -0.002758152 -0.10675523 -0.1579953 -0.19899036 0.14083925 0.04702126 -0.14238316
0.0045813676 -0.047270328 -0.07426766 -0.12172972 -0.045823947 -0.09747685 -0.13507426 0.22089395
0.009932768 0.12760748 -0.24086758 -0.123690754 0.016083216 -0.028680356 -0.05859881 0.02870756
-0.24340956 -0.09816799 -0.109147154 -0.09829374 0.049648125 0.11152219 -0.05437395 0.12900902
0.10256037 -0.1483047 -0.11923207 -0.28422937 0.015732076 -0.20516743 0.01892619 -0.08225582
-0.011659903 0.26028234 -0.016700592 -0.015120892 -0.09199012 -0.07145772 -0.11365479 -0.09815836
00000000: 801e 703e 182e e6bc 1919 d8bd 31a1 ce3d
00000010: eafd 8e3d 0c5d 753d 1848 f83c f912 0fb9
00000020: 2f41 853d ab4f a9bd 5515 34bd 8215 f6bd
00000030: fb1c 673d 0833 8abd 0b55 febc cd00 f0bc
00000040: fe9e cebc 9aa8 9fbc 5304 b1bd e726 1bbe
00000050: e9b4 febc 4775 953c ce94 8d3d e28f a53d
00000060: 5593 86be e53c 64be 953b 8a3d a6f0 0f3e
00000070: 9ea3 873e 95d7 d7bd 78b2 f63a 1cf9 c4bc
00000080: db1c 773c a926 fc3d 9fb4 02be 4d36 093e
00000090: 83d6 ca3d 6637 a43e c51b 6c3e 3faa 32bc
000000a0: 61e9 49be 4ec4 a8bd 7532 b5bc 2054 b93d
000000b0: a229 893d 7ac5 c4bd 074d 81bd 8a39 64ba
000000c0: f79a 213e d296 74bb de31 ecbd d9d9 17be
000000d0: 03b9 483e 0ea1 383c bac1 0c3e 4874 243d
000000e0: 1416 993d 33ee 77bc 5b7d 973d 5f3b 3fbe
000000f0: b90e d73d 7df6 4f3e 9f22 e2bd 3cd7 77bd
00000100: ef93 9c3d 7136 78be 7c5f 6c3d b78c 7c3e
00000110: 0f1f 20be 073d 2ebe 8e36 0d3b 11d2 103d
00000120: 712a d73d f2c2 65be 4abc 0bbe a2e3 e23d
00000130: d62e 8a3d 6435 3c3e de43 d33c ec6e fd3d
00000140: d6d4 a1be 1dc2 34bb 7ca2 dabd 85c9 21be
00000150: 21c4 4bbe 2a38 103e 5d99 403d e4cc 11be
00000160: 4c1f 963b 889e 41bd a519 98bd 6e4d f9bd
00000170: e4b1 3bbd f1a1 c7bd e850 0abe 0632 623e
00000180: 0cbd 223c 89ab 023e fea5 76be 9451 fdbd
00000190: f3c0 833c 11f3 eabc 4e05 70bd 1e2c eb3c
000001a0: 5b40 79be 4d0c c9bd 8b88 dfbd 3a4e c9bd
000001b0: d55b 4b3d bf65 e43d 38b7 5ebd f11a 043e
000001c0: 2c0b d23d 30dd 17be f22f f4bd 8386 91be
000001d0: 8ee0 803c 6917 52be 190b 9b3c bd75 a8bd
000001e0: 2e09 3fbc ba43 853e aecf 88bc 9ebd 77bc
000001f0: 5165 bcbd 6d58 92bd d8c3 e8bd 4007 c9bd

lstms.0.weight_hh_l0 f4 [128, 32]
-0.04405837 -0.046401616 -0.06585348 0.18218188 -0.18601444 0.1225574 -0.120468624 -0.20160253
0.060497418 -0.09123115 -0.028615998 -0.066948906 0.15335615 0.1493328 -0.10276741 0.1917151
-0.119952336 0.074812315 -0.17248175 -0.16503061 -0.058193482 0.041435637 0.04693487 -0.0013923913
0.023644244 -0.2236059 0.05256685 -0.22437683 0.16124903 -0.048616357 -0.13671298 -0.041722268
-0.24829537 -0.15101771 0.1764925 -0.047568772 -0.29717284 -0.012847722 -0.16747624 -0.00071833096
0.24320921 -0.35501832 -0.22106676 0.18442987 0.142937 0.17857623 0.048884757 0.04943605
-0.1074168 -0.09104543 -0.11802516 -0.03745702 -0.044267662 0.12144543 -0.042099636 -0.19321284
0.07108921 -0.06796539 -0.024273802 -0.045775644 -0.045175787 0.043853465 -0.035527777 0.1282879
0.10789034 0.16887568 -0.0005965181 0.043457527 0.1083709 -0.04309911 -0.0013226692 0.10145856
0.08727237 0.054677058 0.10484579 0.04474168 -0.05866044 0.088851966 0.12323228 0.10609036
-0.2685314 -0.030091476 0.04097963 -0.112189 0.05088508 -0.06817328 -0.08516378 -0.053533092
-0.20758419 0.055635303 -0.030962706 -0.109720536 -0.034752134 0.043671194 -0.067825414 -0.021555807
-0.09588632 -0.020475682 0.20096087 0.13314743 0.1871323 -0.1007151 0.023894317 0.043261643
0.0566319 -0.10494585 0.009242724 -0.22993849 0.06383525 -0.16343054 -0.203364 0.018623648
0.14548963 0.13802846 0.07510037 -0.060592163 0.018481106 0.044102587 -0.059199754 0.20654897
-0.16158673 0.16619456 -0.11816595 -0.16911294 0.028461214 -0.07540617 0.009629443 -0.00991003
-0.050881833 -0.28517294 0.026148174 0.13113068 -0.028638866 -0.14579302 0.06154707 -0.01279331
-0.092143096 0.15558521 -0.045946956 0.01835661 0.186696 -0.10854524 -0.09565983 0.10871496
0.06596923 -0.15862511 -0.07823735 0.09161607 -0.08611384 0.092607036 -0.1264574 0.02902887
0.16331676 0.088417135 -0.123197675 -0.09707003 -0.086466216 -0.23278518 -0.06104611 0.22688979
-0.07497644 -0.065515466 0.03638937 -0.0865025 -0.124465756 0.24830951 -0.009545272 -0.13332893
-0.1602052 0.14080025 -0.13677503 -0.21810547 0.11838699 0.001937539 0.29263577 -0.082038514
0.07358141 0.17128031 -0.01747975 -0.18181142 -0.015160279 -0.17327526 -0.121745564 -0.22949547
-0.2260179 -0.0714307 -0.014600873 -0.04053514 -0.17357232 -0.0060469755 0.050796036 -0.067326635
0.018283067 0.14601572 0.093453184 -0.15615238 -0.106286 -0.12159277 -0.14256087 -0.036368396
-0.08234673 0.034848165 0.03544343 0.12044441 -0.052938566 0.18832895 -0.1628961 -0.1114747
0.052938584 -0.02561617 0.17266807 0.041421805 0.108130954 -0.025309 -0.20259573 0.031968765
0.12871657 -0.21319416 0.111572005 0.014333159 0.0771944 -0.004304024 -0.06433556 0.06747265
-0.2778221 0.029974073 -0.09813087 0.010760858 -3.925919e-05 -0.007107743 -0.08565177 0.13107663
0.0149643 -0.13385567 -0.037993584 0.22661738 0.02331816 0.12832375 -0.009304387 0.12551293
0.054923266 0.21078552 0.20218386 -0.14073676 -0.13057588 -0.0064446595 -0.08079726 -0.02185372
-0.02312221 -0.16268973 0.034730628 0.2750681 0.10855755 -0.22905686 -0.08631875 -0.029393828
00000000: 8d76 34bd 9f0f 3ebd 30de 86bd e38d 3a3e
00000010: 927a 3ebe 60ff fa3d 41b8 f6bd e570 4ebe
00000020: 24cc 773d 66d7 babd 196c eabc 821c 89bd
00000030: 6509 1d3e b3ea 183e b877 d2bd f750 443e
00000040: 92a9 f5bd 3337 993d 0e9f 30be c9fd 28be
00000050: 4a5c 6ebd 6ab8 293d c73e 403d e680 b6ba
00000060: 93b1 c13c f2f8 64be 5650 573d 0ac3 65be
00000070: 771e 253e f221 47bd 7dfe 0bbe f8e4 2abd
00000080: 2441 7ebe 63a4 1abe 73ba 343e 79d7 42bd
00000090: 0a27 98be 407f 52bc e47e 2bbe 604e 3cba
000000a0: d60b 793e f6c4 b5be 535f 62be 2fdb 3c3e
000000b0: 145e 123e b0dc 363e 623b 483d 757d 4a3d
000000c0: 57fd dbbd 0776 babd 2db7 f1bd 886c 19bd
000000d0: 0252 35bd 62b8 f83d ab70 2cbd 96d9 45be
000000e0: 3897 913d 7031 8bbd dad9 c6bc 3e7f 3bbd
000000f0: 3f0a 39bd b19f 333d 9385 11bd e75d 033e
00000100: 9cf5 dc3d bfed 2c3e a75f 1cba 8500 323d
00000110: 90f1 dd3d b188 30bd 6a5d adba 81c9 cf3d
00000120: dbbb b23d 0df5 5f3d 64b9 d63d 0d43 373d
00000130: ee45 70bd 05f8 b53d 3561 fc3d e745 d93d
00000140: f37c 89be 6682 f6bc 42da 273d 59c3 e5bd
00000150: e06c 503d 6f9e 8bbd 596a aebd 8445 5bbd
00000160: f390 54be d8e1 633d 80a5 fdbc 29b5 e0bd
00000170: 4158 0ebd 91e0 323d 0de8 8abd ce95 b0bc
00000180: 0c60 c4bd 9ebc a7bc b0c8 4d3e cd57 083e
00000190: 9c9f 3f3e b843 cebd 04be c33c 1f33 313d
000001a0: daf6 673d daed d6bd cb6e 173c ff74 6bbe
000001b0: 0ebc 823d 565a 27be a73e 50be 9f90 983c
000001c0: 3cfb 143e 5557 0d3e 39ce 993d 7d2f 78bd
000001d0: b065 973c eaa4 343d 717b 72bd 9381 533e
000001e0: fe76 25be e82e 2a3e fd00 f2bd f12b 2dbe
000001f0: 7e27 e93c 8d6e 9abd d0c4 1d3c ae5d 22bc
00000200: 7869 50bd 3002 92be b234 d63c 1f47 063e
00000210: 0e9c eabc c44a 15be c818 7c3d 089b 51bc
00000220: 85b5 bcbd bb51 1f3e e032 3cbd 9a60 963c
00000230: 3c2d 3f3e f74c debd 4de9 c3bd f3a5 de3d
00000240: e01a 873d 9f6e 22be e73a a0bd 35a1 bb3d
00000250: 745c b0bd c2a8 bd3d 0c7e 01be f4cd ed3c
00000260: 823c 273e 0b14 b53d 104f fcbd a7cc c6bd
00000270: 3315 b1bd 3d5f 6ebe 7c0b 7abd cc55 683e
00000280: 3f8d 99bd f92c 86bd 050d 153d 3928 b1bd
00000290: e7e7 febd d944 7e3e c663 1cbc 6187 08be
000002a0: d50c 24be f12d 103e c10e 0cbe 0a57 5fbe
000002b0: e174 f23d 05f5 fd3a 5bd4 953e cf03 a8bd
000002c0: dab1 963d 1b64 2f3e b131 8fbc c62c 3abe
000002d0: d262 78bc 126f 31be bd55 f9bd dc00 6bbe
000002e0: 3d71 67be 424a 92bd 8038 6fbc 2d08 26bd
000002f0: f1bc 31be b525 c6bb 810f 503d 8ce2 89bd
00000300: 5fc6 953c 2585 153e 6264 bf3d 69e6 1fbe
00000310: 79ac d9bd a105 f9bd 7afb 11be 07f7 14bd
00000320: 67a5 a8bd f3bc 0e3d 212d 113d 8fab f63d
00000330: 1cd6 58bd 4ed9 403e 3cce 26be d94c e4bd
00000340: 21d6 583d 01d9 d1bc e6cf 303e e9a9 293d
00000350: c373 dd3d d254 cfbc 4175 4fbe aef1 023d
00000360: 47ce 033e 924f 5abe dd7f e43d a0d5 6a3c
00000370: 1918 9e3d c508 8dbb 5dc2 83bd 1a2f 8a3d
00000380: b33e 8ebe 308c f53c d6f8 c8bd 4f4e 303c
00000390: 3caa 24b8 12e8 e8bb 326a afbd f438 063e
000003a0: d32c 753c 7611 09be 299f 1bbd 630e 683e
000003b0: ba05 bf3c 4d67 033e 6d71 18bc 7686 003e
000003c0: 38f7 603d 29d8 573e 4909 4f3e 4c1d 10be
000003d0: afb5 05be b92d d3bb 0979 a5bd 9306 b3bc
000003e0: ca6a bdbc 2398 26be b441 0e3d bad5 8c3e
000003f0: 6c53 de3d e28d 6abe e3c7 b0bd 53cb f0bc

lstms.0.bias_ih_l0 f4 [128]
-0.055221893 0.06063378 -0.020105021 0.05976683 0.07197317 0.06140163 -0.017854868 0.034756664
0.052807566 0.056705523 0.04847568 0.055059817 0.0035661592 0.052374296 0.01765274 0.044115983
0.06488474 0.025394669 0.03980945 0.04859871 0.04311387 0.056163404 -0.010469467 0.02813408
-0.022520985 0.051823113 0.045971364 0.053329945 -0.020648165 0.05691529 0.056250833 0.056721758
-0.049341794 0.066446625 -0.020084796 0.058555856 0.0645449 0.05609056 -0.025493262 0.02823458
0.046715572 0.05014519 0.043046832 0.051677812 0.007736755 0.047683526 0.010572544 0.03667679
0.060267802 0.02011471 0.03317893 0.037789058 0.040214106 0.051649824 -0.011054954 0.030932274
-0.02115879 0.04062225 0.04011293 0.04313919 -0.021506788 0.046878953 0.049354155 0.04912876
-0.008448273 -0.0408301 0.0070901993 -0.0013713986 -0.015539723 -0.0057583596 -0.0034223436 0.015167143
-0.008479996 0.005522107 0.0029586672 -0.0050822324 0.033440445 -0.0002760876 0.00017241352 0.011577808
-0.0007877058 -0.00060393894 0.0056416234 0.0053616404 -0.008525691 -0.00385112 -0.0022872353 -0.030336497
-0.003386183 -0.0049140537 0.002273189 0.0077146213 -0.023347821 0.0041355416 0.006675259 -0.0063178707
-0.052384153 0.06155017 -0.022868462 0.062659435 0.07335175 0.05947182 -0.019979948 0.033267967
0.047801815 0.054124977 0.047366813 0.05411812 0.008169193 0.05164057 0.016565103 0.044662666
0.058493394 0.020800378 0.04124363 0.03703148 0.03870417 0.054787617 -0.009579665 0.031724382
-0.019323826 0.044642907 0.04665369 0.045542844 -0.020458383 0.052530292 0.053032238 0.056799687
00000000: 5a30 62bd 205b 783d 49b3 a4bc 10ce 743d
00000010: ab66 933d 4780 7b3d 5f44 92bc 015d 0e3d
00000020: bf4c 583d 0d44 683d 6f8e 463d 6786 613d
00000030: 39b6 693b 6e86 563d 7b9c 903c f6b2 343d
00000040: 4ae2 843d 7b08 d03c 3c0f 233d 710f 473d
00000050: 2b98 303d 990b 663d 2188 2bbc 7179 e63c
00000060: ee7d b8bc 7944 543d 784c 3c3d 8070 5a3d
00000070: 5726 a9bc 0220 693d 4667 663d 1355 683d
00000080: 9f1a 4abd 2b15 883d df88 a4bc 44d8 6f3d
00000090: 1e30 843d 37bf 653d 3fd7 d0bc 354c e73c
000000a0: d458 3f3d 0b65 4d3d e051 303d 1dac 533d
000000b0: 9b84 fd3b cd4f 433d 7738 2d3c 673a 163d
000000c0: 5fdb 763d 9bc7 a43c a1e6 073d b3c8 1a3d
000000d0: 8cb7 243d c48e 533d d61f 35bc ae65 fd3c
000000e0: 3355 adbc 8463 263d 754d 243d b8b2 303d
000000f0: 012f b0bc 2504 403d 9527 4a3d 3d3b 493d
00000100: a06a 0abc 773d 27bd e754 e83b 80c0 b3ba
00000110: 539a 7ebc 9fb0 bcbb 6649 60bb 9c7f 783c
00000120: aeef 0abc caf2 b43b 33e6 413b db88 a6bb
00000130: d9f8 083d dabf 90b9 e7c9 3439 d9b0 3d3c
00000140: 0b7e 4eba a851 1eba 5edd b83b b3b0 af3b
00000150: 57af 0bbc 1263 7cbb 71e5 15bb 3f84 f8bc
00000160: b9ea 5dbb 1206 a1bb c8f9 143b efca fc3b
00000170: ee43 bfbc 7083 873b 22bc da3b 2406 cfbb
00000180: c490 56bd 081c 7c3d a456 bbbc 9753 803d
00000190: 7139 963d b998 733d fdac a3bc fe43 083d
000001a0: d6cb 433d 27b2 5d3d b403 423d f6aa 5d3d
000001b0: 14d8 053c 1085 533d 8ab3 873c 33f0 363d
000001c0: c596 6f3d 8e65 aa3c 15ef 283d 52ae 173d
000001d0: 4488 1e3d fb68 603d 07f4 1cbc 6df1 013d
000001e0: 004d 9ebc 7bdb 363d f117 3f3d 228b 3a3d
000001f0: 5798 a7bc 012a 573d 5538 593d caa6 683d

lstms.0.bias_hh_l0 f4 [128]
-0.055221893 0.06063378 -0.020105021 0.05976683 0.07197317 0.06140163 -0.017854868 0.034756664
0.052807566 0.056705523 0.04847568 0.055059817 0.0035661592 0.052374296 0.01765274 0.044115983
0.06488474 0.025394669 0.03980945 0.04859871 0.04311387 0.056163404 -0.010469467 0.02813408
-0.022520985 0.051823113 0.045971364 0.053329945 -0.020648165 0.05691529 0.056250833 0.056721758
-0.049341794 0.066446625 -0.020084796 0.058555856 0.0645449 0.05609056 -0.025493262 0.02823458
0.046715572 0.05014519 0.043046832 0.051677812 0.007736755 0.047683526 0.010572544 0.03667679
0.060267802 0.02011471 0.03317893 0.037789058 0.040214106 0.051649824 -0.011054954 0.030932274
-0.02115879 0.04062225 0.04011293 0.04313919 -0.021506788 0.046878953 0.049354155 0.04912876
-0.008448273 -0.0408301 0.0070901993 -0.0013713986 -0.015539723 -0.0057583596 -0.0034223436 0.015167143
-0.008479996 0.005522107 0.0029586672 -0.0050822324 0.033440445 -0.0002760876 0.00017241352 0.011577808
-0.0007877058 -0.00060393894 0.0056416234 0.0053616404 -0.008525691 -0.00385112 -0.0022872353 -0.030336497
-0.003386183 -0.0049140537 0.002273189 0.0077146213 -0.023347821 0.0041355416 0.006675259 -0.0063178707
-0.052384153 0.06155017 -0.022868462 0.062659435 0.07335175 0.05947182 -0.019979948 0.033267967
0.047801815 0.054124977 0.047366813 0.05411812 0.008169193 0.05164057 0.016565103 0.044662666
0.058493394 0.020800378 0.04124363 0.03703148 0.03870417 0.054787617 -0.009579665 0.031724382
-0.019323826 0.044642907 0.04665369 0.045542844 -0.020458383 0.052530292 0.053032238 0.056799687
00000000: 5a30 62bd 205b 783d 49b3 a4bc 10ce 743d
00000010: ab66 933d 4780 7b3d 5f44 92bc 015d 0e3d
00000020: bf4c 583d 0d44 683d 6f8e 463d 6786 613d
00000030: 39b6 693b 6e86 563d 7b9c 903c f6b2 343d
00000040: 4ae2 843d 7b08 d03c 3c0f 233d 710f 473d
00000050: 2b98 303d 990b 663d 2188 2bbc 7179 e63c
00000060: ee7d b8bc 7944 543d 784c 3c3d 8070 5a3d
00000070: 5726 a9bc 0220 693d 4667 663d 1355 683d
00000080: 9f1a 4abd 2b15 883d df88 a4bc 44d8 6f3d
00000090: 1e30 843d 37bf 653d 3fd7 d0bc 354c e73c
000000a0: d458 3f3d 0b65 4d3d e051 303d 1dac 533d
000000b0: 9b84 fd3b cd4f 433d 7738 2d3c 673a 163d
000000c0: 5fdb 763d 9bc7 a43c a1e6 073d b3c8 1a3d
000000d0: 8cb7 243d c48e 533d d61f 35bc ae65 fd3c
000000e0: 3355 adbc 8463 263d 754d 243d b8b2 303d
000000f0: 012f b0bc 2504 403d 9527 4a3d 3d3b 493d
00000100: a06a 0abc 773d 27bd e754 e83b 80c0 b3ba
00000110: 539a 7ebc 9fb0 bcbb 6649 60bb 9c7f 783c
00000120: aeef 0abc caf2 b43b 33e6 413b db88 a6bb
00000130: d9f8 083d dabf 90b9 e7c9 3439 d9b0 3d3c
00000140: 0b7e 4eba a851 1eba 5edd b83b b3b0 af3b
00000150: 57af 0bbc 1263 7cbb 71e5 15bb 3f84 f8bc
00000160: b9ea 5dbb 1206 a1bb c8f9 143b efca fc3b
00000170: ee43 bfbc 7083 873b 22bc da3b 2406 cfbb
00000180: c490 56bd 081c 7c3d a456 bbbc 9753 803d
00000190: 7139 963d b998 733d fdac a3bc fe43 083d
000001a0: d6cb 433d 27b2 5d3d b403 423d f6aa 5d3d
000001b0: 14d8 053c 1085 533d 8ab3 873c 33f0 363d
000001c0: c596 6f3d 8e65 aa3c 15ef 283d 52ae 173d
000001d0: 4488 1e3d fb68 603d 07f4 1cbc 6df1 013d
000001e0: 004d 9ebc 7bdb 363d f117 3f3d 228b 3a3d
000001f0: 5798 a7bc 012a 573d 5538 593d caa6 683d

fc.weight f4 [1, 32]
0.02346232 -0.075087905 -0.15270568 0.11841503 -0.12939271 -0.15017179 -0.078360535 0.06956754
0.21268542 -0.15108633 -0.19470428 0.20111841 -0.02172586 0.20285936 0.19296537 0.2240236
-0.22940642 -0.14747041 -0.11977373 0.009980945 -0.016141715 0.22272274 -0.0004007847 -0.074897006
-0.011201929 -0.17708369 -0.13446659 -0.094021216 0.0938473 -0.10624069 -0.14092141 0.14388822
00000000: 0d34 c03c b0c7 99bd e15e 1cbe 9483 f23d
00000010: 867f 04be a2c6 19be 7d7b a0bd 6d79 8e3d
00000020: 35ca 593e 60b6 1abe 8f60 47be fcf1 4d3e
00000030: 6efa b1bc 5dba 4f3e b798 453e 7166 653e
00000040: 84e9 6abe 7c02 17be ee4b f5bd 1e87 233c
00000050: a13b 84bc 6e11 643e 6920 d2b9 9a63 99bd
00000060: 4c88 37bc 6d55 35be 9cb1 09be 328e c0bd
00000070: 0333 c03d b894 d9bd b44d 10be 6f57 133e
