labs/models/JPY/14_64_32.pth (torch, 122259 bytes, 9 tensors)

lstms.0.weight_ih_l0 f4 [256, 1]
0	0xbca2e55d	-0.01988476
1	0xbb980cd7	-0.0046402025
2	0x3d6aa01c	0.0572816
3	0xbdbd5202	-0.092441574
4	0xbaf3411a	-0.001855883
5	0x3dd856c1	0.10563422
6	0x3e3d9ee2	0.1851764
7	0x3d73f522	0.05955995
8	0x3cba6ccc	0.022756957
9	0xbd3eda23	-0.04659475
10	0xbcb2cce4	-0.021826215
11	0x3da6461c	0.08118841
12	0x3d4388c0	0.047737837
13	0xbb5372e5	-0.0032264527
14	0xbd4a3809	-0.049369846
15	0xbd648132	-0.055787273
16	0xbc36c0f3	-0.011154401
17	0x3cf5cfd7	0.030006332
18	0x3c9c557e	0.019083735
19	0x3d6f72fc	0.058459267
20	0x3c7025f7	0.014657489
21	0x3c1690ba	0.009189779
22	0xbca8c779	-0.020602928
23	0x3c148754	0.009065468
24	0x3d84af6d	0.06478772
25	0xbcbd090e	-0.023075607
26	0x3d854100	0.065065384
27	0x3de599cb	0.11210974
28	0x3d2d74b5	0.04234763
29	0xbd98e12c	-0.07464823
30	0x3d271fc5	0.040801782
31	0x3db378b5	0.087632574
32	0xbd9f73c9	-0.07785756
33	0x3d9d8e08	0.07693106
34	0xbdb25ef1	-0.08709515
35	0xbcee317b	-0.029076329
36	0xbe520c92	-0.20512608
37	0xbd0219e7	-0.031762984
38	0xbd84fcd4	-0.06493536
39	0x3e35a355	0.17738087
40	0xbd1995ad	-0.037496258
41	0x3e46a1a8	0.19397604
42	0x3dc84dbe	0.09780453
43	0xbda59071	-0.08084191
44	0x3d703602	0.058645256
45	0xbd5985fe	-0.0531063
46	0x3d29554d	0.041341115
47	0x3d87a00e	0.06622325
48	0xbdc3b68a	-0.09556301
49	0xbd9492f1	-0.07254589
50	0x3d4ac82d	0.04950731
51	0xbc2dbaf5	-0.010603656
52	0xbd844a57	-0.06459492
53	0xbb8ada20	-0.0042374283
54	0xbd8b80b4	-0.068116575
55	0xbddd73b9	-0.10813088
56	0x3d2690bc	0.040665373
57	0x3e072655	0.13198216
58	0xbc1bc912	-0.009508388
59	0xbe2d1187	-0.16901217
60	0xbe13671b	-0.143948
61	0x3c0af5e3	0.0084814755
62	0xbd121193	-0.03566129
63	0xbdd42baa	-0.10359891
64	0xbd17ed6f	-0.03709167
65	0x3d3de8cf	0.0463646
66	0xbd82663c	-0.06367156
67	0xbcd43f46	-0.025909077
68	0x3d34b6ac	0.044119522
69	0xbb3d50e9	-0.0028887338
70	0xbdfb7b27	-0.12279349
71	0x3cc8bc80	0.024503946
72	0x3d985c0c	0.074394315
73	0xbd4b93bd	-0.04970144
74	0x3c53bbe7	0.012923217
75	0xbc96566c	-0.018351756
76	0x3e553692	0.20821598
77	0x3e0c7ffd	0.13720699
78	0x3e13bf34	0.14428407
79	0x3bc64eca	0.006051873
80	0xbe18b347	-0.14912139
81	0xbcef2d0c	-0.029196285
82	0x3cb20e1d	0.021735245
83	0xbc6d8cf3	-0.014498937
84	0x3cbfdc50	0.023420483
85	0xbc7624bc	-0.015023407
86	0x3ca674e5	0.020319412
87	0xbcf87fd3	-0.030334389
88	0xbcc2f0f5	-0.023796538
89	0x3c4bf6aa	0.012448946
90	0xbc3ecf91	-0.011646167
91	0xbddb32f9	-0.10703082
92	0x3e1234be	0.14277932
93	0xbd9fa769	-0.07795603
94	0xbded330a	-0.115820006
95	0xbdfe744e	-0.12424527
96	0x3cdcd70e	0.026958015
97	0x3d30f9b4	0.043206885
98	0xbc07fbe0	-0.008299798
99	0xbb84e9f5	-0.00405621
100	0x3cd66bef	0.026174514
101	0xbc3bcd92	-0.011462586
102	0x3c21f4d3	0.009885031
103	0x3e012246	0.1261073
104	0x3c800f67	0.015632344
105	0x3e1dacbb	0.15397923
106	0x3d6a2903	0.057168018
107	0xbcecfc02	-0.02892876
108	0xbe113d2d	-0.14183493
109	0xbdd73b29	-0.10509331
110	0x3dd7a061	0.10528637
111	0x3e329e9d	0.17443319
112	0xbdb04c5f	-0.08608317
113	0xbe5b9c04	-0.21446234
114	0x3e241295	0.16022713
115	0xbdcb89f9	-0.099384256
116	0xbe1535d7	-0.1457132
117	0xbdad29ec	-0.084552616
118	0xbe06f323	-0.13178687
119	0x3d5ce2c9	0.053927217
120	0xbcb5ed94	-0.022208013
121	0xbc316074	-0.010826219
122	0xbdb2a913	-0.087236546
123	0xbc6a32d7	-0.014294348
124	0xbd5897e7	-0.05287924
125	0xbe6bd2a4	-0.23029572
126	0xbd082571	-0.033238832
127	0xbe12b3bc	-0.14326376
128	0x3df65e50	0.120297074
129	0xbe297607	-0.1654893
130	0xbe411e31	-0.18859173
131	0xbe463fd6	-0.19360289
132	0x3bec575b	0.007212562
133	0x3e58647b	0.2113208
134	0x3e350f96	0.17681727
135	0xbd1364f2	-0.03598494
136	0x3e0e1694	0.138758
137	0xbda466a3	-0.08027389
138	0xbe0c8c2e	-0.1372535
139	0xbda68901	-0.081316
140	0xbd728e09	-0.059217487
141	0x3d3a7714	0.045523718
142	0xbdee02cf	-0.116216294
143	0x3e212efb	0.15740578
144	0xbe5098e8	-0.20370829
145	0x3cf4570f	0.029826669
146	0x3e0b8be6	0.13627586
147	0xbde46503	-0.11152079
148	0xbe361376	-0.17780861
149	0xbd0bf318	-0.03416738
150	0x3e0ee0c7	0.13952933
151	0x3d613f69	0.054992113
152	0x3bd75dcc	0.0065724608
153	0xbdec47e2	-0.11537148
154	0xbd818d77	-0.063258104
155	0x3dab7905	0.08372692
156	0xbdc715f6	-0.097209856
157	0xbddea9c0	-0.10872221
158	0xbd1657bc	-0.036704764
159	0xbd8bd41e	-0.068275675
160	0x3d83d0c3	0.064363025
161	0x3da4583c	0.08024642
162	0xbdd1f0c4	-0.102510005
163	0xbe2f0fb7	-0.17095838
164	0xbd6c65e7	-0.05771437
165	0xbca6be1a	-0.02035432
166	0xbb299f01	-0.0025882127
167	0xbd8aabd9	-0.067710586
168	0x3d33c094	0.04388483
169	0x3d3042d8	0.043032497
170	0xbcada6dc	-0.021197729
171	0xbda9f94e	-0.08299504
172	0x3dd335f2	0.103130236
173	0x3d4e6831	0.050392333
174	0xbe9c3308	-0.30507684
175	0xbde696fd	-0.112592675
176	0xbc47d414	-0.012196559
177	0xbe1485d8	-0.14504182
178	0xbd9206cc	-0.07130203
179	0xbcc70f5d	-0.024299318
180	0x3cf0e872	0.029407714
181	0xbbce4e60	-0.006295964
182	0x3d198e72	0.037489362
183	0x3e422901	0.18960954
184	0x3d674d74	0.05647035
185	0x3d7fbca9	0.06243578
186	0xbe04ccf0	-0.12968802
187	0x3dde16c2	0.108441845
188	0x3d16c515	0.036809046
189	0x3d8296ab	0.06376394
190	0xbca87efc	-0.020568363
191	0x3d8b9a3c	0.06816527
192	0xbdec88cf	-0.11549532
193	0x3c95e276	0.018296462
194	0xbdf38e26	-0.11892347
195	0xbdcb89c1	-0.09938384
196	0x3dcb081b	0.09913655
197	0x3dbcfce0	0.092279196
198	0x3d2ea601	0.042638782
199	0xbde48e8f	-0.111600034
200	0x3dc06eb4	0.09396115
201	0xbe1719c3	-0.14755921
202	0x3b0ee078	0.0021801274
203	0x3c392096	0.011299273
204	0xbdd1432b	-0.102178894
205	0x3dcd5beb	0.100272976
206	0x3c8951d1	0.016762646
207	0x3e484205	0.19556434
208	0x3dc8e177	0.09808629
209	0xbc9fa699	-0.01948862
210	0xbe15dd80	-0.14635277
211	0x3cb3fe97	0.021971984
212	0xbe1e1f28	-0.15441573
213	0xbc8ae3ec	-0.016954385
214	0xbd15ebcc	-0.036601827
215	0x3dea683c	0.114456624
216	0xbbee6b4f	-0.007275976
217	0xbe44ecc3	-0.19230942
218	0x3d14c64f	0.036321934
219	0xbd85c471	-0.06531609
220	0xbda84e58	-0.08218068
221	0xbe398e70	-0.18120742
222	0xbd0b63c0	-0.034030676
223	0xbd3e6eef	-0.046492513
224	0x3d18fa3d	0.03734802
225	0x3e00d8b0	0.1258266
226	0xbd96ad0a	-0.07357223
227	0xbdc59422	-0.09647395
228	0x3e10eb3e	0.14152238
229	0x3d57e865	0.052711863
230	0x3dc18a3e	0.09450196
231	0xbac022f6	-0.0014658857
232	0x3e10ffd9	0.14160098
233	0xbe024066	-0.12719879
234	0x3e30a7c3	0.17251496
235	0x3c178623	0.009248289
236	0x3e05fa1f	0.13083695
237	0xbd266b7c	-0.04062985
238	0xbd2f08a9	-0.04273287
239	0x3d34e881	0.044167046
240	0x3d874e31	0.06606711
241	0x3cbe2f3b	0.02321588
242	0xbdcc2983	-0.09968855
243	0xbc623574	-0.0138066895
244	0x3db46b6f	0.08809554
245	0x3dd4b43d	0.1038594
246	0xbd883f1d	-0.06652663
247	0x3d89b72a	0.06724389
248	0xbcc129a8	-0.023579434
249	0xb8e709e4	-0.000110167806
250	0x3dcb487e	0.09925936
251	0x3c94c1fa	0.018158901
252	0xbe2fd622	-0.17171529
253	0x3d5a3ab2	0.053278632
254	0x3d68887f	0.056770798
255	0xbd920000	-0.07128906

lstms.0.weight_hh_l0 f4 [256, 64]
0	0x3d5c0711	0.053717677
1	0x3d38ddad	0.04513328
2	0xbd4b1228	-0.049577862
3	0xbd3e85ae	-0.046514206
4	0x3ccc1a04	0.024914749
5	0xbdc7b8e8	-0.09752065
6	0x3d46cabd	0.04853319
7	0xbdfabffb	-0.122436486
8	0x3a15e05c	0.0005717331
9	0x3dae103f	0.084991924
10	0xbd4d28dd	-0.0500878
11	0xbc36de86	-0.011161452
12	0xbe1d649d	-0.15370412
13	0x3d750935	0.059823234
14	0x3d244fc5	0.040115137
15	0xbd9bd707	-0.076093726
16	0x3aa4caa1	0.0012572595
17	0xbd124825	-0.035713334
18	0xbca693ae	-0.020334091
19	0x3c646a89	0.013941416
20	0x3e178a7c	0.14798921
21	0xbd64e81d	-0.055885423
22	0x3bd40389	0.006470148
23	0x3db4d943	0.08830502
24	0xbdf1db3f	-0.11809396
25	0xbd984b30	-0.07436216
26	0xbd897d37	-0.06713336
27	0x3e1879f8	0.14890277
28	0xbdc4e446	-0.09613852
29	0x3da917e2	0.082565084
30	0x3d78dab8	0.06075546
31	0x3d9ac907	0.07557874
32	0x3d41fc03	0.047359478
33	0x3cf5831a	0.02996974
34	0x3d9151b0	0.07095659
35	0x3d5fd94e	0.054650597
36	0xbdfdd61e	-0.12394355
37	0xbd0cb14a	-0.034348764
38	0xbcf321f7	-0.029679282
39	0xbdca75e9	-0.09885771
40	0xbdce7bb0	-0.10082185
41	0x3da38a1d	0.079853274
42	0x3b2ddaf8	0.002652822
43	0xbd9d4104	-0.07678416
44	0xbe3b88d2	-0.18313912
45	0x3cc7dd83	0.024397617
46	0x3d89a3bc	0.06720683
47	0xbc782f7a	-0.015148038
48	0x3d0e4dc0	0.034742117
49	0x3db30acc	0.08742294
50	0xbd93db21	-0.0721953
51	0xbc113380	-0.008862376
52	0x3c3ed398	0.011647128
53	0xbd16049c	-0.03662549
54	0xbc8aa845	-0.01692594
55	0xbaf3c154	-0.0018597045
56	0x3d852b1f	0.06502365
57	0x3d973a30	0.07384145
58	0xbe0fb67d	-0.14034458
59	0xbcdb2b11	-0.026753934
60	0x3ce85172	0.028359149
61	0xbd7962b1	-0.060885135
62	0x3d91627f	0.07098865
63	0x3d619016	0.05506905
64	0xbdc0c448	-0.09412438
65	0xbc94218a	-0.018082399
66	0xbd665d73	-0.056241464
67	0x3bcea3bd	0.00630614
68	0x3e3fb396	0.1872085
69	0xbd3c0f01	-0.045912746
70	0x3c85fe86	0.016356718
71	0x3c686639	0.014184528
72	0x3d5f1668	0.054464728
73	0xbdfdef07	-0.123991065
74	0x3cee8a8d	0.0291188
75	0xbe100009	-0.14062513
76	0x3cae214c	0.021256112
77	0x3db8c28a	0.090214804
78	0x3da09bf1	0.078422435
79	0x3e14e3d3	0.14540033
80	0x3dba4954	0.090960175
81	0xbc1fc481	-0.00975144
82	0xbb8d2bd2	-0.0043082023
83	0x3db6f05c	0.08932564
84	0xbc8c6978	-0.017140135
85	0x3d4c04fc	0.04980944
86	0xbb817ac6	-0.0039514033
87	0x3d27318d	0.04081874
88	0x3d597fa5	0.053100247
89	0x3ca6018c	0.02026441
90	0x3dcc9fec	0.0999144
91	0x3db88627	0.090099625
92	0x3db6af42	0.089201465
93	0xbdc0e8a1	-0.094193704
94	0xbd6b877f	-0.057502266
95	0xbd66f112	-0.056382246
96	0x3d5aac26	0.05338683
97	0x3c94f591	0.018183501
98	0x3d77940f	0.060443934
99	0x3cf769b1	0.030201765
100	0x3df3d339	0.11905522
101	0xbc911f6c	-0.017715178
102	0x3c3eff47	0.011657543
103	0xbb89e470	-0.00420814
104	0xbdbc2981	-0.09187604
105	0x3b560103	0.0032654412
106	0xbdeefa06	-0.11668782
107	0x3de6ab8b	0.11263188
108	0xb9dcb354	-0.0004209528
109	0xbd732ca7	-0.059368756
110	0x3e2d6baf	0.1693561
111	0x3c7a1ce9	0.015265682
112	0xbc733a78	-0.014845483
113	0xbce690b3	-0.02814517
114	0x3d686eb5	0.056746203
115	0x3d913656	0.07090442
116	0x3d8c1678	0.06840223
117	0x3cddb7c6	0.027065169
118	0x3d42d682	0.04756785
119	0x3c88d941	0.016705157
120	0xbd0822f5	-0.033236463
121	0x3be64f20	0.0070284754
122	0xbd6be2d6	-0.057589374
123	0x3ca57f77	0.020202382
124	0x3cb129ef	0.02162644
125	0xbd49e82f	-0.049293693
126	0x3e25a48d	0.16176052
127	0xbca12639	-0.019671546
128	0x39a72594	0.0003188072
129	0x3abcacd0	0.0014394764
130	0x3db7aa52	0.08968033
131	0x3d4b1448	0.04957989
132	0xbb366e0c	-0.002783659
133	0x3dadae6e	0.084805354
134	0xbe193754	-0.14962512
135	0xbc013ec5	-0.007888501
136	0x3c3bf7a3	0.011472615
137	0x3d9008a2	0.070328966
138	0x3d29f03b	0.041488867
139	0xbd88913a	-0.06668325
140	0x3e0091d0	0.12555623
141	0x3e16edc3	0.14739136
142	0x3d0ac1db	0.03387628
143	0x3d524b80	0.051341534
144	0x3cc77296	0.024346631
145	0x3dce1f02	0.10064508
146	0xbd4b9ccf	-0.04971009
147	0xbd13e6b8	-0.036108702
148	0x3d418293	0.047243666
149	0x3e14d25e	0.14533374
150	0xbd2126ea	-0.039343752
151	0x3db49a86	0.088185355
152	0xbdd4048d	-0.103524305
153	0x3c111254	0.008854467
154	0xbd3c0734	-0.045905307
155	0x3d8e843a	0.06958814
156	0xbd9bef2c	-0.07613978
157	0x3d96b94d	0.07359562
158	0xbd64b649	-0.055837903
159	0xbc25265e	-0.010079948
160	0xbdc5887e	-0.096451744
161	0x3de79d3f	0.11309289
162	0x3e21407d	0.15747257
163	0x3da195f4	0.078899294
164	0xbbad7c7a	-0.00529438
165	0xbd66c848	-0.056343347
166	0x3c4349da	0.011919463
167	0xbe0f8b3f	-0.14017962
168	0x3d8b0c9d	0.06789515
169	0x3d19f121	0.037583474
170	0xbd1b7012	-0.037948675
171	0xbcbf5d07	-0.023359789
172	0xbd70a183	-0.05874778
173	0xbd5ab46c	-0.05339472
174	0x3db6d9b0	0.08928239
175	0x3dbffbd8	0.09374207
176	0xbd8d4a2b	-0.06898912
177	0x3e061e0f	0.13097404
178	0xbe2650b3	-0.16241722
179	0x3d113c4d	0.035457898
180	0xbdd8e6e3	-0.10590913
181	0xbc33efa4	-0.010982428
182	0x3d269466	0.040668868
183	0xbcfe95ba	-0.031077255
184	0xbd9dbaa7	-0.07701617
185	0x3e2ac45a	0.16676465
186	0xbd955566	-0.07291679
187	0xbe283238	-0.16425407
188	0x3d419e1a	0.047269918
189	0xbe007602	-0.12545016
190	0xbe01cc08	-0.12675488
191	0xbd87454e	-0.06605016
192	0x3d900f1e	0.070341334
193	0xbd762597	-0.060094442
194	0x3d5106d4	0.051031902
195	0x3ce3a671	0.027789326
196	0x3bada1ef	0.005298845
197	0xba59df96	-0.000831121
198	0xbd871a23	-0.06596782
199	0xbcaf8aac	-0.021428429
200	0x3cff2527	0.031145645
201	0x3e2dfa3f	0.16989993
202	0xbddc0120	-0.10742402
203	0x3dee81ff	0.116458885
204	0x3e5a21c2	0.2130194
205	0x3d923c47	0.07140403
206	0x3c525c90	0.012839451
207	0x3e0b0837	0.13577352
208	0x3daefee4	0.0854471
209	0x3d2fa80b	0.042884868
210	0xbd74f5a6	-0.05980458
211	0x3be2bdcb	0.0069195977
212	0x3dbbc8e3	0.091691755
213	0x3e03652c	0.12831563
214	0x3d6e155f	0.05812585
215	0xbd12a09c	-0.0357977
216	0xbda3a96a	-0.079912975
217	0xbd03d4da	-0.032185413
218	0x3d46a9bc	0.048501715
219	0x3d60e519	0.054905985
220	0xbcc9bc02	-0.024625782
221	0x3db96954	0.09053293
222	0x3bcefa8c	0.0063164886
223	0xbab252b8	-0.0013604974
224	0xbdead132	-0.11465682
225	0xbe0d203b	-0.13781826
226	0x3d03f859	0.032219265
227	0xbd47134b	-0.048602384
228	0x3d10d585	0.035359878
229	0xbcb45531	-0.022013279
230	0xbd027d5e	-0.03185784
231	0xbc87c77e	-0.016574617
232	0x3d183e8c	0.037169024
233	0xbda66ff3	-0.08126821
234	0x3dd16f83	0.10226347
235	0x3d954fab	0.07290586
236	0xbe2b1a84	-0.16709334
237	0xbe0560d0	-0.13025212
238	0x3de690e4	0.112581044
239	0x3d8777ed	0.06614671
240	0xbd907cd6	-0.070550606
241	0xbd2379a7	-0.03991094
242	0x3d9aa2ee	0.075506076
243	0x3c683db8	0.014174871
244	0x3da368d0	0.07978976
245	0x3dc753a1	0.09732748
246	0xbd121114	-0.03566082
247	0x3db809c6	0.08986239
248	0xbcb4bf52	-0.022063885
249	0x3d776349	0.06039742
250	0xbce624a2	-0.02809364
251	0xbdf8740e	-0.12131511
252	0xbd47ade8	-0.048749834
253	0x3dbfb548	0.093607485
254	0x3e1ead4b	0.15495794
255	0xbd9f6f9e	-0.07784961

lstms.0.bias_ih_l0 f4 [256]
0	0x3cb9ed2c	0.0226961
1	0x3cdc788b	0.026912948
2	0x3d18ac28	0.037273556
3	0x3d04d815	0.032432634
4	0xbbf0f79d	-0.0073537366
5	0x3c78ca6d	0.015184981
6	0x3cc86828	0.024463728
7	0x3bb88a07	0.0056316885
8	0x3cc795c8	0.024363413
9	0x3ca36951	0.01994768
10	0x3cae5fc2	0.021285895
11	0x3cd496e8	0.025950864
12	0xbbe0b2dd	-0.0068572597
13	0xbc26538f	-0.010151758
14	0x3cb10c46	0.021612298
15	0x3d051a22	0.032495625
16	0x3ce6bb60	0.02816552
17	0x3c84d829	0.016216354
18	0x3cda37aa	0.02663787
19	0xbb4c20b5	-0.0031147425
20	0x3cefe69c	0.029284768
21	0xba857475	-0.0010181802
22	0x3cf5a543	0.02998603
23	0x3b92f3ce	0.00448463
24	0xbc23fc8d	-0.010008943
25	0x3cbf424f	0.023347048
26	0xbc576dba	-0.013148719
27	0x3c7bce04	0.015368942
28	0x3cb12760	0.02162522
29	0x3cbede77	0.023299439
30	0x3956d863	0.0002048924
31	0x3ca2bfbe	0.01986682
32	0x3cd066dc	0.025439672
33	0xbba79d37	-0.005115177
34	0x3ce4a51e	0.027910765
35	0x3cc984de	0.024599489
36	0x3c7e3bed	0.015517217
37	0x3bcd4dec	0.0062653925
38	0xbcc63199	-0.024193572
39	0x3bcba0c0	0.0062142313
40	0x3c83b279	0.016076313
41	0xbc3cb03f	-0.01151663
42	0xbc8daf02	-0.017295364
43	0x3c663c52	0.014052467
44	0x3cb4322d	0.021996582
45	0xbcf3b8ae	-0.029751148
46	0x3d1c271b	0.03812323
47	0x3bdc9274	0.0067313258
48	0xbb014fa1	-0.00197313
49	0x3cf550f7	0.029945834
50	0xbb376021	-0.0027980881
51	0x3bba0615	0.0056769946
52	0xbb1513f4	-0.0022747489
53	0xbb89b171	-0.004202061
54	0x3c8b5d61	0.0170123
55	0x3c8c037a	0.017091502
56	0xbcf7d888	-0.030254617
57	0xbbb574ea	-0.005537619
58	0x3d0728bd	0.032997835
59	0x3ca27667	0.01983185
60	0x3c8c6931	0.017140003
61	0x3ccc61ea	0.024949033
62	0x3cb1376b	0.02163287
63	0x3c9b7878	0.018978342
64	0x3c94b9f0	0.018155068
65	0x3cb912e1	0.02259201
66	0x3d01b745	0.03166892
67	0x3cd470f1	0.02593276
68	0xbc1e94be	-0.009679018
69	0x3c4fa9d3	0.012674767
70	0x3ca06994	0.019581594
71	0x3b0360c7	0.0020046697
72	0x3cb4be2a	0.022063334
73	0x3c890c69	0.01672955
74	0x3c857bb5	0.01629434
75	0x3cb4def5	0.02207897
76	0xbc088a0f	-0.008333697
77	0xbc359a36	-0.01108413
78	0x3ca4e4d7	0.02012865
79	0x3ce45fac	0.027877651
80	0x3cbfce5e	0.023413833
81	0x3c51495e	0.01277384
82	0x3cc06a3d	0.023488158
83	0xbb8d6e17	-0.0043161022
84	0x3ccf5e08	0.025313392
85	0xbb4100bf	-0.0029449908
86	0x3cd4fba6	0.025998902
87	0xba1f7fc9	-0.000608441
88	0xbc30e407	-0.010796553
89	0x3ca6381a	0.020290423
90	0xbc64c07e	-0.013961909
91	0x3c481984	0.012213115
92	0x3c955b8d	0.018232131
93	0x3ca5f28e	0.02025726
94	0xbb29efc1	-0.0025930258
95	0x3c8936f4	0.016749837
96	0x3cb01066	0.021492194
97	0xbbb95186	-0.0056554703
98	0x3cbee70a	0.023303527
99	0x3ca00a35	0.019536117
100	0x3c5a0853	0.013307649
101	0x3b8425f1	0.0040328433
102	0xbcc60ea1	-0.024176897
103	0x3c48df79	0.012260311
104	0x3c3d7dab	0.011565606
105	0xbc466ae2	-0.012110444
106	0xbc9a32d1	-0.01882306
107	0x3c3dd0c7	0.011585421
108	0x3c92c991	0.01791838
109	0xbcf2be99	-0.0296319
110	0x3d0c5b3f	0.034266707
111	0x3bb4895f	0.00550954
112	0xbb985e27	-0.0046498957
113	0x3cd34ad2	0.025792513
114	0xbb41450c	-0.0029490618
115	0x3b8626b8	0.004093971
116	0xbbb17357	-0.005415361
117	0xbbb994d9	-0.005663496
118	0x3c70d2fe	0.014698742
119	0x3c343b4d	0.0110004665
120	0xbcfe1650	-0.031016499
121	0xbbab49a2	-0.0052272836
122	0x3ceb474a	0.028720517
123	0x3c88b408	0.016687408
124	0x3c724a22	0.014788182
125	0x3c9ba6b1	0.019000383
126	0x3c9c0cae	0.019049015
127	0x3c88e34e	0.01670995
128	0xbb9a8d04	-0.0047165174
129	0x3b93ac46	0.0045066206
130	0x3befcc06	0.0073180227
131	0x3bc6c746	0.0060662357
132	0x3a10afb2	0.00055193447
133	0x3c86e57e	0.016466852
134	0x3c41efd3	0.011836964
135	0xbbee2867	-0.007268
136	0x3c9a848b	0.01886203
137	0x3beca4b4	0.0072217826
138	0xbca36bab	-0.019948801
139	0x3bb23372	0.0054382617
140	0xbc3d51fc	-0.011555191
141	0x3bc8fdc6	0.006133768
142	0xbc03b308	-0.00803829
143	0xbb9ba879	-0.004750308
144	0x3bc2d41b	0.005945695
145	0x3b231f8a	0.0024890625
146	0xbb994a0a	-0.0046780156
147	0xbcbc8247	-0.02301134
148	0x3bcce7b0	0.0062532052
149	0xbc10151a	-0.0087940935
150	0xbbccc34c	-0.006248867
151	0x3c1781a6	0.009247219
152	0x3c1d3d09	0.009597071
153	0x3bd79948	0.006579552
154	0xbc682049	-0.014167854
155	0x38b92fdd	8.830403e-05
156	0x3bb8b245	0.0056364858
157	0x3c08ec8b	0.0083571775
158	0x3b1f4d0e	0.0024307403
159	0x3bec4539	0.0072104004
160	0xbbc68f0e	-0.006059534
161	0x3cb81110	0.022469074
162	0x3bb94aae	0.0056546545
163	0xb93c7643	-0.00017973133
164	0x3bbd2e6c	0.005773356
165	0x3bc9e44e	0.0061612492
166	0xbca39d61	-0.019972505
167	0xbc76a8c0	-0.015054882
168	0x3b8e9315	0.0043510296
169	0x3c0fe0d0	0.008781627
170	0x3aff0e25	0.0019459171
171	0x3ba3c1c8	0.0049974658
172	0xbbdbd72d	-0.0067090006
173	0x3bc0f283	0.0058882846
174	0x3baaf8aa	0.0052176313
175	0xbcabecf9	-0.02098702
176	0xbbae618b	-0.0053216866
177	0x3c08e46c	0.008355241
178	0xbc2a31f6	-0.010387888
179	0x3b9abb9f	0.004722073
180	0x3a346502	0.00068815064
181	0xbb46d616	-0.0030340008
182	0xbbcf5ecf	-0.0063284407
183	0x3c1f8fc3	0.009738865
184	0x3bd36da8	0.006452281
185	0x3c96dd75	0.018416146
186	0x3b859d10	0.004077561
187	0xbc06e533	-0.008233356
188	0xbbd031f9	-0.0063536135
189	0xbb90d609	-0.004420046
190	0x3aebc8c4	0.001798891
191	0xbc036dde	-0.0080218
192	0x3caea58a	0.02131917
193	0x3cd4b667	0.025965882
194	0x3d181fd4	0.03713973
195	0x3d018bfd	0.031627644
196	0xbbe30377	-0.0069279033
197	0x3c866cb1	0.01640925
198	0x3cd4720c	0.025933288
199	0x3bceab69	0.006307055
200	0x3cc78668	0.024356082
201	0x3c9b981e	0.018993434
202	0x3c9fe45a	0.019518066
203	0x3ce12d70	0.027487487
204	0xbbe24442	-0.0069051096
205	0xbc22b25e	-0.009930221
206	0x3cb38114	0.021912135
207	0x3d046c3d	0.032329787
208	0x3cdd7432	0.027032945
209	0x3c848e41	0.016181113
210	0x3cd99ac4	0.026563056
211	0xbb4be63e	-0.0031112577
212	0x3cec0816	0.02881245
213	0xbab93c6e	-0.0014132389
214	0x3cf56e3c	0.02995979
215	0x3b0b2afd	0.002123534
216	0xbc0a87f4	-0.008455265
217	0x3cb933eb	0.022607764
218	0xbc5efbc1	-0.0136098275
219	0x3c834167	0.016022397
220	0x3cb21371	0.021737786
221	0x3cbd9317	0.023141427
222	0xb9109a92	-0.00013790492
223	0x3c9e6515	0.019335309
224	0x3cd567fb	0.026050558
225	0xbbc6fe2d	-0.0060727806
226	0x3cdfb218	0.027306601
227	0x3ccbb12e	0.02486476
228	0x3c76c456	0.015061459
229	0x3bcd77cb	0.006270384
230	0xbccb00e4	-0.024780698
231	0x3c41d1ce	0.0118298065
232	0x3c6219fa	0.013800139
233	0xbc447895	-0.01199164
234	0xbc8afcf5	-0.016966322
235	0x3c66f514	0.014096517
236	0x3ca99674	0.020701624
237	0xbcf3eb02	-0.029775146
238	0x3d20d0a4	0.039261475
239	0x3bf3e1eb	0.007442703
240	0xbb513a60	-0.0031925663
241	0x3cef6f2a	0.029227812
242	0xba3da94e	-0.0007235006
243	0x3bb257f1	0.0054426123
244	0xbb33b758	-0.0027422514
245	0xbb80c9e6	-0.003930318
246	0x3c844de6	0.016150426
247	0x3c5f32dc	0.013622966
248	0xbcfa6428	-0.030565336
249	0xbb94b2c4	-0.004537912
250	0x3d03a069	0.0321354
251	0x3c9fb5e1	0.019495906
252	0x3c8a48cf	0.016880421
253	0x3cc3f506	0.023920547
254	0x3cb21f4e	0.021743443
255	0x3c99899d	0.018742377

lstms.0.bias_hh_l0 f4 [256]
0	0x3cb9ed2c	0.0226961
1	0x3cdc788b	0.026912948
2	0x3d18ac28	0.037273556
3	0x3d04d815	0.032432634
4	0xbbf0f79d	-0.0073537366
5	0x3c78ca6d	0.015184981
6	0x3cc86828	0.024463728
7	0x3bb88a07	0.0056316885
8	0x3cc795c8	0.024363413
9	0x3ca36951	0.01994768
10	0x3cae5fc2	0.021285895
11	0x3cd496e8	0.025950864
12	0xbbe0b2dd	-0.0068572597
13	0xbc26538f	-0.010151758
14	0x3cb10c46	0.021612298
15	0x3d051a22	0.032495625
16	0x3ce6bb60	0.02816552
17	0x3c84d829	0.016216354
18	0x3cda37aa	0.02663787
19	0xbb4c20b5	-0.0031147425
20	0x3cefe69c	0.029284768
21	0xba857475	-0.0010181802
22	0x3cf5a543	0.02998603
23	0x3b92f3ce	0.00448463
24	0xbc23fc8d	-0.010008943
25	0x3cbf424f	0.023347048
26	0xbc576dba	-0.013148719
27	0x3c7bce04	0.015368942
28	0x3cb12760	0.02162522
29	0x3cbede77	0.023299439
30	0x3956d863	0.0002048924
31	0x3ca2bfbe	0.01986682
32	0x3cd066dc	0.025439672
33	0xbba79d37	-0.005115177
34	0x3ce4a51e	0.027910765
35	0x3cc984de	0.024599489
36	0x3c7e3bed	0.015517217
37	0x3bcd4dec	0.0062653925
38	0xbcc63199	-0.024193572
39	0x3bcba0c0	0.0062142313
40	0x3c83b279	0.016076313
41	0xbc3cb03f	-0.01151663
42	0xbc8daf02	-0.017295364
43	0x3c663c52	0.014052467
44	0x3cb4322d	0.021996582
45	0xbcf3b8ae	-0.029751148
46	0x3d1c271b	0.03812323
47	0x3bdc9274	0.0067313258
48	0xbb014fa1	-0.00197313
49	0x3cf550f7	0.029945834
50	0xbb376021	-0.0027980881
51	0x3bba0615	0.0056769946
52	0xbb1513f4	-0.0022747489
53	0xbb89b171	-0.004202061
54	0x3c8b5d61	0.0170123
55	0x3c8c037a	0.017091502
56	0xbcf7d888	-0.030254617
57	0xbbb574ea	-0.005537619
58	0x3d0728bd	0.032997835
59	0x3ca27667	0.01983185
60	0x3c8c6931	0.017140003
61	0x3ccc61ea	0.024949033
62	0x3cb1376b	0.02163287
63	0x3c9b7878	0.018978342
64	0x3c94b9f0	0.018155068
65	0x3cb912e1	0.02259201
66	0x3d01b745	0.03166892
67	0x3cd470f1	0.02593276
68	0xbc1e94be	-0.009679018
69	0x3c4fa9d3	0.012674767
70	0x3ca06994	0.019581594
71	0x3b0360c7	0.0020046697
72	0x3cb4be2a	0.022063334
73	0x3c890c69	0.01672955
74	0x3c857bb5	0.01629434
75	0x3cb4def5	0.02207897
76	0xbc088a0f	-0.008333697
77	0xbc359a36	-0.01108413
78	0x3ca4e4d7	0.02012865
79	0x3ce45fac	0.027877651
80	0x3cbfce5e	0.023413833
81	0x3c51495e	0.01277384
82	0x3cc06a3d	0.023488158
83	0xbb8d6e17	-0.0043161022
84	0x3ccf5e08	0.025313392
85	0xbb4100bf	-0.0029449908
86	0x3cd4fba6	0.025998902
87	0xba1f7fc9	-0.000608441
88	0xbc30e407	-0.010796553
89	0x3ca6381a	0.020290423
90	0xbc64c07e	-0.013961909
91	0x3c481984	0.012213115
92	0x3c955b8d	0.018232131
93	0x3ca5f28e	0.02025726
94	0xbb29efc1	-0.0025930258
95	0x3c8936f4	0.016749837
96	0x3cb01066	0.021492194
97	0xbbb95186	-0.0056554703
98	0x3cbee70a	0.023303527
99	0x3ca00a35	0.019536117
100	0x3c5a0853	0.013307649
101	0x3b8425f1	0.0040328433
102	0xbcc60ea1	-0.024176897
103	0x3c48df79	0.012260311
104	0x3c3d7dab	0.011565606
105	0xbc466ae2	-0.012110444
106	0xbc9a32d1	-0.01882306
107	0x3c3dd0c7	0.011585421
108	0x3c92c991	0.01791838
109	0xbcf2be99	-0.0296319
110	0x3d0c5b3f	0.034266707
111	0x3bb4895f	0.00550954
112	0xbb985e27	-0.0046498957
113	0x3cd34ad2	0.025792513
114	0xbb41450c	-0.0029490618
115	0x3b8626b8	0.004093971
116	0xbbb17357	-0.005415361
117	0xbbb994d9	-0.005663496
118	0x3c70d2fe	0.014698742
119	0x3c343b4d	0.0110004665
120	0xbcfe1650	-0.031016499
121	0xbbab49a2	-0.0052272836
122	0x3ceb474a	0.028720517
123	0x3c88b408	0.016687408
124	0x3c724a22	0.014788182
125	0x3c9ba6b1	0.019000383
126	0x3c9c0cae	0.019049015
127	0x3c88e34e	0.01670995
128	0xbb9a8d04	-0.0047165174
129	0x3b93ac46	0.0045066206
130	0x3befcc06	0.0073180227
131	0x3bc6c746	0.0060662357
132	0x3a10afb2	0.00055193447
133	0x3c86e57e	0.016466852
134	0x3c41efd3	0.011836964
135	0xbbee2867	-0.007268
136	0x3c9a848b	0.01886203
137	0x3beca4b4	0.0072217826
138	0xbca36bab	-0.019948801
139	0x3bb23372	0.0054382617
140	0xbc3d51fc	-0.011555191
141	0x3bc8fdc6	0.006133768
142	0xbc03b308	-0.00803829
143	0xbb9ba879	-0.004750308
144	0x3bc2d41b	0.005945695
145	0x3b231f8a	0.0024890625
146	0xbb994a0a	-0.0046780156
147	0xbcbc8247	-0.02301134
148	0x3bcce7b0	0.0062532052
149	0xbc10151a	-0.0087940935
150	0xbbccc34c	-0.006248867
151	0x3c1781a6	0.009247219
152	0x3c1d3d09	0.009597071
153	0x3bd79948	0.006579552
154	0xbc682049	-0.014167854
155	0x38b92fdd	8.830403e-05
156	0x3bb8b245	0.0056364858
157	0x3c08ec8b	0.0083571775
158	0x3b1f4d0e	0.0024307403
159	0x3bec4539	0.0072104004
160	0xbbc68f0e	-0.006059534
161	0x3cb81110	0.022469074
162	0x3bb94aae	0.0056546545
163	0xb93c7643	-0.00017973133
164	0x3bbd2e6c	0.005773356
165	0x3bc9e44e	0.0061612492
166	0xbca39d61	-0.019972505
167	0xbc76a8c0	-0.015054882
168	0x3b8e9315	0.0043510296
169	0x3c0fe0d0	0.008781627
170	0x3aff0e25	0.0019459171
171	0x3ba3c1c8	0.0049974658
172	0xbbdbd72d	-0.0067090006
173	0x3bc0f283	0.0058882846
174	0x3baaf8aa	0.0052176313
175	0xbcabecf9	-0.02098702
176	0xbbae618b	-0.0053216866
177	0x3c08e46c	0.008355241
178	0xbc2a31f6	-0.010387888
179	0x3b9abb9f	0.004722073
180	0x3a346502	0.00068815064
181	0xbb46d616	-0.0030340008
182	0xbbcf5ecf	-0.0063284407
183	0x3c1f8fc3	0.009738865
184	0x3bd36da8	0.006452281
185	0x3c96dd75	0.018416146
186	0x3b859d10	0.004077561
187	0xbc06e533	-0.008233356
188	0xbbd031f9	-0.0063536135
189	0xbb90d609	-0.004420046
190	0x3aebc8c4	0.001798891
191	0xbc036dde	-0.0080218
192	0x3caea58a	0.02131917
193	0x3cd4b667	0.025965882
194	0x3d181fd4	0.03713973
195	0x3d018bfd	0.031627644
196	0xbbe30377	-0.0069279033
197	0x3c866cb1	0.01640925
198	0x3cd4720c	0.025933288
199	0x3bceab69	0.006307055
200	0x3cc78668	0.024356082
201	0x3c9b981e	0.018993434
202	0x3c9fe45a	0.019518066
203	0x3ce12d70	0.027487487
204	0xbbe24442	-0.0069051096
205	0xbc22b25e	-0.009930221
206	0x3cb38114	0.021912135
207	0x3d046c3d	0.032329787
208	0x3cdd7432	0.027032945
209	0x3c848e41	0.016181113
210	0x3cd99ac4	0.026563056
211	0xbb4be63e	-0.0031112577
212	0x3cec0816	0.02881245
213	0xbab93c6e	-0.0014132389
214	0x3cf56e3c	0.02995979
215	0x3b0b2afd	0.002123534
216	0xbc0a87f4	-0.008455265
217	0x3cb933eb	0.022607764
218	0xbc5efbc1	-0.0136098275
219	0x3c834167	0.016022397
220	0x3cb21371	0.021737786
221	0x3cbd9317	0.023141427
222	0xb9109a92	-0.00013790492
223	0x3c9e6515	0.019335309
224	0x3cd567fb	0.026050558
225	0xbbc6fe2d	-0.0060727806
226	0x3cdfb218	0.027306601
227	0x3ccbb12e	0.02486476
228	0x3c76c456	0.015061459
229	0x3bcd77cb	0.006270384
230	0xbccb00e4	-0.024780698
231	0x3c41d1ce	0.0118298065
232	0x3c6219fa	0.013800139
233	0xbc447895	-0.01199164
234	0xbc8afcf5	-0.016966322
235	0x3c66f514	0.014096517
236	0x3ca99674	0.020701624
237	0xbcf3eb02	-0.029775146
238	0x3d20d0a4	0.039261475
239	0x3bf3e1eb	0.007442703
240	0xbb513a60	-0.0031925663
241	0x3cef6f2a	0.029227812
242	0xba3da94e	-0.0007235006
243	0x3bb257f1	0.0054426123
244	0xbb33b758	-0.0027422514
245	0xbb80c9e6	-0.003930318
246	0x3c844de6	0.016150426
247	0x3c5f32dc	0.013622966
248	0xbcfa6428	-0.030565336
249	0xbb94b2c4	-0.004537912
250	0x3d03a069	0.0321354
251	0x3c9fb5e1	0.019495906
252	0x3c8a48cf	0.016880421
253	0x3cc3f506	0.023920547
254	0x3cb21f4e	0.021743443
255	0x3c99899d	0.018742377

lstms.1.weight_ih_l0 f4 [128, 64]
0	0x3d622c3a	0.05521796
1	0x3d135665	0.035971064
2	0x3b060191	0.002044771
3	0x3cebc169	0.028778749
4	0x3cd74a09	0.02628042
5	0xbdef9030	-0.116974235
6	0x3e0d71ef	0.13812993
7	0x3ddde2a2	0.108342424
8	0x3e24923c	0.16071409
9	0xbdc0c52f	-0.0941261
10	0xbcb53e49	-0.022124426
11	0xbe01446f	-0.12623762
12	0xbd808e92	-0.06277193
13	0x3c7f9821	0.015600235
14	0xbe16674d	-0.14687844
15	0x3d3d6f5e	0.046248786
16	0xbd55f2d1	-0.05223352
17	0xbe4a45e5	-0.19753225
18	0x3dc63c86	0.09679513
19	0xbe280f06	-0.16411981
20	0xbd8f3370	-0.06992233
21	0x3df66ade	0.12032102
22	0xbd643ec9	-0.05572394
23	0x3be81283	0.007082285
24	0x3dbe9ee7	0.09307652
25	0xbe275b58	-0.16343439
26	0x3d91ed1c	0.07125303
27	0xbcb871ae	-0.022515144
28	0xbd1b08b0	-0.037850082
29	0x3d944e34	0.072414786
30	0xbd04c4b5	-0.032414157
31	0x3d3c7f3d	0.04601978
32	0x3df539f8	0.11973947
33	0xbda2cb2b	-0.079489075
34	0x3d26045c	0.0405315
35	0xbb4e5b0c	-0.0031487374
36	0x3e8357dc	0.2565297
37	0xbd2ca456	-0.04214891
38	0xbe33abf8	-0.1754607
39	0x3c028764	0.00796685
40	0x3d381cae	0.044949226
41	0x3bea3b2b	0.0071481667
42	0x3e89aa22	0.26887614
43	0x3d066b1f	0.032817002
44	0xbe08ca5a	-0.13358441
45	0xbce5049a	-0.027956296
46	0x3d8526e2	0.06501557
47	0x3c3a5ae5	0.01137421
48	0x3e3d71ed	0.1850049
49	0xbe550c17	-0.20805393
50	0x3ddc6231	0.10760916
51	0x3d1175e3	0.035512816
52	0xbca1c2fb	-0.019746294
53	0x3c9dfd24	0.019285746
54	0xbdfa810e	-0.122316465
55	0xbd24ff84	-0.04028274
56	0x3cf4d654	0.029887356
57	0x3e125c3f	0.14293002
58	0xbdd18f1c	-0.10232374
59	0xbdeb1878	-0.114792764
60	0x3c4e8292	0.012604373
61	0x3e2d0fec	0.16900605
62	0x3dd21a7b	0.10258957
63	0x3dc158a1	0.09440733
64	0xbe1b8401	-0.15187074
65	0x3dc54731	0.09632719
66	0xbc98eab0	-0.018666595
67	0xbdb27745	-0.08714155
68	0xbd0b33ac	-0.033984825
69	0xbdd1298a	-0.10213001
70	0xbdd47758	-0.103743255
71	0x3c4e5c3f	0.012595235
72	0x3e1b954c	0.15193671
73	0x3ddcf73e	0.10789345
74	0xbc9aed1e	-0.018911894
75	0x3dc8d1f3	0.0980567
76	0x3d9eb140	0.077486515
77	0xbd3c6a91	-0.046000067
78	0x3d03f19f	0.03221285
79	0xbde86643	-0.1134763
80	0xba9bc207	-0.0011883386
81	0x3cec8266	0.028870773
82	0x3dc0fa5c	0.09422752
83	0x3ea74050	0.32666254
84	0xbcee1155	-0.029060999
85	0x3e5a9f97	0.21349941
86	0x3d23d40c	0.039997146
87	0x3bf32889	0.0074206037
88	0x3de2a816	0.11067216
89	0x3e07de9d	0.13268514
90	0x3be927b7	0.00711533
91	0x3c01619a	0.007896805
92	0x3e538ae1	0.20658447
93	0x3c7a1564	0.015263889
94	0xbe1e1424	-0.1543737
95	0x3d8d1a32	0.06889762
96	0xbe213d51	-0.15746047
97	0xbd88c72f	-0.06678616
98	0xbd0a2851	-0.033729855
99	0x3e10dbce	0.14146349
100	0xbccecd40	-0.025244355
101	0xbd11d575	-0.03560396
102	0x3d8f01d1	0.06982768
103	0xbd61fc68	-0.055172354
104	0xbd55a919	-0.052163217
105	0xbe2eb13c	-0.17059797
106	0xbccf53bc	-0.025308482
107	0xbe3198b8	-0.17343414
108	0xbc86a6e9	-0.01643701
109	0xbe3f8d83	-0.18706326
110	0xbe4fdd9a	-0.20299378
111	0xbdf356d4	-0.118817955
112	0xbe33231d	-0.17493863
113	0x3e2f0689	0.17092337
114	0x3d8945f6	0.06702797
115	0xbdb98927	-0.09059363
116	0x3e80acd5	0.2513186
117	0xbe62252c	-0.22084492
118	0x3ac875f5	0.0015293943
119	0x3bc2f38a	0.0059494423
120	0x3dce03b9	0.10059304
121	0xbd9deaf8	-0.07710832
122	0xbe6529bd	-0.22379203
123	0xbd6956e7	-0.056967642
124	0xbdd28def	-0.10280978
125	0x3e0073b8	0.12544143
126	0x3d482768	0.048865706
127	0xbdd9d464	-0.106362134
128	0xbdb9453a	-0.09046407
129	0xbdee64a2	-0.11640288
130	0xbdc206b5	-0.094739355
131	0xbe421378	-0.18952739
132	0x3d673dc6	0.056455396
133	0x3d4016fd	0.046896923
134	0xbd99cc0d	-0.07509623
135	0xbb8f2a6c	-0.0043690708
136	0xbbc31ffd	-0.005954741
137	0xbb8b455d	-0.004250212
138	0xbd58a55f	-0.052892085
139	0xbd3398d5	-0.043846924
140	0x3e97f510	0.29679155
141	0x3e49ee2c	0.19719762
142	0x3e24e1e6	0.16101798
143	0xbdea3614	-0.11436096
144	0x3dcb3382	0.09921934
145	0xbd134f74	-0.035964444
146	0x3d63e9d7	0.05564293
147	0xbc838b59	-0.016057657
148	0x3e456d35	0.1927994
149	0xbd280bdf	-0.041026946
150	0xbda4c333	-0.08045044
151	0x3dda95f9	0.10673136
152	0x3bef4ee8	0.0073031075
153	0x3da43a03	0.08018877
154	0xbc8fbe98	-0.017546937
155	0x3c80769f	0.015681563
156	0xbe05fc14	-0.13084441
157	0x3dd731fa	0.10507579
158	0x3db1feea	0.08691199
159	0x3dbf0be3	0.09328439
160	0xbdd40130	-0.10351789
161	0xbda7a284	-0.08185294
162	0xbe20bf23	-0.15697913
163	0xbdf5d38c	-0.1200324
164	0xbd3014f6	-0.04298874
165	0xbddd8a22	-0.10817362
166	0x3df64044	0.120239764
167	0xbe449a54	-0.19199497
168	0x3d314d70	0.04328674
169	0x3dd9b200	0.10629654
170	0xbddfdcbb	-0.10930773
171	0xbd5550f2	-0.05207915
172	0x3dd7413d	0.1051049
173	0x3e3b01d2	0.18262413
174	0x3e8ae753	0.2712961
175	0x3e3cfe80	0.18456459
176	0x3c47e733	0.012201118
177	0x3c953a9a	0.01821642
178	0xbd87ae6f	-0.066250674
179	0x3d7a1f9f	0.061065312
180	0x3c7668bd	0.01503962
181	0x3c295109	0.010334262
182	0xbe44e54c	-0.19228095
183	0xbe8cfa9a	-0.27534944
184	0xbe8e3bff	-0.27780148
185	0xbd438451	-0.04773361
186	0x3d982277	0.07428449
187	0xbd9387d8	-0.072036445
188	0x3db3c0a2	0.08776976
189	0xbdbc0175	-0.091799654
190	0xbde25c36	-0.11052744
191	0xbc903f3a	-0.017608274
192	0x3e2098d7	0.15683304
193	0x3b8d581b	0.0043134815
194	0x3d8eef83	0.06979277
195	0x3c52aae0	0.012858123
196	0xbad72c5e	-0.0016416421
197	0xbd31c152	-0.043397255
198	0x3e52d04f	0.20587276
199	0x3cf9a8f7	0.030476077
200	0xbdf7aa40	-0.120930195
201	0x3c9bcff0	0.01902005
202	0x3dc77fda	0.097411826
203	0x3d01ccec	0.03168957
204	0x3e0d1b04	0.13779837
205	0x3e3d7ff6	0.18505844
206	0x3e2114fa	0.15730658
207	0x3e8ff759	0.281184
208	0x3d98c7ee	0.074600086
209	0xbdcd647f	-0.10028934
210	0xbde5fd58	-0.11229962
211	0xbd53fc46	-0.05175426
212	0x3e85326d	0.26015034
213	0x3cbb24d1	0.022844704
214	0x3da878de	0.082261786
215	0x3d094b70	0.03351921
216	0x3e03ffb1	0.12890507
217	0xbde6f5eb	-0.11277374
218	0xbd46d21d	-0.048540223
219	0x3d3b6dc0	0.045758963
220	0xbc4434f4	-0.011975516
221	0x3e119dc7	0.14220344
222	0x3e079c04	0.13243109
223	0x3e2cea94	0.1688636
224	0x3ce0df66	0.027450275
225	0x3d637e4c	0.055540368
226	0xbd9944de	-0.074838385
227	0x3e5b3a95	0.21409066
228	0xbd4d27b2	-0.050086685
229	0x3df574d4	0.11985174
230	0x3aa5858a	0.0012628299
231	0xbdafe5d4	-0.08588758
232	0x3c65e5d3	0.014031845
233	0xbddb75b3	-0.10715809
234	0xbced1044	-0.02893842
235	0x3dcf134f	0.10111105
236	0x3d73a41d	0.059482682
237	0x3d887531	0.066629775
238	0xbdd7a89c	-0.105302066
239	0xbbcd5f57	-0.006267469
240	0x3e0b57cc	0.1360771
241	0x3e5a19fa	0.21298972
242	0xbd603a56	-0.054743133
243	0x3e3f996e	0.18710873
244	0xbd973d76	-0.073847696
245	0xbd95854e	-0.073008165
246	0xbb91d667	-0.0044506076
247	0x3e290843	0.16507058
248	0x3ae939d8	0.0017793728
249	0x3df94705	0.12171749
250	0xbd0323bf	-0.032016512
251	0xbe38b1b7	-0.18036543
252	0xbe267549	-0.16255678
253	0x3db99595	0.09061734
254	0x3b913309	0.0044311327
255	0xbe3f89ff	-0.18704985

lstms.1.weight_hh_l0 f4 [128, 32]
0	0x3e066960	0.13126135
1	0x3e506553	0.20351152
2	0x3ddc72d7	0.107640915
3	0x3cc4576e	0.023967471
4	0xbd85e5ec	-0.06537995
5	0xbd96c642	-0.073620334
6	0x3e0aad51	0.13542677
7	0xbe370ae9	-0.17875256
8	0xbd593411	-0.05302817
9	0xbd177a2f	-0.036981758
10	0xbb78a659	-0.0037940948
11	0x3d782a85	0.060587425
12	0x3d45aac5	0.04825856
13	0x3d91cf60	0.07119632
14	0xbe5b229d	-0.21399923
15	0x3de85302	0.113439575
16	0xbe5fd26e	-0.21857616
17	0xbd05d42b	-0.032673042
18	0xbb0df472	-0.0021660593
19	0xbd1f55b7	-0.038900103
20	0x3dfacfdb	0.122466765
21	0xbdfd2055	-0.123596825
22	0x3b9dafe1	0.004812226
23	0xbd78be99	-0.060728643
24	0x3d5e60c6	0.05429151
25	0xbdd22a9f	-0.102620356
26	0x3d4ddb00	0.050257683
27	0xbd5d3b0c	-0.05401139
28	0x3e25f872	0.16208056
29	0x3dcb95d5	0.099406876
30	0xbd52b9ef	-0.05144685
31	0x3e2b8c9e	0.1675286
32	0x3bb9ad2e	0.0056663966
33	0xbd1fa679	-0.03897712
34	0xbaf5da76	-0.0018757123
35	0x3b1a3dc2	0.0023535346
36	0xbd79a9a8	-0.060952812
37	0xbd1d4090	-0.03839165
38	0x3c9b078c	0.018924497
39	0xbd0c65d6	-0.034276806
40	0xbde97005	-0.11398319
41	0xbcc114ff	-0.023569582
42	0x3e20f8bb	0.15719883
43	0x3d52b349	0.05144051
44	0xbd4dc674	-0.050238088
45	0x3d3ebde6	0.04656782
46	0x3dcb32fa	0.099218324
47	0x3e49ecd5	0.1971925
48	0x3e14a41f	0.14515732
49	0xbe0bfb89	-0.13670172
50	0xbc34cf5a	-0.011035765
51	0x3d2c79f5	0.042108495
52	0x3e10505e	0.14093158
53	0x3d97ff54	0.07421747
54	0xbd61c988	-0.055123836
55	0x3d35d2f3	0.04439063
56	0x3e21610d	0.15759678
57	0xbdc358df	-0.09538435
58	0x3d8c67f2	0.068557635
59	0x3bc68190	0.0060579255
60	0x3ce491bc	0.027901523
61	0xbb9f8048	-0.0048675872
62	0xbe45ece7	-0.19328652
63	0x3deca2aa	0.11554463
64	0xbd212e90	-0.039351046
65	0x3bda0d88	0.006654445
66	0x3dd69a54	0.104786545
67	0xbd3959dd	-0.045251716
68	0x3dcde737	0.10053866
69	0xbdeb20fe	-0.11480902
70	0x3d74013e	0.059571497
71	0x3d187ad2	0.037226506
72	0x3c1fe4f6	0.009759178
73	0x3e02d373	0.12775974
74	0x3d457a8a	0.048212565
75	0xbd085d8e	-0.033292346
76	0x3e022a7c	0.12711519
77	0xb9a7045e	-0.00031855976
78	0xbd012bc0	-0.031535864
79	0x3cb9f1db	0.022698333
80	0xbcf4882a	-0.029850084
81	0x3dc9ec4b	0.098595224
82	0x3e114bfa	0.14189139
83	0xbd7b8c7d	-0.061413277
84	0xbddcfa38	-0.10789913
85	0x3d3a3649	0.045461927
86	0xbd5da8d4	-0.054116085
87	0xbdf6e361	-0.12055088
88	0x3a4d361b	0.0007828192
89	0x3d8a09b9	0.06740136
90	0x3d718ae4	0.058970347
91	0xbd5b1ef7	-0.053496327
92	0x3cb41da8	0.021986797
93	0x3e93850b	0.2881244
94	0xbe1c1adf	-0.15244626
95	0x39d8903e	0.000413062
96	0x3e3d17c0	0.18466091
97	0xbd9a4a18	-0.075336635
98	0x3e8438f8	0.25824714
99	0x3d855f43	0.0651231
100	0xbe4877a4	-0.1957689
101	0xbe005081	-0.1253071
102	0xbde68b97	-0.112570934
103	0x3e21d8a3	0.15805297
104	0x3d6fe14e	0.058564477
105	0xbd66deeb	-0.056364935
106	0xbd9c2724	-0.07624653
107	0xbd77880a	-0.06043247
108	0x39f4c51c	0.00046686165
109	0xbe1de513	-0.15419416
110	0x3d847dc1	0.06469298
111	0x3d02f796	0.031974398
112	0x3d3580e9	0.04431239
113	0x3d8fbe86	0.07018761
114	0x3d06542e	0.032795124
115	0x3e0b6a38	0.13614738
116	0x3e40d09f	0.18829583
117	0x3d7b5d0e	0.06136804
118	0x3d215648	0.039388925
119	0xbd3179cc	-0.043329045
120	0xbd9e8ff5	-0.077423014
121	0xbd4b6fe8	-0.04966727
122	0xbcebda6a	-0.028790671
123	0x3d9e1791	0.07719339
124	0xbdc67f50	-0.09692252
125	0x3c064590	0.008195296
126	0xbe2304c3	-0.15919785
127	0xbd5d2308	-0.053988487
128	0x3e59a407	0.21253978
129	0x3e4adbc5	0.19810398
130	0xbde18a0f	-0.11012661
131	0xbd798a81	-0.060923103
132	0xbd3651b3	-0.04451151
133	0x3b881ec2	0.0041540572
134	0xbd22f7c3	-0.039787065
135	0xbdc64412	-0.09680952
136	0x3dc2a970	0.09504974
137	0x3dd27e93	0.10278048
138	0x3e02665e	0.12734362
139	0xbdd7ded4	-0.10540548
140	0x3ddd8026	0.10815458
141	0x3e31069f	0.17287682
142	0xbda7717b	-0.081759416
143	0x3bc5171b	0.0060147173
144	0x3c40c2ef	0.011765226
145	0xbd66d370	-0.056353986
146	0xbd8e7027	-0.06954985
147	0xbd06c18b	-0.03289942
148	0xbdc76b8f	-0.09737312
149	0x3e06668e	0.13125059
150	0x3d4de9fe	0.05027198
151	0xbd82c3ca	-0.06385
152	0xbd75774f	-0.059928235
153	0x3e521f36	0.20519719
154	0x3dfe10d0	0.124055505
155	0x3dacc752	0.08436455
156	0x3d9b5b70	0.075858
157	0x3b61455e	0.0034373621
158	0xbd84cabd	-0.06483982
159	0xbd8a32e6	-0.06747989
160	0x3e225b87	0.15855227
161	0xbc795ade	-0.015219418
162	0x3d22417a	0.039613225
163	0xbdbd5500	-0.09244728
164	0x3bfe63dc	0.007763369
165	0xbdb7feab	-0.08984121
166	0x3d2121a1	0.03933871
167	0x3dcf6eed	0.10128579
168	0x3df011a6	0.11722116
169	0xbe1d75b5	-0.15376933
170	0xbe07052a	-0.13185564
171	0x3e057951	0.1303456
172	0x3e57ff41	0.21093465
173	0x397aec1d	0.00023929817
174	0xbcd1395b	-0.025540045
175	0x3db299ce	0.08720742
176	0xbe06723d	-0.13129516
177	0x3e0224a7	0.12709294
178	0xbe9c917d	-0.3057975
179	0xbe10cc6f	-0.14140485
180	0xbcfb12c9	-0.030648606
181	0x3e11162b	0.14168613
182	0x3c057145	0.008144681
183	0xbdd01cc5	-0.10161737
184	0x3d6a0272	0.05713124
185	0xbe039a6c	-0.12851876
186	0x3df331e6	0.11874752
187	0xbbf2465c	-0.0073936414
188	0x3dfacb58	0.12245816
189	0xbe08e53c	-0.13368696
190	0xbd3ceac2	-0.04612232
191	0xbdb16aff	-0.08662986
192	0xbd3ed701	-0.046591762
193	0x3dbefb05	0.09325222
194	0x3e9a8b49	0.3018439
195	0xba86c84e	-0.0010283084
196	0xbe17909d	-0.1480126
197	0xbd02772d	-0.031851936
198	0x3d351f66	0.044219397
199	0x3d4f5196	0.050614916
200	0xbe197ee2	-0.14989808
201	0xbe1487fa	-0.14504996
202	0xbe8698dc	-0.26288497
203	0xbb1014df	-0.0021985096
204	0x3d46cf56	0.048537575
205	0x3d4cecc4	0.050030485
206	0x3d91070d	0.07081423
207	0x3d2d10ef	0.042252477
208	0xbdafdfcc	-0.08587608
209	0xbe2b6eac	-0.16741437
210	0xba90583a	-0.0011012622
211	0x3c0fdf35	0.008781244
212	0x3e1e6caf	0.15471147
213	0x3e3e5b69	0.18589558
214	0x3c8149a8	0.015782192
215	0xbe53e056	-0.20691046
216	0xbe2f4fe7	-0.17120324
217	0x3da00b02	0.078145996
218	0x3c7971ec	0.015224915
219	0xbd63683e	-0.055519335
220	0xbd75d637	-0.060018744
221	0xbc53f144	-0.01293594
222	0xbd26851f	-0.040654298
223	0x3cc33b43	0.02383197
224	0xbd20aef9	-0.039229367
225	0xbc4a3578	-0.0123418495
226	0xbcda9541	-0.026682498
227	0x3c040906	0.008058792
228	0x3dcace02	0.09902574
229	0x3d29e861	0.04148138
230	0xbbfae1ef	-0.007656328
231	0x3e80fc2c	0.25192392
232	0x3e112b4d	0.14176674
233	0x3dc98cc3	0.09841301
234	0x3dcb0135	0.099123396
235	0x3e83fb59	0.257777
236	0x3d9aef1a	0.07565136
237	0xbdbf9856	-0.09355228
238	0xbdac2dcc	-0.084071726
239	0x3d1a31d3	0.037645172
240	0x3df21075	0.11819545
241	0xbe66b27a	-0.22529021
242	0xbe24a02b	-0.16076724
243	0x3c72924e	0.01480539
244	0xbdf5f8ed	-0.120103694
245	0xbc7bdb29	-0.015372076
246	0xbd8ba7c2	-0.06819107
247	0x3e3d97b7	0.18514906
248	0xb933eea8	-0.00017159677
249	0x3ddf2cc3	0.108972095
250	0xbde2b69b	-0.110699855
251	0x3cd8da23	0.026471203
252	0xbdee29f3	-0.11629095
253	0xbd69ca49	-0.05707768
254	0xbd9947c2	-0.0748439
255	0x3dd0a0a6	0.10186891

lstms.1.bias_ih_l0 f4 [128]
0	0x3d03a651	0.032141034
1	0x3ce162ed	0.027512992
2	0x3c290643	0.010316434
3	0x3c901577	0.01758836
4	0x3cb82520	0.02247864
5	0x3c36d9d4	0.011160333
6	0x3ce8a21e	0.028397616
7	0xbbf3a4ff	-0.0074354406
8	0x3cc44b31	0.023961635
9	0xbb90a611	-0.004414328
10	0x3c172d42	0.009227099
11	0x3cf51cd2	0.02992097
12	0x3d0f3a86	0.03496792
13	0xbb640ca1	-0.0034797566
14	0x3d130112	0.035889693
15	0x3cf05faa	0.029342491
16	0x3d51bcc1	0.0512054
17	0xbb424192	-0.0029641134
18	0x3cc3fe33	0.023924923
19	0xbc766ea6	-0.015041029
20	0x3cdbf356	0.02684943
21	0x3c95d61f	0.018290577
22	0x3cd173d1	0.02556792
23	0xbc814930	-0.015781969
24	0x3cddcf04	0.027076252
25	0x3cbb9f37	0.022903068
26	0x3ae29bd4	0.0017288872
27	0x3cc71045	0.02429975
28	0xbc9ce852	-0.019153748
29	0x3b20e616	0.0024551204
30	0x3c14575a	0.009054029
31	0x3ccd2565	0.025042245
32	0x3ce9c090	0.028534204
33	0x3cc2927f	0.023751495
34	0x3bf39c82	0.0074344287
35	0x3c4a9f05	0.012367015
36	0x3c94dd91	0.018172057
37	0x3bfed20f	0.007776506
38	0x3cc52ea6	0.024070095
39	0xbc2ad5cd	-0.010426951
40	0x3ca45fb6	0.02006517
41	0xbbc5cb60	-0.006036207
42	0x3be49430	0.006975673
43	0x3cc69049	0.024238722
44	0x3cf411f6	0.02979372
45	0xbbc53f30	-0.0060194954
46	0x3cf148da	0.029453684
47	0x3cc9cd5e	0.02463406
48	0x3d32e23f	0.043672796
49	0xbbcf16c1	-0.006319851
50	0x3ca9ba5f	0.020718751
51	0xbc8d047c	-0.017214052
52	0x3cc39898	0.023876473
53	0x3c4a25f0	0.012338147
54	0x3cb56fa8	0.022147968
55	0xbc8c6a6e	-0.017140593
56	0x3cc10415	0.023561517
57	0x3ca4b9e2	0.020108167
58	0xbb59e915	-0.00332505
59	0x3c975e1e	0.018477496
60	0xbca6d12d	-0.020363415
61	0xba881291	-0.001038151
62	0x3ba356c7	0.00498471
63	0x3cb11ac7	0.021619214
64	0x3b552267	0.0032521726
65	0xbb9e7a11	-0.004836329
66	0x3ae0825c	0.0017128694
67	0x3bb7bf97	0.005607556
68	0x3bdb60d7	0.006694894
69	0xbb756984	-0.0037446925
70	0xbbdfae0f	-0.0068261693
71	0xbbe0bfa9	-0.006858785
72	0x3b9a3c20	0.0047068745
73	0xbbc44897	-0.0059900987
74	0x3b784708	0.0037884135
75	0xbb150aca	-0.0022742026
76	0x3b8fc4b8	0.0043874644
77	0xbbf44728	-0.0074547715
78	0xbbe5553a	-0.006998685
79	0xbbddbdc3	-0.006767006
80	0xbbb25ffd	-0.0054435716
81	0xbba335be	-0.004980772
82	0x3bca31c9	0.0061704856
83	0x3c153656	0.009107193
84	0x3b9180b2	0.0044403905
85	0x3bc7a8a1	0.0060931
86	0x3b90a376	0.0044140173
87	0x3c2be6a8	0.010492004
88	0x3bda4bdc	0.006661875
89	0x3b9fb71e	0.004874124
90	0xbba7f465	-0.0051255696
91	0x3a929ccf	0.0011185649
92	0x3cb5d35e	0.022195514
93	0x3b9b0e44	0.004731925
94	0x3af7818f	0.0018883216
95	0xbb8e7c46	-0.0043483106
96	0x3d064421	0.032779817
97	0x3ced7354	0.028985657
98	0x3c29c830	0.01036267
99	0x3c79af11	0.015239493
100	0x3cade005	0.021224985
101	0x3c341dca	0.01099343
102	0x3cdf904a	0.027290482
103	0xbbfab52b	-0.0076509914
104	0x3cc146f7	0.023593409
105	0xbba07f8f	-0.0048980187
106	0x3c182b78	0.0092877075
107	0x3cf9e410	0.030504256
108	0x3d09b915	0.033623774
109	0xbaf795fe	-0.0018889306
110	0x3d0dfa58	0.034662575
111	0x3ce67482	0.028131727
112	0x3d568d91	0.052381102
113	0xbb5676f6	-0.0032724715
114	0x3cc5c60d	0.02414229
115	0xbc7b9b26	-0.0153568145
116	0x3cda2dec	0.026633225
117	0x3c9e2510	0.019304782
118	0x3ccf8bd9	0.02533524
119	0xbc84d01d	-0.016212517
120	0x3ce1cc8c	0.027563356
121	0x3cb50cb0	0.022100776
122	0x3afe7318	0.0019412963
123	0x3cbd461a	0.023104716
124	0xbc9d1d92	-0.01917914
125	0x3b086e3b	0.0020817656
126	0x3c19c79b	0.009385969
127	0x3ccb21eb	0.024796447

lstms.1.bias_hh_l0 f4 [128]
0	0x3d03a651	0.032141034
1	0x3ce162ed	0.027512992
2	0x3c290643	0.010316434
3	0x3c901577	0.01758836
4	0x3cb82520	0.02247864
5	0x3c36d9d4	0.011160333
6	0x3ce8a21e	0.028397616
7	0xbbf3a4ff	-0.0074354406
8	0x3cc44b31	0.023961635
9	0xbb90a611	-0.004414328
10	0x3c172d42	0.009227099
11	0x3cf51cd2	0.02992097
12	0x3d0f3a86	0.03496792
13	0xbb640ca1	-0.0034797566
14	0x3d130112	0.035889693
15	0x3cf05faa	0.029342491
16	0x3d51bcc1	0.0512054
17	0xbb424192	-0.0029641134
18	0x3cc3fe33	0.023924923
19	0xbc766ea6	-0.015041029
20	0x3cdbf356	0.02684943
21	0x3c95d61f	0.018290577
22	0x3cd173d1	0.02556792
23	0xbc814930	-0.015781969
24	0x3cddcf04	0.027076252
25	0x3cbb9f37	0.022903068
26	0x3ae29bd4	0.0017288872
27	0x3cc71045	0.02429975
28	0xbc9ce852	-0.019153748
29	0x3b20e616	0.0024551204
30	0x3c14575a	0.009054029
31	0x3ccd2565	0.025042245
32	0x3ce9c090	0.028534204
33	0x3cc2927f	0.023751495
34	0x3bf39c82	0.0074344287
35	0x3c4a9f05	0.012367015
36	0x3c94dd91	0.018172057
37	0x3bfed20f	0.007776506
38	0x3cc52ea6	0.024070095
39	0xbc2ad5cd	-0.010426951
40	0x3ca45fb6	0.02006517
41	0xbbc5cb60	-0.006036207
42	0x3be49430	0.006975673
43	0x3cc69049	0.024238722
44	0x3cf411f6	0.02979372
45	0xbbc53f30	-0.0060194954
46	0x3cf148da	0.029453684
47	0x3cc9cd5e	0.02463406
48	0x3d32e23f	0.043672796
49	0xbbcf16c1	-0.006319851
50	0x3ca9ba5f	0.020718751
51	0xbc8d047c	-0.017214052
52	0x3cc39898	0.023876473
53	0x3c4a25f0	0.012338147
54	0x3cb56fa8	0.022147968
55	0xbc8c6a6e	-0.017140593
56	0x3cc10415	0.023561517
57	0x3ca4b9e2	0.020108167
58	0xbb59e915	-0.00332505
59	0x3c975e1e	0.018477496
60	0xbca6d12d	-0.020363415
61	0xba881291	-0.001038151
62	0x3ba356c7	0.00498471
63	0x3cb11ac7	0.021619214
64	0x3b552267	0.0032521726
65	0xbb9e7a11	-0.004836329
66	0x3ae0825c	0.0017128694
67	0x3bb7bf97	0.005607556
68	0x3bdb60d7	0.006694894
69	0xbb756984	-0.0037446925
70	0xbbdfae0f	-0.0068261693
71	0xbbe0bfa9	-0.006858785
72	0x3b9a3c20	0.0047068745
73	0xbbc44897	-0.0059900987
74	0x3b784708	0.0037884135
75	0xbb150aca	-0.0022742026
76	0x3b8fc4b8	0.0043874644
77	0xbbf44728	-0.0074547715
78	0xbbe5553a	-0.006998685
79	0xbbddbdc3	-0.006767006
80	0xbbb25ffd	-0.0054435716
81	0xbba335be	-0.004980772
82	0x3bca31c9	0.0061704856
83	0x3c153656	0.009107193
84	0x3b9180b2	0.0044403905
85	0x3bc7a8a1	0.0060931
86	0x3b90a376	0.0044140173
87	0x3c2be6a8	0.010492004
88	0x3bda4bdc	0.006661875
89	0x3b9fb71e	0.004874124
90	0xbba7f465	-0.0051255696
91	0x3a929ccf	0.0011185649
92	0x3cb5d35e	0.022195514
93	0x3b9b0e44	0.004731925
94	0x3af7818f	0.0018883216
95	0xbb8e7c46	-0.0043483106
96	0x3d064421	0.032779817
97	0x3ced7354	0.028985657
98	0x3c29c830	0.01036267
99	0x3c79af11	0.015239493
100	0x3cade005	0.021224985
101	0x3c341dca	0.01099343
102	0x3cdf904a	0.027290482
103	0xbbfab52b	-0.0076509914
104	0x3cc146f7	0.023593409
105	0xbba07f8f	-0.0048980187
106	0x3c182b78	0.0092877075
107	0x3cf9e410	0.030504256
108	0x3d09b915	0.033623774
109	0xbaf795fe	-0.0018889306
110	0x3d0dfa58	0.034662575
111	0x3ce67482	0.028131727
112	0x3d568d91	0.052381102
113	0xbb5676f6	-0.0032724715
114	0x3cc5c60d	0.02414229
115	0xbc7b9b26	-0.0153568145
116	0x3cda2dec	0.026633225
117	0x3c9e2510	0.019304782
118	0x3ccf8bd9	0.02533524
119	0xbc84d01d	-0.016212517
120	0x3ce1cc8c	0.027563356
121	0x3cb50cb0	0.022100776
122	0x3afe7318	0.0019412963
123	0x3cbd461a	0.023104716
124	0xbc9d1d92	-0.01917914
125	0x3b086e3b	0.0020817656
126	0x3c19c79b	0.009385969
127	0x3ccb21eb	0.024796447

fc.weight f4 [1, 32]
0	0xbe399e23	-0.1812673
1	0x3e4bf87f	0.19919012
2	0xbd8828b4	-0.066483885
3	0xbe09638b	-0.13416879
4	0xbe16ac5d	-0.14714189
5	0x3e254cd8	0.16142595
6	0x3e516528	0.20448744
7	0x3de9a08c	0.11407575
8	0xbdf5378f	-0.119734876
9	0x3e19314a	0.14960209
10	0xbd4f403f	-0.05059838
11	0x3d8d6278	0.06903547
12	0xbe1c73d0	-0.15278554
13	0xbd646f03	-0.05576993
14	0x3e484e62	0.1956115
15	0x3e46b744	0.19405848
16	0x3e0f75e2	0.14009812
17	0x3e20da74	0.15708333
18	0xbe41bac8	-0.18918908
19	0xbd873734	-0.06602326
20	0xbe16e8ee	-0.14737293
21	0xbe40e577	-0.18837534
22	0xbe0ddb5a	-0.13853207
23	0xbdbabe8b	-0.091183744
24	0xbe3cdf91	-0.18444659
25	0xbd9aa0a0	-0.07550168
26	0x3dafb9bf	0.0858035
27	0xbdb1cdbe	-0.0868182
28	0xbddb36c5	-0.10703806
29	0xbdf1bca9	-0.11803562
30	0xbe2b087d	-0.16702457
31	0x3e27735c	0.163526
