labs/models/JPY/7_32_32.pth (torch, 54535 bytes, 9 tensors)

lstms.0.weight_ih_l0 f4 [128, 1]
000000 01 bf 3b bd f7 14 d6 bc 95 78 10 3e de b0 42 3d
       -0.045836452 -0.026133044 0.14108498 0.047531955
000010 c3 13 2d be 22 15 e4 bc 4e 52 2d bc e7 34 68 3e
       -0.1690207 -0.027842108 -0.010578705 0.2267643
000020 ee b8 46 3d d3 90 b7 3e 65 5a 81 3d a5 8d a8 bd
       0.048516206 0.3585268 0.063160695 -0.082301416
000030 2e 09 89 3e 6b 23 75 3e a5 33 5d 3e 58 f1 85 bd
       0.26764816 0.23939292 0.21601732 -0.06540173
000040 c9 c9 d9 bd d2 1d 32 be b0 d1 eb 3c 16 c8 5a 3d
       -0.106341906 -0.17394188 0.02878651 0.053413473
000050 95 4e aa 3c f0 18 77 3d 89 e1 df 3c cc 8c ad bd
       0.020789424 0.060326517 0.027329223 -0.084741205
000060 0d a2 9b 3d 75 1c cf 3c dd 6d 86 bd d8 30 36 3e
       0.07599268 0.025282124 -0.065639235 0.1779207
000070 dd 4a 3c bd 16 14 98 3e ad 2b 56 bd fe 0f 64 3e
       -0.045969833 0.29702824 -0.052287746 0.22271726
000080 5e 13 4b 3b 13 03 43 3c 36 83 14 3e 95 02 1e 3d
       0.0030986886 0.011902588 0.14503178 0.03857668
000090 13 94 91 ba e9 ad f8 3d 05 8c bd 3d 35 0f 38 bd
       -0.0011106752 0.12142546 0.09255222 -0.044936378
0000a0 35 f9 e5 bd 12 df f1 3b 53 ab 2e 3e 95 b4 1f be
       -0.11229173 0.0073813284 0.17057543 -0.1559623
0000b0 7c b4 a3 bc a2 36 55 3c ee 24 ef bd b8 f1 a0 bd
       -0.019983523 0.013013514 -0.11676966 -0.07858604
0000c0 8b ba 4f be 03 be 09 be e5 13 6c 3d cf fa 32 bd
       -0.20286004 -0.1345139 0.05763616 -0.04369622
0000d0 47 f9 d6 bd ad 2a 14 3e cf 97 4e 3e f1 da ff bd
       -0.10496765 0.14469405 0.20175098 -0.12492932
0000e0 6d b2 80 3e d0 5f 19 3e 88 40 2d 3d b1 25 7e bc
       0.25136128 0.14977956 0.04229787 -0.015511916
0000f0 d2 7a 2c 3e d8 1d ac bc 3c f2 47 3e b6 4b bc bd
       0.16843727 -0.021010324 0.19525999 -0.09194128
000100 04 c1 89 bb 28 3d 55 3e d3 05 fb 3d f8 be 4e 3c
       -0.0042039175 0.2082411 0.1225697 0.012618773
000110 80 76 ba 3d 4a e2 52 be 98 2b 21 be 86 1e 89 bc
       0.09104633 -0.20594135 -0.15739286 -0.016738188
000120 e3 68 6f 3e de d1 94 bd bc 27 b3 bc 8d 6f 05 3e
       0.23379855 -0.072665915 -0.021869533 0.13030834
000130 b1 1e fb 3d ee d5 da 3d b2 14 3c 3e eb 62 45 3e
       0.12261713 0.10685335 0.1836727 0.19276015
000140 bf 86 0e 3e a6 d5 01 3c f1 68 1f 3e 68 9d 5e 3d
       0.13918589 0.007924473 0.15567376 0.054349333
000150 7b 37 47 be ef 7a d7 3d ed 43 15 be 60 9c 18 be
       -0.19454758 0.105214946 -0.14576693 -0.14903402
000160 52 da 8a 3d ab cd 61 bd d5 62 8b 3c 4a ae cd bd
       0.067799225 -0.05512778 0.0170149 -0.100430086
000170 5a 7c 12 3e b9 0e 8f bd 21 05 02 be c3 d2 96 3e
       0.14305249 -0.0698523 -0.12697269 0.29457673
000180 67 b9 45 bd 4f 62 6b 3c dd bb ee 3d 90 dd 44 3e
       -0.048272517 0.0143667 0.11656926 0.19225144
000190 bf a1 11 be ad 6d 87 3e 68 5c cf bd 5d 03 0f bd
       -0.14221857 0.26450863 -0.10125047 -0.034915317
0001a0 49 0c 74 3e ea 47 2e 3e 28 2b 20 3d 30 02 b7 bd
       0.23832811 0.1701962 0.039103657 -0.08935964
0001b0 cb 4b a7 3b 86 58 ba 3e e3 80 4c 3d 72 f7 54 bd
       0.005105471 0.36395663 0.049927603 -0.051993795
0001c0 f7 f9 65 bd fd 45 27 bd 7b 7b 89 bd 91 8f 01 3c
       -0.05614659 -0.04083823 -0.06713005 0.007907764
0001d0 d8 8a c7 bd 41 9c d3 bd 2b 34 22 3d 93 a0 ec 3d
       -0.09743279 -0.103325374 0.039600533 0.115540646
0001e0 77 98 62 3d 29 06 c8 bd d0 b0 0d 3d 92 65 3f 3d
       0.055321183 -0.097668 0.03459245 0.046727724
0001f0 dc 24 e5 bd aa b4 70 3d bd a9 0d 3e 0f 72 0b bd
       -0.11188671 0.058766045 0.13834281 -0.03404432

lstms.0.weight_hh_l0 f4 [128, 32]
000000 9c f7 dc 3d 49 b9 5a 3d 73 54 70 3d 26 99 1f 3e
       0.10789415 0.053399358 0.058674287 0.15585765
000010 d3 cf 07 3e 63 8b 70 3d 4e 71 ad 3d f7 dc a3 3c
       0.13262872 0.05872668 0.08468877 0.020002825
000020 65 36 c4 3c d5 95 0f 3d 9a ab f4 bc f7 d8 14 3e
       0.023951719 0.035055 -0.029866982 0.1453589
000030 f0 ce 33 be 57 d5 07 be 3f 4b 6a bd 73 7c 08 3d
       -0.17559409 -0.13264976 -0.057200667 0.03332181
000040 50 cf 08 3c 8b 25 3c be 99 e2 06 be e2 55 e3 3d
       0.008350208 -0.18373697 -0.13172378 0.11100365
000050 e2 38 a9 3d eb c7 af bd 95 54 98 bd 55 5e 40 3c
       0.08262803 -0.08583053 -0.07438008 0.0117412405
000060 d3 9f e6 bb c4 f6 4d 3e 96 c1 af 3e 93 d3 61 3e
       -0.0070380955 0.20113665 0.34327382 0.22053365
000070 d5 9e 98 bd 9e b5 0e bd 6a 55 16 3c 71 30 45 be
       -0.0745217 -0.034841172 0.009175638 -0.1925676
000080 b7 b3 d2 3d e7 9d 57 3e b3 ac 2b bd 4c 25 6f be
       0.10288184 0.21056329 -0.041912746 -0.23354071
000090 9b 03 2e bd c1 d7 8e 3d 03 90 70 3a 9b da 94 3d
       -0.042483907 0.069747455 0.0009176733 0.07268258
0000a0 28 a4 84 3c 43 02 94 bd 8e 94 6e bc aa 94 24 bc
       0.016191557 -0.07226994 -0.014561785 -0.01004521
0000b0 b3 47 8f 3d 4c 0e 20 bd 7b a4 fa bd c6 c8 95 bd
       0.069960974 -0.039076135 -0.122384034 -0.07313685
0000c0 5b 85 7e 3d fc 3e 13 be df 3f 96 bd 0f 91 20 bd
       0.062138896 -0.14379495 -0.07336401 -0.03920084
0000d0 c9 17 2c 3e 8f 4c 81 bd fa 2e 9f bc bf 39 1c be
       0.16805948 -0.063134305 -0.01943158 -0.15256403
0000e0 f9 35 3d be f2 55 e1 3d 31 77 c4 bd 4b ad 95 bd
       -0.1847762 0.11002721 -0.095930465 -0.07308444
0000f0 d1 6a eb bd 21 35 df bc 3d 1d b6 3d f1 02 aa bd
       -0.11494983 -0.027247014 0.088922955 -0.08301342
000100 6d a5 86 bc 45 6f dc bc bc db da bc 6c a5 43 bd
       -0.016436303 -0.026908526 -0.026716106 -0.04776518
000110 e7 47 83 3d c5 8b 8a 3e ab 8f 00 3e 16 4b 20 bd
       0.06410199 0.2705976 0.12554805 -0.039134108
000120 5d dd 2a bb e4 cb 34 bd b3 e0 1a 3e e2 a6 e6 3d
       -0.0026071884 -0.044139758 0.15124778 0.11262299
000130 be 4c ff 3d 90 f5 82 bd 49 b1 ac bd 85 1d 64 3d
       0.12465809 -0.063944936 -0.08432252 0.055692215
000140 54 e9 0d 3d 31 be c2 bd ad 52 b2 3d 16 3d 1b 3e
       0.034646347 -0.095089324 0.087071754 0.15160021
000150 25 42 53 3d 09 f9 5b 3d 8b a6 3b bb cf 16 c6 bc
       0.051576752 0.053704295 -0.0028633203 -0.024180798
000160 59 5b 16 be a0 57 3b 3e b6 28 b4 bd ef 94 f3 bc
       -0.14683284 0.18295145 -0.087968275 -0.029734103
000170 ad 40 06 3e b8 cb af 3d e6 8d 21 3d f1 8b 1c be
       0.1311061 0.08583778 0.039441966 -0.15287758
000180 52 8f 78 bd 4a 85 83 be 9d e7 85 be f7 25 10 be
       -0.060683556 -0.2568763 -0.2615327 -0.14076982
000190 bb 23 9f 3c 12 c5 2d 3e d2 3e b6 3c 02 3a 00 be
       0.019426217 0.16969708 0.022246752 -0.12522128
0001a0 ce 3b 19 3c 8a 27 82 bc 7c b8 46 3e 89 07 09 3c
       0.009352637 -0.015887994 0.19406313 0.008363613
0001b0 b4 85 4c 3d 07 05 91 3d c7 8f 16 bd 16 88 29 3e
       0.049932197 0.07081037 -0.03675821 0.16555819
0001c0 e7 bb e7 bd 55 55 04 be ae 8a a8 3c 3f b1 03 be
       -0.113151364 -0.12923177 0.02057394 -0.12860583
0001d0 96 18 08 3e 47 54 09 3e c3 e3 1c be 53 f1 c6 bd
       0.13290629 0.13411056 -0.15321259 -0.09713998
0001e0 43 02 fe 3d 92 8a 9f bd 3b ed ab 3d 0e f6 83 3d
       0.12402775 -0.07790102 0.083948575 0.064434156
0001f0 c2 5f 54 bd b2 d5 25 bd 2b 4e 0a be 7c 05 fa bc
       -0.051849134 -0.040487 -0.13506381 -0.030520193
000200 c9 a4 8d 3c 7d 71 96 3b 8f 9e ad be 34 28 b8 bb
       0.01729049 0.0045911656 -0.33910033 -0.005620027
000210 1b 82 0b 3e cb c9 12 3c ff 9f 32 3e f6 b2 0e bd
       0.1362385 0.008959244 0.17443846 -0.03483864
000220 63 29 e4 3d cd 1a e5 bd b7 e4 e0 3d d7 6f 19 be
       0.111407064 -0.111867525 0.10981124 -0.1498407
000230 9e 39 40 3e 33 42 3d bd 26 3a ce bc af 60 86 bd
       0.18771979 -0.04620571 -0.025174212 -0.0656141
000240 70 71 dc 3d 3f c6 67 3d 44 e1 1f bd 45 15 8d be
       0.10763824 0.056585547 -0.03903319 -0.2755529
000250 86 0a a9 bc fe 0f fa bd 10 c5 49 3e ec 0e cc bc
       -0.0206349 -0.122100815 0.1970408 -0.024909459
000260 f9 38 b9 3c 92 10 dd 3c cf 8b 6c bd 92 44 c1 bd
       0.022610174 0.02698544 -0.05775052 -0.09436907
000270 46 3c 83 be 60 0c f2 3c 61 43 31 3e 02 f5 fd 3d
       -0.25631922 0.029546916 0.1731086 0.12400247
000280 30 b7 33 3d 0e 0d 0b bd e0 fc ca 3d 1b b2 af bd
       0.043875873 -0.033947997 0.09911513 -0.08578893
000290 4f b9 09 be 83 be 03 3d fe c7 a7 bd 0b 6c 3a 3e
       -0.13449596 0.032164108 -0.08192442 0.18205278
0002a0 dd 95 b6 3d 22 cf d4 bd 47 e3 40 be a7 e7 00 3e
       0.08915303 -0.1039107 -0.188367 0.12588368
0002b0 19 34 18 3e 5e f3 39 be a9 96 11 3e 67 68 3c 3e
       0.14863624 -0.18159243 0.14217629 0.18399201
0002c0 a0 38 49 3c 8e 83 f9 bd 2e 12 0c bd 83 23 19 be
       0.012281567 -0.12183295 -0.034197025 -0.14954953
0002d0 de dd 11 3e 05 13 83 bb d2 e9 87 3d 93 99 85 bd
       0.14244792 -0.00400007 0.066363946 -0.065234326
0002e0 10 6a 1d 3d e4 7d 10 be 92 3f 5f 3d 94 b3 23 be
       0.038431227 -0.14110523 0.054503985 -0.15986472
0002f0 76 da de 3d 9e f8 72 bd ee 6a 1f be 8a d2 c9 bd
       0.10881512 -0.05931913 -0.15568134 -0.0985461
000300 f8 6b 50 3e 7d ae e4 bd df c4 78 3d d3 ec 30 bd
       0.20353687 -0.111660935 0.060734626 -0.043194603
000310 56 17 9e 3d de e8 a4 3c be 45 0f bc bc 85 5a bd
       0.07719295 0.020130571 -0.008744655 -0.053350195
000320 e1 24 bf bc 93 82 76 3d 76 90 3e bc 32 42 2e be
       -0.023333015 0.06018312 -0.011631122 -0.17017439
000330 e2 dd 80 bc 27 55 74 3e 08 ae 6a bc 33 b8 31 be
       -0.015730802 0.23860608 -0.014323719 -0.17355423
000340 9f af 87 bd 28 af aa 3d 42 84 cf bd 2a 6e 4b 3c
       -0.06625294 0.0833419 -0.10132648 0.012416402
000350 4c f4 ac bc 8d 3b b0 bd 8e d0 1f bc 87 f5 61 3d
       -0.021112584 -0.086051084 -0.009754313 0.055165794
000360 95 ae 70 3a d2 60 24 be c1 31 d7 3d b4 a5 45 bd
       0.0009181288 -0.16052559 0.10507537 -0.04825373
000370 ef 6d 2b 3e 17 e6 00 bd e9 12 85 3d 24 6c c4 bd
       0.16741155 -0.03146943 0.064977475 -0.09590939
000380 a4 0d 7d 3d 3f ed 66 3e ee 9b 85 3e 8b ee ec 3c
       0.061780587 0.2255144 0.26095527 0.02892234
000390 10 23 e2 3d 20 1a 4c be 44 0e 9c 3d 22 48 46 bd
       0.11041844 -0.19931841 0.076199085 -0.048408635
0003a0 63 57 2d 3e ec 4b 90 3d 6b c0 05 bc f9 a4 88 bd
       0.16927867 0.07045731 -0.008163552 -0.06672091
0003b0 3e d7 13 3e 16 3e ff bb 55 cb 49 3d 00 e8 10 3e
       0.14437577 -0.0077893836 0.04926618 0.14151001
0003c0 50 74 37 be 82 91 53 3e de e7 81 bb 95 ce c3 3d
       -0.17915463 0.20660976 -0.0039644083 0.09560887
0003d0 5c e2 08 bc 1e aa 29 bb 1b 92 04 3b 76 01 2b be
       -0.0083547495 -0.0025888751 0.0020228687 -0.16699776
0003e0 33 11 44 3e 35 f9 f4 bd ee 81 3c 3e fa ad 2e bd
       0.19147186 -0.11961595 0.18408939 -0.042646386
0003f0 29 99 a5 3c a8 09 c8 bd 5b c6 1d be 3d 15 1a 3e
       0.020214634 -0.09767467 -0.15407698 0.15047164

lstms.0.bias_ih_l0 f4 [128]
000000 aa 84 f4 3c b9 cd 2b 3d df 1b 35 3d b1 1e bc bc
       0.029848415 0.04194424 0.044216033 -0.022963854
000010 7b 8f 1c 3d 05 ec a0 3c 4f 5d 3e 3d 8b c0 ad 3b
       0.03822277 0.019643793 0.046475705 0.005302494
000020 7b 22 33 3d de 49 71 3b 87 fc 10 bc 66 55 1c 3d
       0.043734055 0.003681771 -0.00884927 0.03816738
000030 dd 01 64 bc 43 e5 c9 bb aa 80 1d 3d c2 cc df 3c
       -0.01391646 -0.0061613633 0.03845278 0.027319316
000040 98 21 0a 3d 23 58 da 3c d6 68 2d 3d e7 88 b0 3c
       0.033723444 0.026653355 0.042336307 0.021549655
000050 31 51 43 3d f8 70 18 3d 26 50 7a ba ba 25 2c 3d
       0.047684852 0.03721711 -0.0009548686 0.042028166
000060 69 8b 4a bc 99 61 38 3d ba 94 c0 3b 49 b7 2b 3b
       -0.0123623395 0.04501495 0.0058771046 0.0026201776
000070 2a ee 16 3d bd 9c 19 3d 17 36 2e 3d 61 42 d6 3c
       0.036848225 0.037502993 0.042532053 0.026154699
000080 2d dc d2 3c e7 ab 17 3d 7e 2b 29 3d 56 1f bd bc
       0.025739754 0.037029173 0.041301243 -0.023086231
000090 49 87 03 3d 55 39 84 3c 43 e8 29 3d 49 dd d7 3b
       0.03211144 0.01614062 0.041481268 0.0065876585
0000a0 d7 81 1c 3d 8a 99 5b 3b 45 17 30 bc c3 4b 09 3d
       0.038209762 0.0033508264 -0.010747735 0.033519518
0000b0 f5 ad 63 bc d7 56 d6 bb 0a 0c 0d 3d 9e 8c ab 3c
       -0.013896455 -0.006541114 0.03443531 0.020941075
0000c0 2e 30 f9 3c 1d 60 b5 3c 29 74 16 3d dc b1 96 3c
       0.030418482 0.022140557 0.036731873 0.018395357
0000d0 02 b5 2a 3d 70 de 04 3d 98 3f fd ba 21 4b 19 3d
       0.04167653 0.032438695 -0.001932132 0.037425164
0000e0 0f db 44 bc a2 36 1e 3d d5 76 23 3b e8 57 6c bb
       -0.012015118 0.03862632 0.0024942656 -0.0036063138
0000f0 4a ab 03 3d 09 3e 0f 3d ef f3 1b 3d 08 81 bf 3c
       0.032145776 0.03497127 0.03807443 0.023376957
000100 32 fd a6 3b aa 2d d8 bb d6 de 3b 3c 27 f2 09 bb
       0.005096101 -0.0065972405 0.011466702 -0.0021048875
000110 c7 1f 0c bc f0 70 d6 bc 74 07 8d 3a ad a0 f2 3c
       -0.008552498 -0.0261769 0.0010759667 0.029617632
000120 37 b1 d4 3a 00 9a c2 bc da 12 1c bc 05 28 3a bc
       0.001622713 -0.023755074 -0.009525979 -0.01136208
000130 18 75 ac 3c 28 3a bf 3c 01 53 62 3b 16 fd 34 3c
       0.021051928 0.02334316 0.0034534337 0.0110466685
000140 36 4d 53 bc 1e e0 e4 bb d6 5b 9c ba 98 0c 83 3a
       -0.0128968265 -0.0069847247 -0.0011929225 0.000999826
000150 b6 51 aa 3b 10 8c c4 bb d7 48 d2 bc c4 59 b1 3b
       0.005197729 -0.005998142 -0.025669498 0.005412312
000160 68 aa aa 3b f9 44 c4 3a d0 70 ca 3a 13 90 b6 3a
       0.0052083023 0.0014974169 0.0015444998 0.0013928436
000170 90 40 32 bb 2a e5 00 bc 6a 3a 84 bb 1f e9 e4 3c
       -0.0027199127 -0.007867137 -0.004035284 0.027943192
000180 87 77 ed 3c 53 35 2d 3d c8 43 2f 3d 42 b8 b5 bc
       0.02898766 0.042287182 0.04278925 -0.022182588
000190 8a 32 1a 3d 67 df 96 3c fa e1 3e 3d 11 30 0f 3c
       0.037645854 0.018417073 0.046602227 0.008739487
0001a0 31 8a 2c 3d c7 a7 78 3b ef a3 0e bc 7f 21 1a 3d
       0.042123977 0.00379418 -0.008706077 0.0376296
0001b0 6b 43 48 bc 31 bd d3 bb 30 90 1b 3d c0 4d e0 3c
       -0.012223105 -0.0064617624 0.037979305 0.027380824
0001c0 c7 cd 08 3d 54 67 ce 3c 31 2a 31 3d fc c1 b0 3c
       0.03339937 0.025195755 0.043253127 0.021576874
0001d0 8e c8 3f 3d cf 54 17 3d 97 3a bc ba 89 18 2a 3d
       0.046822123 0.036946114 -0.0014360723 0.041527305
0001e0 9e cd 46 bc c8 45 44 3d 36 1c ca 3b be 0c de 3a
       -0.012133984 0.04791811 0.006167914 0.0016941053
0001f0 3c 7f 14 3d 04 b5 23 3d 2e 72 25 3d 0e 79 e6 3c
       0.036254153 0.03996755 0.040392093 0.028133895

lstms.0.bias_hh_l0 f4 [128]
000000 aa 84 f4 3c b9 cd 2b 3d df 1b 35 3d b1 1e bc bc
       0.029848415 0.04194424 0.044216033 -0.022963854
000010 7b 8f 1c 3d 05 ec a0 3c 4f 5d 3e 3d 8b c0 ad 3b
       0.03822277 0.019643793 0.046475705 0.005302494
000020 7b 22 33 3d de 49 71 3b 87 fc 10 bc 66 55 1c 3d
       0.043734055 0.003681771 -0.00884927 0.03816738
000030 dd 01 64 bc 43 e5 c9 bb aa 80 1d 3d c2 cc df 3c
       -0.01391646 -0.0061613633 0.03845278 0.027319316
000040 98 21 0a 3d 23 58 da 3c d6 68 2d 3d e7 88 b0 3c
       0.033723444 0.026653355 0.042336307 0.021549655
000050 31 51 43 3d f8 70 18 3d 26 50 7a ba ba 25 2c 3d
       0.047684852 0.03721711 -0.0009548686 0.042028166
000060 69 8b 4a bc 99 61 38 3d ba 94 c0 3b 49 b7 2b 3b
       -0.0123623395 0.04501495 0.0058771046 0.0026201776
000070 2a ee 16 3d bd 9c 19 3d 17 36 2e 3d 61 42 d6 3c
       0.036848225 0.037502993 0.042532053 0.026154699
000080 2d dc d2 3c e7 ab 17 3d 7e 2b 29 3d 56 1f bd bc
       0.025739754 0.037029173 0.041301243 -0.023086231
000090 49 87 03 3d 55 39 84 3c 43 e8 29 3d 49 dd d7 3b
       0.03211144 0.01614062 0.041481268 0.0065876585
0000a0 d7 81 1c 3d 8a 99 5b 3b 45 17 30 bc c3 4b 09 3d
       0.038209762 0.0033508264 -0.010747735 0.033519518
0000b0 f5 ad 63 bc d7 56 d6 bb 0a 0c 0d 3d 9e 8c ab 3c
       -0.013896455 -0.006541114 0.03443531 0.020941075
0000c0 2e 30 f9 3c 1d 60 b5 3c 29 74 16 3d dc b1 96 3c
       0.030418482 0.022140557 0.036731873 0.018395357
0000d0 02 b5 2a 3d 70 de 04 3d 98 3f fd ba 21 4b 19 3d
       0.04167653 0.032438695 -0.001932132 0.037425164
0000e0 0f db 44 bc a2 36 1e 3d d5 76 23 3b e8 57 6c bb
       -0.012015118 0.03862632 0.0024942656 -0.0036063138
0000f0 4a ab 03 3d 09 3e 0f 3d ef f3 1b 3d 08 81 bf 3c
       0.032145776 0.03497127 0.03807443 0.023376957
000100 32 fd a6 3b aa 2d d8 bb d6 de 3b 3c 27 f2 09 bb
       0.005096101 -0.0065972405 0.011466702 -0.0021048875
000110 c7 1f 0c bc f0 70 d6 bc 74 07 8d 3a ad a0 f2 3c
       -0.008552498 -0.0261769 0.0010759667 0.029617632
000120 37 b1 d4 3a 00 9a c2 bc da 12 1c bc 05 28 3a bc
       0.001622713 -0.023755074 -0.009525979 -0.01136208
000130 18 75 ac 3c 28 3a bf 3c 01 53 62 3b 16 fd 34 3c
       0.021051928 0.02334316 0.0034534337 0.0110466685
000140 36 4d 53 bc 1e e0 e4 bb d6 5b 9c ba 98 0c 83 3a
       -0.0128968265 -0.0069847247 -0.0011929225 0.000999826
000150 b6 51 aa 3b 10 8c c4 bb d7 48 d2 bc c4 59 b1 3b
       0.005197729 -0.005998142 -0.025669498 0.005412312
000160 68 aa aa 3b f9 44 c4 3a d0 70 ca 3a 13 90 b6 3a
       0.0052083023 0.0014974169 0.0015444998 0.0013928436
000170 90 40 32 bb 2a e5 00 bc 6a 3a 84 bb 1f e9 e4 3c
       -0.0027199127 -0.007867137 -0.004035284 0.027943192
000180 87 77 ed 3c 53 35 2d 3d c8 43 2f 3d 42 b8 b5 bc
       0.02898766 0.042287182 0.04278925 -0.022182588
000190 8a 32 1a 3d 67 df 96 3c fa e1 3e 3d 11 30 0f 3c
       0.037645854 0.018417073 0.046602227 0.008739487
0001a0 31 8a 2c 3d c7 a7 78 3b ef a3 0e bc 7f 21 1a 3d
       0.042123977 0.00379418 -0.008706077 0.0376296
0001b0 6b 43 48 bc 31 bd d3 bb 30 90 1b 3d c0 4d e0 3c
       -0.012223105 -0.0064617624 0.037979305 0.027380824
0001c0 c7 cd 08 3d 54 67 ce 3c 31 2a 31 3d fc c1 b0 3c
       0.03339937 0.025195755 0.043253127 0.021576874
0001d0 8e c8 3f 3d cf 54 17 3d 97 3a bc ba 89 18 2a 3d
       0.046822123 0.036946114 -0.0014360723 0.041527305
0001e0 9e cd 46 bc c8 45 44 3d 36 1c ca 3b be 0c de 3a
       -0.012133984 0.04791811 0.006167914 0.0016941053
0001f0 3c 7f 14 3d 04 b5 23 3d 2e 72 25 3d 0e 79 e6 3c
       0.036254153 0.03996755 0.040392093 0.028133895

lstms.1.weight_ih_l0 f4 [128, 32]
000000 9d 94 56 bd c3 14 15 3d 62 02 13 3d 3a d2 d3 bd
       -0.052387822 0.036396753 0.035890944 -0.10342832
000010 d9 8d 16 bd 4d 43 02 3e dd 22 59 3c 2a 57 87 3e
       -0.03675637 0.12720986 0.013252941 0.26433688
000020 4e 75 c5 3c b4 45 05 3b f8 90 81 bd 34 c5 f1 bd
       0.024103787 0.0020335736 -0.06326479 -0.11805192
000030 e8 44 3d bb eb 8a c8 bd 9a 72 c8 3d 05 d7 97 3d
       -0.0028880183 -0.097921215 0.097874835 0.074140586
000040 93 bd aa 3d 72 6c d9 3d de 81 ab 3b 44 a5 63 3e
       0.0833694 0.106163874 0.0052339872 0.22231013
000050 26 33 72 3d 5a 94 51 be a3 b2 09 be 53 58 d5 3d
       0.05913081 -0.20466748 -0.13447051 0.10417237
000060 8f fe a6 3c 17 9a d3 3c b7 d7 f8 bc c1 6c a4 bc
       0.020385055 0.025830312 -0.030376298 -0.02007139
000070 9f f6 10 bd 47 0b fa bd 43 cd 12 3e da 3c 51 3e
       -0.035391446 -0.12209182 0.14336114 0.2043337
000080 ec 19 b0 3a ae 6b af bd 49 2f bc bd b6 97 56 3d
       0.001343546 -0.0856546 -0.091887064 0.052390777
000090 e2 1e 2d 3d d1 95 e8 3d 9a f4 7f be 0b 4f 2c be
       0.04226578 0.113567 -0.24995652 -0.16827027
0000a0 a2 8d 59 be d7 99 29 be 68 c6 91 bb 84 41 db 3d
       -0.21245435 -0.16562591 -0.0044487007 0.107058555
0000b0 de e8 ff 3d 45 4c 5d 3e 80 3c 83 3c a8 5c 33 3d
       0.12495588 0.21611126 0.01602006 0.043789536
0000c0 93 45 7a bd cb 8f 41 3d 93 0e 8b bd 75 9d 12 bd
       -0.061101507 0.047256272 -0.06789889 -0.035794694
0000d0 53 07 d0 3c c9 f4 25 3e 4e 1a 2b 3e d5 88 b1 bb
       0.025394117 0.1620666 0.16709253 -0.005417923
0000e0 28 9b 2c bd 6d 61 1c 3e 22 5a e7 3d 19 df 77 3e
       -0.042140156 0.1527154 0.11296488 0.24206199
0000f0 18 57 05 3e 08 ee 99 3e 1a 01 b5 3d 66 e4 a3 3d
       0.13021505 0.30064416 0.08838101 0.08002548
000100 b3 f2 0b be b2 0b 1d 3b 26 97 a2 3b d1 ce 6c 3d
       -0.13666801 0.002396327 0.004961866 0.057814423
000110 b3 a9 de bc c7 51 d3 bd 79 11 1c be 2e da 7d bd
       -0.027180528 -0.10318332 -0.1524104 -0.06197565
000120 9c a7 04 3d b6 3b 68 3c 47 24 a0 bd 3f f9 30 3e
       0.032386407 0.014174392 -0.07819419 0.1728258
000130 31 67 1b bd 50 81 5e be 48 72 00 3d 12 36 45 3c
       -0.037940208 -0.21729016 0.031358987 0.012036817
000140 89 da 25 be 69 cf 98 ba 6c f1 ae 3c 77 81 c9 bd
       -0.16196646 -0.0011658493 0.021355353 -0.098391466
000150 93 8b 8f 3c 23 e8 a5 bd 0b 19 bb 3c d0 f5 82 3d
       0.017522609 -0.08100917 0.02283909 0.06394541
000160 60 c1 ef 3c 77 2c f2 bc 09 45 13 3d 1b 38 fe 3d
       0.029267013 -0.029562218 0.03595451 0.12413045
000170 e7 f5 2f be 27 8e 92 bd 28 71 ce 3c 63 eb 50 be
       -0.17183648 -0.0715602 0.025200441 -0.20402293
000180 13 5c b6 bd 5d 57 48 be 5f d1 89 3d 82 b8 b8 3d
       -0.089042805 -0.19564576 0.067293875 0.09019567
000190 f5 b3 2d be da 01 2c be 88 63 d7 3d 7b 03 36 be
       -0.1696318 -0.16797581 0.10517031 -0.17774765
0001a0 b1 51 9a bd f9 2f c4 bc c2 6e d9 bd 10 9c ed bd
       -0.07535113 -0.023948656 -0.106168285 -0.11602032
0001b0 0f a2 11 be 26 59 20 bd c2 e3 5a bd 17 a3 1a 3e
       -0.14221977 -0.03914752 -0.053439863 0.15101276
0001c0 1b a9 29 bd 7e ce 92 3b 36 07 80 bc 88 13 22 3d
       -0.041421037 0.004480182 -0.015628438 0.039569408
0001d0 f1 23 08 3c 5e 4d a4 bc 6f 9e 77 3d 8e 62 5b 3d
       0.00830935 -0.020056423 0.06045383 0.053560786
0001e0 e3 26 14 3d 3a 4f 3d be 21 73 86 3d 8b d5 ce 3c
       0.036169898 -0.18487254 0.06564928 0.02524831
0001f0 2e c6 01 3c 9a 06 5a 3b 35 97 c2 bd 45 9b 31 ba
       0.007920785 0.0033268095 -0.09501497 -0.0006775151
000200 ca 0b 0a 3e 0f d8 01 be c2 6e 53 3d 15 2d 34 3e
       0.1348106 -0.12680076 0.0516193 0.17595322
000210 9a df 41 3d dd 42 85 bc fe 94 ba bc 63 89 21 3e
       0.047332384 -0.016267234 -0.022776123 0.15775065
000220 89 55 01 3d b5 e8 48 3e 46 d6 d7 bd 32 af 07 3d
       0.031575713 0.1962002 -0.10538916 0.033126064
000230 82 6d 8b bc e0 c6 83 3e 76 5a f8 3c 70 7f 47 bc
       -0.01701999 0.25737667 0.030316573 -0.01217638
000240 15 5e 99 3d f7 d9 a0 bd 63 95 91 3c ec 0d 85 3c
       0.07488648 -0.078540735 0.017771428 0.01624199
000250 79 b0 ae 3b b7 90 39 bc b1 c9 3d 3d 1f 6d 31 bc
       0.005331096 -0.011326007 0.046334926 -0.010829239
000260 a6 62 0b 3e 2c 4f 83 bc 66 69 07 be 6b 01 ba bc
       0.1361185 -0.016028963 -0.132238 -0.022705754
000270 6b 19 a5 bd bf af 01 be 2c bc 4d 3d c0 77 0f 3e
       -0.08061489 -0.12664698 0.050228283 0.14010525
000280 3d 70 02 3d 7b 89 40 bd 51 38 23 bc 14 83 ee ba
       0.03184532 -0.04700611 -0.009962157 -0.0018197023
000290 87 fb a8 bd 72 47 da bd 0b 4f 41 be d5 e4 4b 3e
       -0.082511 -0.10658158 -0.18877809 0.19911511
0002a0 f0 73 71 bd c0 4b ce 3d 07 64 9c bd 4d 09 3b 3c
       -0.058948457 0.10073042 -0.07636266 0.011415792
0002b0 a8 73 50 3d 7b 27 95 3d 61 cd 0b 3e d8 07 c4 bb
       0.05089155 0.07282921 0.13652565 -0.0059823804
0002c0 31 c9 92 bd 0d 19 25 3e b4 8b 37 be 82 a9 2d 3c
       -0.071672805 0.16122837 -0.17924386 0.010599496
0002d0 f5 35 ab 3d 36 2f cb bd 19 7e 55 bd 18 97 f1 3d
       0.08359901 -0.09921114 -0.05212221 0.11796397
0002e0 3f ac bf 3d 4a 09 17 3e 23 ac 88 bd 5a 51 69 3e
       0.09359025 0.14749637 -0.066734575 0.2278494
0002f0 40 c1 aa bc 34 9b 3d be 0a 99 21 3d fb c0 56 be
       -0.020844102 -0.18516237 0.03945259 -0.20972054
000300 16 03 95 bd 98 91 41 bd a7 1e 3d 3d 65 b9 3a bd
       -0.07275979 -0.04725799 0.04617181 -0.045586962
000310 3e 77 00 be 60 59 b1 3c 4c 48 bc bd 6d 14 c3 3d
       -0.12545487 0.021649063 -0.09193477 0.0952538
000320 88 1a 99 bd 95 70 3b 3d ed ba bd 3a 84 4d 84 bd
       -0.074757636 0.045761663 0.0014475264 -0.064600974
000330 6d 72 23 3e b5 36 a5 3d a2 c9 0c bd 09 ef 1b 3e
       0.15961619 0.08067075 -0.03437198 0.15227903
000340 ae 55 90 3d de af e3 3c dd b1 14 3e 64 17 d1 3d
       0.07047592 0.027793821 0.14520974 0.102095395
000350 bb 13 9f 3d 54 e2 09 3e 0f 3b 54 3e cb ee a9 bc
       0.07767435 0.13465244 0.20725654 -0.020743748
000360 d8 b8 83 3d 9d e0 3b 3c 80 ef c0 3d be 06 88 bd
       0.064317405 0.011467126 0.09420681 -0.06641911
000370 38 ff 7d 3d 04 5b bc bd da 65 88 bd a3 c0 a2 bd
       0.062010974 -0.09197047 -0.06660052 -0.07946899
000380 6e 2c 61 3e f5 c0 0a 3e 68 36 2e bb 32 29 02 3e
       0.21989605 0.1355017 -0.0026582722 0.12711027
000390 4b 5e bb bb 28 0b f3 bd cf 47 8a bd 2c b5 e6 3b
       -0.0057180277 -0.11867362 -0.06751978 0.0070406403
0003a0 56 ae 88 3c dc 66 07 bd 3d 4a 6f bc 80 d7 13 bd
       0.016684692 -0.03305708 -0.014605102 -0.03609419
0003b0 b3 bb 1f 3e 1d 03 5a 3e 00 a5 fe 3d 42 3f 83 3d
       0.15598945 0.2129025 0.12433815 0.0640855
0003c0 d4 94 4b bd d2 c1 a7 3d 20 a0 07 bd 97 65 9a 3b
       -0.04970248 0.08191265 -0.03311169 0.0047118175
0003d0 04 7a 2b be c5 59 d7 3b d3 08 92 3d ff f5 c5 3d
       -0.16745764 0.0065719807 0.07130589 0.09666061
0003e0 2a 49 08 3d 11 ef c9 bd 98 d7 f4 3c 53 8a 68 3d
       0.0332729 -0.098600514 0.02988796 0.05677254
0003f0 99 c9 ab bd 06 1e 1b be 83 b4 03 3e 09 a6 06 3e
       -0.08388061 -0.15148172 0.12861829 0.13149275

lstms.1.weight_hh_l0 f4 [128, 32]
000000 c8 fd 84 bd 0a 73 81 bd 91 5d 4f 3d 14 62 fb 3c
       -0.064937174 -0.0632077 0.05062634 0.030686416
000010 08 8a 2d 3d 7e ca 2c 3e 6c ee 0d bc 43 a1 90 bd
       0.042367965 0.1687412 -0.008662801 -0.07062008
000020 98 a4 84 be b4 66 8e 3d ba 0b d9 3c c5 24 b5 bd
       -0.25906825 0.06953183 0.02649485 -0.08844904
000030 06 97 15 3e 9c 13 22 be ce 52 5e 3e 1e f5 f2 3c
       0.14608392 -0.15827793 0.21711275 0.029657897
000040 94 4e 9a bd a6 4b 8e bd 1d a8 19 be 7e a3 ab ba
       -0.07534519 -0.069480225 -0.15005536 -0.0013094989
000050 6a 75 51 3e a4 ec aa 3d 1a be 43 3c f7 75 86 be
       0.20454946 0.08345917 0.011947179 -0.26261875
000060 96 3c 61 be bb 31 82 bc 86 22 81 3c 5d 9d 37 3e
       -0.21995768 -0.015892854 0.015763532 0.17931123
000070 bf 94 48 bd f4 e5 4b bd c4 5f 84 3c 75 2d ed 3c
       -0.04896998 -0.049779847 0.016158946 0.02895234
000080 32 c4 d3 3d c6 82 19 be 21 13 0c 3e 35 b6 db bd
       0.10340156 -0.14991292 0.13679172 -0.107281126
000090 83 ce 38 3c df d2 0f 3d 71 58 ee bd a4 54 75 3d
       0.011279705 0.03511321 -0.116379626 0.059895173
0000a0 c8 04 d4 bd 04 e2 3a 3d 90 da 37 be d7 41 b2 bd
       -0.103524745 0.0456257 -0.17954469 -0.08703964
0000b0 6f 56 e1 bb 98 51 aa 3c 81 17 90 bc b6 68 47 3d
       -0.0068767588 0.02079086 -0.017589333 0.048683845
0000c0 50 d1 2f be 4f b8 0f 3e 40 d4 20 bd 90 ea 0f 3e
       -0.1716969 0.14035152 -0.039264917 0.14054322
0000d0 ec 49 c3 3d bd be 19 be 54 45 86 3c f3 55 59 bd
       0.09535584 -0.15014167 0.01639048 -0.053060483
0000e0 cc 8f 84 3d 9a 3c f7 bd f1 1c 4a 3e bb 9a ae bc
       0.064727396 -0.12072106 0.19737603 -0.021314016
0000f0 b8 4e d1 bd 42 50 04 be 76 87 8c 3e 03 19 d0 bc
       -0.102200925 -0.12921241 0.27447098 -0.025402552
000100 66 67 81 be 2a b5 94 3a a3 b7 cd 3d 9c 6d c3 3d
       -0.252742 0.0011345495 0.100447915 0.09542391
000110 ef e2 44 3d 04 f0 53 3c 6f b9 31 bb 10 a0 5a 3e
       0.048067983 0.012935642 -0.0027118584 0.21350121
000120 5b fb 3d 3e 80 ae f3 bd 02 ce 6f bd 8e 81 15 3e
       0.18552916 -0.118985176 -0.058546074 0.14600202
000130 f2 40 bb bd 77 a6 69 be 79 9e a1 3a 8b 92 1d be
       -0.09143247 -0.22817408 0.0012330554 -0.15387933
000140 0c 16 4e 3d 4d cf 3b 3d fd 22 c2 bd 5f 16 c4 bd
       0.050313994 0.045851994 -0.0947933 -0.095745794
000150 dd e0 b5 3d 9e 2e 55 3e bf da 92 3e 80 6b c6 3c
       0.0888078 0.20818564 0.28682515 0.024221182
000160 e5 98 dd 3d 52 37 6e bd e6 6a 3c 3d 69 73 be 3c
       0.10820178 -0.058158226 0.046000384 0.023248391
000170 8d c8 02 be 33 96 d9 bd 0b a4 df bd d1 93 d2 bc
       -0.12771817 -0.10624351 -0.109199606 -0.02570525
000180 08 82 91 3d b1 8d cf 3d 54 fe 9a bd dd a6 cd bd
       0.071048796 0.10134447 -0.075680405 -0.10041592
000190 7a 17 d3 bd ba a3 08 3e 82 cc 90 bd 50 a3 a5 3d
       -0.10307212 0.13343707 -0.07070257 0.0808779
0001a0 41 da 5b 3d fa 77 dc bd 53 56 b7 bc 9d e4 cf 3d
       0.05367494 -0.10765071 -0.02238003 0.101510264
0001b0 fb 8e a3 3d e9 9d 9a be 26 c1 5d bd 47 56 49 bd
       0.07986256 -0.301986 -0.05413928 -0.049154546
0001c0 85 e1 91 3d 97 91 54 be 4e d6 9d bd 16 89 ec 3c
       0.071230926 -0.20758663 -0.07706891 0.028873961
0001d0 50 01 ee 3b ab e8 1c be 6c 63 87 3d 63 a0 e6 3d
       0.00726334 -0.15323131 0.0661076 0.1126106
0001e0 35 cc ad bd cf 79 f6 3b dd 30 6f bd 51 d1 c3 bd
       -0.08486215 0.007521845 -0.05839621 -0.09561408
0001f0 7b 65 5b 3c b6 5a d3 bd 4d 35 fb bc e8 56 cc 3c
       0.013390894 -0.10320036 -0.030665064 0.024943784
000200 74 36 f6 3b 77 31 d8 bd 3f 37 68 3d a5 73 13 3e
       0.0075138155 -0.1055631 0.05669331 0.14399584
000210 2f 16 98 3d d3 e8 0c 3d 26 cf 32 bc 01 67 53 bd
       0.07426106 0.034401726 -0.010913646 -0.051611904
000220 0c 4d e9 bc fa 78 e3 3d 55 7f 39 be 5d 8a 2f bb
       -0.028479122 0.11107059 -0.1811498 -0.0026785352
000230 cd 3e 74 3d c6 29 47 bd 0f 03 21 be dc 09 79 be
       0.059630204 -0.048623823 -0.15723823 -0.24320167
000240 29 a5 79 be 33 ef 02 bd 7b 16 16 bd bb 07 02 be
       -0.2437941 -0.0319664 -0.036642533 -0.12698261
000250 e1 be 35 be 49 d2 3c 3d c5 72 3b 3d 72 5d 13 be
       -0.17748596 0.04609898 0.04576375 -0.14391115
000260 d6 61 71 3c f6 bf b8 bd ab c1 3c b8 f9 72 0c bc
       0.014732799 -0.09020989 -4.500306e-05 -0.0085723335
000270 e7 59 1a 3e 8d 46 09 3e 07 ed 9e bc 00 fa 5b 3d
       0.15073358 0.13405819 -0.019400133 0.053705215
000280 20 2b 1e 3e 73 bd 24 bd 39 5c 6f bd 8a 8e 0e 3d
       0.15446138 -0.040219735 -0.05843756 0.034803905
000290 7b e9 93 bd 60 53 02 3e c1 79 74 3d ac d2 f4 bd
       -0.07222267 0.12727118 0.059686426 -0.11954245
0002a0 07 be 25 3e 1a 51 8b be e0 db b0 3d 49 4d e5 3d
       0.16185771 -0.27210313 0.08635688 0.111963816
0002b0 a6 f5 83 bc 2e 86 05 be b8 5c 11 bb 63 00 a7 3c
       -0.016108345 -0.13039467 -0.0022180509 0.020385927
0002c0 c7 55 17 bd a6 dc 0f 3d 8c b3 3d bd bf 58 3c 3c
       -0.036947038 0.035122536 -0.046313807 0.011495768
0002d0 25 09 1a be 05 fe d7 3c a0 c9 6c bc 7c f0 06 3e
       -0.15042551 0.026366243 -0.014452368 0.13177675
0002e0 ed 88 23 3e eb 58 ac bc bd 4d a4 3d c1 92 c5 bd
       0.15970202 -0.021038493 0.0802264 -0.09647132
0002f0 92 ee df 3d 19 35 c9 3b 37 84 18 3e dc 40 67 3d
       0.109341756 0.006140363 0.14894186 0.05645834
000300 bc 0e 41 be 85 b3 59 bc 67 5f d8 3c be d0 35 3d
       -0.18853277 -0.01328743 0.026412679 0.044388525
000310 df 6e 67 bd 71 e0 17 bd fc 7e 8a 3d 28 fe bb bb
       -0.05650222 -0.03707928 0.067625016 -0.005737085
000320 9e df 64 3e 40 cc bd bd 39 3e 12 bd 85 86 e6 3d
       0.22350928 -0.09267473 -0.03570387 0.11256126
000330 1a 41 75 be d5 3b f5 3d ff cf 8b 3d ce 5a 73 3d
       -0.23950616 0.11974303 0.068267815 0.05941277
000340 05 53 81 3e 9b 96 c1 bd fc 33 29 be 30 28 f3 bc
       0.2525865 -0.09452554 -0.16523737 -0.029682249
000350 e6 9c 69 be 06 bf 9f bd fc 72 cb bd ac aa 1a be
       -0.22813758 -0.07800107 -0.09934041 -0.15104169
000360 07 e4 62 be b2 56 bb 3c b8 7f 25 3d 3a 34 2d 3e
       -0.22157298 0.022868488 0.040405005 0.16914454
000370 45 ad f1 3d 99 75 07 3c d1 b5 1c 3e 32 a0 92 3c
       0.11800627 0.008267784 0.15303732 0.017898653
000380 95 58 f4 bd 90 5e 6d bc ed c4 c9 3c 2c 95 ec 3d
       -0.11930958 -0.0144878775 0.024630034 0.1155189
000390 e5 9b 7c be f9 ad 82 bd 5a 0d 4a 3d 08 22 69 3d
       -0.24668844 -0.06380839 0.04932914 0.05691722
0003a0 73 61 96 bb c3 65 7c bd f2 46 07 be 58 f1 0f 3e
       -0.0045892536 -0.061620485 -0.13210657 0.14056909
0003b0 d7 cb 0b 3b 73 cf 16 3e 85 52 8e bd 88 49 d8 3d
       0.0021331215 0.14727573 -0.06949333 0.105609
0003c0 4a 23 14 3b 39 19 7b 3c 3b 35 c5 3c 94 a5 de 3b
       0.0022604042 0.015325838 0.024073234 0.006794641
0003d0 63 ae e3 bd 94 17 59 be fb ca 7f 3e 2f 77 13 3d
       -0.11117246 -0.212004 0.24979775 0.036002334
0003e0 dd 62 73 3d 49 02 07 be 5b af 31 3d b0 7c 88 bc
       0.059420455 -0.13184465 0.043380123 -0.016661018
0003f0 07 2b a9 3d a0 98 cd bc 91 55 b8 3c f5 4d 58 be
       0.0826016 -0.025097191 0.022501739 -0.21123488

lstms.1.bias_ih_l0 f4 [128]
000000 eb 5c 5f 3d e7 29 3b 3d 9c 22 ce 3c f5 69 9d 3c
       0.054531973 0.045694258 0.025162987 0.019215563
000010 1b d3 28 3d d6 7f d5 3c 52 1b e1 bb ca 33 fd 3c
       0.04121695 0.026061933 -0.006869712 0.030908484
000020 04 08 3a 3d 80 f6 43 3d 06 20 04 3c 73 6b 1c 3d
       0.0454178 0.047842503 0.008064276 0.03818841
000030 1d 8c 2b 3d 2b 7f 32 3d dd aa 62 3c 37 b4 22 3d
       0.04188167 0.043578308 0.013834682 0.039722648
000040 d4 07 46 3d 70 b2 8b ba 7b dc 0d 3d a0 8f 3d 3d
       0.04834731 -0.0010658037 0.034634095 0.04627955
000050 c3 c3 11 3c 5c e8 29 3d e1 79 31 3d ca 83 35 3d
       0.008896771 0.04148136 0.043329123 0.044315137
000060 a2 59 24 3c d4 ff e8 3c 90 38 62 3c cc 6a 28 3d
       0.010031136 0.0284423 0.013807431 0.041117474
000070 93 9e a2 3c bf ed 3d 3d 1f 2b 47 3d 85 a8 25 3d
       0.019851005 0.04636931 0.048625108 0.040443916
000080 3e 05 4a 3d 3c 7f 17 3d 87 92 9f 3c 6d 95 91 3c
       0.049321406 0.036986575 0.01947905 0.017771447
000090 6e b5 13 3d 47 60 ae 3c 3d f3 2a bc 88 46 c5 3c
       0.036061697 0.021286143 -0.010433969 0.024081483
0000a0 70 8c 1f 3d c3 f6 21 3d a2 55 2b 3b ed ad ed 3c
       0.03895229 0.03954197 0.002614357 0.029013598
0000b0 b2 18 fe 3c a4 49 1a 3d 0d 45 e6 3b 7d 4e 06 3d
       0.031017635 0.037667885 0.0070272745 0.032789696
0000c0 f3 17 48 3d 23 75 b4 ba 76 0d eb 3c e1 d3 10 3d
       0.048850965 -0.001376782 0.028692942 0.035358313
0000d0 52 72 86 3a ba 30 13 3d d4 84 0e 3d 1c 95 16 3d
       0.0010257459 0.03593514 0.034794644 0.036763296
0000e0 90 fe 05 ba 3b 05 cc 3c 2a 07 14 3c dd 49 0e 3d
       -0.000511148 0.024904838 0.009034911 0.03473841
0000f0 85 f8 87 3c 21 55 22 3d 76 e7 22 3d 1b 52 07 3d
       0.016597996 0.039631967 0.03977152 0.033037286
000100 57 15 f8 3a ae 58 1c bb 95 4b a3 3b 16 28 d6 3a
       0.0018927258 -0.0023856568 0.0049833753 0.0016338851
000110 df 87 e9 ba 8d 7d 5f 3b bd f2 bb 3c 48 c3 0e bb
       -0.0017816982 0.0034101934 0.022942895 -0.0021783877
000120 ab 5b e8 b9 2a d9 0d ba de 10 8e bb e4 c9 c8 3a
       -0.00044318786 -0.0005411083 -0.004335507 0.0015318957
000130 12 33 0f 3c 34 cc 52 b7 ad 2f a9 39 63 91 1b bb
       0.008740203 -1.256452e-05 0.00032269713 -0.002373778
000140 f9 f5 90 bc 39 1c c7 bc 84 0e 9b bb 0f 0b 22 3b
       -0.017695414 -0.02430545 -0.004731955 0.002472583
000150 e5 5d 70 ba db cf 40 ba 03 6c c8 ba 8f 0a 40 3a
       -0.0009169265 -0.00073551916 -0.0015290979 0.0007325792
000160 89 5c 12 3b 8f cd 58 bb 9a 17 f5 39 ce cd d2 3a
       0.0022332987 -0.0033081507 0.00046747626 0.0016083063
000170 e0 bd fe 3b 8f 49 cc 3a b6 1a 6e ba d0 2a f8 3a
       0.0077740997 0.0015585887 -0.000908296 0.0018933658
000180 07 31 5e 3d 54 89 3f 3d bf 7b bf 3c cd 6a 96 3c
       0.054245975 0.046761826 0.023374436 0.018361473
000190 d6 08 27 3d 8d a0 d4 3c 17 f3 06 bc 5d 2c 01 3d
       0.04077991 0.025955463 -0.008236668 0.03153645
0001a0 a0 0e 44 3d ef 75 3e 3d 14 1a c2 3b 74 77 0d 3d
       0.04786551 0.04649919 0.005923519 0.034537748
0001b0 15 95 1b 3d c6 1f 2e 3d 6f 21 1b 3c a0 0b 2b 3d
       0.037983973 0.04251077 0.00946842 0.041759133
0001c0 c3 03 4b 3d 85 53 e9 b9 f0 e2 19 3d e4 e4 3a 3d
       0.049564134 -0.0004450345 0.03756994 0.045628443
0001d0 2a ca 23 3c ea 00 27 3d 87 32 28 3d f0 95 31 3d
       0.00999693 0.040772356 0.04106381 0.043355882
0001e0 89 c5 36 3c 24 4b d6 3c fd 65 52 3c 27 21 1e 3d
       0.0111554945 0.026158877 0.012841699 0.038605835
0001f0 2f a7 9a 3c df 48 47 3d f6 c4 41 3d 24 f6 1e 3d
       0.018878547 0.04865348 0.047306977 0.038808957

lstms.1.bias_hh_l0 f4 [128]
000000 eb 5c 5f 3d e7 29 3b 3d 9c 22 ce 3c f5 69 9d 3c
       0.054531973 0.045694258 0.025162987 0.019215563
000010 1b d3 28 3d d6 7f d5 3c 52 1b e1 bb ca 33 fd 3c
       0.04121695 0.026061933 -0.006869712 0.030908484
000020 04 08 3a 3d 80 f6 43 3d 06 20 04 3c 73 6b 1c 3d
       0.0454178 0.047842503 0.008064276 0.03818841
000030 1d 8c 2b 3d 2b 7f 32 3d dd aa 62 3c 37 b4 22 3d
       0.04188167 0.043578308 0.013834682 0.039722648
000040 d4 07 46 3d 70 b2 8b ba 7b dc 0d 3d a0 8f 3d 3d
       0.04834731 -0.0010658037 0.034634095 0.04627955
000050 c3 c3 11 3c 5c e8 29 3d e1 79 31 3d ca 83 35 3d
       0.008896771 0.04148136 0.043329123 0.044315137
000060 a2 59 24 3c d4 ff e8 3c 90 38 62 3c cc 6a 28 3d
       0.010031136 0.0284423 0.013807431 0.041117474
000070 93 9e a2 3c bf ed 3d 3d 1f 2b 47 3d 85 a8 25 3d
       0.019851005 0.04636931 0.048625108 0.040443916
000080 3e 05 4a 3d 3c 7f 17 3d 87 92 9f 3c 6d 95 91 3c
       0.049321406 0.036986575 0.01947905 0.017771447
000090 6e b5 13 3d 47 60 ae 3c 3d f3 2a bc 88 46 c5 3c
       0.036061697 0.021286143 -0.010433969 0.024081483
0000a0 70 8c 1f 3d c3 f6 21 3d a2 55 2b 3b ed ad ed 3c
       0.03895229 0.03954197 0.002614357 0.029013598
0000b0 b2 18 fe 3c a4 49 1a 3d 0d 45 e6 3b 7d 4e 06 3d
       0.031017635 0.037667885 0.0070272745 0.032789696
0000c0 f3 17 48 3d 23 75 b4 ba 76 0d eb 3c e1 d3 10 3d
       0.048850965 -0.001376782 0.028692942 0.035358313
0000d0 52 72 86 3a ba 30 13 3d d4 84 0e 3d 1c 95 16 3d
       0.0010257459 0.03593514 0.034794644 0.036763296
0000e0 90 fe 05 ba 3b 05 cc 3c 2a 07 14 3c dd 49 0e 3d
       -0.000511148 0.024904838 0.009034911 0.03473841
0000f0 85 f8 87 3c 21 55 22 3d 76 e7 22 3d 1b 52 07 3d
       0.016597996 0.039631967 0.03977152 0.033037286
000100 57 15 f8 3a ae 58 1c bb 95 4b a3 3b 16 28 d6 3a
       0.0018927258 -0.0023856568 0.0049833753 0.0016338851
000110 df 87 e9 ba 8d 7d 5f 3b bd f2 bb 3c 48 c3 0e bb
       -0.0017816982 0.0034101934 0.022942895 -0.0021783877
000120 ab 5b e8 b9 2a d9 0d ba de 10 8e bb e4 c9 c8 3a
       -0.00044318786 -0.0005411083 -0.004335507 0.0015318957
000130 12 33 0f 3c 34 cc 52 b7 ad 2f a9 39 63 91 1b bb
       0.008740203 -1.256452e-05 0.00032269713 -0.002373778
000140 f9 f5 90 bc 39 1c c7 bc 84 0e 9b bb 0f 0b 22 3b
       -0.017695414 -0.02430545 -0.004731955 0.002472583
000150 e5 5d 70 ba db cf 40 ba 03 6c c8 ba 8f 0a 40 3a
       -0.0009169265 -0.00073551916 -0.0015290979 0.0007325792
000160 89 5c 12 3b 8f cd 58 bb 9a 17 f5 39 ce cd d2 3a
       0.0022332987 -0.0033081507 0.00046747626 0.0016083063
000170 e0 bd fe 3b 8f 49 cc 3a b6 1a 6e ba d0 2a f8 3a
       0.0077740997 0.0015585887 -0.000908296 0.0018933658
000180 07 31 5e 3d 54 89 3f 3d bf 7b bf 3c cd 6a 96 3c
       0.054245975 0.046761826 0.023374436 0.018361473
000190 d6 08 27 3d 8d a0 d4 3c 17 f3 06 bc 5d 2c 01 3d
       0.04077991 0.025955463 -0.008236668 0.03153645
0001a0 a0 0e 44 3d ef 75 3e 3d 14 1a c2 3b 74 77 0d 3d
       0.04786551 0.04649919 0.005923519 0.034537748
0001b0 15 95 1b 3d c6 1f 2e 3d 6f 21 1b 3c a0 0b 2b 3d
       0.037983973 0.04251077 0.00946842 0.041759133
0001c0 c3 03 4b 3d 85 53 e9 b9 f0 e2 19 3d e4 e4 3a 3d
       0.049564134 -0.0004450345 0.03756994 0.045628443
0001d0 2a ca 23 3c ea 00 27 3d 87 32 28 3d f0 95 31 3d
       0.00999693 0.040772356 0.04106381 0.043355882
0001e0 89 c5 36 3c 24 4b d6 3c fd 65 52 3c 27 21 1e 3d
       0.0111554945 0.026158877 0.012841699 0.038605835
0001f0 2f a7 9a 3c df 48 47 3d f6 c4 41 3d 24 f6 1e 3d
       0.018878547 0.04865348 0.047306977 0.038808957

fc.weight f4 [1, 32]
000000 b1 3e eb 3d 18 da 0e 3e df 4d 89 bd 90 d7 da 3d
       0.11486567 0.13950384 -0.06704306 0.106856465
000010 5e 89 ee bd 5c 70 c1 bc e4 81 07 bd 7c 16 45 be
       -0.116472945 -0.023613147 -0.033082858 -0.19246858
000020 db 64 07 be a0 ac 48 3e dd b2 11 3e 22 a1 48 be
       -0.13222067 0.19597101 0.14228387 -0.19592717
000030 dd e9 ca bd c4 2c 45 3e 62 cf 00 3e 77 39 85 bd
       -0.09907887 0.19255358 0.1257911 -0.06505101
000040 96 b6 28 bd d4 eb a6 3c af 1c 9f 3d be fa f8 bd
       -0.041189753 0.020376123 0.07769143 -0.121572
000050 f4 f8 27 be 85 ad 3a 3e 04 c1 3d be 55 6d e5 3d
       -0.16403562 0.18230255 -0.18530661 0.11202494
000060 b6 3b e0 3d ca 2f ca 3c f3 35 d7 bd c5 7a 14 be
       0.10948889 0.02468099 -0.10508337 -0.14499958
000070 d6 da 07 be 8e 91 03 3e ee f4 1a 3e c0 e3 f3 bd
       -0.13267073 0.12848493 0.15132496 -0.11908674
