labs/models/JPY/7_64_16_sgd.pth (torch, 93047 bytes, 9 tensors)

lstms.0.weight_ih_l0 f4 [256, 1]
0	0x3d034730	0.03205031
1	0xbd0f72fd	-0.03502177
2	0x3dd43458	0.10361546
3	0xbcae4c3b	-0.021276584
4	0x3cd4cd1e	0.025976714
5	0x3da76b84	0.08174804
6	0x3d3b3cc6	0.045712255
7	0xbe7de351	-0.24793746
8	0x3cff0d0f	0.031134157
9	0xbc04ca86	-0.008104926
10	0x3d09181f	0.03347027
11	0x3db30e9b	0.0874302
12	0x3c06c4b3	0.008225608
13	0x3dba55ed	0.0909842
14	0x3d8cc383	0.068732284
15	0x3c10fb07	0.008848912
16	0x3e010ddb	0.12602942
17	0x3d053842	0.032524355
18	0x3da82305	0.082098044
19	0xbc0d2562	-0.00861487
20	0xbcad1745	-0.02112926
21	0x3d9cc112	0.07654013
22	0xbc9045a6	-0.017611336
23	0xbdc9d0d8	-0.09854287
24	0xbca3451d	-0.019930417
25	0x3d694e55	0.05695947
26	0x3bb17afb	0.0054162717
27	0xbdd8bd63	-0.10582998
28	0x3dbdb56e	0.092631206
29	0xbd8f96af	-0.070111625
30	0xbd7ca971	-0.06168503
31	0x3d899643	0.06718113
32	0xbda6b2f8	-0.08139604
33	0x3cb70957	0.02234332
34	0x3d438693	0.04773576
35	0xbe13dd0d	-0.14439793
36	0xbb1fad03	-0.0024364598
37	0xbe02c56a	-0.1277062
38	0xbc6a67ed	-0.014307004
39	0xbdd534bf	-0.10410451
40	0xbe64136a	-0.22273031
41	0xbd1ec58a	-0.038762607
42	0x3d622e2a	0.055219807
43	0xbc54761b	-0.012967612
44	0x3d4e4d0d	0.05036645
45	0x3d4a8c4d	0.049450208
46	0xbd5f570c	-0.054526374
47	0x3da90ccf	0.08254396
48	0x3c6e74f8	0.014554255
49	0x3dd64209	0.10461814
50	0x3c8b4fdd	0.017005855
51	0x3e0759e0	0.13217878
52	0xbd96bc25	-0.073601045
53	0x3d4d1f67	0.050078776
54	0x3c65bb35	0.014021684
55	0xbe057836	-0.13034138
56	0x3e1c0db9	0.1523961
57	0x3d97cb23	0.07411792
58	0xbd563d95	-0.052304823
59	0xbd757db5	-0.059934337
60	0xbb184909	-0.0023236892
61	0x3dd08c4f	0.10183012
62	0x3dce87e1	0.100845106
63	0xbd45e552	-0.0483144
64	0x3d4eabfa	0.05045698
65	0xbd832124	-0.064028054
66	0xbc9e6b95	-0.019338408
67	0xbd183748	-0.037162095
68	0xbdb99c22	-0.09062983
69	0xbd1fba6f	-0.038996156
70	0xbd99e55d	-0.07514451
71	0xbd783ba3	-0.06060375
72	0x3dc3c7d7	0.09559601
73	0xbd0581e4	-0.032594576
74	0xb97301d0	-0.00023174961
75	0x3dacd242	0.08438541
76	0x3e18b2a2	0.14911893
77	0xbe0f82c6	-0.1401473
78	0x3d680a8f	0.056650694
79	0x3db1a549	0.08674104
80	0xbdaff06b	-0.08590778
81	0x3d7e4642	0.06207872
82	0xbd9e7e52	-0.077389374
83	0xbc698c78	-0.014254682
84	0x3da38ff5	0.07986442
85	0xbd2a1403	-0.04152299
86	0x3d132def	0.035932478
87	0x3e44b29b	0.19208758
88	0xbe032088	-0.12805378
89	0xbda79e77	-0.08184522
90	0x3d05fc62	0.032711394
91	0xbc9e857e	-0.019350763
92	0xbd11f1ef	-0.035631116
93	0xbd61b1e4	-0.05510129
94	0x3decc172	0.11560334
95	0xbcf51b64	-0.029920287
96	0x3e05b0c5	0.13055713
97	0xbd941eab	-0.07232412
98	0x3dce12fc	0.10062215
99	0xbdf3fb30	-0.119131446
100	0x3d497127	0.049180176
101	0xbe0708be	-0.13186929
102	0xbd9e6643	-0.077343486
103	0x3d97ac9e	0.07405971
104	0x3d8eae46	0.06966834
105	0xbaf68cfe	-0.001881033
106	0x3c129cc9	0.008948513
107	0xba3e8aa2	-0.00072685827
108	0xbdcd9bf2	-0.1003951
109	0xbd102b8b	-0.035197776
110	0x3e1021d8	0.1407541
111	0x3ca56b56	0.020192783
112	0xbd044d97	-0.032300558
113	0x3da231eb	0.07919677
114	0xbd81f551	-0.063456185
115	0x3c99c3a8	0.018770054
116	0xbd1b46de	-0.03790938
117	0xbb761ade	-0.0037552635
118	0x3c4a01f2	0.012329565
119	0x3d840571	0.0644635
120	0x3d817737	0.063215666
121	0xbc36e273	-0.011162388
122	0x3d4bc907	0.04975226
123	0x3c4ebb96	0.012617966
124	0x3de7afad	0.11312804
125	0x3d6f586a	0.058433928
126	0xbd9191dd	-0.07107899
127	0x3d859673	0.065228365
128	0xbc91357e	-0.017725702
129	0x3d6a3309	0.057177577
130	0x3cfc884a	0.030826706
131	0x3e013468	0.12617648
132	0xbd2c628c	-0.04208617
133	0xbd092053	-0.033478092
134	0xbdfb8b1a	-0.12282391
135	0xbd208bfb	-0.039195996
136	0xbdea72fe	-0.11447714
137	0xbdcb1389	-0.099158354
138	0xbe637a0e	-0.22214529
139	0xbb990651	-0.0046699424
140	0x3d8a47ff	0.067520134
141	0xbbb2240a	-0.005436425
142	0xbe45aead	-0.19304915
143	0x3d97ddab	0.07415327
144	0xbcbe4907	-0.023228182
145	0xbd51a1b7	-0.051179614
146	0x3b3d3a97	0.0028874034
147	0xbcb95aee	-0.022626366
148	0x3966a973	0.00021997634
149	0x3d7aecdb	0.06126104
150	0xbda9022d	-0.08252368
151	0xbcac480f	-0.021030454
152	0x3de1d5b1	0.110270865
153	0x3d3a4945	0.04548003
154	0x3dc4178c	0.09574804
155	0x3eae1259	0.33998373
156	0x3cc9254f	0.024553923
157	0x3db3f02a	0.08786042
158	0xbd150b33	-0.036387634
159	0xb8470c93	-4.7457008e-05
160	0x3cec342d	0.028833473
161	0x3e1bcd6e	0.15215084
162	0x3de38826	0.11109953
163	0xbc3f1dad	-0.01166479
164	0xbd938324	-0.072027475
165	0xbd55ca37	-0.0521948
166	0xbd3e38b7	-0.046440806
167	0xbda3d5ec	-0.07999787
168	0xbdc23612	-0.09482969
169	0xbbc905c7	-0.006134722
170	0xbe5269e6	-0.2054821
171	0x3d800065	0.06250075
172	0x3e0b0221	0.13575031
173	0xbdbcd993	-0.092211865
174	0x3d319c0b	0.043361705
175	0x3d04f0b0	0.0324561
176	0x3dae7ae8	0.08519536
177	0x3ce40d75	0.027838448
178	0x3cbb920b	0.022896787
179	0xbc1eb6e5	-0.00968716
180	0xbd056416	-0.032566153
181	0x3cdb6e1f	0.026785908
182	0xbde24fce	-0.11050378
183	0x3e1aa309	0.15101255
184	0x3cfade67	0.030623628
185	0xbc2a7d56	-0.010405859
186	0xbc3d7591	-0.011563675
187	0x3e0ba2fd	0.13636394
188	0xbce84e7f	-0.028357742
189	0x3c7ea647	0.015542573
190	0xbd0e7ed0	-0.034788907
191	0x3dc869e9	0.09785826
192	0x3d47b774	0.04875894
193	0x3cc0a6a6	0.023516964
194	0x3cf42420	0.029802382
195	0xbd8ab229	-0.067722626
196	0x3d77849b	0.060429197
197	0xbbed8b5b	-0.0072492785
198	0xbd148247	-0.036257055
199	0xbdc78cff	-0.0974369
200	0xbc90c05a	-0.017669845
201	0xbe21425a	-0.15747967
202	0x3d5dc2f6	0.054141007
203	0x3ce6ab37	0.028157813
204	0x3d638f6f	0.05555671
205	0x3d2cc3f4	0.042179063
206	0x3ccdb84b	0.025112292
207	0xbd84ee9b	-0.06490823
208	0x3e18ebc2	0.14933684
209	0xbb8ecb56	-0.0043577356
210	0xbd5faa4f	-0.05460578
211	0xbd81dd8c	-0.06341085
212	0xbe39344b	-0.18086354
213	0xbd97a360	-0.07404208
214	0x3d52d78a	0.051475085
215	0xbdefadf6	-0.11703102
216	0x3ae27fae	0.0017280483
217	0x3e03507f	0.12823676
218	0x3d536874	0.051613286
219	0x3d91b3a8	0.07114345
220	0x3ca69b34	0.020337678
221	0x3cbfc0f2	0.023407433
222	0xbd9c97fd	-0.07646177
223	0xbd3d0f4f	-0.046157178
224	0x3d504ccd	0.050854493
225	0x3e09ad61	0.13445045
226	0xbdaa6fae	-0.083220825
227	0xbe16f11f	-0.14740418
228	0xbe0847d2	-0.13308647
229	0xbdc85bc7	-0.0978313
230	0x3e31fed8	0.17382371
231	0x3bcd0750	0.0062569752
232	0x3d58a325	0.05288996
233	0xbc12682a	-0.008935967
234	0xbd45391d	-0.04815017
235	0x3e2fb8a8	0.17160285
236	0x3bd34336	0.006447221
237	0x3cbc68d4	0.022999205
238	0xbc8c58f1	-0.017132254
239	0xbe0d67e8	-0.13809168
240	0xbd6e5376	-0.058185063
241	0x3cc465d0	0.02397433
242	0x3d7eec85	0.06223728
243	0x3e220011	0.15820338
244	0xbd9db908	-0.077013075
245	0x3dd6d64f	0.10490095
246	0x3e0a60f9	0.13513555
247	0xbdc9d129	-0.09854347
248	0xbd0d5274	-0.03450246
249	0x3da82062	0.082093015
250	0xbe36bbad	-0.1784503
251	0xbd7a9689	-0.061178718
252	0x3e28c864	0.16482693
253	0xbe11bd94	-0.14232475
254	0xbd2468c0	-0.04013896
255	0xbbb05783	-0.005381526

lstms.0.weight_hh_l0 f4 [256, 64]
0	0xbd23fd0d	-0.04003625
1	0x3d0a33e8	0.033740908
2	0xbdd0992f	-0.101854675
3	0xbd525443	-0.05134989
4	0x3e00fdff	0.12596892
5	0xbb93a96b	-0.00450628
6	0xbd070c07	-0.032970455
7	0x3de8f7c0	0.113753796
8	0xbc62933e	-0.013829051
9	0xbc866bda	-0.01640885
10	0xbd8a098a	-0.06740101
11	0x3e0700d6	0.13183913
12	0x3ddeb47f	0.10874271
13	0xbce4b7dc	-0.027919702
14	0xbdacff0e	-0.08447085
15	0xbe178f7e	-0.14800832
16	0xbd21ccf3	-0.039502095
17	0x3d901e7d	0.07037065
18	0xbd343758	-0.043998092
19	0xbd35dc3d	-0.04439949
20	0x3d6ca982	0.057778843
21	0xbbc816ef	-0.0061062495
22	0x3da2fbbc	0.07958171
23	0xbd13cf05	-0.0360861
24	0x3dc93e06	0.09826283
25	0xbd2b047a	-0.041752316
26	0x3cb1beed	0.021697486
27	0x3e0b0de8	0.13579524
28	0xbcffb1ef	-0.031212775
29	0xbd292a29	-0.041299973
30	0xbd6d0824	-0.05786909
31	0xbe29953a	-0.16560832
32	0xbd61d113	-0.05513103
33	0xbd9be133	-0.07611313
34	0x3e27ea6d	0.1639802
35	0x3d9565f9	0.0729484
36	0x3abaecdc	0.0014261263
37	0x3d5db978	0.054131955
38	0x3d2a7991	0.04161984
39	0x3d684f98	0.05671653
40	0x3de8b4d4	0.11362615
41	0x3cf29fe5	0.02961726
42	0x3d85a04f	0.06524717
43	0x3e019d8d	0.12657757
44	0x3d2736c3	0.04082371
45	0x3bc5c2f8	0.006035205
46	0xbc4935db	-0.012280907
47	0x3d36a3a7	0.044589665
48	0xbdcb74ff	-0.099344246
49	0x3e32beab	0.17455547
50	0x3cfdcae0	0.030980527
51	0x3d2fd783	0.042930137
52	0xbd36c081	-0.04461718
53	0x3dcc2a5e	0.099690184
54	0xbcffc842	-0.03122342
55	0xbc9ba7ba	-0.019000877
56	0x3a4805df	0.00076302694
57	0x3d740185	0.05957176
58	0x3d90e457	0.07074802
59	0x3d984e97	0.07436865
60	0xbd38928a	-0.045061626
61	0xbd6f3939	-0.05840418
62	0x3e427f12	0.18993786
63	0x3d83459f	0.064097635
64	0xbc5dfc54	-0.013548929
65	0x3e14705c	0.14495987
66	0xbc7556aa	-0.014974276
67	0x3d1eb547	0.0387471
68	0xbdc2b90a	-0.0950795
69	0x3d7ca36a	0.06167928
70	0x3d62bcb1	0.05535573
71	0x3dc48e8a	0.095975
72	0x3dbb6369	0.0914982
73	0x3ba26dd0	0.0049569383
74	0x3e0d0893	0.13772802
75	0x3de26560	0.11054492
76	0x3bf7e004	0.0075645465
77	0x3b9ae635	0.00472715
78	0xbdbb2cce	-0.09139405
79	0x3c7b66ab	0.015344302
80	0xbd355516	-0.044270597
81	0x3e411105	0.18854149
82	0xbd1ba2c1	-0.03799701
83	0xbd1428dd	-0.036171783
84	0xbe2a4e67	-0.1663147
85	0x3d5827d7	0.05277237
86	0xbcd5bd1f	-0.026091157
87	0x3e0a54ad	0.13508864
88	0x3d43d8c1	0.047814135
89	0xbd22cb35	-0.039744575
90	0xbd4ec0f0	-0.05047697
91	0xbd09726c	-0.033556387
92	0x3dd61e34	0.104549795
93	0x3e758d41	0.23979665
94	0x3d16aaf9	0.036784146
95	0x3bee8fb1	0.007280313
96	0x3e002b8a	0.12516609
97	0xbcc00ddc	-0.023444109
98	0xbd1f3730	-0.03887099
99	0x3d6a9d7f	0.057279106
100	0xbc94fd39	-0.018187152
101	0xbc4726db	-0.01215526
102	0x3b0841e2	0.0020791222
103	0xbdc47bee	-0.0959395
104	0x3d6c9936	0.0577633
105	0xbdd10e46	-0.102078006
106	0xbe4fdc6d	-0.2029893
107	0xbd370373	-0.044681024
108	0xbd511f85	-0.05105545
109	0xbe0442ee	-0.12916157
110	0x3cd47698	0.025935456
111	0xbddeb5a2	-0.108744875
112	0xbc5b1410	-0.0133714825
113	0xbd64af2b	-0.055831116
114	0x3e0dd0b0	0.13849139
115	0xbce4cd54	-0.02792994
116	0x3ce7ccc4	0.028295882
117	0xbbda7974	-0.0066673104
118	0x3ce5df79	0.028060662
119	0xbe29192c	-0.16513509
120	0xbe087b4b	-0.13328283
121	0xbd858029	-0.06518585
122	0x3b89744d	0.0041947723
123	0x3d301a8a	0.04299406
124	0x3db772c8	0.0895744
125	0xbcbe3fdc	-0.02322381
126	0x3c0dccb1	0.008654759
127	0x3de78d5c	0.11306259
128	0xbcfc7efb	-0.030822268
129	0xbcac1f61	-0.021011056
130	0xbd9ebdf6	-0.07751076
131	0xbc6decc4	-0.014521781
132	0x3c6436e9	0.013929107
133	0xbe1d3b4b	-0.1535465
134	0x3d18b18a	0.03727869
135	0xbb727ffa	-0.003700255
136	0x3db7411d	0.08947966
137	0x3d856a37	0.065143995
138	0x3cf97ceb	0.030455073
139	0x3d36ef30	0.0446617
140	0x3c8db22a	0.01729687
141	0x3d83b5f0	0.06431186
142	0xbcac2d53	-0.021017706
143	0x3e581215	0.21100648
144	0xbd7e7308	-0.06212142
145	0xbda36367	-0.07977944
146	0x3d936a81	0.071980484
147	0xbd20b88d	-0.0392385
148	0xbc4cfb7e	-0.012511132
149	0x3dd69b3f	0.104788296
150	0xbdf265d4	-0.118358284
151	0x3e01b8e2	0.12668183
152	0xbcc88496	-0.024477284
153	0xbda7a0a7	-0.08184939
154	0xbc8ff06f	-0.017570702
155	0xbe23038c	-0.15919322
156	0x3dcadda7	0.09905558
157	0xbb44f3c7	-0.003005253
158	0xbe3970a1	-0.18109371
159	0x3e212fb5	0.15740855
160	0x3e20e415	0.15712006
161	0x3e02d9f2	0.12778452
162	0xbcaabacb	-0.020841023
163	0x3c26e260	0.010185808
164	0x3d92a5c8	0.071605265
165	0x3ba36cae	0.004987321
166	0x3d99b581	0.07505322
167	0x3bb37b87	0.005477372
168	0x3e05c4fd	0.13063426
169	0x3c18d135	0.009327223
170	0x3da5539e	0.08072589
171	0x3d4a5bd8	0.049403995
172	0x3d8b322a	0.067966774
173	0xbd16451c	-0.036687
174	0x3da4da19	0.08049411
175	0xbca1ca32	-0.019749735
176	0x3e354fd2	0.1770623
177	0x3dc3f79a	0.095687106
178	0x3db0cf37	0.08633273
179	0x3d161f8c	0.03665118
180	0xbe1649c5	-0.14676578
181	0xbd876c16	-0.06612413
182	0xbd266c70	-0.040630758
183	0x3da07551	0.07834876
184	0xbe12ac59	-0.14323558
185	0xbc7e8642	-0.015534939
186	0xbe1e2299	-0.15442885
187	0xbe0b9b83	-0.13633542
188	0xbc66c623	-0.014085325
189	0xbd5d0802	-0.053962715
190	0xbb789157	-0.0037928426
191	0xbc13d9b8	-0.009024076
192	0xbd1af09e	-0.037827127
193	0xbdff75a8	-0.12473613
194	0xbe074694	-0.13210517
195	0x3d4a31b6	0.049363814
196	0x3d0b827b	0.034059983
197	0x3c8dcf68	0.017310813
198	0x3d881246	0.066441104
199	0xbdcc95bf	-0.09989499
200	0x3d00397b	0.031304818
201	0x3e15f961	0.14645912
202	0xbe0a477e	-0.13503835
203	0xbda1d84e	-0.07902585
204	0xbd10384c	-0.03520994
205	0xbde36e36	-0.111050054
206	0x3d8af84a	0.06785639
207	0xbdd2f349	-0.10300309
208	0xbd115d15	-0.03548916
209	0xbd84fbd6	-0.064933464
210	0x3d5dceb9	0.054152224
211	0xbda63a2a	-0.08116563
212	0xbd4af31b	-0.04954825
213	0x3d81f4b0	0.063454986
214	0x3cff679d	0.031177336
215	0x3ccddc5d	0.025129491
216	0x3cc14866	0.023594093
217	0xbd0b67d2	-0.034034558
218	0xbcf7742a	-0.030206759
219	0xbddb69ca	-0.10713537
220	0x3d1f9e31	0.038969222
221	0x3d8afc5f	0.06786417
222	0x3cc4f18f	0.024040965
223	0xbe07da19	-0.13266791
224	0xbc3e4ad1	-0.011614517
225	0x3b759cef	0.0037477573
226	0x3c911e37	0.017714603
227	0xbe09d787	-0.13461123
228	0x3e16b378	0.147169
229	0xbd7a2eab	-0.061079662
230	0xbc52a5eb	-0.012856941
231	0xbd49fade	-0.04931151
232	0x3d10dd67	0.035367396
233	0xbdcb06ed	-0.0991343
234	0xbd8a618d	-0.067568876
235	0xbd938cf9	-0.07204623
236	0xbcb5b0d7	-0.02217905
237	0xbd402b22	-0.046916135
238	0xbe2468bc	-0.16055578
239	0xbb3548df	-0.0027661843
240	0x3ce163cc	0.027513407
241	0x3d2333a2	0.039844163
242	0xbdb1429b	-0.08655282
243	0xbd239f45	-0.039946813
244	0xbd898034	-0.06713906
245	0xbd0fbcd7	-0.0350922
246	0xbe1be8df	-0.15225552
247	0x3b8a0cff	0.004212975
248	0xbde3b5f3	-0.111186884
249	0x3cc50e6a	0.024054725
250	0xbe03cd00	-0.1287117
251	0xbd87d1f2	-0.06631841
252	0xbc9af0be	-0.018913623
253	0xbe3602cb	-0.17774503
254	0x3d4deb77	0.050273385
255	0x3d28877e	0.04114484

lstms.0.bias_ih_l0 f4 [256]
0	0x379caed2	1.8678056e-05
1	0x38927968	6.984436e-05
2	0x36c48dca	5.8577616e-06
3	0xb94d86db	-0.00019600561
4	0x3716c6ac	8.986954e-06
5	0xb7bc5edb	-2.2455517e-05
6	0x39676d6b	0.00022070638
7	0xb6d96e79	-6.4799647e-06
8	0x38a8cb6b	8.048754e-05
9	0x391987b3	0.00014641769
10	0xb887fdfe	-6.4846114e-05
11	0xb8be2a92	-9.067835e-05
12	0x360a69a6	2.0625098e-06
13	0x36d34c6a	6.297186e-06
14	0xb83a5ce5	-4.443237e-05
15	0x388779ae	6.459966e-05
16	0x364a4b4c	3.0144174e-06
17	0xb7431620	-1.1628057e-05
18	0xb86eb637	-5.6913323e-05
19	0x36d31cfe	6.291665e-06
20	0x371895b4	9.0947615e-06
21	0x3690c0e7	4.313991e-06
22	0xb8b9b068	-8.854346e-05
23	0xb87c298e	-6.0120183e-05
24	0x35947907	1.1062083e-06
25	0xb8afce15	-8.383036e-05
26	0x3669e2e9	3.4851785e-06
27	0x376b32cf	1.4018921e-05
28	0x390b05b6	0.000132582
29	0xb641709f	-2.8824795e-06
30	0x3689ecae	4.1104713e-06
31	0x37c25e4e	2.3170516e-05
32	0x36f4fa57	7.30091e-06
33	0x38910df3	6.916737e-05
34	0xb90885a3	-0.00013019754
35	0xb701d297	-7.738031e-06
36	0x3705c77b	7.973863e-06
37	0xb8828ea7	-6.225454e-05
38	0x37262d76	9.904956e-06
39	0x3833457a	4.274163e-05
40	0xb798b07b	-1.8201992e-05
41	0xb82a9d1c	-4.0677478e-05
42	0xb7996db4	-1.8290106e-05
43	0x38c35dc9	9.3157934e-05
44	0xb90ab0b7	-0.00013226537
45	0x38ecc65b	0.000112903035
46	0xb5a68892	-1.2407711e-06
47	0x350c51b6	5.227297e-07
48	0xb8ce7097	-9.843817e-05
49	0xb6bad7da	-5.5683604e-06
50	0x386e3c3b	5.6799716e-05
51	0x365a49f4	3.2527578e-06
52	0x3827489b	3.9883522e-05
53	0xb7543fee	-1.26510695e-05
54	0xb76561d9	-1.3672246e-05
55	0x397011a6	0.00022894758
56	0xb4229ecd	-1.5145197e-07
57	0xb789505d	-1.6369095e-05
58	0x36a308c7	4.8588004e-06
59	0x38b87acb	8.796676e-05
60	0x34394291	1.7253684e-07
61	0x365d6322	3.298927e-06
62	0x35483d1c	7.459473e-07
63	0xb8887e59	-6.5085194e-05
64	0x3798e862	1.8228024e-05
65	0x38942ae7	7.065181e-05
66	0x36c4b29c	5.862048e-06
67	0xb94e5601	-0.0001967773
68	0x37164fc7	8.959271e-06
69	0xb7b99d4d	-2.2126967e-05
70	0x3968de12	0.00022207972
71	0xb6e4fb60	-6.8241934e-06
72	0x38a3dd7c	7.8137e-05
73	0x39183d65	0.00014518721
74	0xb884eef8	-6.338762e-05
75	0xb8b5adf7	-8.663156e-05
76	0x3609db4d	2.054224e-06
77	0x36d33653	6.294614e-06
78	0xb8358826	-4.328056e-05
79	0x3883d241	6.2857296e-05
80	0x3649d6b0	3.0076299e-06
81	0xb73f2cfe	-1.1394963e-05
82	0xb86e896d	-5.687161e-05
83	0x36d2f21e	6.286674e-06
84	0x37167c23	8.9696e-06
85	0x368fdb46	4.287259e-06
86	0xb8b8e17e	-8.815805e-05
87	0xb87686b5	-5.8776426e-05
88	0x35ac7987	1.2850368e-06
89	0xb8ade6cd	-8.292273e-05
90	0x366545c2	3.4164264e-06
91	0x377c8926	1.5052303e-05
92	0x39085a7d	0.0001300368
93	0xb641a9c8	-2.8858067e-06
94	0x36882b8a	4.0581845e-06
95	0x37bf874b	2.2831975e-05
96	0x36f2d3fe	7.236841e-06
97	0x38910767	6.9155176e-05
98	0xb90525ce	-0.00012697952
99	0xb70808a3	-8.108243e-06
100	0x37044e1e	7.886001e-06
101	0xb8880326	-6.485572e-05
102	0x37272e69	9.964781e-06
103	0x38353e79	4.3211945e-05
104	0xb79984bd	-1.8300832e-05
105	0xb829e4c0	-4.050578e-05
106	0xb798e319	-1.8225563e-05
107	0x38c29381	9.2781156e-05
108	0xb90bc91c	-0.00013330992
109	0x38eb7d83	0.000112290516
110	0xb5a41dfb	-1.2227678e-06
111	0x350db568	5.2790574e-07
112	0xb8ccd155	-9.766469e-05
113	0xb6b48866	-5.380297e-06
114	0x386b9083	5.6162953e-05
115	0x3653fe69	3.1589536e-06
116	0x382b1e88	4.079801e-05
117	0xb7506d77	-1.2423253e-05
118	0xb7646c5f	-1.3615091e-05
119	0x39723c74	0.00023101439
120	0x33abacd8	7.994248e-08
121	0xb786c548	-1.6065911e-05
122	0x36a360e0	4.8690563e-06
123	0x38b977c3	8.843795e-05
124	0x343eeb92	1.7780829e-07
125	0x3655f9ec	3.1884947e-06
126	0x354c0caa	7.601435e-07
127	0xb887c3c5	-6.4737666e-05
128	0xba32d66d	-0.0006822113
129	0x3a2b90c1	0.00065447023
130	0xba89a84f	-0.001050243
131	0xb9f9e86e	-0.00047666155
132	0xba941ed4	-0.0011300691
133	0x399df05a	0.0003012445
134	0xba8c064b	-0.0010683028
135	0x399424b3	0.00028256103
136	0xba50fb19	-0.0007971987
137	0xba4f598d	-0.00079097674
138	0x37985720	1.8160383e-05
139	0x3ae04bb0	0.00171124
140	0x39bb1559	0.00035683325
141	0x3936d842	0.00017437435
142	0x39bc8b2b	0.00035961843
143	0x3a21ddc4	0.0006174708
144	0xba92b56d	-0.0011192985
145	0x3a102f48	0.00055002095
146	0xba3b46fa	-0.000714406
147	0xb98838c1	-0.00025982226
148	0xba595baa	-0.0008291552
149	0x38c29577	9.278481e-05
150	0x3a25b1de	0.0006320755
151	0x3a3047c7	0.0006724563
152	0xb8c89d7b	-9.566076e-05
153	0xbaa9d665	-0.0012957571
154	0xb778c28d	-1.4827249e-05
155	0xb97ffa1b	-0.00024411867
156	0x3ad013a3	0.0015874993
157	0xb9090555	-0.00013067324
158	0xb96d9348	-0.00022656948
159	0x39f4e975	0.00046713246
160	0xba8b78db	-0.0010640876
161	0x39dc0ce5	0.00041971277
162	0xba21dd8a	-0.00061746745
163	0xb83bff40	-4.4821994e-05
164	0x391412d7	0.00014121398
165	0x3a3c6a08	0.0007187431
166	0xb92dd2f9	-0.00016577159
167	0xba3372fe	-0.0006845443
168	0x39aa6021	0.00032496548
169	0x3a5ab99b	0.00083436974
170	0xb7826342	-1.5543428e-05
171	0x3aa65a44	0.0012691696
172	0xba5f3af3	-0.0008515559
173	0xba94d84c	-0.0011355965
174	0xb9c52c7b	-0.0003760791
175	0x3979a4ee	0.00023807932
176	0xba62738a	-0.00086384325
177	0x37c40dd1	2.3371455e-05
178	0x3aa3b435	0.0012489619
179	0x3a0d64c5	0.0005393739
180	0xbaa251b5	-0.001238397
181	0xba328960	-0.00068106316
182	0xb8859e35	-6.3714026e-05
183	0x3a3a0f9d	0.00070976635
184	0x3aaec6c7	0.0013334387
185	0xbaf6c74e	-0.0018827708
186	0x392b0f1e	0.00016313462
187	0x3aa4d242	0.0012574869
188	0xb9d3988c	-0.00040358712
189	0x39eb20e2	0.00044847192
190	0xb95696d8	-0.00020464824
191	0xb9fc78da	-0.00048155227
192	0x379c1ff8	1.8611536e-05
193	0x3895453d	7.11777e-05
194	0x36c515b0	5.8735823e-06
195	0xb95044d6	-0.00019862069
196	0x37172dd3	9.010971e-06
197	0xb7bab2d2	-2.2256198e-05
198	0x39669ad4	0.00021992187
199	0xb6df2044	-6.649674e-06
200	0x38a7550c	7.979022e-05
201	0x3913e907	0.00014105822
202	0xb888dd90	-6.5262546e-05
203	0xb8bb5401	-8.932502e-05
204	0x360a2a8a	2.0588363e-06
205	0x36d17987	6.242833e-06
206	0xb83a8ea9	-4.447872e-05
207	0x38863795	6.399971e-05
208	0x3649e728	3.0085885e-06
209	0xb7449ddc	-1.1719265e-05
210	0xb86a40a0	-5.5850134e-05
211	0x36d21593	6.2609993e-06
212	0x371576ca	8.90875e-06
213	0x368ee330	4.258378e-06
214	0xb8bd9f73	-9.041922e-05
215	0xb87dea2d	-6.0537994e-05
216	0x359a5d2f	1.1501014e-06
217	0xb8b13ee5	-8.451733e-05
218	0x366b18fd	3.5032274e-06
219	0x378183e7	1.543942e-05
220	0x390ab1e2	0.00013226972
221	0xb6437af5	-2.9128835e-06
222	0x368a17bf	4.115485e-06
223	0x37be675d	2.2697897e-05
224	0x36f85205	7.4005243e-06
225	0x3893e79a	7.0526454e-05
226	0xb90447d7	-0.00012615263
227	0xb7024d0d	-7.766544e-06
228	0x36ff6fec	7.6126216e-06
229	0xb8851cef	-6.3473235e-05
230	0x372affef	1.0192379e-05
231	0x383762a4	4.3722466e-05
232	0xb79d3f14	-1.8745232e-05
233	0xb82b0493	-4.0773837e-05
234	0xb799cab0	-1.8333405e-05
235	0x38c9eeb5	9.6288895e-05
236	0xb9095559	-0.00013097133
237	0x38ef5baf	0.000114134855
238	0xb5a723ff	-1.2452946e-06
239	0x3514e5a5	5.5468473e-07
240	0xb8cd0ae2	-9.777189e-05
241	0xb6b86ec5	-5.4965226e-06
242	0x386f3f9f	5.7041292e-05
243	0x365ba615	3.2730215e-06
244	0x3828d3c4	4.0251543e-05
245	0xb7572e4a	-1.2825776e-05
246	0xb76c8cb2	-1.4099454e-05
247	0x39738407	0.0002322347
248	0x326f5076	1.3929926e-08
249	0xb78c0a2f	-1.6694043e-05
250	0x369f23d6	4.742741e-06
251	0x38b9c250	8.857681e-05
252	0x3435b087	1.6921159e-07
253	0x36556830	3.1800118e-06
254	0x3555e9ce	7.9688914e-07
255	0xb889cbda	-6.5706394e-05

lstms.0.bias_hh_l0 f4 [256]
0	0x379caed2	1.8678056e-05
1	0x38927968	6.984436e-05
2	0x36c48dca	5.8577616e-06
3	0xb94d86db	-0.00019600561
4	0x3716c6ac	8.986954e-06
5	0xb7bc5edb	-2.2455517e-05
6	0x39676d6b	0.00022070638
7	0xb6d96e79	-6.4799647e-06
8	0x38a8cb6b	8.048754e-05
9	0x391987b3	0.00014641769
10	0xb887fdfe	-6.4846114e-05
11	0xb8be2a92	-9.067835e-05
12	0x360a69a6	2.0625098e-06
13	0x36d34c6a	6.297186e-06
14	0xb83a5ce5	-4.443237e-05
15	0x388779ae	6.459966e-05
16	0x364a4b4c	3.0144174e-06
17	0xb7431620	-1.1628057e-05
18	0xb86eb637	-5.6913323e-05
19	0x36d31cfe	6.291665e-06
20	0x371895b4	9.0947615e-06
21	0x3690c0e7	4.313991e-06
22	0xb8b9b068	-8.854346e-05
23	0xb87c298e	-6.0120183e-05
24	0x35947907	1.1062083e-06
25	0xb8afce15	-8.383036e-05
26	0x3669e2e9	3.4851785e-06
27	0x376b32cf	1.4018921e-05
28	0x390b05b6	0.000132582
29	0xb641709f	-2.8824795e-06
30	0x3689ecae	4.1104713e-06
31	0x37c25e4e	2.3170516e-05
32	0x36f4fa57	7.30091e-06
33	0x38910df3	6.916737e-05
34	0xb90885a3	-0.00013019754
35	0xb701d297	-7.738031e-06
36	0x3705c77b	7.973863e-06
37	0xb8828ea7	-6.225454e-05
38	0x37262d76	9.904956e-06
39	0x3833457a	4.274163e-05
40	0xb798b07b	-1.8201992e-05
41	0xb82a9d1c	-4.0677478e-05
42	0xb7996db4	-1.8290106e-05
43	0x38c35dc9	9.3157934e-05
44	0xb90ab0b7	-0.00013226537
45	0x38ecc65b	0.000112903035
46	0xb5a68892	-1.2407711e-06
47	0x350c51b6	5.227297e-07
48	0xb8ce7097	-9.843817e-05
49	0xb6bad7da	-5.5683604e-06
50	0x386e3c3b	5.6799716e-05
51	0x365a49f4	3.2527578e-06
52	0x3827489b	3.9883522e-05
53	0xb7543fee	-1.26510695e-05
54	0xb76561d9	-1.3672246e-05
55	0x397011a6	0.00022894758
56	0xb4229ecd	-1.5145197e-07
57	0xb789505d	-1.6369095e-05
58	0x36a308c7	4.8588004e-06
59	0x38b87acb	8.796676e-05
60	0x34394291	1.7253684e-07
61	0x365d6322	3.298927e-06
62	0x35483d1c	7.459473e-07
63	0xb8887e59	-6.5085194e-05
64	0x3798e862	1.8228024e-05
65	0x38942ae7	7.065181e-05
66	0x36c4b29c	5.862048e-06
67	0xb94e5601	-0.0001967773
68	0x37164fc7	8.959271e-06
69	0xb7b99d4d	-2.2126967e-05
70	0x3968de12	0.00022207972
71	0xb6e4fb60	-6.8241934e-06
72	0x38a3dd7c	7.8137e-05
73	0x39183d65	0.00014518721
74	0xb884eef8	-6.338762e-05
75	0xb8b5adf7	-8.663156e-05
76	0x3609db4d	2.054224e-06
77	0x36d33653	6.294614e-06
78	0xb8358826	-4.328056e-05
79	0x3883d241	6.2857296e-05
80	0x3649d6b0	3.0076299e-06
81	0xb73f2cfe	-1.1394963e-05
82	0xb86e896d	-5.687161e-05
83	0x36d2f21e	6.286674e-06
84	0x37167c23	8.9696e-06
85	0x368fdb46	4.287259e-06
86	0xb8b8e17e	-8.815805e-05
87	0xb87686b5	-5.8776426e-05
88	0x35ac7987	1.2850368e-06
89	0xb8ade6cd	-8.292273e-05
90	0x366545c2	3.4164264e-06
91	0x377c8926	1.5052303e-05
92	0x39085a7d	0.0001300368
93	0xb641a9c8	-2.8858067e-06
94	0x36882b8a	4.0581845e-06
95	0x37bf874b	2.2831975e-05
96	0x36f2d3fe	7.236841e-06
97	0x38910767	6.9155176e-05
98	0xb90525ce	-0.00012697952
99	0xb70808a3	-8.108243e-06
100	0x37044e1e	7.886001e-06
101	0xb8880326	-6.485572e-05
102	0x37272e69	9.964781e-06
103	0x38353e79	4.3211945e-05
104	0xb79984bd	-1.8300832e-05
105	0xb829e4c0	-4.050578e-05
106	0xb798e319	-1.8225563e-05
107	0x38c29381	9.2781156e-05
108	0xb90bc91c	-0.00013330992
109	0x38eb7d83	0.000112290516
110	0xb5a41dfb	-1.2227678e-06
111	0x350db568	5.2790574e-07
112	0xb8ccd155	-9.766469e-05
113	0xb6b48866	-5.380297e-06
114	0x386b9083	5.6162953e-05
115	0x3653fe69	3.1589536e-06
116	0x382b1e88	4.079801e-05
117	0xb7506d77	-1.2423253e-05
118	0xb7646c5f	-1.3615091e-05
119	0x39723c74	0.00023101439
120	0x33abacd8	7.994248e-08
121	0xb786c548	-1.6065911e-05
122	0x36a360e0	4.8690563e-06
123	0x38b977c3	8.843795e-05
124	0x343eeb92	1.7780829e-07
125	0x3655f9ec	3.1884947e-06
126	0x354c0caa	7.601435e-07
127	0xb887c3c5	-6.4737666e-05
128	0xba32d66d	-0.0006822113
129	0x3a2b90c1	0.00065447023
130	0xba89a84f	-0.001050243
131	0xb9f9e86e	-0.00047666155
132	0xba941ed4	-0.0011300691
133	0x399df05a	0.0003012445
134	0xba8c064b	-0.0010683028
135	0x399424b3	0.00028256103
136	0xba50fb19	-0.0007971987
137	0xba4f598d	-0.00079097674
138	0x37985720	1.8160383e-05
139	0x3ae04bb0	0.00171124
140	0x39bb1559	0.00035683325
141	0x3936d842	0.00017437435
142	0x39bc8b2b	0.00035961843
143	0x3a21ddc4	0.0006174708
144	0xba92b56d	-0.0011192985
145	0x3a102f48	0.00055002095
146	0xba3b46fa	-0.000714406
147	0xb98838c1	-0.00025982226
148	0xba595baa	-0.0008291552
149	0x38c29577	9.278481e-05
150	0x3a25b1de	0.0006320755
151	0x3a3047c7	0.0006724563
152	0xb8c89d7b	-9.566076e-05
153	0xbaa9d665	-0.0012957571
154	0xb778c28d	-1.4827249e-05
155	0xb97ffa1b	-0.00024411867
156	0x3ad013a3	0.0015874993
157	0xb9090555	-0.00013067324
158	0xb96d9348	-0.00022656948
159	0x39f4e975	0.00046713246
160	0xba8b78db	-0.0010640876
161	0x39dc0ce5	0.00041971277
162	0xba21dd8a	-0.00061746745
163	0xb83bff40	-4.4821994e-05
164	0x391412d7	0.00014121398
165	0x3a3c6a08	0.0007187431
166	0xb92dd2f9	-0.00016577159
167	0xba3372fe	-0.0006845443
168	0x39aa6021	0.00032496548
169	0x3a5ab99b	0.00083436974
170	0xb7826342	-1.5543428e-05
171	0x3aa65a44	0.0012691696
172	0xba5f3af3	-0.0008515559
173	0xba94d84c	-0.0011355965
174	0xb9c52c7b	-0.0003760791
175	0x3979a4ee	0.00023807932
176	0xba62738a	-0.00086384325
177	0x37c40dd1	2.3371455e-05
178	0x3aa3b435	0.0012489619
179	0x3a0d64c5	0.0005393739
180	0xbaa251b5	-0.001238397
181	0xba328960	-0.00068106316
182	0xb8859e35	-6.3714026e-05
183	0x3a3a0f9d	0.00070976635
184	0x3aaec6c7	0.0013334387
185	0xbaf6c74e	-0.0018827708
186	0x392b0f1e	0.00016313462
187	0x3aa4d242	0.0012574869
188	0xb9d3988c	-0.00040358712
189	0x39eb20e2	0.00044847192
190	0xb95696d8	-0.00020464824
191	0xb9fc78da	-0.00048155227
192	0x379c1ff8	1.8611536e-05
193	0x3895453d	7.11777e-05
194	0x36c515b0	5.8735823e-06
195	0xb95044d6	-0.00019862069
196	0x37172dd3	9.010971e-06
197	0xb7bab2d2	-2.2256198e-05
198	0x39669ad4	0.00021992187
199	0xb6df2044	-6.649674e-06
200	0x38a7550c	7.979022e-05
201	0x3913e907	0.00014105822
202	0xb888dd90	-6.5262546e-05
203	0xb8bb5401	-8.932502e-05
204	0x360a2a8a	2.0588363e-06
205	0x36d17987	6.242833e-06
206	0xb83a8ea9	-4.447872e-05
207	0x38863795	6.399971e-05
208	0x3649e728	3.0085885e-06
209	0xb7449ddc	-1.1719265e-05
210	0xb86a40a0	-5.5850134e-05
211	0x36d21593	6.2609993e-06
212	0x371576ca	8.90875e-06
213	0x368ee330	4.258378e-06
214	0xb8bd9f73	-9.041922e-05
215	0xb87dea2d	-6.0537994e-05
216	0x359a5d2f	1.1501014e-06
217	0xb8b13ee5	-8.451733e-05
218	0x366b18fd	3.5032274e-06
219	0x378183e7	1.543942e-05
220	0x390ab1e2	0.00013226972
221	0xb6437af5	-2.9128835e-06
222	0x368a17bf	4.115485e-06
223	0x37be675d	2.2697897e-05
224	0x36f85205	7.4005243e-06
225	0x3893e79a	7.0526454e-05
226	0xb90447d7	-0.00012615263
227	0xb7024d0d	-7.766544e-06
228	0x36ff6fec	7.6126216e-06
229	0xb8851cef	-6.3473235e-05
230	0x372affef	1.0192379e-05
231	0x383762a4	4.3722466e-05
232	0xb79d3f14	-1.8745232e-05
233	0xb82b0493	-4.0773837e-05
234	0xb799cab0	-1.8333405e-05
235	0x38c9eeb5	9.6288895e-05
236	0xb9095559	-0.00013097133
237	0x38ef5baf	0.000114134855
238	0xb5a723ff	-1.2452946e-06
239	0x3514e5a5	5.5468473e-07
240	0xb8cd0ae2	-9.777189e-05
241	0xb6b86ec5	-5.4965226e-06
242	0x386f3f9f	5.7041292e-05
243	0x365ba615	3.2730215e-06
244	0x3828d3c4	4.0251543e-05
245	0xb7572e4a	-1.2825776e-05
246	0xb76c8cb2	-1.4099454e-05
247	0x39738407	0.0002322347
248	0x326f5076	1.3929926e-08
249	0xb78c0a2f	-1.6694043e-05
250	0x369f23d6	4.742741e-06
251	0x38b9c250	8.857681e-05
252	0x3435b087	1.6921159e-07
253	0x36556830	3.1800118e-06
254	0x3555e9ce	7.9688914e-07
255	0xb889cbda	-6.5706394e-05

lstms.1.weight_ih_l0 f4 [64, 64]
0	0xbd6a4bc1	-0.05720115
1	0x3db10938	0.086443365
2	0xbdb3a294	-0.08771244
3	0x3e3d99b5	0.18515666
4	0xbd250926	-0.040291928
5	0xbde9dc2b	-0.11418947
6	0xbe366d41	-0.17815115
7	0xbe346bed	-0.17619295
8	0x3d5e96f1	0.054343168
9	0x3c411e9c	0.011787083
10	0x3c9d406d	0.01919576
11	0xbe671625	-0.22567041
12	0x3d1a3abd	0.037653673
13	0xbdd9c2da	-0.10632868
14	0x3eac5229	0.33656433
15	0xbe5f8006	-0.21826181
16	0xbd425b3e	-0.047450297
17	0x3e2612d0	0.16218114
18	0xbce29f26	-0.027663779
19	0x3e1337f8	0.14376819
20	0xbd206d08	-0.03916648
21	0x3d07b807	0.033134487
22	0xbcc9066d	-0.024539197
23	0xbdc8fa80	-0.09813404
24	0x3e32a61e	0.17446181
25	0x3dc304f6	0.095224306
26	0xbd4fcf29	-0.050734673
27	0xbe0e763c	-0.1391229
28	0x3d14016c	0.03613417
29	0xbe243022	-0.16033986
30	0xbcacc0ad	-0.021087969
31	0x3b7c1547	0.003846483
32	0x3cabeb1a	0.020986129
33	0x3e561325	0.2090574
34	0x3d4fff35	0.050780494
35	0xbe0a08d1	-0.13479926
36	0x3cfb1239	0.030648338
37	0x3e0186f4	0.12649137
38	0xbbad6248	-0.005291257
39	0xbe09dd52	-0.13463333
40	0xbde3936a	-0.111121014
41	0x3cfc4df3	0.030798888
42	0x3db0b8ec	0.08629021
43	0xbd7328c6	-0.059365056
44	0x3e73a3b7	0.23792921
45	0xbdf2ecd6	-0.11861579
46	0x3d8ccd2a	0.068750694
47	0xbe3f6f6c	-0.18694848
48	0xbd94a9cf	-0.07258951
49	0xbe1e11da	-0.15436497
50	0x3d1d7406	0.038440727
51	0xbd034612	-0.032049246
52	0xbe904937	-0.28180858
53	0xbe115f27	-0.14196454
54	0xbe2b81ab	-0.16748683
55	0x3b49660f	0.0030730998
56	0x3a03582d	0.00050103926
57	0xbe07cfe6	-0.132629
58	0x3e12171c	0.14266628
59	0xbcc4e2a6	-0.024033856
60	0xbd9f7332	-0.07785644
61	0x3d3aadd8	0.045575947
62	0x3cf6ba68	0.030118182
63	0xbdce39e0	-0.100696325
64	0x3d3f5b83	0.04671813
65	0x3d27b520	0.04094422
66	0xbe37a32f	-0.17933343
67	0x3ddef310	0.10886204
68	0xbe31a30a	-0.1734735
69	0xbcc3f377	-0.023919804
70	0x3e1d3930	0.15353847
71	0x3c61b4a1	0.013775975
72	0x3d5e75db	0.054311614
73	0xbda3d3c5	-0.07999376
74	0xbe45f362	-0.19331124
75	0xbdeae9c9	-0.11470372
76	0x3d650715	0.055914957
77	0xbd6d6c2d	-0.057964493
78	0x3debee41	0.11520053
79	0x3dadc5af	0.08484971
80	0x3e1aace6	0.15105018
81	0xbe0d6504	-0.13808066
82	0xba6ecff8	-0.0009109969
83	0xbea0b139	-0.3138521
84	0xbdb865e7	-0.09003811
85	0x3c9e5412	0.019327197
86	0xbe00f1db	-0.1259226
87	0x3c0ff6d5	0.008786877
88	0x3c218a21	0.009859593
89	0xbdfb72a1	-0.12277723
90	0xbdaa24aa	-0.08307774
91	0x3d933902	0.07188608
92	0xbdcc5e82	-0.099789634
93	0xbd55eab5	-0.052225787
94	0x3d53db84	0.05172302
95	0xbe477818	-0.19479406
96	0xbe154553	-0.14577226
97	0xbc437562	-0.011929842
98	0xbc6c1fb0	-0.014411852
99	0xbe1ba17c	-0.1519832
100	0x3e3bc9a5	0.1833864
101	0x3e0220da	0.12707844
102	0x3dfe1b7e	0.124075875
103	0x3dc8f34e	0.09812032
104	0xbd16ba5d	-0.036798824
105	0xbd981fd5	-0.074279465
106	0xbde1b00b	-0.11019906
107	0xbe6462b7	-0.22303282
108	0xbe52596a	-0.20541921
109	0xbde637d1	-0.11241115
110	0xbe3868c1	-0.1800871
111	0xbcf949f8	-0.030430779
112	0xbe9d437d	-0.30715552
113	0xbc69dd25	-0.014273916
114	0xba844919	-0.0010092586
115	0x3d448dc5	0.047986764
116	0xbe1499b0	-0.14511752
117	0x3d63548d	0.055500556
118	0x3ccf434a	0.02530064
119	0xbe6252c5	-0.22101887
120	0x3d23e67e	0.040014736
121	0x3c3234f7	0.010876886
122	0xbe2f101d	-0.1709599
123	0xbca5efc3	-0.020255929
124	0xbe419b46	-0.18906888
125	0xbe225a2e	-0.15854713
126	0x3e91b6a2	0.2845965
127	0x3e01844e	0.12648126
128	0xbe7c66f7	-0.24648653
129	0x3cb44571	0.022005768
130	0x3df27fad	0.118407585
131	0xbd4907a7	-0.049079563
132	0x3cf4aefd	0.029868597
133	0x3c9f091e	0.019413527
134	0xbd1eb96d	-0.038751055
135	0x3d4c6f50	0.049910843
136	0x3d521187	0.051286247
137	0x3da8fca3	0.08251312
138	0xbd5b6f72	-0.05357308
139	0xbe4bded6	-0.19909224
140	0x3c7dede9	0.015498617
141	0x3e5f5f0b	0.218136
142	0xbe4171d4	-0.18891078
143	0x3dcf18a6	0.10112123
144	0xbc6eb88d	-0.0145703675
145	0x3e92dd15	0.28684297
146	0xbda6df28	-0.081480324
147	0x3dc6ca54	0.0970656
148	0xbcc43209	-0.02394964
149	0x3e8f8e35	0.28038183
150	0xbe1fb9c9	-0.15598215
151	0xbcd69d7a	-0.026198138
152	0xbd517735	-0.051139075
153	0x3defb380	0.11704159
154	0xbe344e60	-0.17608023
155	0x3e0cd22f	0.13752054
156	0xbc2a9acc	-0.010412883
157	0x3e0c64ab	0.13710277
158	0x3dd775a9	0.10520489
159	0x3dffd5e7	0.124919705
160	0x3e0af6ec	0.13570756
161	0xbd120558	-0.035649627
162	0xbda916b2	-0.08256282
163	0x3d5493ed	0.051898886
164	0x3e831cfc	0.2560805
165	0x3d449a0c	0.047998473
166	0x3dceb775	0.100935854
167	0x3de5b1d3	0.11215558
168	0xbd45d63f	-0.048300024
169	0xbe250e3b	-0.1611871
170	0x3e4a21e4	0.19739491
171	0xbe1a1d3d	-0.15050216
172	0xbdbe9b9d	-0.09307025
173	0x3d5646d1	0.05231363
174	0xbe011cb2	-0.12608603
175	0xbd9e1f87	-0.07720857
176	0xbe5b0e24	-0.21392113
177	0x3e7a8aea	0.24467054
178	0x3d5ec3cf	0.054385956
179	0xbc82eca1	-0.015981974
180	0xbdc520a1	-0.09625364
181	0xbe09e3fc	-0.13465875
182	0x3e2bcf4a	0.16778293
183	0xbd038be0	-0.032115817
184	0x3e62f1ef	0.22162603
185	0x3ddae3ba	0.10687967
186	0x3da46407	0.08026891
187	0x3e18fc7f	0.1494007
188	0x3c650c0f	0.013979926
189	0x3d795b10	0.06087786
190	0x3dc9b42f	0.098488204
191	0xbc8989bd	-0.016789312
192	0xbe11763f	-0.14205264
193	0xbcd503b3	-0.02600274
194	0xbd17de29	-0.037077103
195	0x3e19aa5b	0.15006392
196	0xbe8396fc	-0.2570113
197	0xbe3c47c1	-0.18386747
198	0x3c773bda	0.015089953
199	0x3d7267a5	0.059180874
200	0xbd94244b	-0.07233485
201	0xbbb70018	-0.005584728
202	0x3e0f17a0	0.13973856
203	0xbe6a19ef	-0.22861455
204	0x3ddfd31a	0.10928936
205	0xbd5c52c3	-0.053789865
206	0xbd442ed4	-0.04789622
207	0x3ca6e4c8	0.020372763
208	0xbe403295	-0.18769296
209	0x3deefec7	0.11669689
210	0xbe3ba184	-0.18323332
211	0x3d115cd1	0.035488907
212	0x3c722723	0.014779839
213	0xbe918fec	-0.28430116
214	0xbda57efd	-0.08080862
215	0xbe090454	-0.13380557
216	0x3dd93d87	0.106074385
217	0x3d32d530	0.043660343
218	0xbe3a4d9b	-0.18193667
219	0x3e4b739c	0.1986832
220	0x3dc6d466	0.097084805
221	0xbe0db144	-0.13837153
222	0xbc925fbb	-0.017867913
223	0x3c844862	0.016147796
224	0xbe568e5b	-0.20952742
225	0x3c0973d5	0.008389433
226	0xbb976a75	-0.004620845
227	0xbdcd7906	-0.10032849
228	0xbd32020e	-0.04345899
229	0xbe024310	-0.12720895
230	0xbdba5c2b	-0.09099611
231	0x3e2f0763	0.17092662
232	0xbe205306	-0.15656671
233	0xbd999473	-0.074990176
234	0x3d633148	0.05546692
235	0x3e6ddc38	0.23228538
236	0xbdd4c309	-0.103887625
237	0xbd359050	-0.04432708
238	0xbe096bde	-0.13420054
239	0xbd2daf02	-0.04240323
240	0xbe1b2c77	-0.1515368
241	0xbd683e61	-0.056700114
242	0x3ccbfe17	0.024901433
243	0x3e3f38a6	0.18673953
244	0x3e7f744d	0.24946709
245	0xbe005ee5	-0.125362
246	0x3dba8d7d	0.09109018
247	0xbd2c9f22	-0.04214395
248	0x3dad9a34	0.084766775
249	0xbe468054	-0.19384891
250	0x3ddc9d2e	0.10772167
251	0xbe50226d	-0.20325632
252	0x3d998870	0.074967265
253	0x3e46ddc3	0.19420533
254	0x3c8244bd	0.015901918
255	0x3cfe0032	0.031005953

lstms.1.weight_hh_l0 f4 [64, 16]
0	0xbbc24a26	-0.0059292493
1	0xbe5b41cc	-0.21411818
2	0xbd904924	-0.070452005
3	0x3d6595cd	0.056051064
4	0xbde440c6	-0.11145167
5	0x3d8951a5	0.067050256
6	0xbe185af7	-0.1487845
7	0xbe59bff5	-0.21264632
8	0xbe1aed5a	-0.15129605
9	0x3ebe8c4f	0.37216422
10	0xbea596a2	-0.32341486
11	0x3d0825f2	0.033239312
12	0x3e289099	0.1646141
13	0xbed0fdf8	-0.40818763
14	0x3e39c2dd	0.1814074
15	0x3e073dd1	0.13207175
16	0xbd5d8fe8	-0.054092318
17	0x3d89a6a6	0.06721239
18	0x3dd640a1	0.10461546
19	0xbe5b2a6f	-0.21402906
20	0x3e4e13e7	0.2012478
21	0x3e4f875a	0.20266476
22	0x3c01ee1e	0.007930307
23	0xbe12157b	-0.14266007
24	0xbe26a780	-0.16274834
25	0x3c3b2b71	0.011423931
26	0xbde710eb	-0.11282524
27	0x3e95fff4	0.2929684
28	0xbe18cb63	-0.14921336
29	0xbe0f0411	-0.13966395
30	0x3db55712	0.08854498
31	0x3e090296	0.13379893
32	0xbe356c99	-0.17717208
33	0xbc616571	-0.013757096
34	0x3e431bd1	0.1905358
35	0x3e87fc9a	0.26559907
36	0x3d3bfcb5	0.045895297
37	0x3e35cd5d	0.17754121
38	0xbe95a448	-0.292269
39	0xbd79f008	-0.061019927
40	0xbe0a46b7	-0.13503538
41	0x3d19668a	0.037451304
42	0xbea410c9	-0.32044056
43	0xbdcafb85	-0.09911255
44	0x3ce42b36	0.027852636
45	0x3c8c823c	0.017151944
46	0xbdbae9f4	-0.09126654
47	0xbe876ab7	-0.26448604
48	0x3da1ea0b	0.07905968
49	0xbe50080c	-0.2031557
50	0xbe40f15c	-0.18842071
51	0x3e9342f8	0.2876203
52	0x3dc45f60	0.09588504
53	0xbcd9e256	-0.026597183
54	0xbd03e5d3	-0.0322016
55	0xbd40d0e9	-0.047074232
56	0xbd8a2820	-0.067459345
57	0x3d58f042	0.052963503
58	0x3dd81af9	0.105520196
59	0x3ce7469e	0.028231915
60	0x3d7a281a	0.0610734
61	0x3e81aa34	0.25325167
62	0x3dfcee77	0.12350171
63	0xbe7bdcb4	-0.2459591
64	0xbe3b0586	-0.18263826
65	0x3c16e95c	0.009210911
66	0x3e53b875	0.20675834
67	0x3def8b80	0.116965294
68	0x3e5c70bf	0.21527384
69	0x3e25181b	0.16122477
70	0xbd2310ef	-0.03981107
71	0xbeafb4f9	-0.3431776
72	0x3d36f3dc	0.044666156
73	0x3eaec34d	0.34133378
74	0x3c8aa5d0	0.016924769
75	0xbdf755c8	-0.12076908
76	0xbd7d6204	-0.061861053
77	0x3dc96a62	0.09834744
78	0xbdf89bf0	-0.12139118
79	0xbe727fe8	-0.23681605
80	0xbc42dabb	-0.01189297
81	0x3d3625da	0.04446969
82	0xbdf2354c	-0.11826572
83	0x3d95ebf4	0.07320395
84	0xbde03ede	-0.10949491
85	0x3e5ba0db	0.2144808
86	0x3e4c094b	0.1992542
87	0x3e36e4d5	0.1786073
88	0xbd29e72e	-0.041480236
89	0x3e2a48ae	0.16629288
90	0x3e9aed51	0.30259183
91	0x3e159ce4	0.1461063
92	0xbe334ce8	-0.17509806
93	0xbdcc0d5a	-0.09963484
94	0xbe677254	-0.22602206
95	0x3e270629	0.16310944
96	0x3db8e2f8	0.09027666
97	0x3e9d559a	0.3072937
98	0xbda2305d	-0.07919381
99	0xbec12c44	-0.37729084
100	0xbd246589	-0.040135894
101	0x3e11bb80	0.14231682
102	0xbe024be3	-0.12724261
103	0xbd7dbc93	-0.061947417
104	0x3e116050	0.14196897
105	0xbc971724	-0.018443651
106	0x3e0db894	0.13839942
107	0x3e41ee85	0.18938644
108	0x3e4ad0a0	0.19806147
109	0x3da43058	0.08017033
110	0x3e53528e	0.20636961
111	0x3e1e4e30	0.15459514
112	0xbebb2dad	-0.36558285
113	0xbdc46b93	-0.09590831
114	0x3e1a039a	0.15040436
115	0x3e88e5f4	0.2673794
116	0xbdedf363	-0.11618688
117	0x3d5218ab	0.051293056
118	0xbc3aa571	-0.011391983
119	0xbe7378b3	-0.23776512
120	0x3e424a8a	0.18973747
121	0xbe94e95a	-0.29084283
122	0xbddeb286	-0.108738944
123	0xbe9c0376	-0.3047139
124	0xbe3d298c	-0.1847288
125	0xbe6a6b40	-0.22892475
126	0x3e70323a	0.2345666
127	0xbeb9f70b	-0.3632129
128	0xbd5c2904	-0.053750053
129	0xbd7d04ea	-0.061772265
130	0xbb5f0b15	-0.0034033705
131	0xbd04379e	-0.032279603
132	0xbd8d6a71	-0.06905068
133	0x3e24c5f7	0.16091143
134	0x3e287f74	0.1645487
135	0xbc3b6996	-0.011438748
136	0x3e853fbd	0.2602519
137	0xbb64f5eb	-0.0034936618
138	0xbc36ac53	-0.011149484
139	0x3e6e500a	0.2327272
140	0x3d73bb3f	0.059504744
141	0xbe86cccf	-0.26328132
142	0xbc99ea3c	-0.01878845
143	0x3c4983fa	0.012299532
144	0x3de46af6	0.11153214
145	0xbdcb88b1	-0.09938181
146	0xbc2fa9d3	-0.010721642
147	0x3d01bd9e	0.031674974
148	0xbe714c81	-0.2356434
149	0x3d8c3c55	0.06847445
150	0xbdb67fc3	-0.08911087
151	0xbd93f855	-0.072251
152	0xbec1629a	-0.3777054
153	0x3da634c1	0.08115531
154	0x3c39940a	0.011326799
155	0x3c58f22e	0.013241334
156	0x3d7acffa	0.0612335
157	0x3e1e525b	0.15461104
158	0x3e627837	0.22116171
159	0x3ef43639	0.4769762
160	0xbe278823	-0.16360526
161	0x3d04fadf	0.03246581
162	0x3de5124a	0.11185129
163	0xbd061c1f	-0.032741662
164	0xbe4f3c56	-0.2023786
165	0x3d8391f4	0.06424323
166	0x3e285a38	0.16440666
167	0x3d422718	0.047400564
168	0x3dbb0fb3	0.09133854
169	0x3de44bd6	0.11147277
170	0xbde2d1eb	-0.11075195
171	0xbdce2e84	-0.10067466
172	0xbe2572a4	-0.16157013
173	0xbea069d0	-0.3133073
174	0xbe214a50	-0.15751004
175	0x3d6fae9b	0.058516126
176	0xbe0a4847	-0.13504134
177	0x3e07a384	0.1324597
178	0xbb91b54a	-0.00444666
179	0x3ede259e	0.43388075
180	0xbda35341	-0.07974864
181	0xbddf32ef	-0.10898387
182	0x3d21dcf1	0.039517347
183	0xbdbdac0b	-0.0926133
184	0x3e547c3d	0.20750518
185	0x3ccc8146	0.024963986
186	0x3ce45104	0.027870663
187	0x3d50ef33	0.05100937
188	0x3de1c38f	0.11023628
189	0xbd73bbe1	-0.059505347
190	0xbe4b5338	-0.19855964
191	0x3eeb1946	0.4591772
192	0x3d05372c	0.03252332
193	0xbe25c455	-0.16188176
194	0x3e85a169	0.2609971
195	0xbd8e842d	-0.06958804
196	0xbe1d9f58	-0.15392816
197	0xbd09abdc	-0.033611163
198	0xbeb50362	-0.35354143
199	0xbd60e6e5	-0.0549077
200	0xbe244b68	-0.1604439
201	0x3e23a43c	0.15980619
202	0x3db8dcf8	0.090265214
203	0x3e3bb589	0.18330969
204	0xbe00e8d5	-0.12588818
205	0xbd48cb95	-0.049022276
206	0x3cf7a96b	0.030232152
207	0xbe04fced	-0.12987109
208	0x3c6bee09	0.014400014
209	0xbda8ce0c	-0.08242425
210	0x3dfbd366	0.122961804
211	0x3e3ca6f2	0.1842306
212	0xbe270fb7	-0.16314588
213	0xbd0fd79d	-0.035117734
214	0x3e27afce	0.16375658
215	0xbd155bf1	-0.036464635
216	0x3c0e6806	0.008691793
217	0xbdc47f07	-0.09594541
218	0x3ebe313a	0.37146932
219	0x3eab0e30	0.33409262
220	0xbdadc262	-0.08484341
221	0xbe822e45	-0.25425926
222	0xbd35dc64	-0.044399634
223	0x3daaba24	0.08336285
224	0x3e13c499	0.14430465
225	0x3ca73e72	0.020415518
226	0xbd7cdf21	-0.06173623
227	0x3ec3434b	0.38137278
228	0xbe0dac8b	-0.13835351
229	0x3e105cad	0.14097853
230	0x3cb04469	0.021516996
231	0xbe77abc1	-0.24186613
232	0x3d36bcd6	0.04461368
233	0x3e33b9eb	0.17551391
234	0xbcd7b76c	-0.02633258
235	0xbcd66352	-0.026170406
236	0xbcb42834	-0.021991827
237	0xbe4584c5	-0.19288929
238	0xbea03462	-0.31289965
239	0xbe56c19d	-0.20972295
240	0x3db7add5	0.08968703
241	0x3e0b5285	0.13605697
242	0x3dd0cf93	0.10195842
243	0x3c515f9e	0.012779145
244	0x3e702c1c	0.23454326
245	0xbea0f5a2	-0.31437403
246	0xbdb7debb	-0.08978029
247	0xbe41dd82	-0.18932155
248	0x3e01a61f	0.12661026
249	0xbdf929fa	-0.121662095
250	0xb8896304	-6.551112e-05
251	0xbe19dee2	-0.1502643
252	0x3b09f2b7	0.002104921
253	0xbdee82b4	-0.116460234
254	0x3c56fe5a	0.013122166
255	0xbd2be9b3	-0.04197092

lstms.1.bias_ih_l0 f4 [64]
0	0x3733f5fd	1.0726505e-05
1	0x382c86e6	4.113363e-05
2	0x381f79ff	3.802217e-05
3	0xb7a5c4a6	-1.9761104e-05
4	0x3a258625	0.00063142396
5	0xb6882f69	-4.058635e-06
6	0x393d3568	0.0001804434
7	0xb83f8184	-4.565857e-05
8	0x39051c8f	0.00012694507
9	0xb6b7bd48	-5.4758602e-06
10	0xb72977f8	-1.0101117e-05
11	0xb55b96cb	-8.180329e-07
12	0x38248285	3.9222203e-05
13	0x353be5c5	6.999729e-07
14	0xb883b834	-6.280877e-05
15	0xb6a53d6f	-4.924535e-06
16	0x37323548	1.0622032e-05
17	0x382ba42f	4.0922485e-05
18	0x38204414	3.8210375e-05
19	0xb75b1934	-1.3059285e-05
20	0x3a241ee6	0.0006260708
21	0xb61049f7	-2.1500725e-06
22	0x393c1706	0.00017937654
23	0xb83cbbe1	-4.499767e-05
24	0x390432b5	0.00012607391
25	0xb6b1f2a3	-5.3032577e-06
26	0xb724fb7e	-9.833717e-06
27	0xb5598e95	-8.1046284e-07
28	0x38244e92	3.917382e-05
29	0x353b499f	6.977006e-07
30	0xb87ec7c0	-6.074435e-05
31	0xb6a18047	-4.8131074e-06
32	0xb9b1ea27	-0.00033934528
33	0xbad16e2e	-0.0015978271
34	0x3a037359	0.00050144416
35	0xbc0c1985	-0.008551006
36	0xbbbfcd11	-0.0058533032
37	0xbb36271d	-0.002779431
38	0x3b63c21d	0.0034753152
39	0x395797c0	0.00020560529
40	0xbb6d2280	-0.0036183894
41	0xb9dd8d9f	-0.0004225792
42	0xba1ebf13	-0.0006055694
43	0x397a859d	0.00023891633
44	0x3ab9afc2	0.001416676
45	0xb9851636	-0.00025384285
46	0x3b93456f	0.004494361
47	0xb9f94c9f	-0.00047550068
48	0x37327223	1.0636201e-05
49	0x382d7c65	4.1362266e-05
50	0x381e4cb5	3.7741574e-05
51	0xb7c6bc78	-2.3691202e-05
52	0x3a264dd0	0.00063439924
53	0xb64c6187	-3.0455137e-06
54	0x393d3235	0.00018043148
55	0xb83fc73f	-4.572351e-05
56	0x3904f922	0.0001268131
57	0xb6b2a8ee	-5.3244794e-06
58	0xb727919a	-9.987876e-06
59	0xb55ac6f5	-8.150085e-07
60	0x3824a844	3.9257357e-05
61	0x353beea4	7.0010196e-07
62	0xb88500c8	-6.34208e-05
63	0xb6a2eb64	-4.8553793e-06

lstms.1.bias_hh_l0 f4 [64]
0	0x3733f5fd	1.0726505e-05
1	0x382c86e6	4.113363e-05
2	0x381f79ff	3.802217e-05
3	0xb7a5c4a6	-1.9761104e-05
4	0x3a258625	0.00063142396
5	0xb6882f69	-4.058635e-06
6	0x393d3568	0.0001804434
7	0xb83f8184	-4.565857e-05
8	0x39051c8f	0.00012694507
9	0xb6b7bd48	-5.4758602e-06
10	0xb72977f8	-1.0101117e-05
11	0xb55b96cb	-8.180329e-07
12	0x38248285	3.9222203e-05
13	0x353be5c5	6.999729e-07
14	0xb883b834	-6.280877e-05
15	0xb6a53d6f	-4.924535e-06
16	0x37323548	1.0622032e-05
17	0x382ba42f	4.0922485e-05
18	0x38204414	3.8210375e-05
19	0xb75b1934	-1.3059285e-05
20	0x3a241ee6	0.0006260708
21	0xb61049f7	-2.1500725e-06
22	0x393c1706	0.00017937654
23	0xb83cbbe1	-4.499767e-05
24	0x390432b5	0.00012607391
25	0xb6b1f2a3	-5.3032577e-06
26	0xb724fb7e	-9.833717e-06
27	0xb5598e95	-8.1046284e-07
28	0x38244e92	3.917382e-05
29	0x353b499f	6.977006e-07
30	0xb87ec7c0	-6.074435e-05
31	0xb6a18047	-4.8131074e-06
32	0xb9b1ea27	-0.00033934528
33	0xbad16e2e	-0.0015978271
34	0x3a037359	0.00050144416
35	0xbc0c1985	-0.008551006
36	0xbbbfcd11	-0.0058533032
37	0xbb36271d	-0.002779431
38	0x3b63c21d	0.0034753152
39	0x395797c0	0.00020560529
40	0xbb6d2280	-0.0036183894
41	0xb9dd8d9f	-0.0004225792
42	0xba1ebf13	-0.0006055694
43	0x397a859d	0.00023891633
44	0x3ab9afc2	0.001416676
45	0xb9851636	-0.00025384285
46	0x3b93456f	0.004494361
47	0xb9f94c9f	-0.00047550068
48	0x37327223	1.0636201e-05
49	0x382d7c65	4.1362266e-05
50	0x381e4cb5	3.7741574e-05
51	0xb7c6bc78	-2.3691202e-05
52	0x3a264dd0	0.00063439924
53	0xb64c6187	-3.0455137e-06
54	0x393d3235	0.00018043148
55	0xb83fc73f	-4.572351e-05
56	0x3904f922	0.0001268131
57	0xb6b2a8ee	-5.3244794e-06
58	0xb727919a	-9.987876e-06
59	0xb55ac6f5	-8.150085e-07
60	0x3824a844	3.9257357e-05
61	0x353beea4	7.0010196e-07
62	0xb88500c8	-6.34208e-05
63	0xb6a2eb64	-4.8553793e-06

fc.weight f4 [1, 16]
0	0xbd0692d8	-0.032854885
1	0xbd2d353d	-0.0422871
2	0x3d417c02	0.047237404
3	0xbe7f5725	-0.24935587
4	0xbdfa3454	-0.12217012
5	0xbd813e6a	-0.06310733
6	0x3e000006	0.12500009
7	0x3d7c15b8	0.06154415
8	0xbda50825	-0.08058194
9	0xbcd2ce39	-0.0257331
10	0x3b552b56	0.003252705
11	0xbcab893a	-0.020939458
12	0x3c0d081f	0.008607893
13	0xbc8424c3	-0.01613081
14	0x3dafe2d2	0.085881844
15	0x3ca55ade	0.02018493
