labs/models/JPY/7_64_32.pth (torch, 121671 bytes, 9 tensors)

lstms.0.weight_ih_l0 f4 [256, 1]
0	0x3dbacb11	0.09120763
1	0xbdc67bb4	-0.09691563
2	0xbd0330db	-0.032029014
3	0xbe4a7f1b	-0.1977505
4	0xbe08735b	-0.13325255
5	0xbba83ae8	-0.0051339753
6	0xbdead650	-0.11466658
7	0xbcca9da9	-0.024733381
8	0x3d67579c	0.056480035
9	0xbcd443d8	-0.025911257
10	0x3db94fa0	0.090483904
11	0xbcd3c52c	-0.025850855
12	0x3da58917	0.080827884
13	0x3cfd46e5	0.030917594
14	0xbdece450	-0.11566985
15	0xbae45eb2	-0.0017423241
16	0xbd854dcc	-0.06508979
17	0x3d255379	0.04036281
18	0xbe18bb60	-0.14915228
19	0xbd9c20a3	-0.076234125
20	0xbdb119d2	-0.08647503
21	0xbcb86749	-0.022510188
22	0x3c5ea329	0.013588705
23	0x3d8c8e1d	0.068630435
24	0xbd6ebda7	-0.058286335
25	0xbdb89377	-0.09012502
26	0x3d6d697c	0.057961926
27	0x3d2b9710	0.04189211
28	0xbb6c0b4b	-0.0036017473
29	0xbd9f44ad	-0.07776771
30	0x3cb6ce1a	0.022315074
31	0x3d71540d	0.058918048
32	0xbda9c4b4	-0.08289471
33	0x3e16990f	0.14706825
34	0xbd82a937	-0.063799314
35	0x3cdb4623	0.026766842
36	0xbe12b0ad	-0.14325209
37	0x3d1fa70c	0.038977668
38	0xbd9d644d	-0.076851465
39	0xbd95a357	-0.07306545
40	0xbe532584	-0.2061978
41	0x3d44fbf6	0.04809185
42	0x3daf446d	0.08557973
43	0x3dc66969	0.09688074
44	0xbd500e67	-0.050794985
45	0xbd4634e3	-0.04839028
46	0xbd96c869	-0.07362444
47	0x3cd4834b	0.025941512
48	0x3e22b264	0.15888363
49	0x3d1546f8	0.036444634
50	0xbc7f8e22	-0.015597852
51	0x3e23d8c3	0.16000657
52	0xbc81372e	-0.015773382
53	0x3d834121	0.06408907
54	0xbdd3526e	-0.103184566
55	0x3dc10701	0.09425164
56	0xbc2aa3f5	-0.010415067
57	0x3de5f7ec	0.11228928
58	0xbe130d28	-0.14360487
59	0x3d0c4d6d	0.034253526
60	0xbcb3abae	-0.02193245
61	0xbcc94afe	-0.024571892
62	0xbce28767	-0.027652455
63	0xbd167aab	-0.03673808
64	0xbdb479e1	-0.08812309
65	0xbd5cf66e	-0.05394595
66	0xbd627d4d	-0.055295277
67	0x3ca4bc26	0.020109247
68	0xbd7890de	-0.06068503
69	0x3dba0b4e	0.090841874
70	0x3e0860f5	0.13318236
71	0x3e348726	0.1762968
72	0xbd3ef714	-0.04662235
73	0xbdc8899d	-0.09791873
74	0x3ce1e86d	0.02757665
75	0xbd1e5d0e	-0.038662963
76	0x3d1a4452	0.03766281
77	0x3e241fd8	0.16027772
78	0xbe36cd15	-0.1785167
79	0x3cc4c565	0.024019906
80	0x3dd44dee	0.103664264
81	0x3cbb25e4	0.022845216
82	0xbd2a6bca	-0.041606702
83	0xbcf965d0	-0.030444056
84	0xbd19ee4f	-0.037580784
85	0xbd70ccf0	-0.058789194
86	0xbd51d383	-0.051227104
87	0xbd60a628	-0.05484596
88	0x3d70ce1e	0.05879032
89	0xbdd7a4f8	-0.10529512
90	0x3db9d923	0.09074619
91	0x3c2105a2	0.009828003
92	0xbd30498a	-0.043038882
93	0x3cbd04a0	0.023073494
94	0x3da2b0c8	0.079438746
95	0x3df8a239	0.121403165
96	0x3bc28a6f	0.0059369127
97	0xbca9a6a8	-0.02070935
98	0xbd25f581	-0.040517334
99	0xbe013611	-0.12618281
100	0xbe368dd1	-0.17827536
101	0xbd91704c	-0.07101497
102	0xbcc23c38	-0.023710355
103	0xbe1c54b8	-0.15266693
104	0xbc7c4d63	-0.01539931
105	0x3c863d87	0.01638676
106	0x3ccfdda9	0.02537425
107	0xbdc7903a	-0.09744306
108	0x3db2c2db	0.08728572
109	0xbe853a4e	-0.26021045
110	0xbb68cb37	-0.0035521516
111	0xbe08c540	-0.13356495
112	0xbdad8ac6	-0.084737346
113	0xbdee78c6	-0.116441295
114	0xbe476e6a	-0.19475713
115	0xbd465912	-0.048424788
116	0xbda93791	-0.082625516
117	0x3e056454	0.13026553
118	0xbd8752a2	-0.06607558
119	0x3d5d4fa1	0.05403102
120	0xbe77c181	-0.2419491
121	0x3c4eba97	0.012617729
122	0xbe04da23	-0.12973838
123	0x3d64cc4a	0.055858888
124	0xbe44f548	-0.19234192
125	0xbd802ccc	-0.06258544
126	0xbd559d39	-0.052151892
127	0x3e008794	0.12551719
128	0x3ca957f1	0.020671817
129	0x3d55e461	0.052219752
130	0x3de5edac	0.11226973
131	0x3e2f2495	0.17103799
132	0xbe0836d8	-0.13302171
133	0xbe314425	-0.17311151
134	0x3e2fd1c7	0.17169867
135	0xbe2301c7	-0.15918647
136	0xbe4cc6d6	-0.19997725
137	0x3ce19540	0.027536988
138	0xbd32e4f0	-0.043675363
139	0xbe0a8c1c	-0.1353001
140	0x3cbb5b69	0.022870736
141	0x3ce0ca08	0.027440086
142	0xbd592cc0	-0.053021193
143	0x3d93c0f8	0.0721454
144	0x3e08dcbd	0.13365455
145	0xbeb86c10	-0.36019945
146	0xbda90302	-0.08252527
147	0x3e30b816	0.17257723
148	0x3e8bc6e3	0.27300176
149	0xbe573300	-0.21015549
150	0x3e492b6b	0.19645469
151	0x3d52de63	0.051481616
152	0x3d909140	0.07058954
153	0xbda1067c	-0.07862565
154	0x3dfbd6d1	0.12296832
155	0x3d1a36dd	0.037649978
156	0x3924a798	0.00015702692
157	0x3e2b18b9	0.1670865
158	0xbe0b812e	-0.13623497
159	0xbd71a265	-0.058992762
160	0x3e32cdaa	0.17461267
161	0x3da7b623	0.08189037
162	0x3db842c1	0.08997107
163	0xbe035e61	-0.12828971
164	0x3e198d84	0.1499539
165	0xba750426	-0.00093466265
166	0x3e265605	0.16243751
167	0xbd5d7079	-0.05406234
168	0xbe544403	-0.2072907
169	0x3db62519	0.088937946
170	0x3c16ff8f	0.009216203
171	0xbd9eaed2	-0.07748188
172	0x3e041577	0.12898813
173	0xbd04c138	-0.03241083
174	0x3d1e9463	0.03871573
175	0x3df576cb	0.119855486
176	0x3d8141d9	0.063113876
177	0xbe8592e2	-0.26088625
178	0xbdba2aa4	-0.09090164
179	0x3e8970e6	0.26843947
180	0xbe159543	-0.1460772
181	0x3e055eb6	0.1302441
182	0x3dbed476	0.093178675
183	0xbd8ec0b5	-0.0697035
184	0x3d235261	0.039873485
185	0xbe2b059e	-0.16701362
186	0xbd8d5acf	-0.06902086
187	0x3e13df26	0.14440593
188	0x3d8f1358	0.069861114
189	0xbda880c4	-0.08227685
190	0x3d9a1410	0.07523358
191	0x3e128a06	0.14310464
192	0x3d94cade	0.07265256
193	0x3bde3f3b	0.00678244
194	0x3dfadb20	0.12248826
195	0xbce9c3ae	-0.02853569
196	0xbd6a69c8	-0.057229787
197	0xbd98e172	-0.07464875
198	0x3d97ffbc	0.07421824
199	0x3d2fe62b	0.042944115
200	0xbd8ab64d	-0.06773052
201	0xbd1f70ce	-0.03892594
202	0xbcc3cd8c	-0.023901723
203	0xbbacefc8	-0.0052776076
204	0xbd954838	-0.07289165
205	0x3cbd6e03	0.023123747
206	0xbdae2949	-0.08503968
207	0xbcbe7714	-0.02325014
208	0x3dba98dd	0.091111876
209	0x3e2ad865	0.1668411
210	0xbd83c51c	-0.0643408
211	0xbd275bce	-0.040859036
212	0x3dfd7dd3	0.12377515
213	0x3d2b1bbe	0.041774504
214	0xbd852578	-0.06501287
215	0x3cd4c9d1	0.02597514
216	0xbdf09a87	-0.11748224
217	0x3ca69424	0.02033431
218	0x3e340cf9	0.17583074
219	0xbc942408	-0.018083587
220	0xbc72a253	-0.014809209
221	0xbe080d7a	-0.13286391
222	0x3dc03806	0.093856856
223	0x3bac72d1	0.0052627106
224	0x3c80f613	0.015742337
225	0xbd7a8116	-0.061158262
226	0xbe4afea6	-0.19823703
227	0x3dac4a6d	0.08412633
228	0x3d1125fb	0.03543661
229	0xbd014af2	-0.031565614
230	0x3d1c146b	0.03810541
231	0xbdfdfa4f	-0.12401258
232	0xbe451f3b	-0.19250195
233	0x3d9fd39b	0.078040324
234	0xbd3af173	-0.04564042
235	0xbe34de08	-0.17662823
236	0x3d9a2d36	0.075281546
237	0xbde21730	-0.11039579
238	0x3c826886	0.015918981
239	0xbce97a09	-0.028500574
240	0xbdbaf422	-0.09128596
241	0x3e09899d	0.13431402
242	0xbdecd622	-0.1156428
243	0x3c0ef210	0.008724704
244	0xbc880333	-0.016603088
245	0x3d9fe90c	0.07808122
246	0xbe214a1f	-0.15750931
247	0xbe375b70	-0.17905974
248	0xbc4479e0	-0.011991948
249	0xbd854571	-0.065073855
250	0x3dee054c	0.11622104
251	0x3c10a200	0.008827686
252	0x3d7a0f14	0.061049536
253	0x3a08499b	0.00051989564
254	0x3ce5f1ba	0.028069366
255	0x3e6b0f11	0.22954966

lstms.0.weight_hh_l0 f4 [256, 64]
0	0x3df6eb81	0.120566376
1	0xbdf895b2	-0.12137927
2	0xbca9864a	-0.020693917
3	0x3d0ae5ff	0.033910748
4	0xbe00f304	-0.12592703
5	0x3bc47511	0.0059954007
6	0x3d3638fa	0.04448793
7	0x3dc3f0c7	0.09567409
8	0x3c8ef062	0.017448608
9	0xbe42bc21	-0.19017078
10	0xbdf39b6c	-0.11894879
11	0xbd817e95	-0.06322972
12	0x3cf2ca80	0.029637575
13	0xbd2200cd	-0.039551545
14	0xbb0832e8	-0.0020782296
15	0x3c23bbf3	0.009993541
16	0xbd9376e3	-0.0720041
17	0x3e2233e7	0.15840112
18	0xbd29b640	-0.041433573
19	0x3cc47760	0.023982704
20	0x3cc5d8d1	0.024151238
21	0x3d7561fd	0.059907902
22	0xba32adf8	-0.00068160845
23	0xbd33baff	-0.043879505
24	0xbde4dfa2	-0.11175467
25	0x3b58e484	0.003309519
26	0xbc940348	-0.01806797
27	0x3d602331	0.05472106
28	0xbb6620b5	-0.003511471
29	0x3cf43a75	0.02981303
30	0x3a8b2237	0.0010615055
31	0xbd17d3a3	-0.037067067
32	0xbe115388	-0.14192021
33	0x3cc8cc20	0.024511397
34	0xbd4c2a03	-0.049844753
35	0x3d65b0f5	0.056076963
36	0xbccf7c98	-0.025327966
37	0xbd41457f	-0.047185417
38	0xbe0b9d1c	-0.13634151
39	0x3b36b584	0.0027879188
40	0x3de87a40	0.11351442
41	0xbc20ba68	-0.009810068
42	0xbd69e157	-0.057099666
43	0x3cee851a	0.029116202
44	0x3ca49e5f	0.020095048
45	0x3b3dadc2	0.002894268
46	0xbe0293a3	-0.12751631
47	0xbd63c57a	-0.05560825
48	0x3d5d31dc	0.054002628
49	0xbd3c6a71	-0.045999948
50	0xbdcbffba	-0.09960885
51	0xbd0d95ec	-0.034566805
52	0x3d720d70	0.059094846
53	0xbb15b3f0	-0.0022842847
54	0xbbfd78dc	-0.007735355
55	0xbe0bdfaa	-0.1365954
56	0xbd94b305	-0.07260708
57	0x3e4da051	0.20080687
58	0x3cda02b7	0.026612623
59	0x3d254c8c	0.040356204
60	0xbdc24f93	-0.09487834
61	0xbc3d1281	-0.011540056
62	0xbd289989	-0.041162048
63	0x3dee48fd	0.11635015
64	0xbd7f6309	-0.062350307
65	0x3bd9d731	0.0066479673
66	0x3deff169	0.11715967
67	0xbba6a17f	-0.00508517
68	0xbe0233ac	-0.12715024
69	0xbd33baba	-0.04387925
70	0xbd044869	-0.03229562
71	0xbbaecb6b	-0.005334308
72	0x3d16ff14	0.036864355
73	0xbe26cdf0	-0.16289496
74	0x3d87086e	0.06593405
75	0x3e1d03b9	0.15333451
76	0x3d72b6ed	0.059256483
77	0xbc8040cc	-0.015655898
78	0x3a283bda	0.000641761
79	0x3ce0912b	0.027412971
80	0x3bccf5bd	0.00625488
81	0x3d3c3b48	0.045954973
82	0xbd903dd1	-0.070430405
83	0xbd5e4a4b	-0.05427007
84	0x3d3e642f	0.04648226
85	0x3d063dd5	0.03277381
86	0xbc525849	-0.012838432
87	0x3cab426d	0.020905698
88	0xbd460164	-0.04834117
89	0xbd3242f5	-0.043520886
90	0xbc9885e7	-0.018618537
91	0x3d093a87	0.03350308
92	0x3d0618b9	0.03273842
93	0xb572f8d0	-9.0514095e-07
94	0xbdbdec4f	-0.09273588
95	0x3c8528f3	0.016254878
96	0x3d851f2a	0.06500085
97	0x3d308b90	0.043101847
98	0xbdb5456a	-0.0885113
99	0x3cb0d294	0.021584786
100	0x3cdf7755	0.027278582
101	0x3dc6d52d	0.09708629
102	0xbd9e0715	-0.077161945
103	0xbd8eaa5c	-0.06966087
104	0x3dc74630	0.09730184
105	0x3d498636	0.04920026
106	0x3dc2bc41	0.09508563
107	0x3d1d77e4	0.038444415
108	0xbcaf0c2d	-0.02136811
109	0x3d19ae26	0.037519597
110	0x3d9ce1bc	0.07660243
111	0xbe44e5d4	-0.19228297
112	0xbc78c071	-0.0151826
113	0xbdc2cd54	-0.095118195
114	0x3d2737f8	0.04082486
115	0xbdc327e3	-0.09529092
116	0x3de69672	0.11259164
117	0xbd9618e2	-0.07328965
118	0xbe072bc5	-0.1320029
119	0xbcfdb982	-0.030972246
120	0x3d2e6eac	0.042586014
121	0xbd08f2e6	-0.03343477
122	0xbdadf2c6	-0.08493571
123	0xbe314556	-0.17311606
124	0xbd830978	-0.063982904
125	0x3d61f793	0.055167746
126	0xbd825164	-0.0636318
127	0xbd8c931c	-0.068639964
128	0xbdedf9ac	-0.11619887
129	0x3cd580ca	0.026062388
130	0x3df1fa37	0.11815303
131	0x3d921c9e	0.071343645
132	0x3d1c923e	0.038225405
133	0x3ddeabaa	0.10872586
134	0xbb2916a1	-0.0025800841
135	0x3e175f45	0.14782436
136	0xbdca2903	-0.098711036
137	0x3cb62fad	0.02223953
138	0xbd15f054	-0.036606148
139	0xbd1dffe6	-0.038574122
140	0x3bf54c54	0.0074859057
141	0xbcf4a26d	-0.029862607
142	0xbd264738	-0.040595263
143	0xbd2adbac	-0.0417134
144	0xbd30ddaa	-0.043180145
145	0x3c30188e	0.010748042
146	0x3b9bde9b	0.0047567612
147	0x3e406e4c	0.18792075
148	0x3b8c9322	0.0042900005
149	0xbd8eb582	-0.069682136
150	0x3dc0af42	0.09408428
151	0xbd65b565	-0.056081194
152	0xbe13c96f	-0.1443231
153	0x3d97be07	0.07409292
154	0x3cd161c1	0.025559308
155	0xbe041818	-0.12899816
156	0x3d8be2e5	0.06830386
157	0xbca8b17f	-0.02059245
158	0xbe16bd72	-0.14720705
159	0xbd32ceb9	-0.043654177
160	0xbd172135	-0.036896903
161	0x3d73e1a8	0.059541374
162	0xbd2f1b28	-0.042750508
163	0x3dd18898	0.10231131
164	0x3cf3fa77	0.029782517
165	0x3cc78020	0.024353087
166	0xbd5df399	-0.05418739
167	0x3d78badd	0.06072508
168	0x3d459902	0.048241623
169	0xbcc1b403	-0.023645407
170	0xbe1c59f8	-0.15268695
171	0x3c3985f0	0.011323437
172	0xbd7abebd	-0.06121706
173	0x3e009460	0.125566
174	0x3e09084e	0.13382074
175	0xba9d6f08	-0.0012011239
176	0xbe1150db	-0.14191
177	0xbe0d188f	-0.137789
178	0x3d57c055	0.052673656
179	0xba51c4fd	-0.0008002071
180	0x3d080801	0.033210758
181	0xbd39989c	-0.045311555
182	0x3b81b57f	0.0039584036
183	0x3d55106b	0.05201761
184	0x3e199adc	0.1500048
185	0xbcdced1b	-0.02696853
186	0xbdc71d61	-0.097224005
187	0xbd646df0	-0.055768907
188	0xbd9881cc	-0.07446632
189	0xbe054512	-0.1301463
190	0xbd94f531	-0.07273329
191	0x3e503b96	0.2033523
192	0x3d996c35	0.07491342
193	0x3aa8998a	0.0012863141
194	0xbd8741b9	-0.066043325
195	0x3c74ed55	0.0149491625
196	0xbd852988	-0.06502062
197	0x3c83b82f	0.016079037
198	0xbc7a5a5c	-0.015280332
199	0xbd961e00	-0.07329941
200	0x3da85209	0.08218772
201	0x3bf4f509	0.0074754995
202	0x3dba4510	0.09095204
203	0xbe4047a9	-0.18777336
204	0xbbf6660f	-0.0075194906
205	0x3d1bb981	0.038018707
206	0xbd383fb8	-0.044982642
207	0xbd843a19	-0.06456394
208	0xbd3f42eb	-0.046694677
209	0x3d49c17e	0.049256794
210	0x3d218c1c	0.03944026
211	0xbdb4fa13	-0.0883676
212	0xbdb894f9	-0.09012789
213	0x3be169bf	0.006879061
214	0x3d7a04ff	0.06103992
215	0xbc1c6dd3	-0.0095476685
216	0xbdf67d82	-0.120356575
217	0xbd3d2f18	-0.04618749
218	0xbc3576f8	-0.011075728
219	0x3a968c67	0.0011485935
220	0x3d29423a	0.041322924
221	0x3d22047d	0.03955506
222	0xbde0999b	-0.10966798
223	0x3e40d8e2	0.18832734
224	0x3cce3833	0.025173282
225	0xbd16cfb1	-0.036819164
226	0x3d0388e7	0.032112982
227	0xbd046180	-0.032319546
228	0xbd85481f	-0.06507897
229	0x3e2001cb	0.15625684
230	0xbca82098	-0.020523354
231	0xbae2e658	-0.001731108
232	0x3a5bab7e	0.00083797413
233	0xbdb1aae6	-0.086751744
234	0x3db18a59	0.08668966
235	0x3c6c1ea4	0.014411602
236	0xbe3e7ce6	-0.18602332
237	0xbc32937d	-0.010899422
238	0x3d9dabcf	0.076987855
239	0xbde115de	-0.10990499
240	0x3c876334	0.016526796
241	0x3de6ad28	0.11263496
242	0x3d4d3973	0.050103616
243	0xbd6161cc	-0.055024907
244	0x3e3a51b5	0.18195231
245	0xbdb50815	-0.08839432
246	0xbd8ec84f	-0.069717996
247	0x3d1e6e09	0.038679156
248	0xbe2efd10	-0.17088723
249	0x3c82505e	0.015907463
250	0x3d2ababa	0.041681983
251	0x3c379f85	0.011207466
252	0x3c8910a5	0.01673157
253	0xbced7107	-0.02898456
254	0x3c944caa	0.018102963
255	0xbd94fd1e	-0.07274841

lstms.0.bias_ih_l0 f4 [256]
0	0x3b3abce8	0.0028493945
1	0x3c97c15c	0.018524818
2	0x3cfbf56b	0.030756673
3	0x3cc29c13	0.023756063
4	0x3cc27b1a	0.02374034
5	0x3cd0276a	0.02540942
6	0x3cf554ec	0.02994772
7	0x3b56006f	0.0032654067
8	0x3cd77813	0.026302373
9	0xbc055764	-0.008138511
10	0x3cb05ea1	0.021529498
11	0x3b4ed97b	0.0031562734
12	0x3c9eca44	0.019383557
13	0xbcc16c61	-0.02361125
14	0x3caa7d11	0.02081159
15	0x3cb3879b	0.021915248
16	0x3cdcc052	0.026947174
17	0x3d06f8ba	0.032952048
18	0x3c889788	0.016673818
19	0x3cc0b8aa	0.023525555
20	0x3c92e3a2	0.01793081
21	0x3c814f5e	0.015784916
22	0xbb9fb4a9	-0.0048738313
23	0xbc078d49	-0.008273431
24	0x3c7b3bec	0.015334111
25	0x3cb25fe1	0.021774234
26	0x3c373364	0.011181686
27	0xbcd0a24d	-0.025468016
28	0xbc752c8d	-0.014964235
29	0x3cc7b20e	0.024376895
30	0x3cd25e94	0.025679864
31	0xbc17ebf9	-0.009272569
32	0x3cbfdbb8	0.0234202
33	0x3cadf5c8	0.021235362
34	0x3cb03e93	0.021514213
35	0xbc26b7ff	-0.010175704
36	0x3cfc5003	0.030799871
37	0x3c3e86c1	0.0116288075
38	0x3cd60358	0.026124641
39	0x3caeade2	0.021323148
40	0x3cc43182	0.023949388
41	0x3c85a770	0.016315192
42	0x3b8c5227	0.0042822543
43	0xbce9588a	-0.028484602
44	0x3d05a18d	0.03262477
45	0x3c44899f	0.011995702
46	0xbc63e98b	-0.013910661
47	0x3cb386ee	0.021914925
48	0x3cb27c3b	0.021787753
49	0x3c3da023	0.011573824
50	0x3cc0d4ef	0.023539035
51	0x3d13f05a	0.03611789
52	0x3cbebb14	0.023282565
53	0x3b48e4b6	0.00306539
54	0x3cb40dbc	0.021979205
55	0x3ccc7b25	0.024961064
56	0x3c1391a1	0.009006889
57	0x3cb1e296	0.02171449
58	0x3ca7185e	0.020397361
59	0xbcc82e5d	-0.02443617
60	0x3c1d9df2	0.009620177
61	0x3b688a79	0.0035482927
62	0x3cb8e3dc	0.02256959
63	0x3d8c36e2	0.068464056
64	0x3b07ad63	0.0020702712
65	0x3c8e21a2	0.017350022
66	0x3ce71509	0.028208273
67	0x3cb02ca2	0.021505658
68	0x3cb7b35d	0.022424394
69	0x3cbacfa3	0.022804087
70	0x3cdad3af	0.026712267
71	0x3b13691d	0.0022493072
72	0x3cb8e442	0.02256978
73	0xbc0a2a53	-0.008432942
74	0x3c9ef923	0.019405907
75	0x3b1b27ab	0.0023674767
76	0x3c914d2b	0.017736992
77	0xbcc2e2d1	-0.023789795
78	0x3c9dd83f	0.019268153
79	0x3c9ecd84	0.019385107
80	0x3cc5ea9d	0.024159724
81	0x3cf16ba0	0.029470265
82	0x3c5f3e7f	0.01362574
83	0x3cb092bb	0.021554342
84	0x3c7b329a	0.015331889
85	0x3c5534bd	0.013013062
86	0xbbbcda65	-0.0057633393
87	0xbc153264	-0.009106252
88	0x3c650af6	0.013979664
89	0x3ca19992	0.019726548
90	0x3c208b76	0.009798875
91	0xbc9c88f4	-0.019108273
92	0xbc74aac3	-0.014933291
93	0x3cb312dd	0.02185958
94	0x3cbd3878	0.023098215
95	0xbbe492b3	-0.0069754957
96	0x3cae68e5	0.021290252
97	0x3ca274c8	0.019831076
98	0x3ca143f4	0.019685723
99	0xbc300d0d	-0.010745299
100	0x3cd9f889	0.026607769
101	0x3c2cc5a3	0.010545167
102	0x3cbd009c	0.02307158
103	0x3ca38e7f	0.019965408
104	0x3caf5fb4	0.02140794
105	0x3cc7b4f3	0.024378275
106	0x3b611e56	0.0034350357
107	0xbce5d269	-0.028054433
108	0x3cff00a9	0.031128244
109	0x3c2f033c	0.0106819235
110	0xbc6c7681	-0.01443255
111	0x3ca481cf	0.020081429
112	0x3ca3fd1d	0.020018155
113	0x3c1c75b0	0.009549543
114	0x3ca82e33	0.020529842
115	0x3d08b2de	0.033373706
116	0x3caf205e	0.021377739
117	0x3c0eaa44	0.008707587
118	0x3ca468df	0.020069538
119	0x3cb66c2e	0.022268381
120	0x3c0c935f	0.008580058
121	0x3ca4dbfc	0.020124428
122	0x3c9c7548	0.019098893
123	0xbcccbff2	-0.02499387
124	0x3c09eefa	0.008418793
125	0x3b085dfb	0.002080797
126	0x3ca8fdef	0.020628897
127	0x3da0b295	0.07846562
128	0xbc21521d	-0.0098462375
129	0xbc340882	-0.010988357
130	0xbc2164c1	-0.009850682
131	0xbc1fcc3a	-0.009753281
132	0x3c275531	0.010213182
133	0x3c13e8dc	0.009027686
134	0xbc1d1d47	-0.0095895
135	0xbc2ef556	-0.01067861
136	0x3b785834	0.003789437
137	0x3bf2d5d4	0.007410744
138	0x3c3a311c	0.011364248
139	0xbccde097	-0.025131507
140	0xbc464dcb	-0.012103508
141	0x3bb41fcc	0.0054969545
142	0x3c60a1ac	0.013710421
143	0xbc12a3fd	-0.008950231
144	0xbbdbd254	-0.0067084227
145	0x3c18fc69	0.009337523
146	0x3b3709a5	0.0027929333
147	0xbc447325	-0.011990343
148	0x3b01ff0a	0.0019835853
149	0xbc22b501	-0.00993085
150	0x3c9b9816	0.018993419
151	0x3bfc2c25	0.007695692
152	0xbc3011c5	-0.010746424
153	0x3c37d798	0.011220835
154	0xbaf38938	-0.0018580323
155	0x3b95a636	0.004566933
156	0xbbfc7d75	-0.0077053853
157	0xbc44fe3c	-0.012023505
158	0x3c216308	0.009850271
159	0xbcd3bc90	-0.02584675
160	0xbc2dbd75	-0.010604252
161	0xbc4265b0	-0.0118650645
162	0xbc5c9f35	-0.013465692
163	0x392acbea	0.00016288427
164	0xbc51631d	-0.012779978
165	0xbbffc65e	-0.0078056296
166	0xbc33ede4	-0.0109820105
167	0x3c5528c0	0.013010204
168	0x3c0cbfe0	0.008590668
169	0x3cc5415f	0.024079023
170	0x3be2bd6b	0.006919553
171	0xbb84cd67	-0.004052806
172	0x3c1c4d88	0.009539969
173	0x3c462781	0.012094379
174	0x3bf26371	0.0073971082
175	0xbc32832f	-0.010895534
176	0xbc2cecd4	-0.010554511
177	0xbcb0110b	-0.021492502
178	0x3c22ae8b	0.00992931
179	0xbc0a3167	-0.00843463
180	0x3c2344d1	0.009965138
181	0x3ca41e68	0.02003403
182	0xbc4e1671	-0.012578593
183	0x3c147704	0.009061579
184	0xbc115acd	-0.008871746
185	0x3c329984	0.010900859
186	0x3c4138fd	0.011793372
187	0x3c847550	0.01616922
188	0xbbebc630	-0.0071952567
189	0xbb6307b1	-0.0034642036
190	0xbc236194	-0.009971995
191	0x3c73255f	0.014840453
192	0x3b33bc33	0.0027425408
193	0x3c9841bb	0.01858603
194	0x3cfd0a4d	0.0308887
195	0x3cc1681c	0.023609214
196	0x3cbe4cb9	0.023229944
197	0x3cc21a80	0.023694277
198	0x3ce56293	0.028001105
199	0x3b5afccd	0.003341484
200	0x3cce6a23	0.025197094
201	0xbc059f3e	-0.008155642
202	0x3cae167a	0.021250952
203	0x3bae7f19	0.00532521
204	0x3c9a22f5	0.018815497
205	0xbcc1fc91	-0.023680003
206	0x3cab7f21	0.020934643
207	0x3cad74e1	0.021173896
208	0x3ce526aa	0.027972538
209	0x3d04854d	0.032353688
210	0x3c872de8	0.016501382
211	0x3cbea524	0.023272105
212	0x3c8e59c0	0.01737678
213	0x3c84731f	0.016168175
214	0xbb9b6f61	-0.004743502
215	0xbc0a23c5	-0.00843138
216	0x3c7d6f6e	0.015468461
217	0x3cb2d15c	0.021828346
218	0x3c38ea36	0.011286309
219	0xbce081d3	-0.027405655
220	0xbc7ec150	-0.015549019
221	0x3cba9886	0.022777807
222	0x3cd22d34	0.02565632
223	0xbc131d95	-0.008979221
224	0x3cbfae97	0.02339868
225	0x3ca9169c	0.020640664
226	0x3caa378f	0.020778446
227	0xbc399747	-0.011327571
228	0x3cf94bda	0.030431677
229	0x3c3d63da	0.011559451
230	0x3cd4aca1	0.025961222
231	0x3ca9214f	0.020645766
232	0x3cbc3b41	0.022977473
233	0x3c2c90f3	0.010532605
234	0x3b814b71	0.003945761
235	0xbce2922f	-0.027657596
236	0x3d00cebc	0.031447157
237	0x3c42f152	0.011898356
238	0xbc62b2f7	-0.013836614
239	0x3cb1f28f	0.021722106
240	0x3caf7962	0.021420185
241	0x3c361007	0.01111222
242	0x3cb7f557	0.022455854
243	0x3d1dbd0c	0.038510367
244	0x3cbeb791	0.02328089
245	0x3b9cf113	0.0047894805
246	0x3cb300de	0.021851
247	0x3ccb340a	0.024805088
248	0x3c11117b	0.008854265
249	0x3cb12ee8	0.021628812
250	0x3ca690e1	0.020332756
251	0xbcc9b276	-0.02462123
252	0x3c1d6e03	0.009608748
253	0x3b770264	0.0037690634
254	0x3cbe3f3d	0.023223514
255	0x3d7a64b9	0.061131213

lstms.0.bias_hh_l0 f4 [256]
0	0x3b3abce8	0.0028493945
1	0x3c97c15c	0.018524818
2	0x3cfbf56b	0.030756673
3	0x3cc29c13	0.023756063
4	0x3cc27b1a	0.02374034
5	0x3cd0276a	0.02540942
6	0x3cf554ec	0.02994772
7	0x3b56006f	0.0032654067
8	0x3cd77813	0.026302373
9	0xbc055764	-0.008138511
10	0x3cb05ea1	0.021529498
11	0x3b4ed97b	0.0031562734
12	0x3c9eca44	0.019383557
13	0xbcc16c61	-0.02361125
14	0x3caa7d11	0.02081159
15	0x3cb3879b	0.021915248
16	0x3cdcc052	0.026947174
17	0x3d06f8ba	0.032952048
18	0x3c889788	0.016673818
19	0x3cc0b8aa	0.023525555
20	0x3c92e3a2	0.01793081
21	0x3c814f5e	0.015784916
22	0xbb9fb4a9	-0.0048738313
23	0xbc078d49	-0.008273431
24	0x3c7b3bec	0.015334111
25	0x3cb25fe1	0.021774234
26	0x3c373364	0.011181686
27	0xbcd0a24d	-0.025468016
28	0xbc752c8d	-0.014964235
29	0x3cc7b20e	0.024376895
30	0x3cd25e94	0.025679864
31	0xbc17ebf9	-0.009272569
32	0x3cbfdbb8	0.0234202
33	0x3cadf5c8	0.021235362
34	0x3cb03e93	0.021514213
35	0xbc26b7ff	-0.010175704
36	0x3cfc5003	0.030799871
37	0x3c3e86c1	0.0116288075
38	0x3cd60358	0.026124641
39	0x3caeade2	0.021323148
40	0x3cc43182	0.023949388
41	0x3c85a770	0.016315192
42	0x3b8c5227	0.0042822543
43	0xbce9588a	-0.028484602
44	0x3d05a18d	0.03262477
45	0x3c44899f	0.011995702
46	0xbc63e98b	-0.013910661
47	0x3cb386ee	0.021914925
48	0x3cb27c3b	0.021787753
49	0x3c3da023	0.011573824
50	0x3cc0d4ef	0.023539035
51	0x3d13f05a	0.03611789
52	0x3cbebb14	0.023282565
53	0x3b48e4b6	0.00306539
54	0x3cb40dbc	0.021979205
55	0x3ccc7b25	0.024961064
56	0x3c1391a1	0.009006889
57	0x3cb1e296	0.02171449
58	0x3ca7185e	0.020397361
59	0xbcc82e5d	-0.02443617
60	0x3c1d9df2	0.009620177
61	0x3b688a79	0.0035482927
62	0x3cb8e3dc	0.02256959
63	0x3d8c36e2	0.068464056
64	0x3b07ad63	0.0020702712
65	0x3c8e21a2	0.017350022
66	0x3ce71509	0.028208273
67	0x3cb02ca2	0.021505658
68	0x3cb7b35d	0.022424394
69	0x3cbacfa3	0.022804087
70	0x3cdad3af	0.026712267
71	0x3b13691d	0.0022493072
72	0x3cb8e442	0.02256978
73	0xbc0a2a53	-0.008432942
74	0x3c9ef923	0.019405907
75	0x3b1b27ab	0.0023674767
76	0x3c914d2b	0.017736992
77	0xbcc2e2d1	-0.023789795
78	0x3c9dd83f	0.019268153
79	0x3c9ecd84	0.019385107
80	0x3cc5ea9d	0.024159724
81	0x3cf16ba0	0.029470265
82	0x3c5f3e7f	0.01362574
83	0x3cb092bb	0.021554342
84	0x3c7b329a	0.015331889
85	0x3c5534bd	0.013013062
86	0xbbbcda65	-0.0057633393
87	0xbc153264	-0.009106252
88	0x3c650af6	0.013979664
89	0x3ca19992	0.019726548
90	0x3c208b76	0.009798875
91	0xbc9c88f4	-0.019108273
92	0xbc74aac3	-0.014933291
93	0x3cb312dd	0.02185958
94	0x3cbd3878	0.023098215
95	0xbbe492b3	-0.0069754957
96	0x3cae68e5	0.021290252
97	0x3ca274c8	0.019831076
98	0x3ca143f4	0.019685723
99	0xbc300d0d	-0.010745299
100	0x3cd9f889	0.026607769
101	0x3c2cc5a3	0.010545167
102	0x3cbd009c	0.02307158
103	0x3ca38e7f	0.019965408
104	0x3caf5fb4	0.02140794
105	0x3cc7b4f3	0.024378275
106	0x3b611e56	0.0034350357
107	0xbce5d269	-0.028054433
108	0x3cff00a9	0.031128244
109	0x3c2f033c	0.0106819235
110	0xbc6c7681	-0.01443255
111	0x3ca481cf	0.020081429
112	0x3ca3fd1d	0.020018155
113	0x3c1c75b0	0.009549543
114	0x3ca82e33	0.020529842
115	0x3d08b2de	0.033373706
116	0x3caf205e	0.021377739
117	0x3c0eaa44	0.008707587
118	0x3ca468df	0.020069538
119	0x3cb66c2e	0.022268381
120	0x3c0c935f	0.008580058
121	0x3ca4dbfc	0.020124428
122	0x3c9c7548	0.019098893
123	0xbcccbff2	-0.02499387
124	0x3c09eefa	0.008418793
125	0x3b085dfb	0.002080797
126	0x3ca8fdef	0.020628897
127	0x3da0b295	0.07846562
128	0xbc21521d	-0.0098462375
129	0xbc340882	-0.010988357
130	0xbc2164c1	-0.009850682
131	0xbc1fcc3a	-0.009753281
132	0x3c275531	0.010213182
133	0x3c13e8dc	0.009027686
134	0xbc1d1d47	-0.0095895
135	0xbc2ef556	-0.01067861
136	0x3b785834	0.003789437
137	0x3bf2d5d4	0.007410744
138	0x3c3a311c	0.011364248
139	0xbccde097	-0.025131507
140	0xbc464dcb	-0.012103508
141	0x3bb41fcc	0.0054969545
142	0x3c60a1ac	0.013710421
143	0xbc12a3fd	-0.008950231
144	0xbbdbd254	-0.0067084227
145	0x3c18fc69	0.009337523
146	0x3b3709a5	0.0027929333
147	0xbc447325	-0.011990343
148	0x3b01ff0a	0.0019835853
149	0xbc22b501	-0.00993085
150	0x3c9b9816	0.018993419
151	0x3bfc2c25	0.007695692
152	0xbc3011c5	-0.010746424
153	0x3c37d798	0.011220835
154	0xbaf38938	-0.0018580323
155	0x3b95a636	0.004566933
156	0xbbfc7d75	-0.0077053853
157	0xbc44fe3c	-0.012023505
158	0x3c216308	0.009850271
159	0xbcd3bc90	-0.02584675
160	0xbc2dbd75	-0.010604252
161	0xbc4265b0	-0.0118650645
162	0xbc5c9f35	-0.013465692
163	0x392acbea	0.00016288427
164	0xbc51631d	-0.012779978
165	0xbbffc65e	-0.0078056296
166	0xbc33ede4	-0.0109820105
167	0x3c5528c0	0.013010204
168	0x3c0cbfe0	0.008590668
169	0x3cc5415f	0.024079023
170	0x3be2bd6b	0.006919553
171	0xbb84cd67	-0.004052806
172	0x3c1c4d88	0.009539969
173	0x3c462781	0.012094379
174	0x3bf26371	0.0073971082
175	0xbc32832f	-0.010895534
176	0xbc2cecd4	-0.010554511
177	0xbcb0110b	-0.021492502
178	0x3c22ae8b	0.00992931
179	0xbc0a3167	-0.00843463
180	0x3c2344d1	0.009965138
181	0x3ca41e68	0.02003403
182	0xbc4e1671	-0.012578593
183	0x3c147704	0.009061579
184	0xbc115acd	-0.008871746
185	0x3c329984	0.010900859
186	0x3c4138fd	0.011793372
187	0x3c847550	0.01616922
188	0xbbebc630	-0.0071952567
189	0xbb6307b1	-0.0034642036
190	0xbc236194	-0.009971995
191	0x3c73255f	0.014840453
192	0x3b33bc33	0.0027425408
193	0x3c9841bb	0.01858603
194	0x3cfd0a4d	0.0308887
195	0x3cc1681c	0.023609214
196	0x3cbe4cb9	0.023229944
197	0x3cc21a80	0.023694277
198	0x3ce56293	0.028001105
199	0x3b5afccd	0.003341484
200	0x3cce6a23	0.025197094
201	0xbc059f3e	-0.008155642
202	0x3cae167a	0.021250952
203	0x3bae7f19	0.00532521
204	0x3c9a22f5	0.018815497
205	0xbcc1fc91	-0.023680003
206	0x3cab7f21	0.020934643
207	0x3cad74e1	0.021173896
208	0x3ce526aa	0.027972538
209	0x3d04854d	0.032353688
210	0x3c872de8	0.016501382
211	0x3cbea524	0.023272105
212	0x3c8e59c0	0.01737678
213	0x3c84731f	0.016168175
214	0xbb9b6f61	-0.004743502
215	0xbc0a23c5	-0.00843138
216	0x3c7d6f6e	0.015468461
217	0x3cb2d15c	0.021828346
218	0x3c38ea36	0.011286309
219	0xbce081d3	-0.027405655
220	0xbc7ec150	-0.015549019
221	0x3cba9886	0.022777807
222	0x3cd22d34	0.02565632
223	0xbc131d95	-0.008979221
224	0x3cbfae97	0.02339868
225	0x3ca9169c	0.020640664
226	0x3caa378f	0.020778446
227	0xbc399747	-0.011327571
228	0x3cf94bda	0.030431677
229	0x3c3d63da	0.011559451
230	0x3cd4aca1	0.025961222
231	0x3ca9214f	0.020645766
232	0x3cbc3b41	0.022977473
233	0x3c2c90f3	0.010532605
234	0x3b814b71	0.003945761
235	0xbce2922f	-0.027657596
236	0x3d00cebc	0.031447157
237	0x3c42f152	0.011898356
238	0xbc62b2f7	-0.013836614
239	0x3cb1f28f	0.021722106
240	0x3caf7962	0.021420185
241	0x3c361007	0.01111222
242	0x3cb7f557	0.022455854
243	0x3d1dbd0c	0.038510367
244	0x3cbeb791	0.02328089
245	0x3b9cf113	0.0047894805
246	0x3cb300de	0.021851
247	0x3ccb340a	0.024805088
248	0x3c11117b	0.008854265
249	0x3cb12ee8	0.021628812
250	0x3ca690e1	0.020332756
251	0xbcc9b276	-0.02462123
252	0x3c1d6e03	0.009608748
253	0x3b770264	0.0037690634
254	0x3cbe3f3d	0.023223514
255	0x3d7a64b9	0.061131213

lstms.1.weight_ih_l0 f4 [128, 64]
0	0xbe1f0395	-0.1552871
1	0xbdabf49d	-0.08396266
2	0x39fd1370	0.00048270402
3	0xbd9c5cdd	-0.076349
4	0xbdd03070	-0.10165489
5	0xbd590efc	-0.052992806
6	0xbe716feb	-0.2357785
7	0x3def6a43	0.1169019
8	0x3e20b4f8	0.15694034
9	0xbd4e9b65	-0.050441165
10	0xbe360f05	-0.17779167
11	0x3e2f8a08	0.17142498
12	0x3d9cbaf1	0.07652844
13	0xbd48dc60	-0.04903829
14	0x3baa370a	0.0051945494
15	0x3d6e79d0	0.05822164
16	0x3ddf108a	0.108918265
17	0x3cb08a3d	0.021550292
18	0xbd9ac905	-0.07557873
19	0xbd2db659	-0.04241023
20	0x3dfed619	0.1244318
21	0x3e0767d6	0.13223204
22	0xbdd526fd	-0.10407827
23	0x3da74a6e	0.08168493
24	0x3c8cab90	0.017171651
25	0x3df9f7ff	0.122055046
26	0xbd9b57e5	-0.07585124
27	0x3e03fddc	0.12889808
28	0x3bf98ba8	0.0076155253
29	0xbce5adb4	-0.02803693
30	0x3d154c0f	0.03644949
31	0x3df53aba	0.11974092
32	0x3ea3e226	0.32008475
33	0xbd49cdab	-0.049268406
34	0xbe739d75	-0.23790534
35	0xbd0a6d1a	-0.033795454
36	0xbe575fab	-0.21032588
37	0xbe4c4b7a	-0.19950667
38	0x3b2b83a7	0.0026171
39	0x3ccbe99f	0.024891673
40	0x3d1f8ae7	0.038950827
41	0xbdcd88d2	-0.10035862
42	0xbd25a168	-0.040437132
43	0x3def2ae3	0.11678102
44	0x3cb38fbc	0.021919124
45	0xbd1dd25a	-0.038530685
46	0xbd7d320c	-0.061815307
47	0xbdcb5859	-0.0992896
48	0xbd34e141	-0.04416013
49	0x3b8dc08d	0.0043259324
50	0x3ca9059c	0.020632558
51	0xbcba20cb	-0.022720715
52	0x3e3c7447	0.18403731
53	0xbdf8641d	-0.1212847
54	0xbd8e548e	-0.06949721
55	0xbdec2f94	-0.11532512
56	0xbe50e477	-0.20399652
57	0x3de95a6a	0.11394198
58	0xbcf44df4	-0.029822327
59	0x3d4f051e	0.05054199
60	0x3d8eb422	0.06967951
61	0xbe3e80a6	-0.18603763
62	0xbd46febc	-0.048582777
63	0xbc45539b	-0.012043859
64	0x3e0f392d	0.13986655
65	0x3d56318a	0.052293338
66	0xbe2b3531	-0.1671951
67	0x3ce6a5ec	0.02815529
68	0xbe140d75	-0.14458258
69	0xbe6c6316	-0.23084673
70	0xbd00710f	-0.03135782
71	0xbdc72ed0	-0.09725726
72	0xb8e108fc	-0.000107305095
73	0x3d664342	0.056216486
74	0xbdb3236d	-0.08746991
75	0x3e09a4ea	0.13441816
76	0x3dc5b98f	0.09654533
77	0x3dd08fd6	0.101836845
78	0x3d957329	0.07297356
79	0x3de1e237	0.11029475
80	0x3d8779a6	0.066149995
81	0xbcf4b45f	-0.029871164
82	0xbe0c6b13	-0.1371272
83	0xbe0d91e8	-0.1382519
84	0x3d0f89fb	0.035043698
85	0x3c93514c	0.017983101
86	0xbe0801a4	-0.13281876
87	0xbd483c3e	-0.048885576
88	0x3df6e2a3	0.12054946
89	0x3e022c3b	0.12712185
90	0xbe1b065f	-0.15139149
91	0x3e84f870	0.25970793
92	0x3e094ade	0.13407466
93	0xbe384f6d	-0.17999049
94	0x3c51bcd2	0.012801366
95	0xbd25ec61	-0.04050863
96	0x3d191e1b	0.037382226
97	0x3d8a7f26	0.06762533
98	0xbb2bebda	-0.0026233108
99	0xbd2c05ce	-0.041997723
100	0xbd6c65d5	-0.057714302
101	0xbdae220c	-0.08502588
102	0xbe01d749	-0.12679781
103	0xbcad707d	-0.021171803
104	0x3dccc7d8	0.09999055
105	0xbbd1788a	-0.006392543
106	0xbc462285	-0.012093191
107	0x3e79cf8a	0.24395576
108	0xbda1646e	-0.078804836
109	0x3b4156ad	0.0029501126
110	0x3d57eec9	0.052717958
111	0x3c53c2a8	0.012924828
112	0xbdb05530	-0.08609998
113	0xbd82f592	-0.06394495
114	0x3e265ef8	0.16247165
115	0x3d9b82e4	0.07593325
116	0x3aed8968	0.0018122615
117	0xbdd6dc0c	-0.10491189
118	0xbcebd6a3	-0.02878887
119	0x3d95f352	0.073218
120	0xbb1f9998	-0.0024353024
121	0x3d931a9b	0.07182809
122	0xbd47d191	-0.048783842
123	0x3c684cd3	0.014178473
124	0xbdc801c6	-0.09765963
125	0x3c75237a	0.014962072
126	0xbe1b0f23	-0.15142493
127	0xbcc771b4	-0.02434621
128	0x3d2e71dc	0.042589054
129	0x3dd53996	0.10411374
130	0xbda2a14a	-0.0794092
131	0x3e519f1c	0.20470852
132	0x3dd501d2	0.10400738
133	0x3d30ed71	0.04319519
134	0xbd7586bf	-0.059942957
135	0xbb6d6214	-0.003622179
136	0xbdaf0d71	-0.085474856
137	0x3e68c908	0.22732937
138	0x3d7a316a	0.06108228
139	0x3d991e6c	0.07476506
140	0xbe055362	-0.1302009
141	0x3d89588d	0.06706343
142	0xbd0b3f6b	-0.033996027
143	0xbd8c3039	-0.06845135
144	0x3d015f80	0.031585217
145	0xbda0074a	-0.0781389
146	0x3d497f63	0.04919375
147	0x3de49f3e	0.111631855
148	0xbe2f5c23	-0.17124991
149	0xbd07018b	-0.032960456
150	0xbe0f53e8	-0.13996851
151	0x3c5c5be2	0.013449641
152	0x3ccaa9d8	0.024739191
153	0xbe0b320f	-0.13593315
154	0xbd9b236e	-0.07575117
155	0xbc1e6a2c	-0.009668868
156	0xbd821885	-0.06352333
157	0x3e01ece2	0.1268802
158	0xbcbadb01	-0.022809507
159	0x3df1ea18	0.11812228
160	0xbd56234e	-0.052279763
161	0x3d9af9a4	0.075671464
162	0xbcfb9531	-0.030710788
163	0xbd78a102	-0.060700424
164	0xbe14b0c9	-0.14520563
165	0xbdda147b	-0.106484376
166	0x3c1b4517	0.0094769215
167	0x3e52dac0	0.20591259
168	0xbcadf299	-0.021233844
169	0x3cfeb15b	0.031090429
170	0x3b9c7943	0.0047751977
171	0x3d9f9447	0.077919535
172	0xbe097e42	-0.1342707
173	0x3da96a1f	0.08272194
174	0x3b58f981	0.00331077
175	0xbde245f0	-0.11048496
176	0xbc6eb5a4	-0.014569674
177	0xbddaa885	-0.10676674
178	0x3d2e5373	0.042560052
179	0xbd483518	-0.04887876
180	0xbcd84ef5	-0.026404837
181	0x3d807d85	0.06273941
182	0x3db07a83	0.08617117
183	0x3da4aa55	0.08040301
184	0x3bdc5dfd	0.0067250715
185	0x3dd492aa	0.103795364
186	0x3e31fd4c	0.17381781
187	0xbdd2ddab	-0.10296186
188	0xbd6bdf44	-0.05758597
189	0x3d9added	0.0756186
190	0x3d58d43b	0.052936774
191	0x3d6e481f	0.05817425
192	0x3c35cd72	0.011096345
193	0xbdba8dda	-0.09109087
194	0x3dddca80	0.108296394
195	0x3dd8ea48	0.105915606
196	0x3e25d163	0.16193156
197	0xbd015f64	-0.031585112
198	0x3dc4a2e5	0.09601382
199	0xbe829a78	-0.25508475
200	0xbe5a70e3	-0.21332125
201	0x3c4f5645	0.012654846
202	0x3c8f00be	0.017456409
203	0xbdb4c56f	-0.0882672
204	0x3c074069	0.008255103
205	0xbea0ecd1	-0.31430677
206	0xbd4ea94e	-0.05045443
207	0x3df3b558	0.11899823
208	0x3dd8547c	0.10562989
209	0x3d7a6b93	0.061137747
210	0x3da773b8	0.081763685
211	0xbdc38a77	-0.095478944
212	0x3d521a6f	0.05129474
213	0xbe09883d	-0.13430877
214	0x3de17500	0.11008644
215	0xbd9a8756	-0.075453445
216	0x3e960dfa	0.29307538
217	0x3e3daa3b	0.18521969
218	0x3d3c64c6	0.045994543
219	0x3e017dbb	0.12645619
220	0x3bfbb764	0.007681774
221	0x3e10d90e	0.141453
222	0xbe24152a	-0.16023698
223	0xbcc67397	-0.02422504
224	0x3d5f6bbe	0.05454611
225	0x3cc4d8ce	0.024029162
226	0xbe1a303b	-0.15057461
227	0x3d8e385e	0.06944345
228	0x3d957c04	0.07299045
229	0x3e341e8e	0.1758978
230	0x3dc50e7e	0.09621905
231	0xbcb13bce	-0.021634962
232	0x3da61956	0.08110301
233	0xbcb29a2f	-0.021802036
234	0xbd39985b	-0.045311313
235	0xbd0eef50	-0.034896195
236	0xbd09d3f6	-0.033649407
237	0x3dfc1331	0.12308348
238	0xbe036383	-0.1283093
239	0x3b65adf4	0.003504631
240	0x3d815ecd	0.0631691
241	0xbdf29c8b	-0.118462645
242	0xbe2032be	-0.15644357
243	0x3e0964de	0.13417384
244	0xbcec0e0e	-0.028815296
245	0x3d39116e	0.045182638
246	0x3e37a608	0.1793443
247	0xbe4a53df	-0.19758557
248	0x3e26075b	0.16213743
249	0xbe033c6f	-0.12816022
250	0xbab39a7c	-0.0013702656
251	0xbcce1104	-0.025154598
252	0x3c8c1920	0.017101824
253	0xbe1c4a78	-0.15262783
254	0x3e236958	0.15958154
255	0x3da6aa07	0.08137899

lstms.1.weight_hh_l0 f4 [128, 32]
0	0x3d986f5e	0.074431166
1	0xbe4bee40	-0.19915104
2	0x3e0407dc	0.12893623
3	0x3db1ce44	0.0868192
4	0x3e1989ee	0.14994022
5	0x3de3e74b	0.111281
6	0xbe3e24be	-0.18568704
7	0xbbd32c6f	-0.006444506
8	0xbb9a933f	-0.00471726
9	0xbe03e18b	-0.12879007
10	0xbd8118d2	-0.06303562
11	0x3e25583e	0.16146943
12	0x3d438aee	0.047739916
13	0x3e62c4c3	0.22145371
14	0xbda6ea06	-0.08150105
15	0xbddc2b70	-0.107504725
16	0x3d5463c2	0.05185295
17	0xbd766cfe	-0.060162537
18	0xbe35dbd1	-0.17759635
19	0xbdafe8df	-0.085893385
20	0x3d518eb6	0.05116149
21	0xbdba384f	-0.09092771
22	0x3c69da76	0.014273277
23	0xbd11774e	-0.03551417
24	0x3d8eb3b9	0.06967873
25	0x3b572f91	0.0032834748
26	0xbdafa137	-0.08575671
27	0x3dbc7912	0.0920278
28	0xbdf13e45	-0.11779455
29	0x3d859b74	0.06523791
30	0xbc91919d	-0.01776963
31	0x3d1c3c95	0.038143713
32	0xba978ef4	-0.0011562989
33	0xbda3ef2b	-0.08004602
34	0xbe08ccd5	-0.13359387
35	0xbe1fb210	-0.15595269
36	0x3d86ddec	0.06585297
37	0x3e0730fb	0.13202278
38	0xbd02201b	-0.0317689
39	0xbdfac4ee	-0.122445926
40	0x3bd89711	0.0066098054
41	0x3c87e65f	0.016589342
42	0xbd5a3343	-0.053271543
43	0xbdcc646a	-0.0998009
44	0xbd2a864e	-0.04163199
45	0xbd6735be	-0.056447737
46	0x3cff1650	0.03113857
47	0xbd309da7	-0.0431191
48	0xbdc80d63	-0.09768178
49	0x3dedf558	0.11619061
50	0x3d0b8497	0.034061994
51	0xbe863b25	-0.26217
52	0x3e37d144	0.17950922
53	0xbd335c2a	-0.043789066
54	0x3de43819	0.11143512
55	0x3daaf8d0	0.083482385
56	0x3e24d5a8	0.16097128
57	0x3c81ca36	0.015843492
58	0xbd0484a7	-0.03235307
59	0xbceced09	-0.02892162
60	0xbcab5366	-0.02091379
61	0x3e41cf75	0.18926795
62	0xbda88892	-0.08229174
63	0xbddc2cbc	-0.1075072
64	0x3e00c6d1	0.12575842
65	0x3d563d57	0.052304592
66	0xbe2b5e88	-0.1673528
67	0x3b462ede	0.0030240337
68	0x3e5cf97b	0.21579544
69	0xbe59c177	-0.21265207
70	0xbd203de7	-0.039121535
71	0x3e748097	0.23877178
72	0x3e1edce0	0.15513945
73	0x3d9af5c2	0.07566406
74	0xbd45f627	-0.048330452
75	0xbcc0804b	-0.023498675
76	0x3d340091	0.043945853
77	0xbdc9da79	-0.098561235
78	0x3e879914	0.26483977
79	0x3d06db08	0.03292373
80	0xbe8aa62c	-0.27079904
81	0x3d17eebd	0.037092913
82	0xbdfa2fe4	-0.12216166
83	0xbd9a3659	-0.07529897
84	0x3dad96e7	0.08476048
85	0x3e09404c	0.13403434
86	0xbcab8c32	-0.020940874
87	0xbcd4bd2b	-0.025969109
88	0xbe010126	-0.12598094
89	0x3c721937	0.0147765195
90	0xbdcb1f32	-0.099180594
91	0xbc5c2a6e	-0.01343785
92	0x3dd1fe9e	0.102536425
93	0x3e16aed9	0.14715137
94	0x3cb6fc0c	0.022336982
95	0x3c37f5dd	0.011228052
96	0x3c6eff67	0.01458726
97	0x3e1934a9	0.14961495
98	0xbdd817d7	-0.10551422
99	0xbe13cc74	-0.14433461
100	0x3d423b6e	0.047419958
101	0xbe5da110	-0.21643472
102	0x3c8a1089	0.016853588
103	0xbe0a37f3	-0.13497905
104	0xbe14830d	-0.14503117
105	0xbe42ce19	-0.19023933
106	0x3d88ec95	0.066857494
107	0x3d824d6f	0.063624255
108	0xbd21be20	-0.039487958
109	0xbe20a13c	-0.15686506
110	0xbd9e7837	-0.07737773
111	0x3dd41ee2	0.10357453
112	0xbd3ff525	-0.046864647
113	0xbcf6dfc1	-0.030135991
114	0xbdb564ac	-0.08857092
115	0xbad6bc5e	-0.0016383042
116	0xbd89a0c7	-0.06720119
117	0xbdbc5347	-0.091955714
118	0xbd63c4a5	-0.055607457
119	0x3db21059	0.08694524
120	0xbdcef82c	-0.10105929
121	0xbe08902f	-0.13336252
122	0xbd56121f	-0.052263375
123	0x3cd5791f	0.026058732
124	0xbdcb249b	-0.09919091
125	0xbde71f70	-0.11285293
126	0x3b600d0c	0.0034187464
127	0x3d6d9cbf	0.058010813
128	0x3dc3a9b6	0.09553854
129	0x3d7b4cd1	0.061352555
130	0xbdbe32fe	-0.0928707
131	0x3c9a0e73	0.018805718
132	0xbe0e6234	-0.13904649
133	0xbd38b76f	-0.04509681
134	0x3e2ef27c	0.17084688
135	0xbe5e0ce6	-0.21684608
136	0xbe07bfb8	-0.13256729
137	0x3de0df28	0.10980064
138	0x3bf59753	0.007494846
139	0xbe3b0b98	-0.18266141
140	0x3df8d38d	0.12149725
141	0x3e4c0368	0.19923174
142	0x3cfd4e75	0.0309212
143	0xbd88dc69	-0.06682665
144	0x3dbc0d4a	0.09182222
145	0x3c9be9d2	0.019032393
146	0xbdffdef2	-0.12493695
147	0x3b403625	0.0029329148
148	0x3e476fdc	0.19476265
149	0xbbcb2484	-0.0061994214
150	0xbd21726b	-0.039415758
151	0xbd562f9c	-0.052291498
152	0x3db5fc16	0.08885972
153	0xbd59a5ad	-0.053136516
154	0x3c6382d6	0.013886174
155	0xbe8218e4	-0.25409615
156	0x3e026e13	0.12737302
157	0xbe621612	-0.22078732
158	0xbe49c1a5	-0.19702776
159	0xbdd72a55	-0.10506121
160	0x3e0267ba	0.12734881
161	0xbcd59191	-0.026070388
162	0xbd9fef0b	-0.07809266
163	0xbdf8d976	-0.121508524
164	0x3df23893	0.11827197
165	0xbe305a73	-0.17222004
166	0xbe9183c0	-0.2842083
167	0xbd78b8d9	-0.06072316
168	0xbe55c6cc	-0.20876616
169	0x3e13747e	0.14399907
170	0x3e8a5151	0.27015164
171	0xbe5431e0	-0.20722151
172	0xbdb2a2f2	-0.087224856
173	0xbb364949	-0.0027814677
174	0x3da48742	0.08033611
175	0x3e0d2fe6	0.13787803
176	0xbe2b68e5	-0.16739233
177	0xbbbea122	-0.0058175484
178	0xbe4cdf01	-0.20006944
179	0x3d86acbd	0.06575916
180	0x3cb82356	0.022477787
181	0x3dc17d3c	0.09447715
182	0x3e0afb2f	0.13572381
183	0xbdd894a0	-0.10575223
184	0xbd90fb57	-0.07079189
185	0xbd514127	-0.051087525
186	0x3e3353be	0.17512414
187	0x3e109da8	0.14122641
188	0x3cced884	0.025249727
189	0xbd105b28	-0.035243183
190	0x3d97138b	0.073767744
191	0x3cd9a62e	0.026568498
192	0xbe8dc9d7	-0.27693054
193	0xbb896925	-0.0041934424
194	0x3e1c028b	0.15235345
195	0x3be6d3d7	0.0070442962
196	0xbd6a0ea2	-0.05714286
197	0xbd0c634d	-0.034274388
198	0xbd9fb943	-0.07799008
199	0xbd8b325f	-0.06796717
200	0xbe0c0423	-0.13673453
201	0x3ddc5e0f	0.10760128
202	0xbd7c0cc2	-0.061535604
203	0x3c4496b0	0.011998817
204	0xbe21104e	-0.15728876
205	0x3de88f1d	0.11355422
206	0x38d87778	0.000103219354
207	0xbe08b301	-0.13349535
208	0xbcb8bd3c	-0.022551171
209	0xba1b0ac8	-0.00059143873
210	0x3cf2d5a3	0.029642886
211	0x3e03f964	0.12888104
212	0xbdd65e46	-0.104672
213	0x3a7b6cb7	0.000959109
214	0x3d94e57c	0.07270333
215	0x3d1efbe5	0.038814444
216	0x3e0c81b0	0.13721347
217	0x3dff9f96	0.124816105
218	0xbdef9862	-0.116989866
219	0xbcf45393	-0.029825008
220	0xbe05acc9	-0.13054194
221	0x3db14d94	0.08657375
222	0x3d1ba36b	0.037997644
223	0xbda8f10d	-0.08249102
224	0xbcd1a8ac	-0.025593124
225	0xbe329dd3	-0.17443018
226	0xbd64e94c	-0.05588655
227	0xbdadeab8	-0.08492035
228	0xbdd3dd74	-0.10344973
229	0x3d2d9b0a	0.042384185
230	0xbe601727	-0.21883832
231	0x3df4c442	0.11951496
232	0xbe34f38a	-0.17671028
233	0xbeb6b059	-0.35681418
234	0x3dc649d2	0.09682049
235	0x3c6adb02	0.014334442
236	0x3de8d364	0.113684446
237	0x3de1f2af	0.11032616
238	0xbdb29f97	-0.087218456
239	0xbc75fb7e	-0.015013574
240	0x3cc7edb1	0.024405332
241	0xbdeded8b	-0.11617573
242	0x3cd71182	0.026253466
243	0xbdf5f726	-0.120100304
244	0xbd2e17d5	-0.042503197
245	0x3e03ea79	0.12882413
246	0xbe467cb4	-0.19383508
247	0xbe655f70	-0.22399688
248	0x3caf1038	0.021370038
249	0x3d58af27	0.052901413
250	0x3dcafb4a	0.09911211
251	0xbdcb2a72	-0.09920205
252	0x3ce8bff6	0.028411847
253	0x3e6e95ae	0.23299286
254	0xbe105988	-0.14096653
255	0xbe2c2920	-0.16812563

lstms.1.bias_ih_l0 f4 [128]
0	0x3ca109f1	0.01965806
1	0x3d030dd6	0.031995617
2	0x3cea660c	0.028613113
3	0xbc84c3b9	-0.01620661
4	0x3b6ce201	0.003614545
5	0x3c266845	0.010156696
6	0x3ce05bf9	0.027387606
7	0xbb2402c3	-0.002502606
8	0xbbca16f8	-0.006167289
9	0x3cea9bdd	0.028638775
10	0x3cfcf591	0.030878814
11	0x3cbd6893	0.023121154
12	0x3ccf3103	0.025291925
13	0xbce85612	-0.028361354
14	0x3cd41918	0.025890872
15	0x3cec976c	0.028880797
16	0xbba33f72	-0.0049819285
17	0x3c4ddef9	0.012565368
18	0x3cc5859f	0.024111567
19	0x3cc0442c	0.023470007
20	0x3ce1165e	0.027476486
21	0x3ccaa461	0.024736585
22	0x3cdf6c06	0.02727319
23	0xbb8161f8	-0.0039484464
24	0x3ceea132	0.029129598
25	0x3ce13e39	0.02749549
26	0xbc4ff550	-0.012692764
27	0x3d001cae	0.03127735
28	0x3d0343f8	0.032047242
29	0x3afab8fb	0.0019128615
30	0x3ccddb5e	0.025129016
31	0x3c01ceb6	0.007922819
32	0x3c89f14a	0.016838688
33	0x3cedbe46	0.029021394
34	0x3cc68d37	0.024237258
35	0xbc4e8498	-0.012604855
36	0x3ac0da1c	0.0014713439
37	0x3c069c7b	0.008216019
38	0x3ccadd6e	0.024763789
39	0xbba20971	-0.004944973
40	0xbba2d64f	-0.004969395
41	0x3ccdfdbf	0.02514541
42	0x3cebe31a	0.028794814
43	0x3ca88a35	0.020573715
44	0x3cb38e6a	0.021918494
45	0xbcdec78a	-0.027194757
46	0x3cbbea39	0.022938835
47	0x3cd45d09	0.025923269
48	0xbbee5650	-0.007273473
49	0x3c21e878	0.009882085
50	0x3ca9e5e4	0.020739503
51	0x3caa31f1	0.020775767
52	0x3cbbd39e	0.022928055
53	0x3cb183da	0.021669317
54	0x3cc223e8	0.023698762
55	0xbbdae898	-0.0066805594
56	0x3cccd145	0.025002131
57	0x3cc8f9b9	0.02453314
58	0xbc75c08c	-0.01499952
59	0x3cd1f236	0.02562819
60	0x3cea2c2a	0.028585512
61	0xba486c92	-0.0007645573
62	0x3cba46eb	0.022738894
63	0x3bc8b4ff	0.006125092
64	0x3c4fe558	0.012688957
65	0xbc564c76	-0.013079753
66	0x3c838914	0.016056575
67	0xbcdddd7e	-0.027083155
68	0x3c57418b	0.013138185
69	0x3c66ba97	0.014082572
70	0xbc783dc4	-0.015151445
71	0x3c523910	0.012830988
72	0xbc6c65e4	-0.0144285895
73	0x3c6471f1	0.013943181
74	0xbc5b9d63	-0.013404223
75	0xbc4002bf	-0.011719405
76	0x3c3cccb3	0.0115234135
77	0xbc8a2947	-0.016865386
78	0x3c5ba35e	0.013405649
79	0xbc7fb35f	-0.01560673
80	0xbc6fca5f	-0.014635651
81	0xbc7bc93a	-0.0153678
82	0x3c3107ea	0.0108051095
83	0xbc6c0d3d	-0.014407453
84	0xbc6bdb6f	-0.014395579
85	0x3c8084c0	0.0156883
86	0xbc3d0312	-0.011536377
87	0x3ae8a694	0.001774984
88	0x3c1ff0ac	0.0097619705
89	0x3c450126	0.0120242
90	0x3c494d3a	0.012286479
91	0x3c7e6239	0.015526348
92	0x3c738068	0.014862157
93	0x3c6aaaa4	0.01432291
94	0xbbe3d393	-0.006952712
95	0x3c4fd43c	0.012684878
96	0x3ca1141c	0.01966291
97	0x3d08ea6f	0.0334267
98	0x3cdda32e	0.02705535
99	0xbc846a8a	-0.016164083
100	0x3b879527	0.0041376534
101	0x3c2e5a18	0.010641597
102	0x3ce13f7a	0.027496088
103	0xbb46a2f7	-0.0030309537
104	0xbb98ca1a	-0.0046627643
105	0x3ce20668	0.027590945
106	0x3cfb3ab9	0.03066765
107	0x3cb00465	0.02148647
108	0x3cdc23a4	0.026872464
109	0xbceeb08f	-0.029136924
110	0x3ce40d17	0.027838273
111	0x3ce28956	0.027653378
112	0xbbc95884	-0.006144585
113	0x3c3837f7	0.011243812
114	0x3cb984ac	0.02264627
115	0x3cb1c828	0.021701887
116	0x3ccd94f9	0.02509545
117	0x3cae12bb	0.021249166
118	0x3cd4bf27	0.025970055
119	0xbb996cd5	-0.0046821632
120	0x3cdc90fe	0.026924606
121	0x3cd9ea98	0.02660112
122	0xbc52a3ef	-0.012856468
123	0x3cfe0e3d	0.031012649
124	0x3cfe1ab0	0.031018585
125	0x3a815fc3	0.0009870458
126	0x3cd176ec	0.025569402
127	0x3bfa665f	0.007641598

lstms.1.bias_hh_l0 f4 [128]
0	0x3ca109f1	0.01965806
1	0x3d030dd6	0.031995617
2	0x3cea660c	0.028613113
3	0xbc84c3b9	-0.01620661
4	0x3b6ce201	0.003614545
5	0x3c266845	0.010156696
6	0x3ce05bf9	0.027387606
7	0xbb2402c3	-0.002502606
8	0xbbca16f8	-0.006167289
9	0x3cea9bdd	0.028638775
10	0x3cfcf591	0.030878814
11	0x3cbd6893	0.023121154
12	0x3ccf3103	0.025291925
13	0xbce85612	-0.028361354
14	0x3cd41918	0.025890872
15	0x3cec976c	0.028880797
16	0xbba33f72	-0.0049819285
17	0x3c4ddef9	0.012565368
18	0x3cc5859f	0.024111567
19	0x3cc0442c	0.023470007
20	0x3ce1165e	0.027476486
21	0x3ccaa461	0.024736585
22	0x3cdf6c06	0.02727319
23	0xbb8161f8	-0.0039484464
24	0x3ceea132	0.029129598
25	0x3ce13e39	0.02749549
26	0xbc4ff550	-0.012692764
27	0x3d001cae	0.03127735
28	0x3d0343f8	0.032047242
29	0x3afab8fb	0.0019128615
30	0x3ccddb5e	0.025129016
31	0x3c01ceb6	0.007922819
32	0x3c89f14a	0.016838688
33	0x3cedbe46	0.029021394
34	0x3cc68d37	0.024237258
35	0xbc4e8498	-0.012604855
36	0x3ac0da1c	0.0014713439
37	0x3c069c7b	0.008216019
38	0x3ccadd6e	0.024763789
39	0xbba20971	-0.004944973
40	0xbba2d64f	-0.004969395
41	0x3ccdfdbf	0.02514541
42	0x3cebe31a	0.028794814
43	0x3ca88a35	0.020573715
44	0x3cb38e6a	0.021918494
45	0xbcdec78a	-0.027194757
46	0x3cbbea39	0.022938835
47	0x3cd45d09	0.025923269
48	0xbbee5650	-0.007273473
49	0x3c21e878	0.009882085
50	0x3ca9e5e4	0.020739503
51	0x3caa31f1	0.020775767
52	0x3cbbd39e	0.022928055
53	0x3cb183da	0.021669317
54	0x3cc223e8	0.023698762
55	0xbbdae898	-0.0066805594
56	0x3cccd145	0.025002131
57	0x3cc8f9b9	0.02453314
58	0xbc75c08c	-0.01499952
59	0x3cd1f236	0.02562819
60	0x3cea2c2a	0.028585512
61	0xba486c92	-0.0007645573
62	0x3cba46eb	0.022738894
63	0x3bc8b4ff	0.006125092
64	0x3c4fe558	0.012688957
65	0xbc564c76	-0.013079753
66	0x3c838914	0.016056575
67	0xbcdddd7e	-0.027083155
68	0x3c57418b	0.013138185
69	0x3c66ba97	0.014082572
70	0xbc783dc4	-0.015151445
71	0x3c523910	0.012830988
72	0xbc6c65e4	-0.0144285895
73	0x3c6471f1	0.013943181
74	0xbc5b9d63	-0.013404223
75	0xbc4002bf	-0.011719405
76	0x3c3cccb3	0.0115234135
77	0xbc8a2947	-0.016865386
78	0x3c5ba35e	0.013405649
79	0xbc7fb35f	-0.01560673
80	0xbc6fca5f	-0.014635651
81	0xbc7bc93a	-0.0153678
82	0x3c3107ea	0.0108051095
83	0xbc6c0d3d	-0.014407453
84	0xbc6bdb6f	-0.014395579
85	0x3c8084c0	0.0156883
86	0xbc3d0312	-0.011536377
87	0x3ae8a694	0.001774984
88	0x3c1ff0ac	0.0097619705
89	0x3c450126	0.0120242
90	0x3c494d3a	0.012286479
91	0x3c7e6239	0.015526348
92	0x3c738068	0.014862157
93	0x3c6aaaa4	0.01432291
94	0xbbe3d393	-0.006952712
95	0x3c4fd43c	0.012684878
96	0x3ca1141c	0.01966291
97	0x3d08ea6f	0.0334267
98	0x3cdda32e	0.02705535
99	0xbc846a8a	-0.016164083
100	0x3b879527	0.0041376534
101	0x3c2e5a18	0.010641597
102	0x3ce13f7a	0.027496088
103	0xbb46a2f7	-0.0030309537
104	0xbb98ca1a	-0.0046627643
105	0x3ce20668	0.027590945
106	0x3cfb3ab9	0.03066765
107	0x3cb00465	0.02148647
108	0x3cdc23a4	0.026872464
109	0xbceeb08f	-0.029136924
110	0x3ce40d17	0.027838273
111	0x3ce28956	0.027653378
112	0xbbc95884	-0.006144585
113	0x3c3837f7	0.011243812
114	0x3cb984ac	0.02264627
115	0x3cb1c828	0.021701887
116	0x3ccd94f9	0.02509545
117	0x3cae12bb	0.021249166
118	0x3cd4bf27	0.025970055
119	0xbb996cd5	-0.0046821632
120	0x3cdc90fe	0.026924606
121	0x3cd9ea98	0.02660112
122	0xbc52a3ef	-0.012856468
123	0x3cfe0e3d	0.031012649
124	0x3cfe1ab0	0.031018585
125	0x3a815fc3	0.0009870458
126	0x3cd176ec	0.025569402
127	0x3bfa665f	0.007641598

fc.weight f4 [1, 32]
0	0xbd948fee	-0.07254015
1	0x3ccc3daf	0.024931757
2	0xbe184099	-0.14868392
3	0xbc810da4	-0.015753575
4	0xbd50992e	-0.050927334
5	0xbdfe79df	-0.12425589
6	0x3dc7e451	0.09760345
7	0xbda1a54b	-0.07892855
8	0xbbc0275c	-0.005864067
9	0xbe09a5b3	-0.13442115
10	0x3e5444c8	0.20729363
11	0x39f74567	0.0004716322
12	0xbdc3f939	-0.0956902
13	0x3d5ef9ff	0.054437634
14	0xbc3f4da1	-0.011676223
15	0x3e4bb905	0.19894798
16	0x3dbf892b	0.093523346
17	0x3ddf5ab6	0.109059736
18	0xbcd9accb	-0.026571652
19	0x3e012c99	0.12614669
20	0x3dcec7bf	0.10096692
21	0xbde8baea	-0.11363776
22	0x3da62d22	0.08114077
23	0x3cbb7184	0.022881277
24	0xbd5f8877	-0.054573502
25	0xbd4ee1ec	-0.050508425
26	0xbd34b597	-0.04411849
27	0xbdf3a447	-0.11896568
28	0xbe41bd65	-0.18919905
29	0xbdec9ab2	-0.11552943
30	0x3d2c01ac	0.041993782
31	0xbdb41ca9	-0.08794529
