labs/models/JPY/7_64_32_sgd.pth (torch, 122295 bytes, 9 tensors)

lstms.0.weight_ih_l0 f4 [256, 1]
0	0x3df198f9	0.11796755
1	0xbe019b73	-0.12656955
2	0xbd71e3f6	-0.05905529
3	0x3d57ce00	0.05268669
4	0xbd3f863e	-0.046758883
5	0x3dc7cbc0	0.09755659
6	0xbe040efc	-0.12896341
7	0x3d7ebbd1	0.062190834
8	0xbd987d38	-0.074457586
9	0x3de0de53	0.10979905
10	0x3d29e002	0.041473396
11	0xbd30123e	-0.042986147
12	0x3e263bd9	0.16233768
13	0x3d32cfba	0.043655135
14	0x3cd4f485	0.025995502
15	0xbe16fe2f	-0.14745401
16	0x3da5ccf3	0.080957316
17	0x3b2cdf1e	0.0026378105
18	0x3e6250e7	0.22101174
19	0x3d118f17	0.03553685
20	0x3ae810b9	0.0017705179
21	0x3d2b80a0	0.041870713
22	0xbc546f9f	-0.012966066
23	0xbd85081f	-0.064956896
24	0x3d47a10b	0.048737567
25	0x3d519049	0.05116299
26	0x3afec75d	0.0019438077
27	0xbdc77a5c	-0.09740135
28	0x3d7c1179	0.0615401
29	0x3dbe3467	0.09287339
30	0x3cd1e511	0.025621923
31	0xbd063e3b	-0.03277419
32	0x3d06a0e5	0.032868285
33	0xbc8e4168	-0.017365173
34	0xbdd293f8	-0.10282129
35	0x3d06842c	0.032840893
36	0xbc9301fd	-0.017945284
37	0xbd90e6b1	-0.07075251
38	0x3d88ebaf	0.06685578
39	0xbdf9e59c	-0.12201998
40	0xbd9ee909	-0.07759292
41	0xbdc87c57	-0.09789341
42	0x3cc7de7f	0.024398087
43	0x3d9e22ef	0.07721507
44	0xbddbd7b8	-0.107345045
45	0x3c5510a1	0.013004453
46	0xbe0bbf71	-0.13647248
47	0xbd4d31f2	-0.05009646
48	0xbdee2c3b	-0.1162953
49	0xbc723217	-0.01478245
50	0xbc99e3ed	-0.018785441
51	0x3d3f96f6	0.046774827
52	0x3d83f6f2	0.064435855
53	0xbc248927	-0.010042465
54	0x3cac288e	0.021015432
55	0xbc09b4d3	-0.008404928
56	0xbcb44e8c	-0.02201011
57	0xbda1d7f1	-0.07902516
58	0xbdd4ca4d	-0.10390148
59	0x3c82e8fd	0.015980238
60	0xbdba1509	-0.090860434
61	0xbd3060d8	-0.043061107
62	0xbcba16b3	-0.022715902
63	0xbcc5a2bb	-0.024125447
64	0xbd139108	-0.036026984
65	0xbd775a2f	-0.06038874
66	0x3d9c6774	0.076369196
67	0x39eba9c5	0.0004494918
68	0xbe3b06b5	-0.18264277
69	0x3da54737	0.08070224
70	0x3cc709a1	0.024296584
71	0xbd946f1d	-0.07247756
72	0xbcaad58d	-0.020853782
73	0xbdf175c9	-0.11790044
74	0x3c5b341e	0.013379125
75	0x3b4e723b	0.0031501192
76	0x3d74d5a8	0.05977407
77	0xbcd1723e	-0.02556717
78	0x3daa8aae	0.08327232
79	0x3c550d02	0.01300359
80	0xbdedf7ee	-0.116195545
81	0xbdadd9f8	-0.0848884
82	0xbdc49aea	-0.0959986
83	0x3da8970e	0.082319364
84	0x3e0694d5	0.13142712
85	0xbc49ce8d	-0.012317312
86	0x3c8bb1c3	0.017052537
87	0x3dd1a7b9	0.10237069
88	0xbda9fd29	-0.083002396
89	0x3db458ad	0.08805976
90	0xbe21d15e	-0.15802523
91	0xbcc6b33b	-0.024255386
92	0x3c63702d	0.013881725
93	0x3d015783	0.0315776
94	0xbdb0bbbf	-0.0862956
95	0x3d3ebefa	0.04656885
96	0xbd92c6f7	-0.07166856
97	0x3d5653ee	0.052326135
98	0xbe1af349	-0.15131868
99	0x3e2b4540	0.16725636
100	0xbd3984b7	-0.045292582
101	0x3db70eae	0.08938347
102	0x3e012bb0	0.12614322
103	0x3ddff0cf	0.109346025
104	0x3dde8e0e	0.108669385
105	0x3daf3442	0.08554889
106	0x3da975f9	0.082744546
107	0x3d80c3bc	0.06287333
108	0xbe7481c4	-0.23877627
109	0x3ca98c22	0.020696703
110	0xbde99d20	-0.11406922
111	0x3e281aa5	0.16416414
112	0x3c264985	0.010149364
113	0xbb409320	-0.0029384568
114	0xbd16f658	-0.036856025
115	0x3e13f8ef	0.1445043
116	0x3d07d337	0.033160415
117	0xbcfb27ab	-0.030658564
118	0x3bf8bbaa	0.0075907307
119	0xbc8730ac	-0.0165027
120	0xbdbb32f2	-0.091405764
121	0x3e0102b2	0.12598684
122	0xbd10da7e	-0.03536462
123	0xbdce2aef	-0.10066783
124	0xbda5ac49	-0.080895014
125	0x3d9eec58	0.07759923
126	0xbd79e35f	-0.061007854
127	0xbd76e58d	-0.06027751
128	0xbc854357	-0.016267462
129	0xbd7c00b5	-0.06152411
130	0xbe3b96da	-0.18319264
131	0xbc5ac934	-0.013353635
132	0x3d83564d	0.06412945
133	0x3d9e5985	0.07731918
134	0xbe2c56c9	-0.16829981
135	0x3dcbf0c2	0.0995803
136	0xbcb7f889	-0.022457378
137	0x3d811319	0.06302471
138	0x3d87e031	0.06634558
139	0x3d611df8	0.05496022
140	0xbe1b84da	-0.15187398
141	0xbd9398f9	-0.072069116
142	0xbd43850e	-0.047734313
143	0xbe39bbc2	-0.1813803
144	0xbe21a1c3	-0.15784363
145	0xbe252809	-0.16128553
146	0x3b81e598	0.0039641373
147	0x3d9adb26	0.075613305
148	0xbde278bc	-0.110581845
149	0x3d8cb161	0.0686977
150	0xbc6cd13a	-0.01445418
151	0x3e357f06	0.17724237
152	0x3df896a2	0.12138106
153	0xbd31f770	-0.043448865
154	0xbd9a1a98	-0.075246036
155	0xbd83854c	-0.06421909
156	0x3e0462e8	0.12928355
157	0x3d1d4741	0.03839803
158	0x3d34eb3f	0.04416966
159	0x3cda9844	0.026683934
160	0x3d1c8451	0.038212124
161	0xbc2fe9f3	-0.01073693
162	0x3d39ad34	0.045331195
163	0xbc8598d5	-0.016308228
164	0xbd8262da	-0.06366511
165	0x3d4d3c84	0.05010654
166	0x3d605c28	0.054775387
167	0x3e054146	0.13013181
168	0xbd807422	-0.062721506
169	0xbd2c53c2	-0.042072065
170	0xbd83257a	-0.064036325
171	0x3d8960ce	0.06707917
172	0xbddd7bd9	-0.10814638
173	0x3c231c01	0.009955407
174	0x3dceae78	0.10091871
175	0x3e950a2a	0.29109317
176	0x3dd17568	0.102274716
177	0xbdc31c3b	-0.09526869
178	0xbdfebfaa	-0.12438901
179	0x3e13a1ad	0.14417143
180	0xbc8bd082	-0.017067198
181	0xbd6b6d50	-0.057477295
182	0xbcc75b31	-0.024335476
183	0x3caabf3a	0.020843137
184	0xbe2ccf57	-0.16875969
185	0xbd826c07	-0.06368261
186	0xbdaafbad	-0.083487846
187	0xbd142e3c	-0.036176905
188	0x3df74073	0.120728396
189	0x3d1b59a0	0.03792727
190	0x3e3882a7	0.1801859
191	0xbd4f39a2	-0.050592072
192	0x3de757d9	0.112960525
193	0xbe390b70	-0.1807077
194	0xbd53c800	-0.051704407
195	0x3d607063	0.05479468
196	0xbd93dd18	-0.07219905
197	0x3de3daae	0.11125694
198	0xbd8ea657	-0.069653206
199	0x3d5f8123	0.054566514
200	0xbd8f8a84	-0.07008842
201	0xbe198e65	-0.14995725
202	0xbd9d4c5e	-0.076805815
203	0x3cca432d	0.024690235
204	0x3e160758	0.14651239
205	0x3c6200c1	0.013794125
206	0x3d19b81e	0.037529103
207	0x3c6066c2	0.013696374
208	0x3d6cbb50	0.057795823
209	0xbdd83459	-0.105568595
210	0x3cc25284	0.023720987
211	0x3b81ffe7	0.0039672735
212	0xbcc07fb2	-0.02349839
213	0x3c6653b0	0.014058039
214	0x3dbd6d54	0.09249368
215	0xbdd52316	-0.10407083
216	0xbdd3c5d0	-0.10340464
217	0xbd572138	-0.052521914
218	0xbdc9de60	-0.09856868
219	0xbceb54c3	-0.028726941
220	0x3e2c3274	0.16816121
221	0x3d351b63	0.04421557
222	0xbc66afc0	-0.014079988
223	0x3dbfeb63	0.09371068
224	0x3d81576f	0.06315505
225	0xbe051206	-0.12995157
226	0x3d213201	0.039354328
227	0x3d90f260	0.07077479
228	0xbcf5bc09	-0.029996889
229	0x3d8f8a68	0.07008821
230	0xbc99d69c	-0.018779092
231	0x3dc7fb0f	0.097646825
232	0x3d143ecf	0.03619271
233	0x3b63256d	0.0034659759
234	0xbd88f8fc	-0.06688115
235	0x3d174647	0.036932256
236	0xbba7abd4	-0.005116919
237	0x3d916102	0.07098581
238	0xbc272c35	-0.010203411
239	0x3b6362d1	0.003469635
240	0xbd18b925	-0.037285943
241	0xbd6cf52f	-0.057851013
242	0xbdf174f8	-0.11789888
243	0xbca566ed	-0.02019068
244	0x3e30be8f	0.17260192
245	0xbdef5922	-0.116869226
246	0xbd273054	-0.040817574
247	0xbd890e39	-0.06692166
248	0x3d49374d	0.049125005
249	0xbe0622f7	-0.13099276
250	0xbe4cee71	-0.20012833
251	0x3dfa2bd3	0.1221539
252	0x3e1f77ab	0.15572993
253	0xbcd06d2f	-0.025442688
254	0x3c680eb3	0.014163661
255	0x3e02ed90	0.12785935

lstms.0.weight_hh_l0 f4 [256, 64]
0	0x3ca4e237	0.020127399
1	0x3d5bacc4	0.05363156
2	0x3cadde91	0.021224292
3	0xbd94c495	-0.072640575
4	0x3bc9f592	0.0061633075
5	0x3bd0aab0	0.006368004
6	0xbd2a9e73	-0.041655015
7	0x3d9734f8	0.0738315
8	0xbdd70901	-0.10499764
9	0xbdba0a26	-0.09083967
10	0x3e008dfe	0.12554166
11	0xbd9efd15	-0.07763115
12	0xbb2c4e27	-0.00262917
13	0xbd523bb2	-0.05132646
14	0x3dbe243d	0.09284256
15	0x3b3352ce	0.0027362588
16	0xbd07e94a	-0.033181466
17	0xbd98d7be	-0.074630246
18	0x3dc2e645	0.09516577
19	0xbd84450f	-0.064584844
20	0xbc865168	-0.01639624
21	0xbd96a2df	-0.07355284
22	0x3ce7c8dc	0.02829402
23	0x3d900f67	0.07034188
24	0xbe307e29	-0.17235626
25	0xbd45272b	-0.048133057
26	0x3dc2c743	0.095106624
27	0x3d7cf07f	0.061752792
28	0x3da8aa40	0.082355976
29	0x3dfa8a0b	0.12233361
30	0xbcda0811	-0.026615174
31	0xbdc918b4	-0.09819165
32	0xbded1cf1	-0.11577786
33	0xbd19d94f	-0.037560757
34	0xbde36ce9	-0.11104757
35	0xbe5c3756	-0.21505484
36	0x3c835a4e	0.016034272
37	0x3a5d17da	0.0008434035
38	0x3d8b391f	0.06798004
39	0xbdd8b5f3	-0.10581579
40	0x3dabe463	0.08393171
41	0x3d97d0c5	0.074128665
42	0x3b8db0ea	0.0043240683
43	0xbc84087a	-0.016117323
44	0xba869ff7	-0.0010271062
45	0xbd30eaa7	-0.043192532
46	0x3d01a210	0.031648695
47	0xbdccccb1	-0.09999979
48	0x3e38a596	0.18031916
49	0x3d2edc3c	0.0426905
50	0xbc3e1b12	-0.011603134
51	0x3da6efc0	0.081511974
52	0xbd283bea	-0.041072764
53	0x3d2cb4c0	0.042164564
54	0xbdbcaab2	-0.09212245
55	0xbda7c1bd	-0.081912495
56	0xbd947a78	-0.072499216
57	0xbd9a8703	-0.07545283
58	0x3e38425e	0.17994067
59	0xbd39f41f	-0.045398828
60	0xbd5872bc	-0.052843794
61	0xbe02714a	-0.12738529
62	0x3d9a7e73	0.075436495
63	0x3d03ff48	0.032225877
64	0xbdff247e	-0.12458132
65	0xbd46cb3a	-0.048533656
66	0xbd972383	-0.0737982
67	0x3d072258	0.032991737
68	0xbdbc8b93	-0.09206309
69	0xbdb64392	-0.08899607
70	0xbd8939f4	-0.06700507
71	0xbdcd06ff	-0.100111
72	0x3d231e1b	0.039823633
73	0xbd0939d8	-0.03350243
74	0xbdca5fa7	-0.098815255
75	0x3dbc5fc5	0.09197954
76	0x3d8bace9	0.06820089
77	0x3d4185b6	0.047246657
78	0x3df5891f	0.119890444
79	0xbd5027bd	-0.050819147
80	0x3dcea208	0.10089499
81	0xbd94d5c2	-0.072673336
82	0x3dbcff93	0.092284344
83	0xbb1df691	-0.0024103264
84	0xbd0720c9	-0.03299025
85	0xbd87fa41	-0.06639529
86	0xbd290d94	-0.041272715
87	0xbc56a65f	-0.013101189
88	0x3cf0a0be	0.029373523
89	0x3d48e6cd	0.049048234
90	0xbe5bf7b5	-0.21481211
91	0x3ce91307	0.028451456
92	0xbdc46321	-0.0958922
93	0x3bd0abeb	0.0063681505
94	0x3d6f6c4b	0.058452886
95	0xbd647a01	-0.055780414
96	0x3b3b1045	0.0028543633
97	0xbb7fed80	-0.0039051473
98	0xbd2d864a	-0.042364396
99	0x3dcdd1cf	0.100497834
100	0xbc9c7dbe	-0.019102927
101	0xbdd6096f	-0.10451018
102	0xbcdcc0ea	-0.026947457
103	0xbd77af8f	-0.06047016
104	0xbdd4ddbc	-0.10393855
105	0x3d089c4b	0.033352178
106	0xbd070ef0	-0.03297323
107	0xbe066736	-0.1312531
108	0x3d020c4f	0.03175002
109	0x3d0638ff	0.0327692
110	0xbd63252a	-0.055455364
111	0xbd74d8fe	-0.059777252
112	0x3d0c0bda	0.03419099
113	0xbe01c19e	-0.12671515
114	0x3dc36f05	0.0954266
115	0xbd298f4b	-0.04139642
116	0x3d0f147b	0.03493164
117	0xbccb3ed9	-0.024810242
118	0x3bf0197d	0.007327257
119	0xbc82da2c	-0.015973173
120	0xbd498bae	-0.049205475
121	0xbcec50bf	-0.028847096
122	0xbd808406	-0.062751815
123	0x3d66b76a	0.05632726
124	0x3d808d21	0.06276918
125	0xbcea2956	-0.028584164
126	0x3d9a45a8	0.07532817
127	0xbd81e97b	-0.06343361
128	0x3e03899f	0.12845467
129	0x3da82699	0.08210487
130	0xbdb17e5e	-0.08666681
131	0xbce98d6e	-0.028509822
132	0x3c6bf54e	0.014401747
133	0xbe67bc8e	-0.22630522
134	0xbc585aa8	-0.013205208
135	0x3c60264a	0.013681004
136	0x3dcd9fe9	0.10040266
137	0xbe0b736c	-0.13618249
138	0xbac450b7	-0.0014977668
139	0x3e30e6a3	0.17275481
140	0x3d016bfd	0.031597126
141	0x3da3514e	0.07974492
142	0x3d4d898b	0.05018
143	0xbd73e565	-0.05954494
144	0x3e1ba234	0.15198594
145	0xbd0d8f2d	-0.03456037
146	0xbe12926a	-0.14313665
147	0x3e09e795	0.13467248
148	0xbddb40a0	-0.107056856
149	0xbd5cfb2a	-0.053950466
150	0xbd944cac	-0.072411865
151	0x3d6b0c87	0.057384994
152	0x3e0ee828	0.13955748
153	0x3d92bb7c	0.07164666
154	0x3daf1ae9	0.085500546
155	0x3d00bf6c	0.031432554
156	0xbe556908	-0.20840847
157	0x3c4826b4	0.012216259
158	0x3e27b67d	0.16378208
159	0x3e2ed05f	0.17071675
160	0x3e393992	0.18088368
161	0x3dd734ea	0.105081394
162	0xbd892a6f	-0.06697547
163	0x3e17646b	0.147844
164	0xbc9ef6c7	-0.019404782
165	0xbd174617	-0.036932077
166	0xbd40104e	-0.04689055
167	0xbe3cda27	-0.18442594
168	0x3be4804d	0.0069733025
169	0xbcfaad2c	-0.030600153
170	0x3d8b5451	0.068031915
171	0x3d0709a4	0.03296818
172	0x3ddc9c5a	0.10772009
173	0xbdc982a3	-0.0983937
174	0xbdbe5a4e	-0.09294568
175	0x3dac9d80	0.08428478
176	0xbd341ecf	-0.043974694
177	0x3b74051c	0.003723449
178	0xbd5f2c23	-0.05448545
179	0xbe6af667	-0.22945558
180	0x3d083675	0.03325506
181	0xbdea133e	-0.114294514
182	0xbb98ea3c	-0.004666595
183	0xbdf4aa49	-0.11946542
184	0x3e062c86	0.13102922
185	0x3d6c787a	0.057732083
186	0xbd37f40c	-0.044910476
187	0xbc45b057	-0.0120659685
188	0xbe35a5a2	-0.17738965
189	0x3cc5e3b1	0.024156423
190	0x3d6378bc	0.055535063
191	0xbdee252b	-0.11628183
192	0xbc0a39fe	-0.008436678
193	0x3d462f06	0.04838469
194	0xbdc4dfaf	-0.09612977
195	0xbd3b8853	-0.045784306
196	0x3dbe3d9b	0.09289094
197	0xbe790087	-0.24316607
198	0x3d6a2386	0.057162784
199	0xbc70a74f	-0.014688327
200	0x3e114ef3	0.14190273
201	0xbdb0bbc7	-0.08629566
202	0x3de251f9	0.11050791
203	0x3ce2e8c3	0.02769888
204	0x3de0b99f	0.109729044
205	0xbd970083	-0.073731445
206	0xbc958964	-0.01825399
207	0x3db07a7e	0.086171135
208	0x3c9f4970	0.019444197
209	0x3dd31970	0.10307586
210	0x3dd49f9a	0.10382004
211	0xbe114102	-0.14184955
212	0xbd59b26f	-0.053148683
213	0xbd177fe8	-0.036987215
214	0x3e66303c	0.22479337
215	0x3d330c74	0.043713048
216	0x3b5f38f2	0.0034061042
217	0x3e2d0051	0.16894652
218	0x3cc75f3a	0.0243374
219	0x3cd39767	0.02582903
220	0xbda4a051	-0.080383904
221	0xbd20752e	-0.03917425
222	0x3d08837b	0.033328515
223	0xbdbaacea	-0.09115012
224	0x3d860290	0.065434575
225	0xbe3c1d37	-0.1837052
226	0xbda06fd1	-0.07833827
227	0xbd3ec543	-0.046574842
228	0x3d4b77ea	0.049674906
229	0xbda5b46c	-0.08091053
230	0xbe082863	-0.13296656
231	0xbdc1e6ed	-0.09467874
232	0xbdbc4593	-0.09192958
233	0x3d0f0dc0	0.034925222
234	0x3d5d5c6d	0.054043222
235	0xbdc7c0af	-0.09753548
236	0xbd72cf1f	-0.059279557
237	0xbdd3a8be	-0.103349194
238	0xbcc80dcc	-0.024420641
239	0x3c6e8d98	0.014560126
240	0x3d004c29	0.031322632
241	0xbc772b9c	-0.015086081
242	0x3d349065	0.044083018
243	0xbd739565	-0.059468646
244	0xbd54f86c	-0.051994726
245	0x3d996055	0.07489077
246	0x3cdca4bd	0.026934022
247	0xbdfc5321	-0.12320543
248	0x3bdb023f	0.0066836174
249	0xbccff027	-0.025383068
250	0x3d7959e5	0.060876746
251	0x3d03cb67	0.0321764
252	0x3cb2679d	0.021777922
253	0xbc85bce9	-0.016325431
254	0x3bb0d9b9	0.0053970483
255	0x3c894248	0.016755238

lstms.0.bias_ih_l0 f4 [256]
0	0x37ab69b8	2.0434018e-05
1	0x38b4ca11	8.620707e-05
2	0x39e2ad92	0.000432354
3	0x36ed453d	7.071211e-06
4	0xb768dd49	-1.38798e-05
5	0x3977b260	0.00023622205
6	0x3867e043	5.528355e-05
7	0x38dcb33f	0.00010523805
8	0xb79fa5cd	-1.9031484e-05
9	0xb8aac34d	-8.142609e-05
10	0x38d73b69	0.00010263065
11	0xb81e0823	-3.7677713e-05
12	0xb7eff6c8	-2.8605937e-05
13	0xb885f48a	-6.387483e-05
14	0xb925069a	-0.00015738085
15	0xb9910557	-0.00027660534
16	0x3978f6b0	0.00023743021
17	0x389abff9	7.37905e-05
18	0xb69eb521	-4.729853e-06
19	0xb6bb23bc	-5.5771943e-06
20	0x387c657d	6.0176e-05
21	0x390d1ebc	0.00013458257
22	0xb6179a07	-2.259041e-06
23	0x38887c2a	6.508113e-05
24	0xb8a319ab	-7.777227e-05
25	0x381532f3	3.557182e-05
26	0xb94acf9b	-0.0001934156
27	0x3827ace1	3.997691e-05
28	0x395e96c0	0.00021227729
29	0x38d00ca0	9.9205645e-05
30	0x37a9d619	2.0246067e-05
31	0xb7f67172	-2.9378312e-05
32	0xb9625fa4	-0.00021588668
33	0xb84bda16	-4.860208e-05
34	0xb98a766e	-0.00026409648
35	0x366a85df	3.494664e-06
36	0x37be24cb	2.2666898e-05
37	0x3830e08d	4.21708e-05
38	0xb7822b40	-1.5517347e-05
39	0xb8f4924e	-0.00011662078
40	0xb8784d55	-5.919983e-05
41	0xb77b1694	-1.4966023e-05
42	0xb907de12	-0.00012957331
43	0x37572a70	1.2824879e-05
44	0xb8bd00da	-9.012381e-05
45	0xb7e6df2a	-2.7522055e-05
46	0x3901dfd6	0.00012385784
47	0x3a1eb0c8	0.0006053564
48	0xb754c7bc	-1.2682689e-05
49	0xb861ae1a	-5.3806325e-05
50	0xb88a7369	-6.6018496e-05
51	0xb9fdf2b7	-0.00048436757
52	0xb7d71a0b	-2.5642124e-05
53	0xb9005a36	-0.00012240637
54	0x3582c55b	9.743193e-07
55	0x371583b9	8.911761e-06
56	0x39b23b9a	0.00033995212
57	0x37b1f6ee	2.121503e-05
58	0x3a151bb5	0.00056880276
59	0x38065498	3.2026874e-05
60	0x39a21a09	0.00030918446
61	0x3882e36a	6.241242e-05
62	0x39063d6b	0.00012802116
63	0x36dccc4b	6.5802938e-06
64	0x37a98124	2.0206506e-05
65	0x38bc62b6	8.982925e-05
66	0x39e1ea50	0.0004308992
67	0x36ea8faf	6.9904704e-06
68	0xb7750e00	-1.4606398e-05
69	0x396c84f0	0.00022556237
70	0x386f9be7	5.7127236e-05
71	0x38ddcd62	0.00010576357
72	0xb7a4d26e	-1.9648312e-05
73	0xb8ab0ec2	-8.156664e-05
74	0x38d2fb68	0.000100604084
75	0xb81f7c20	-3.8024154e-05
76	0xb7df7b40	-2.6641064e-05
77	0xb885776c	-6.364178e-05
78	0xb92301dd	-0.00015545585
79	0xb993cc65	-0.0002819031
80	0x3978f041	0.00023740625
81	0x389cf00d	7.4833726e-05
82	0xb69cf7f5	-4.6780283e-06
83	0xb6b3382e	-5.341156e-06
84	0x386fa70a	5.7137608e-05
85	0x39094972	0.00013092699
86	0xb6162be1	-2.2377283e-06
87	0x38846e40	6.314786e-05
88	0xb8a3179f	-7.7768455e-05
89	0x380e6f12	3.395888e-05
90	0xb9513525	-0.00019951591
91	0x382ba465	4.092268e-05
92	0x395a4483	0.00020815623
93	0x38c90566	9.5854324e-05
94	0x37a9743b	2.0200494e-05
95	0xb7f5f22b	-2.9319044e-05
96	0xb965134b	-0.00021846329
97	0xb849e9cf	-4.8139886e-05
98	0xb98fab9a	-0.0002740294
99	0x365c5b9b	3.2835876e-06
100	0x37c07c3d	2.2946037e-05
101	0x382f7bf0	4.1838677e-05
102	0xb7786793	-1.4806067e-05
103	0xb8f19a18	-0.00011520478
104	0xb8760a7c	-5.8660735e-05
105	0xb77986df	-1.4872959e-05
106	0xb9019c38	-0.00012360595
107	0x374cc388	1.2204873e-05
108	0xb8cbd13e	-9.718769e-05
109	0xb7e40034	-2.7179813e-05
110	0x39062b27	0.00012795311
111	0x3a18cd76	0.0005828956
112	0xb75b414c	-1.306862e-05
113	0xb86100db	-5.3644977e-05
114	0xb888a16d	-6.515053e-05
115	0xb9f16bcf	-0.00046047426
116	0xb7cfb2bb	-2.475955e-05
117	0xb8fcffae	-0.000120639204
118	0x35813d61	9.629113e-07
119	0x37164045	8.955661e-06
120	0x39b8b1c2	0.00035227655
121	0x37acb6fd	2.0589208e-05
122	0x3a176dda	0.0005776562
123	0x3807f0de	3.2410833e-05
124	0x39a82b57	0.00032075748
125	0x3880bfba	6.1392275e-05
126	0x3905ca85	0.00012759313
127	0x36dc4744	6.5648073e-06
128	0x39803c54	0.0002445901
129	0x3abb30cf	0.0014281514
130	0x3b392a7b	0.002825408
131	0x396fcfb1	0.00022870187
132	0x3a4ae966	0.00077404676
133	0xbb384848	-0.0028119255
134	0x39d029f4	0.0003970411
135	0xbaa07c73	-0.001224412
136	0xba6d4707	-0.00090514164
137	0x3b48098c	0.0030523269
138	0xbafea801	-0.0019428731
139	0x396c7e37	0.00022553733
140	0xb9f8618e	-0.0004737493
141	0xba6ca547	-0.0009027314
142	0xbb5ac034	-0.0033378722
143	0xbacbbeec	-0.001554457
144	0x3ab43d7c	0.0013751234
145	0x3a079622	0.0005172213
146	0x3aad5ca4	0.0013226462
147	0x3917a940	0.00014463533
148	0x39b3ad70	0.00034270762
149	0xbaa8f995	-0.0012891764
150	0xb9136f48	-0.00014060468
151	0xb99bc6d4	-0.00029712042
152	0x39b9c4dc	0.0003543262
153	0x3abba16f	0.0014315079
154	0xbb6be948	-0.00359972
155	0x39c882f6	0.00038244546
156	0xba369899	-0.0006965488
157	0xba894cef	-0.0010475199
158	0xb9eb9fcf	-0.0004494176
159	0x3a6eca93	0.00091091654
160	0x3b0c1170	0.0021372698
161	0xba895ff5	-0.0010480868
162	0x3b7d3702	0.0038637524
163	0xb94aa888	-0.00019327004
164	0x39f0d785	0.00045936942
165	0xbb0b1ea9	-0.0021227992
166	0x3a2f46d9	0.00066862773
167	0x3aa48d1d	0.0012554262
168	0xbab8eb42	-0.0014108198
169	0xbaf5e6cc	-0.00187608
170	0xbaa14eb7	-0.0012306784
171	0xb9df8be6	-0.00042638107
172	0xba3da3ab	-0.0007234166
173	0xba4ddf87	-0.00078534376
174	0xba90028d	-0.0010987088
175	0xba9f7d22	-0.001216803
176	0x39f2ef2c	0.00046336034
177	0xba2e3423	-0.0006645342
178	0xb9ebc1a7	-0.00044966975
179	0x3b02cbc9	0.0019957891
180	0xba9a3255	-0.0011764268
181	0xbaa7b7ec	-0.0012795902
182	0x3aa79d0c	0.0012787892
183	0xb89c75bf	-7.4605916e-05
184	0x3ae69c8b	0.0017594261
185	0x3a29eab5	0.00064818125
186	0x3ba05887	0.004893366
187	0x3a56ab84	0.000818901
188	0xbafdf28c	-0.0019374653
189	0xba0bffe5	-0.00053405605
190	0xba7357e2	-0.000928281
191	0x38b2c7a9	8.524891e-05
192	0x37aa72aa	2.0318974e-05
193	0x38b2c943	8.525189e-05
194	0x39e386f5	0.00043397365
195	0x36edfa5b	7.0922956e-06
196	0xb765c5e4	-1.3695539e-05
197	0x3978528a	0.00023681871
198	0x38717b19	5.757352e-05
199	0x38de6b94	0.00010605823
200	0xb79fd051	-1.9051282e-05
201	0xb8a1f79c	-7.723199e-05
202	0x38d236cd	0.00010023788
203	0xb8204ccb	-3.821849e-05
204	0xb7f1f46d	-2.8843258e-05
205	0xb884d4e3	-6.333904e-05
206	0xb92516ce	-0.00015744122
207	0xb99699ec	-0.0002872491
208	0x397f24bc	0.0002433238
209	0x3897b521	7.233979e-05
210	0xb69d1a74	-4.682044e-06
211	0xb6b5a049	-5.41288e-06
212	0x3877510d	5.8964873e-05
213	0x390b4d8c	0.00013284961
214	0xb6182710	-2.2672502e-06
215	0x3886edc2	6.433904e-05
216	0xb8a00381	-7.630047e-05
217	0x3811bfc0	3.4749275e-05
218	0xb948a8d2	-0.00019136377
219	0x382a3d4e	4.0588253e-05
220	0x3961388c	0.00021478737
221	0x38ccca5c	9.7651704e-05
222	0x37a8dbc9	2.0129506e-05
223	0xb7fd8c79	-3.0225363e-05
224	0xb96742e4	-0.00022054795
225	0xb845c2e8	-4.714998e-05
226	0xb98f99b5	-0.00027389606
227	0x366c7e28	3.5240173e-06
228	0x37c1695b	2.3056453e-05
229	0x383a8790	4.4472108e-05
230	0xb77fa86d	-1.5238399e-05
231	0xb9004ffa	-0.00012236825
232	0xb8809921	-6.132038e-05
233	0xb77bb20d	-1.50022215e-05
234	0xb9060b2d	-0.00012783399
235	0x3752c239	1.2562196e-05
236	0xb8c00791	-9.156683e-05
237	0xb7e9e4ac	-2.7882248e-05
238	0x39044478	0.00012614008
239	0x3a226628	0.0006195032
240	0xb75a7a75	-1.3022324e-05
241	0xb8633164	-5.4167016e-05
242	0xb884e2bc	-6.336483e-05
243	0xb9fc8366	-0.00048163085
244	0xb7dc9899	-2.6297103e-05
245	0xb8fc29e0	-0.00012024096
246	0x3575712c	9.14343e-07
247	0x37145a90	8.842573e-06
248	0x39b96643	0.0003536214
249	0x37afa30b	2.0937548e-05
250	0x3a11f24e	0.0005567417
251	0x3808d943	3.2627268e-05
252	0x39af69a9	0.00033457324
253	0x38846c12	6.31438e-05
254	0x3907c703	0.00012948741
255	0x36dfa796	6.6654275e-06

lstms.0.bias_hh_l0 f4 [256]
0	0x37ab69b8	2.0434018e-05
1	0x38b4ca11	8.620707e-05
2	0x39e2ad92	0.000432354
3	0x36ed453d	7.071211e-06
4	0xb768dd49	-1.38798e-05
5	0x3977b260	0.00023622205
6	0x3867e043	5.528355e-05
7	0x38dcb33f	0.00010523805
8	0xb79fa5cd	-1.9031484e-05
9	0xb8aac34d	-8.142609e-05
10	0x38d73b69	0.00010263065
11	0xb81e0823	-3.7677713e-05
12	0xb7eff6c8	-2.8605937e-05
13	0xb885f48a	-6.387483e-05
14	0xb925069a	-0.00015738085
15	0xb9910557	-0.00027660534
16	0x3978f6b0	0.00023743021
17	0x389abff9	7.37905e-05
18	0xb69eb521	-4.729853e-06
19	0xb6bb23bc	-5.5771943e-06
20	0x387c657d	6.0176e-05
21	0x390d1ebc	0.00013458257
22	0xb6179a07	-2.259041e-06
23	0x38887c2a	6.508113e-05
24	0xb8a319ab	-7.777227e-05
25	0x381532f3	3.557182e-05
26	0xb94acf9b	-0.0001934156
27	0x3827ace1	3.997691e-05
28	0x395e96c0	0.00021227729
29	0x38d00ca0	9.9205645e-05
30	0x37a9d619	2.0246067e-05
31	0xb7f67172	-2.9378312e-05
32	0xb9625fa4	-0.00021588668
33	0xb84bda16	-4.860208e-05
34	0xb98a766e	-0.00026409648
35	0x366a85df	3.494664e-06
36	0x37be24cb	2.2666898e-05
37	0x3830e08d	4.21708e-05
38	0xb7822b40	-1.5517347e-05
39	0xb8f4924e	-0.00011662078
40	0xb8784d55	-5.919983e-05
41	0xb77b1694	-1.4966023e-05
42	0xb907de12	-0.00012957331
43	0x37572a70	1.2824879e-05
44	0xb8bd00da	-9.012381e-05
45	0xb7e6df2a	-2.7522055e-05
46	0x3901dfd6	0.00012385784
47	0x3a1eb0c8	0.0006053564
48	0xb754c7bc	-1.2682689e-05
49	0xb861ae1a	-5.3806325e-05
50	0xb88a7369	-6.6018496e-05
51	0xb9fdf2b7	-0.00048436757
52	0xb7d71a0b	-2.5642124e-05
53	0xb9005a36	-0.00012240637
54	0x3582c55b	9.743193e-07
55	0x371583b9	8.911761e-06
56	0x39b23b9a	0.00033995212
57	0x37b1f6ee	2.121503e-05
58	0x3a151bb5	0.00056880276
59	0x38065498	3.2026874e-05
60	0x39a21a09	0.00030918446
61	0x3882e36a	6.241242e-05
62	0x39063d6b	0.00012802116
63	0x36dccc4b	6.5802938e-06
64	0x37a98124	2.0206506e-05
65	0x38bc62b6	8.982925e-05
66	0x39e1ea50	0.0004308992
67	0x36ea8faf	6.9904704e-06
68	0xb7750e00	-1.4606398e-05
69	0x396c84f0	0.00022556237
70	0x386f9be7	5.7127236e-05
71	0x38ddcd62	0.00010576357
72	0xb7a4d26e	-1.9648312e-05
73	0xb8ab0ec2	-8.156664e-05
74	0x38d2fb68	0.000100604084
75	0xb81f7c20	-3.8024154e-05
76	0xb7df7b40	-2.6641064e-05
77	0xb885776c	-6.364178e-05
78	0xb92301dd	-0.00015545585
79	0xb993cc65	-0.0002819031
80	0x3978f041	0.00023740625
81	0x389cf00d	7.4833726e-05
82	0xb69cf7f5	-4.6780283e-06
83	0xb6b3382e	-5.341156e-06
84	0x386fa70a	5.7137608e-05
85	0x39094972	0.00013092699
86	0xb6162be1	-2.2377283e-06
87	0x38846e40	6.314786e-05
88	0xb8a3179f	-7.7768455e-05
89	0x380e6f12	3.395888e-05
90	0xb9513525	-0.00019951591
91	0x382ba465	4.092268e-05
92	0x395a4483	0.00020815623
93	0x38c90566	9.5854324e-05
94	0x37a9743b	2.0200494e-05
95	0xb7f5f22b	-2.9319044e-05
96	0xb965134b	-0.00021846329
97	0xb849e9cf	-4.8139886e-05
98	0xb98fab9a	-0.0002740294
99	0x365c5b9b	3.2835876e-06
100	0x37c07c3d	2.2946037e-05
101	0x382f7bf0	4.1838677e-05
102	0xb7786793	-1.4806067e-05
103	0xb8f19a18	-0.00011520478
104	0xb8760a7c	-5.8660735e-05
105	0xb77986df	-1.4872959e-05
106	0xb9019c38	-0.00012360595
107	0x374cc388	1.2204873e-05
108	0xb8cbd13e	-9.718769e-05
109	0xb7e40034	-2.7179813e-05
110	0x39062b27	0.00012795311
111	0x3a18cd76	0.0005828956
112	0xb75b414c	-1.306862e-05
113	0xb86100db	-5.3644977e-05
114	0xb888a16d	-6.515053e-05
115	0xb9f16bcf	-0.00046047426
116	0xb7cfb2bb	-2.475955e-05
117	0xb8fcffae	-0.000120639204
118	0x35813d61	9.629113e-07
119	0x37164045	8.955661e-06
120	0x39b8b1c2	0.00035227655
121	0x37acb6fd	2.0589208e-05
122	0x3a176dda	0.0005776562
123	0x3807f0de	3.2410833e-05
124	0x39a82b57	0.00032075748
125	0x3880bfba	6.1392275e-05
126	0x3905ca85	0.00012759313
127	0x36dc4744	6.5648073e-06
128	0x39803c54	0.0002445901
129	0x3abb30cf	0.0014281514
130	0x3b392a7b	0.002825408
131	0x396fcfb1	0.00022870187
132	0x3a4ae966	0.00077404676
133	0xbb384848	-0.0028119255
134	0x39d029f4	0.0003970411
135	0xbaa07c73	-0.001224412
136	0xba6d4707	-0.00090514164
137	0x3b48098c	0.0030523269
138	0xbafea801	-0.0019428731
139	0x396c7e37	0.00022553733
140	0xb9f8618e	-0.0004737493
141	0xba6ca547	-0.0009027314
142	0xbb5ac034	-0.0033378722
143	0xbacbbeec	-0.001554457
144	0x3ab43d7c	0.0013751234
145	0x3a079622	0.0005172213
146	0x3aad5ca4	0.0013226462
147	0x3917a940	0.00014463533
148	0x39b3ad70	0.00034270762
149	0xbaa8f995	-0.0012891764
150	0xb9136f48	-0.00014060468
151	0xb99bc6d4	-0.00029712042
152	0x39b9c4dc	0.0003543262
153	0x3abba16f	0.0014315079
154	0xbb6be948	-0.00359972
155	0x39c882f6	0.00038244546
156	0xba369899	-0.0006965488
157	0xba894cef	-0.0010475199
158	0xb9eb9fcf	-0.0004494176
159	0x3a6eca93	0.00091091654
160	0x3b0c1170	0.0021372698
161	0xba895ff5	-0.0010480868
162	0x3b7d3702	0.0038637524
163	0xb94aa888	-0.00019327004
164	0x39f0d785	0.00045936942
165	0xbb0b1ea9	-0.0021227992
166	0x3a2f46d9	0.00066862773
167	0x3aa48d1d	0.0012554262
168	0xbab8eb42	-0.0014108198
169	0xbaf5e6cc	-0.00187608
170	0xbaa14eb7	-0.0012306784
171	0xb9df8be6	-0.00042638107
172	0xba3da3ab	-0.0007234166
173	0xba4ddf87	-0.00078534376
174	0xba90028d	-0.0010987088
175	0xba9f7d22	-0.001216803
176	0x39f2ef2c	0.00046336034
177	0xba2e3423	-0.0006645342
178	0xb9ebc1a7	-0.00044966975
179	0x3b02cbc9	0.0019957891
180	0xba9a3255	-0.0011764268
181	0xbaa7b7ec	-0.0012795902
182	0x3aa79d0c	0.0012787892
183	0xb89c75bf	-7.4605916e-05
184	0x3ae69c8b	0.0017594261
185	0x3a29eab5	0.00064818125
186	0x3ba05887	0.004893366
187	0x3a56ab84	0.000818901
188	0xbafdf28c	-0.0019374653
189	0xba0bffe5	-0.00053405605
190	0xba7357e2	-0.000928281
191	0x38b2c7a9	8.524891e-05
192	0x37aa72aa	2.0318974e-05
193	0x38b2c943	8.525189e-05
194	0x39e386f5	0.00043397365
195	0x36edfa5b	7.0922956e-06
196	0xb765c5e4	-1.3695539e-05
197	0x3978528a	0.00023681871
198	0x38717b19	5.757352e-05
199	0x38de6b94	0.00010605823
200	0xb79fd051	-1.9051282e-05
201	0xb8a1f79c	-7.723199e-05
202	0x38d236cd	0.00010023788
203	0xb8204ccb	-3.821849e-05
204	0xb7f1f46d	-2.8843258e-05
205	0xb884d4e3	-6.333904e-05
206	0xb92516ce	-0.00015744122
207	0xb99699ec	-0.0002872491
208	0x397f24bc	0.0002433238
209	0x3897b521	7.233979e-05
210	0xb69d1a74	-4.682044e-06
211	0xb6b5a049	-5.41288e-06
212	0x3877510d	5.8964873e-05
213	0x390b4d8c	0.00013284961
214	0xb6182710	-2.2672502e-06
215	0x3886edc2	6.433904e-05
216	0xb8a00381	-7.630047e-05
217	0x3811bfc0	3.4749275e-05
218	0xb948a8d2	-0.00019136377
219	0x382a3d4e	4.0588253e-05
220	0x3961388c	0.00021478737
221	0x38ccca5c	9.7651704e-05
222	0x37a8dbc9	2.0129506e-05
223	0xb7fd8c79	-3.0225363e-05
224	0xb96742e4	-0.00022054795
225	0xb845c2e8	-4.714998e-05
226	0xb98f99b5	-0.00027389606
227	0x366c7e28	3.5240173e-06
228	0x37c1695b	2.3056453e-05
229	0x383a8790	4.4472108e-05
230	0xb77fa86d	-1.5238399e-05
231	0xb9004ffa	-0.00012236825
232	0xb8809921	-6.132038e-05
233	0xb77bb20d	-1.50022215e-05
234	0xb9060b2d	-0.00012783399
235	0x3752c239	1.2562196e-05
236	0xb8c00791	-9.156683e-05
237	0xb7e9e4ac	-2.7882248e-05
238	0x39044478	0.00012614008
239	0x3a226628	0.0006195032
240	0xb75a7a75	-1.3022324e-05
241	0xb8633164	-5.4167016e-05
242	0xb884e2bc	-6.336483e-05
243	0xb9fc8366	-0.00048163085
244	0xb7dc9899	-2.6297103e-05
245	0xb8fc29e0	-0.00012024096
246	0x3575712c	9.14343e-07
247	0x37145a90	8.842573e-06
248	0x39b96643	0.0003536214
249	0x37afa30b	2.0937548e-05
250	0x3a11f24e	0.0005567417
251	0x3808d943	3.2627268e-05
252	0x39af69a9	0.00033457324
253	0x38846c12	6.31438e-05
254	0x3907c703	0.00012948741
255	0x36dfa796	6.6654275e-06

lstms.1.weight_ih_l0 f4 [128, 64]
0	0xbe0cc14c	-0.13745612
1	0xba85aa74	-0.0010197894
2	0xbd57ed8a	-0.05271677
3	0x3db1b2ca	0.086766794
4	0x3dc7ed9d	0.09762118
5	0xbdc072a2	-0.093968645
6	0xbd157ea4	-0.036497727
7	0xbd476c99	-0.04868755
8	0xbe6cb80c	-0.23117083
9	0xbe19c8cd	-0.15018006
10	0x3e3680b3	0.17822532
11	0x3de346cc	0.11097488
12	0xbeaf0bca	-0.34188682
13	0xbc1f1c6a	-0.009711364
14	0xbc68c35d	-0.0142067345
15	0x3db6d345	0.08927015
16	0x3c034389	0.008011707
17	0x3d847a58	0.06468648
18	0xbcff3938	-0.031155214
19	0xbcb57ff3	-0.022155738
20	0xbce9017e	-0.028443094
21	0xbddb9384	-0.10721496
22	0xbdbf6663	-0.093457006
23	0x3df5f0f8	0.12008852
24	0xbc3be0d9	-0.011467182
25	0xbda2860f	-0.07935726
26	0x3d76f887	0.060295608
27	0x3d8af10b	0.067842565
28	0xbde910fd	-0.113801934
29	0x3cae0e70	0.021247119
30	0xbd414303	-0.047183048
31	0x3d00ec38	0.031475276
32	0x3e3165e7	0.17324029
33	0x3db939b1	0.09044207
34	0x3c52c6db	0.012864794
35	0xbe656c78	-0.22404659
36	0x3d5d450b	0.054020923
37	0xbc1aa5c3	-0.009438935
38	0x3d0e4c02	0.034740455
39	0xbe2b847a	-0.16749755
40	0xbc152167	-0.009102202
41	0xbd823c72	-0.06359185
42	0xbe01087c	-0.12600893
43	0x3bd6c124	0.006553786
44	0xbccf55af	-0.025309412
45	0xbde01ead	-0.10943351
46	0x3e223439	0.15840234
47	0x3d80bcdf	0.06286024
48	0xbd5cc386	-0.053897403
49	0xbcd551c7	-0.026039971
50	0x3ca148e7	0.019688083
51	0x3d086a3b	0.033304434
52	0x3e3767de	0.17910716
53	0x3d83b849	0.06431634
54	0xbe157b9b	-0.14597933
55	0xbd892fdc	-0.066985816
56	0xbcd1dbca	-0.025617499
57	0x3d83b434	0.064308554
58	0x3890580c	6.882855e-05
59	0x3d1fdfaa	0.039031662
60	0x3e3a88d9	0.18216266
61	0xbcfb91d4	-0.030709185
62	0x3d3da309	0.04629806
63	0xbd24ef08	-0.04026702
64	0xbc9ff09c	-0.019523911
65	0x3e3b8821	0.18313648
66	0x3c8f4b1e	0.017491873
67	0xbdc7e183	-0.0975981
68	0xbda66a5f	-0.081257574
69	0x3d4a2a5b	0.0493568
70	0xbda40944	-0.0800958
71	0xbdb471e6	-0.08810787
72	0xbb10d76e	-0.0022101062
73	0x3cda9273	0.02668116
74	0x3c22aede	0.009929387
75	0x3d98b892	0.07457079
76	0xbbb0e34b	-0.005398189
77	0xbd9d4bea	-0.07680495
78	0x3d907dc1	0.07055236
79	0xbd77a938	-0.060464114
80	0x3b9b6f25	0.004743474
81	0xbd982847	-0.07429557
82	0xbd6bcda3	-0.057569157
83	0xbe439ab6	-0.19101986
84	0x3b108281	0.0022050443
85	0x3d91ad63	0.07113149
86	0x3b212693	0.0024589642
87	0x3e83d08c	0.25745046
88	0x3c5f20e8	0.013618685
89	0x3e3eb4ec	0.18623704
90	0x3d0b30b1	0.033981983
91	0xbd62dd33	-0.055386733
92	0x3e0524fc	0.1300239
93	0x3d047984	0.03234245
94	0x3e26b405	0.1627961
95	0x3d60a0b0	0.054840744
96	0xbdb427e6	-0.087966725
97	0x3cf01f38	0.029311761
98	0x3cc79aa6	0.024365734
99	0x3d51efd2	0.0512541
100	0x3e0d32a3	0.13788848
101	0x3d9b0c4a	0.07570703
102	0x3d426b01	0.047465328
103	0xbcd35652	-0.025797997
104	0x3e302fea	0.17205778
105	0xbbb37530	-0.0054766163
106	0x3e415fd2	0.18884209
107	0x3d891b30	0.06694639
108	0x3d21a6b8	0.039465636
109	0xbcdf2946	-0.02724136
110	0x3dee651e	0.1164038
111	0x3e0d8546	0.13820371
112	0xbd83992e	-0.06425701
113	0xbe650197	-0.22363888
114	0xbe4778b5	-0.1947964
115	0xbc3cf308	-0.011532553
116	0x3ca75c22	0.020429675
117	0x3d44b9d3	0.04802878
118	0xbd39150e	-0.045186095
119	0xbbd2b5e8	-0.0064303763
120	0xbda32b59	-0.07967252
121	0x3d8b32e3	0.06796815
122	0xbd9d23d9	-0.07672853
123	0xbd0c19ea	-0.0342044
124	0x3d208c4e	0.039196305
125	0xbe13e165	-0.1444145
126	0x3d3ee53e	0.04660534
127	0x3dd5a1f8	0.10431284
128	0x3db9ee78	0.090786874
129	0xbd5eb490	-0.054371417
130	0x3d866cf2	0.065637484
131	0xbd136a73	-0.03599019
132	0x3b8ce610	0.0042998865
133	0xbd259cac	-0.040432617
134	0x3e9eccbb	0.31015572
135	0xbd9fca08	-0.07802206
136	0xbca778b4	-0.020443298
137	0x3d05e2a0	0.03268683
138	0xbd248409	-0.04016498
139	0x3d8c6b6f	0.06856429
140	0xbd320366	-0.043460272
141	0xb984ec8a	-0.00025353237
142	0xbd4ce0c3	-0.050019037
143	0x3d77727f	0.060411926
144	0xbe504558	-0.20338953
145	0xbde883d0	-0.11353266
146	0x3d7114eb	0.05885784
147	0xbd88682a	-0.06660493
148	0x3c7d0b58	0.015444599
149	0xbc35f764	-0.011106346
150	0xbe1a3ea2	-0.15062955
151	0xbd89fd3e	-0.06737755
152	0x3e1cd043	0.1531382
153	0xbddc630d	-0.1076108
154	0xbd21766b	-0.039419573
155	0x3cec3b33	0.028836822
156	0x3d17bd58	0.037045807
157	0xbd209fa0	-0.03921473
158	0x3d8b95a7	0.06815653
159	0x3e079d19	0.13243522
160	0x3e2672de	0.16254756
161	0xbc1f6100	-0.009727716
162	0xbdc713cd	-0.097205736
163	0x3cf70ecb	0.030158421
164	0xbd3d62cd	-0.046236802
165	0x3e490371	0.19630219
166	0xbcfc82d3	-0.0308241
167	0x3c81b280	0.015832186
168	0xbd7c5148	-0.061600953
169	0xbdf5b13f	-0.11996698
170	0xbe1d6069	-0.15368809
171	0x3e2577b6	0.16158947
172	0xbdae2193	-0.085024975
173	0xbe1c580f	-0.15267967
174	0x3e03f737	0.12887274
175	0xbe0aacf1	-0.13542534
176	0x3d1ad7a9	0.037803326
177	0x3cf73311	0.030175718
178	0xbe32812f	-0.17432092
179	0xbd5e0647	-0.054205205
180	0xbdf943ce	-0.12171136
181	0xbd07888a	-0.0330892
182	0x3dd3a77e	0.10334681
183	0xbc4d74c8	-0.01254005
184	0xbc524c05	-0.012835507
185	0xbe4a1889	-0.19735922
186	0x3cd96ca8	0.02654107
187	0xbe249425	-0.16072138
188	0xbe444aa8	-0.19169104
189	0x3d189220	0.03724873
190	0xbdcc5671	-0.09977425
191	0x3d3c738b	0.046008628
192	0x3d4b699e	0.04966127
193	0xbd1fd902	-0.039025314
194	0xbe32cc7d	-0.17460819
195	0xbd05f74e	-0.03270655
196	0xbde61d40	-0.11236048
197	0x3d91f397	0.07126539
198	0x3dde1d54	0.10845438
199	0xbd93d4a0	-0.072182894
200	0x3cfe0ae2	0.031011049
201	0xbdc39ac5	-0.09551004
202	0xbd657b41	-0.056025747
203	0xbdd3f4eb	-0.10349449
204	0x3b3e9105	0.0029078138
205	0xbbe30806	-0.0069284467
206	0x3da6766b	0.08128055
207	0xbd017ce3	-0.031613242
208	0x3dd17625	0.102276124
209	0x3ded7f11	0.115965016
210	0xbd1e3245	-0.03862216
211	0x3db8ae2d	0.090175964
212	0x3cc97508	0.024591938
213	0x3d9b04a3	0.07569244
214	0xbda2ca6f	-0.079487674
215	0x3e598297	0.21241222
216	0x3ccf20ea	0.02528425
217	0x3d84f59b	0.06492158
218	0x3ddf8c36	0.10915415
219	0x3e36ec3d	0.17863555
220	0xbd559083	-0.05213977
221	0xbe188fa7	-0.14898549
222	0x3da3c559	0.079966255
223	0xbc8d5f31	-0.017257305
224	0xbd96978b	-0.07353123
225	0xbd8c01a2	-0.06836249
226	0x3bffc322	0.007805244
227	0x3cc18703	0.023623949
228	0x3c996f9e	0.018729981
229	0x3cb63a60	0.022244632
230	0xbe228fb5	-0.15875132
231	0xbe2b3445	-0.16719158
232	0x3d95b503	0.07309916
233	0x3d9a6027	0.07537871
234	0x3d9f55f7	0.07780068
235	0x3e039cf7	0.12852846
236	0xbe983ed7	-0.29735443
237	0xbda21cec	-0.07915673
238	0xbe690432	-0.22755507
239	0x3d238ec9	0.039931092
240	0xbe132c96	-0.14372477
241	0x3d98eb0a	0.07466705
242	0xbda17d0c	-0.07885179
243	0x3ae26ece	0.0017275454
244	0xbdb85536	-0.09000628
245	0x3d56c487	0.052433517
246	0x3c85c2ed	0.0163283
247	0x3cd20b38	0.025640115
248	0xbdc2c1dc	-0.09509632
249	0xbd9ee711	-0.07758916
250	0xbd3b73f5	-0.045764882
251	0xbd76e61d	-0.060278047
252	0xbc3aed0a	-0.011409054
253	0x3d2be3ce	0.0419653
254	0xbd61d4f5	-0.055134732
255	0xbd967093	-0.073456906

lstms.1.weight_hh_l0 f4 [128, 32]
0	0xbd4cfee5	-0.050047774
1	0xbe2090df	-0.15680264
2	0x3cf687b3	0.030094003
3	0x3dd0b935	0.101915754
4	0x3d904c46	0.07045798
5	0x3c82e134	0.015976526
6	0x3e0d7112	0.13812664
7	0xbdd5d93f	-0.10441827
8	0x3ddf4398	0.10901564
9	0xbb8986c0	-0.0041969717
10	0xbc180b1f	-0.009279995
11	0x3e16fa2b	0.14743869
12	0x3d87f5c3	0.06638672
13	0xbcfedb61	-0.031110467
14	0x3cabf81c	0.020992331
15	0x3d88fe83	0.06689169
16	0x3e7abe86	0.24486741
17	0xbc997875	-0.018734196
18	0x3a1b34f2	0.000592067
19	0xbdf0b370	-0.11752975
20	0xbe04a04f	-0.12951778
21	0x3db520ef	0.08844172
22	0x3d043bd8	0.032283634
23	0xbddb4ff6	-0.10708611
24	0xbad50470	-0.0016251933
25	0x3d829699	0.063763805
26	0xbcf56f83	-0.0299604
27	0xbcf33414	-0.029687919
28	0x3e5014b6	0.203204
29	0xbd4c37c0	-0.049857855
30	0xbd994b57	-0.07485073
31	0x3dbaace1	0.09115005
32	0x3de890fc	0.113557786
33	0xbc93278f	-0.017963199
34	0x3dd14ead	0.10220084
35	0x3d334cc6	0.04377439
36	0xbd319be8	-0.043361574
37	0x3e413466	0.18867645
38	0x3d1124d3	0.03543551
39	0xbe1cba3d	-0.1530542
40	0x3cb3916f	0.021919934
41	0xbe543a67	-0.20725404
42	0x3c57eec8	0.0131794885
43	0x3d446ae7	0.047953513
44	0xba051a4d	-0.00050774665
45	0xbdb6295f	-0.0889461
46	0x3c090b82	0.00836456
47	0xbe846934	-0.25861514
48	0xbe31900c	-0.17340106
49	0x3e1e0089	0.15429892
50	0x3e1d2936	0.15347752
51	0xbe103128	-0.14081252
52	0x3d63f8cc	0.055657193
53	0x3d2bf6d8	0.041983455
54	0x3c14d2a2	0.009083422
55	0x3d284436	0.041080676
56	0x3dd98745	0.10621504
57	0xbe59d55b	-0.21272795
58	0xbd765d01	-0.06014729
59	0xbdb67476	-0.08908932
60	0x3d8fb346	0.070166156
61	0xbe744d5a	-0.23857632
62	0x3e20ee20	0.15715837
63	0xbd92e82b	-0.07173189
64	0xbdc4743e	-0.09592484
65	0x3da92210	0.0825845
66	0xbd224655	-0.039617855
67	0xbe0c2db5	-0.13689311
68	0x3de21dfc	0.11040875
69	0xbe1f3822	-0.15548757
70	0xbe577b59	-0.21043147
71	0x3e34accf	0.17644046
72	0x3db8418a	0.089968756
73	0x3dc27a06	0.094959304
74	0xbcedf451	-0.029047163
75	0x3c1b2ead	0.009471578
76	0xbb01f867	-0.0019831897
77	0xbe87d05c	-0.26526153
78	0x3c7f007f	0.015564083
79	0xbe892907	-0.26789114
80	0x3d78c98b	0.06073908
81	0xbcdef6c1	-0.02721727
82	0x3e17eac4	0.1483565
83	0xbe4731e0	-0.1945262
84	0x3d095c7e	0.033535473
85	0x3d13ac49	0.036052976
86	0xbd6011b3	-0.05470438
87	0xbd6c2850	-0.057655632
88	0x3c968f6d	0.018378938
89	0x3ea98abd	0.3311366
90	0xbc29c484	-0.010361794
91	0xbdc1f7a6	-0.09471063
92	0x3dfad71f	0.12248062
93	0xbd821c4d	-0.06353054
94	0x3dfa02ea	0.12207587
95	0x3ce510cd	0.027962113
96	0xbe0d8113	-0.13818769
97	0xbdf0d358	-0.117590606
98	0x3db1d767	0.08683663
99	0xbe577af1	-0.21042992
100	0xbdefbdb0	-0.11706102
101	0xbde1ad03	-0.110193275
102	0x3d6699b2	0.05629892
103	0xbdea9ed3	-0.114560746
104	0xbdddfb3d	-0.108389355
105	0xbe470670	-0.1943605
106	0x3de55556	0.11197917
107	0xbde055ad	-0.10953841
108	0x3b1a43c4	0.0023538927
109	0x3d99c671	0.07508553
110	0x3da5cd58	0.08095807
111	0xbe266a20	-0.16251421
112	0xbe122ee5	-0.14275701
113	0xbe29abe6	-0.1656948
114	0xbd837426	-0.06418638
115	0x3e15c44f	0.14625667
116	0x3db003ae	0.08594452
117	0x3c629436	0.013829282
118	0xbad907d8	-0.0016558124
119	0x3e458dc6	0.19292364
120	0x3e3ecb3e	0.18632218
121	0xbd7c09b7	-0.061532702
122	0xbe2ae021	-0.16687061
123	0xbd8e0f1b	-0.06936475
124	0xbddb2e47	-0.10702186
125	0x3dbed17d	0.093173005
126	0x3e6f3246	0.23359022
127	0x3d5cd9d3	0.05391867
128	0xbdd9327d	-0.10605333
129	0xbd6dc818	-0.058052152
130	0xbbdaf9b5	-0.0066825994
131	0x3d190b1d	0.037364114
132	0x3d221817	0.039573755
133	0x3d59de2c	0.053190395
134	0xbdbf7c01	-0.09349824
135	0x3e300087	0.17187701
136	0x3b9c73f2	0.004774564
137	0x3c3df557	0.011594138
138	0xbde8b0c7	-0.113618426
139	0x3d93a888	0.07209879
140	0xbd90e044	-0.07074025
141	0xbc8f8f2d	-0.017524326
142	0x3cd55571	0.026041718
143	0xbe10fa60	-0.1415801
144	0x3e5d29f3	0.21598034
145	0x3d0689af	0.03284615
146	0x3ddc29d4	0.107501656
147	0xbe98c84c	-0.29840314
148	0xbd24940f	-0.040180262
149	0xbe22f44e	-0.15913507
150	0x3dbe4703	0.09290888
151	0x3ca88631	0.0205718
152	0xbcfb188f	-0.030651359
153	0x3dce19cd	0.10063515
154	0xbc492e1a	-0.012279058
155	0x3e493aa3	0.19651274
156	0xbe0190a0	-0.12652826
157	0xba3ec950	-0.00072779227
158	0xbc696f6b	-0.0142477555
159	0x3e0d029a	0.13770524
160	0x3df55682	0.11979391
161	0xbc82bb2c	-0.015958391
162	0xb71d7d73	-9.387138e-06
163	0x3e53e06d	0.2069108
164	0x3d5106d7	0.051031914
165	0x3d753a43	0.059870016
166	0x3e7a305c	0.2443251
167	0xbe35a0d6	-0.17737135
168	0x3df0ab07	0.11751371
169	0xbcee1772	-0.029063914
170	0xbdad0aa3	-0.084492944
171	0x3d41780f	0.047233637
172	0xbc724e1b	-0.01478913
173	0x3ccfb81d	0.025356347
174	0x3ca00bd2	0.019536886
175	0xbb280a0e	-0.0025640759
176	0xbd428b85	-0.047496337
177	0xbd51ff15	-0.051268656
178	0xbc6d13ff	-0.0144700995
179	0x3ddb3cf5	0.10704986
180	0xbd8ed24d	-0.069737054
181	0xbdaeb97d	-0.08531473
182	0x3e073959	0.1320547
183	0xbc1d4ff6	-0.009601584
184	0x3e34a51b	0.17641108
185	0x3d97e2a0	0.07416272
186	0x3e186b05	0.14884575
187	0x3df25300	0.11832237
188	0x3cfb1526	0.030649733
189	0xbda0107e	-0.07815646
190	0xbe15ccac	-0.14628857
191	0x3e442f6e	0.19158718
192	0x3c8fa351	0.01753393
193	0xbd53b815	-0.051689226
194	0x3dfa5b42	0.12224437
195	0x3c1a53fa	0.009419436
196	0xbcf66f7c	-0.030082457
197	0x3bf411c3	0.0074484064
198	0xbdc4a474	-0.096016794
199	0xbd04a600	-0.032384872
200	0x3e33002b	0.17480533
201	0x3e20dddd	0.15709634
202	0x3d868203	0.065677665
203	0xbddcff07	-0.1079083
204	0x3e494b72	0.19657686
205	0x3e66046f	0.22462629
206	0xbe5d2892	-0.21597508
207	0xbccc337e	-0.024926897
208	0x3c828150	0.015930802
209	0x3db3750f	0.087625615
210	0xbdcb8a06	-0.09938435
211	0xbc941572	-0.018076632
212	0xbd4697aa	-0.048484482
213	0xbcd55d9a	-0.02604561
214	0x3dc47e75	0.09594432
215	0xbd051dfc	-0.0324993
216	0x3d43ae06	0.047773384
217	0x3daefaf7	0.085439615
218	0xbc03599d	-0.008016971
219	0x3c316f42	0.010829749
220	0x3ddfaaff	0.10921287
221	0x3d3c942d	0.04603975
222	0xbe4f48ea	-0.20242658
223	0x3c8dd821	0.017314972
224	0x3d97028d	0.073735334
225	0x3e461ff5	0.19348128
226	0x3e341b14	0.17588454
227	0x3e006e86	0.12542161
228	0xbd6e1e12	-0.058134146
229	0xbcdd50f5	-0.027016142
230	0x3daff041	0.08590747
231	0x3cdafe57	0.026732607
232	0x3d0642f1	0.032778684
233	0x3dc5525f	0.09634852
234	0x3d5164a4	0.05112137
235	0x3d0fbbe1	0.035091285
236	0xbc767d88	-0.015044577
237	0xbda84288	-0.08215815
238	0x3e111f21	0.14172031
239	0x3da471db	0.08029529
240	0xbe172c06	-0.14762887
241	0x3d5c29ca	0.05375079
242	0x3df9cf84	0.121977836
243	0x3e085f85	0.13317688
244	0xbdb0ca44	-0.08632329
245	0xbe43555e	-0.19075534
246	0x3e0c8cac	0.13725537
247	0x3d98a7fc	0.074539155
248	0xbe07517b	-0.13214676
249	0xbe1bd633	-0.1521843
250	0xbc4e3188	-0.012585051
251	0x3d8d5de9	0.069026776
252	0xbd982191	-0.07428277
253	0x3e415b76	0.18882546
254	0x3d16a3d5	0.036777336
255	0x3d031118	0.031998724

lstms.1.bias_ih_l0 f4 [128]
0	0x380b4215	3.3201726e-05
1	0x38cea5fb	9.853762e-05
2	0x399d5df0	0.00030015362
3	0x390b2db2	0.00013273096
4	0x3a1ecb03	0.0006057473
5	0xb8bb64e2	-8.935646e-05
6	0xb7800940	-1.5263096e-05
7	0x3a0c808c	0.0005359731
8	0xb9016944	-0.00012341613
9	0xb7db0c7a	-2.6112644e-05
10	0xb7801e66	-1.5272944e-05
11	0x37d34ec5	2.518984e-05
12	0x36b9885c	5.529304e-06
13	0x38c16d0c	9.223269e-05
14	0x389f5591	7.597649e-05
15	0x39aa15cc	0.00032441167
16	0x37914994	1.731961e-05
17	0xb9c230bf	-0.00037038882
18	0x37f3a50c	2.9044713e-05
19	0xb9748215	-0.00023318113
20	0xb9c471c5	-0.00037468798
21	0x37abd3db	2.0483441e-05
22	0x396640be	0.00021958628
23	0x384b1273	4.8416154e-05
24	0xb9150cfc	-0.00014214584
25	0xb9950602	-0.0002842397
26	0x36d4eea4	6.3458738e-06
27	0x398219da	0.00024814793
28	0xb6e2d952	-6.7606243e-06
29	0xb8b336d8	-8.5456006e-05
30	0x392e068a	0.00016596369
31	0x3a1ee962	0.00060619984
32	0x3807ac38	3.23469e-05
33	0x38cb325a	9.689173e-05
34	0x399c9aa9	0.0002986987
35	0x390cfce1	0.00013445645
36	0x3a1a917c	0.00058963127
37	0xb8b75b1f	-8.7430926e-05
38	0xb774812a	-1.4573607e-05
39	0x3a09208f	0.0005230987
40	0xb901d26d	-0.00012380788
41	0xb7dbe129	-2.6211683e-05
42	0xb77e63f0	-1.5162848e-05
43	0x37d9e98c	2.597717e-05
44	0x36b69158	5.440943e-06
45	0x38c5a0dc	9.4236544e-05
46	0x389beb54	7.434809e-05
47	0x39addd79	0.0003316214
48	0x37862acc	1.5993974e-05
49	0xb9bb6868	-0.00035745208
50	0x37fc826c	3.0101473e-05
51	0xb97104f0	-0.0002298539
52	0xb9c5e938	-0.0003774853
53	0x37a8cfbc	2.0123895e-05
54	0x3965b6a9	0.00021907188
55	0x384aed8d	4.838179e-05
56	0xb9150830	-0.00014212797
57	0xb993bca5	-0.00028178576
58	0x36d1aebd	6.2490276e-06
59	0x397caddc	0.0002409736
60	0xb6e148de	-6.7140054e-06
61	0xb8b175f7	-8.4619904e-05
62	0x392ab0eb	0.0001627837
63	0x3a1e024c	0.0006027564
64	0x3b13fb7c	0.0022580316
65	0x3a8d444d	0.0010777802
66	0x3bab62d7	0.0052302885
67	0xbbd87f3c	-0.0066069644
68	0x3bbe54e3	0.005808459
69	0x3c0e3ebd	0.00868195
70	0x3b4949b1	0.003071409
71	0x3c2e12e2	0.010624619
72	0x3bacb1ab	0.005270203
73	0x3b94f110	0.0045453385
74	0x3a2f29f0	0.00066819694
75	0xb99e6a83	-0.00030215466
76	0xbb9b4106	-0.004737976
77	0xbb44c193	-0.0030022606
78	0x3c2c4511	0.010514514
79	0x3c07ad91	0.008281128
80	0xbb98c540	-0.004662186
81	0xbb6512fe	-0.0034953947
82	0x3b62a8b9	0.003458543
83	0xbbc4737e	-0.005995213
84	0x3bd7659a	0.006573391
85	0x3a3aa426	0.0007119797
86	0x3b9a226a	0.0047038095
87	0x3b302644	0.0026878277
88	0xbb8fe9c1	-0.0043918793
89	0xbc055134	-0.008137036
90	0x340dc9cf	1.3205066e-07
91	0x3baa6210	0.0051996782
92	0xbaa4978d	-0.0012557373
93	0x3acda26e	0.0015688667
94	0x3b7b4eb8	0.003834648
95	0x3c063f29	0.0081937695
96	0x38094f21	3.273704e-05
97	0x38c85e88	9.554351e-05
98	0x39a28d01	0.00031004104
99	0x3909f185	0.00013155311
100	0x3a1d2d74	0.0005995848
101	0xb8ba3124	-8.878324e-05
102	0xb77bc423	-1.50064325e-05
103	0x3a05822d	0.0005092945
104	0xb90228cd	-0.00012412966
105	0xb7dc5d19	-2.6269396e-05
106	0xb77e6fcb	-1.5165609e-05
107	0x37d8fd7a	2.586724e-05
108	0x3698704f	4.5430274e-06
109	0x38c9dab1	9.625161e-05
110	0x389fdd63	7.622947e-05
111	0x39a728ec	0.0003188321
112	0x37a079b1	1.9130153e-05
113	0xb9bd35d9	-0.0003608901
114	0x37f041ca	2.8640865e-05
115	0xb974e28a	-0.00023354046
116	0xb9c53764	-0.00037616037
117	0x37ae3b16	2.076993e-05
118	0x3966bf7c	0.00022005843
119	0x38488769	4.7809826e-05
120	0xb916c282	-0.00014377575
121	0xb994bab7	-0.00028367873
122	0x36d1bf0a	6.2509253e-06
123	0x397ed35c	0.00024302065
124	0xb6e3e7bc	-6.7921046e-06
125	0xb8b1c741	-8.4771316e-05
126	0x392b2cd2	0.00016324528
127	0x3a1f256f	0.00060709467

lstms.1.bias_hh_l0 f4 [128]
0	0x380b4215	3.3201726e-05
1	0x38cea5fb	9.853762e-05
2	0x399d5df0	0.00030015362
3	0x390b2db2	0.00013273096
4	0x3a1ecb03	0.0006057473
5	0xb8bb64e2	-8.935646e-05
6	0xb7800940	-1.5263096e-05
7	0x3a0c808c	0.0005359731
8	0xb9016944	-0.00012341613
9	0xb7db0c7a	-2.6112644e-05
10	0xb7801e66	-1.5272944e-05
11	0x37d34ec5	2.518984e-05
12	0x36b9885c	5.529304e-06
13	0x38c16d0c	9.223269e-05
14	0x389f5591	7.597649e-05
15	0x39aa15cc	0.00032441167
16	0x37914994	1.731961e-05
17	0xb9c230bf	-0.00037038882
18	0x37f3a50c	2.9044713e-05
19	0xb9748215	-0.00023318113
20	0xb9c471c5	-0.00037468798
21	0x37abd3db	2.0483441e-05
22	0x396640be	0.00021958628
23	0x384b1273	4.8416154e-05
24	0xb9150cfc	-0.00014214584
25	0xb9950602	-0.0002842397
26	0x36d4eea4	6.3458738e-06
27	0x398219da	0.00024814793
28	0xb6e2d952	-6.7606243e-06
29	0xb8b336d8	-8.5456006e-05
30	0x392e068a	0.00016596369
31	0x3a1ee962	0.00060619984
32	0x3807ac38	3.23469e-05
33	0x38cb325a	9.689173e-05
34	0x399c9aa9	0.0002986987
35	0x390cfce1	0.00013445645
36	0x3a1a917c	0.00058963127
37	0xb8b75b1f	-8.7430926e-05
38	0xb774812a	-1.4573607e-05
39	0x3a09208f	0.0005230987
40	0xb901d26d	-0.00012380788
41	0xb7dbe129	-2.6211683e-05
42	0xb77e63f0	-1.5162848e-05
43	0x37d9e98c	2.597717e-05
44	0x36b69158	5.440943e-06
45	0x38c5a0dc	9.4236544e-05
46	0x389beb54	7.434809e-05
47	0x39addd79	0.0003316214
48	0x37862acc	1.5993974e-05
49	0xb9bb6868	-0.00035745208
50	0x37fc826c	3.0101473e-05
51	0xb97104f0	-0.0002298539
52	0xb9c5e938	-0.0003774853
53	0x37a8cfbc	2.0123895e-05
54	0x3965b6a9	0.00021907188
55	0x384aed8d	4.838179e-05
56	0xb9150830	-0.00014212797
57	0xb993bca5	-0.00028178576
58	0x36d1aebd	6.2490276e-06
59	0x397caddc	0.0002409736
60	0xb6e148de	-6.7140054e-06
61	0xb8b175f7	-8.4619904e-05
62	0x392ab0eb	0.0001627837
63	0x3a1e024c	0.0006027564
64	0x3b13fb7c	0.0022580316
65	0x3a8d444d	0.0010777802
66	0x3bab62d7	0.0052302885
67	0xbbd87f3c	-0.0066069644
68	0x3bbe54e3	0.005808459
69	0x3c0e3ebd	0.00868195
70	0x3b4949b1	0.003071409
71	0x3c2e12e2	0.010624619
72	0x3bacb1ab	0.005270203
73	0x3b94f110	0.0045453385
74	0x3a2f29f0	0.00066819694
75	0xb99e6a83	-0.00030215466
76	0xbb9b4106	-0.004737976
77	0xbb44c193	-0.0030022606
78	0x3c2c4511	0.010514514
79	0x3c07ad91	0.008281128
80	0xbb98c540	-0.004662186
81	0xbb6512fe	-0.0034953947
82	0x3b62a8b9	0.003458543
83	0xbbc4737e	-0.005995213
84	0x3bd7659a	0.006573391
85	0x3a3aa426	0.0007119797
86	0x3b9a226a	0.0047038095
87	0x3b302644	0.0026878277
88	0xbb8fe9c1	-0.0043918793
89	0xbc055134	-0.008137036
90	0x340dc9cf	1.3205066e-07
91	0x3baa6210	0.0051996782
92	0xbaa4978d	-0.0012557373
93	0x3acda26e	0.0015688667
94	0x3b7b4eb8	0.003834648
95	0x3c063f29	0.0081937695
96	0x38094f21	3.273704e-05
97	0x38c85e88	9.554351e-05
98	0x39a28d01	0.00031004104
99	0x3909f185	0.00013155311
100	0x3a1d2d74	0.0005995848
101	0xb8ba3124	-8.878324e-05
102	0xb77bc423	-1.50064325e-05
103	0x3a05822d	0.0005092945
104	0xb90228cd	-0.00012412966
105	0xb7dc5d19	-2.6269396e-05
106	0xb77e6fcb	-1.5165609e-05
107	0x37d8fd7a	2.586724e-05
108	0x3698704f	4.5430274e-06
109	0x38c9dab1	9.625161e-05
110	0x389fdd63	7.622947e-05
111	0x39a728ec	0.0003188321
112	0x37a079b1	1.9130153e-05
113	0xb9bd35d9	-0.0003608901
114	0x37f041ca	2.8640865e-05
115	0xb974e28a	-0.00023354046
116	0xb9c53764	-0.00037616037
117	0x37ae3b16	2.076993e-05
118	0x3966bf7c	0.00022005843
119	0x38488769	4.7809826e-05
120	0xb916c282	-0.00014377575
121	0xb994bab7	-0.00028367873
122	0x36d1bf0a	6.2509253e-06
123	0x397ed35c	0.00024302065
124	0xb6e3e7bc	-6.7921046e-06
125	0xb8b1c741	-8.4771316e-05
126	0x392b2cd2	0.00016324528
127	0x3a1f256f	0.00060709467

fc.weight f4 [1, 32]
0	0xbbcf55bf	-0.0063273604
1	0xbc481e45	-0.012214248
2	0xbdea5824	-0.11442593
3	0x3e0778b9	0.13229646
4	0xbe3d69bb	-0.18497364
5	0xbe11d049	-0.1423961
6	0xbd5f8a36	-0.054575168
7	0xbe303334	-0.17207032
8	0xbdfd9e0e	-0.12383662
9	0xbcba531d	-0.02274471
10	0x3c53317e	0.012890218
11	0xbae054b0	-0.0017115083
12	0x3db9ddb5	0.090754904
13	0x3dc8c507	0.09803205
14	0xbe17f4e3	-0.1483951
15	0xbe2955b0	-0.16536593
16	0x3de6ae52	0.11263718
17	0x3d523810	0.051322997
18	0xbdb85919	-0.09001369
19	0x3e01e27f	0.12684058
20	0xbdb0e7e3	-0.08637979
21	0xbd0c56ff	-0.034262653
22	0xbda32e49	-0.079678126
23	0xbcaf3520	-0.021387637
24	0x3d92eaa8	0.071736634
25	0x3e19eeaa	0.1503245
26	0xbd323642	-0.043508776
27	0xbdf6db7a	-0.120535806
28	0x3cf332ea	0.029687364
29	0x3cef45ae	0.02920803
30	0xbd644d0b	-0.055737536
31	0xbdeaa5f7	-0.114574365
