labs/models/JPY/7_64_64_64.pth (torch, 339563 bytes, 13 tensors)

lstms.0.weight_ih_l0 f4 [256, 1]
00000000: aef2 a8bd 1965 943d 3aea 0a3e 3a52 a7bd
00000010: fe48 123d ac26 e3bd ca08 02be d99e 01be
00000020: 980e 723e 6cdc 0ebe b484 383c 6a5c 8fbd
00000030: dc13 23bd ff63 5bbd 2f2e bb3d d8b0 9a3d
00000040: 7510 3fbd 5596 003d ea22 b03d 7c77 febd
00000050: 5586 9cbd 37a3 0d3e d7d0 88bd db74 003d
00000060: 0656 153c aa5a 0c3d 975f 28be 0a2e 913d
00000070: 98e7 fe3b 1a23 cdbc 135f 83bd da53 f3bb
00000080: ab39 23bd 56cd df3c 59c1 9b3c c31b 8dbd
00000090: ae26 aebb 3284 b53d 6ea3 0a3e ffb2 8f3c
000000a0: c0a7 c73d bcc1 873d 9812 5e3a 20a4 7e3c
000000b0: d628 2fbc 451d e5bc ab62 2b3e ef7e d33c
000000c0: cdbc 5d3d 0977 c33d 877c c33c 4bb9 b33c
000000d0: ec7b a7bd ef5d b63d 4514 ca3b 83cb 4cbd
000000e0: 2269 bfbc 0324 613c 288b ecbc b7a0 603d
000000f0: ed63 f83c de3e 603d 0c99 0a3d 6373 d63b
00000100: b302 95bd 64a4 fdba 42d9 cc3d cf25 f33b
00000110: b4f3 8a3d 252c 2bbd be5b bc3d da09 ccbd
00000120: 5b9f 60bd 860f 3bbd 353e d8bd 7d9a 5ebc
00000130: a56b fabd 5cea 88bd ff16 073d cbc8 69bd
00000140: 561b 42be 4d57 003d 2df7 753d b76c 7c3d
00000150: 30aa 0cbe a397 353e c47a eebc 378a 66bd
00000160: e457 303e ee29 e13c 2968 7fbd 91c8 40bb
00000170: c726 503d 8a0b c13c 9fe5 b3ba fbcd a5bd
00000180: e4ad 8fbd b5a5 dd3d 05f9 e73d af9d 173d
00000190: 6e1b 3d3d 36b9 9c3d 8989 1d3d 887c 433d
000001a0: 1b4c 903d 63c4 53be c5a1 243e a2c2 53bd
000001b0: 8fa9 0c3c 63c2 053c 2529 e2bb 3105 6cbc
000001c0: e650 c2bd aa41 533e c31e 993d 6f14 433d
000001d0: e0bf 383d 5549 2fbd ff0f 0cbd a072 d5bd
000001e0: bba9 de3d b693 c8bc 1f9a 8cbd 125d 633e
000001f0: 94e0 ba3d 0486 a2bb a9ce 14be 2cb7 69bd
00000200: a591 e5bd 289f 463d 1d4f 28be 23ce ec3d
00000210: e81b 3fbd 78f1 0dbe 0c62 b7bc 93e2 a03d
00000220: 1552 d33d 5e08 d6bd 6ec0 143d 6230 783e
00000230: 7aa9 623d 4b26 33bd 3460 32be 45e6 f93d
00000240: 6ca0 b8bd 3b8d c13d 7dfb c5bd 05d6 f1bd
00000250: 3421 203e 011c ac3c dfc3 e53d a664 563d
00000260: cf1b d63d 1da8 2abe fa09 1c3e 3cd2 4bbe
00000270: 5166 663d 492d 1fbe 8687 4bbe f3bd 2f3d
00000280: c82d ba3c 51c6 e0bd d4a7 fdbb 7270 2bbc
00000290: 9d6c f6bd 7c0b 3bbd 309a a63d 431b f0bd
000002a0: 04fe 7a3c 5ae6 fd3d 3c9e 8abc 11f5 313e
000002b0: 4a10 683d e8fc 11be 1529 c9bd 4d6a bebc
000002c0: d4ef 103d b866 4fbc 6c43 093d 5037 9abd
000002d0: c63c b23d c5c7 7b3d e04d 7ebe b710 c73c
000002e0: b5e1 4abc 271f 363e 13f0 e03d 311c 6fbd
000002f0: eba0 55bd 24ab 52bd b5b8 023e 0d5e 983d
00000300: 59e4 773d 643d 13be 4685 1a3e 65c4 443d
00000310: fe62 60bd 3103 9fbd ce2e 773c 721c cd3d
00000320: 9343 ff3b d910 18bd 537a 843d 5137 0a3d
00000330: 70e2 49bd 29d4 1e3e 49b5 05be 043d cf3c
00000340: a10b e7bc 6be1 c53d 74ad a4bc f7d9 a13d
00000350: 8910 7c3d 0fea 28be 7883 43bd 43a6 203c
00000360: 5cac db3c 0f3f 943d 4324 033d 936e 1c3e
00000370: debc 173e 4c2b bbbd a155 3d3d 5a89 753d
00000380: 434e 89bb 29dd edbc 946c aabd 71ae ffbd
00000390: 9048 83bd 3cdb 103e 543f ee3d 2b51 8abd
000003a0: 521e 3fbe 0a18 003e 7499 d33d 3210 b8bd
000003b0: 3e14 b63c 8726 12bd 4556 243d 62b3 613c
000003c0: 6397 353d 37d6 023c 1ad2 0dbe 1d23 883e
000003d0: 6ae3 803d 711e c9bd 96ee 9fbd 6f4b d0bd
000003e0: 7202 95bd 3af1 943d 69b2 ec3d dcf3 533e
000003f0: 1aba cd3c 5c7e f3bc 5abc efbd c7f4 52be
-0.082494125 0.07245845 0.13565913 -0.0816998 0.035714142 -0.110913604 -0.12698665 -0.12658252
0.2363838 -0.13951272 0.011262108 -0.070000485 -0.03981386 -0.05356216 0.09139668 0.075532615
-0.046646554 0.031393368 0.08600409 -0.124251336 -0.07642809 0.13831793 -0.06680458 0.031361442
0.009114748 0.03426615 -0.16442715 0.070888594 0.007779073 -0.025041152 -0.06414618 -0.0074257674
-0.03984992 0.027319591 0.019013094 -0.06890061 -0.0053146696 0.08863105 0.13538906 0.017541407
0.09748793 0.06628749 0.00084713986 0.01554206 -0.010690888 -0.027968058 0.16736858 0.025817363
0.054135133 0.095441885 0.02386309 0.02193894 -0.08177933 0.08904635 0.006166967 -0.04999877
-0.02336556 0.013741496 -0.028874949 0.05484077 0.030321086 0.054747455 0.033837363 0.006544517
-0.072759055 -0.001935136 0.10002376 0.0074202786 0.06784764 -0.041790146 0.09197186 -0.099628165
-0.054839473 -0.0456691 -0.1055874 -0.013586638 -0.12227563 -0.066853255 0.032980915 -0.057076257
-0.1895574 0.031333257 0.06005018 0.061627116 -0.13736796 0.17733626 -0.029111274 -0.056284156
0.17221028 0.027485814 -0.062355194 -0.0029416422 0.05081823 0.023565073 -0.0013725049 -0.08095928
-0.07015589 0.10822622 0.113267936 0.037015613 0.046168737 0.07652514 0.038461242 0.047726184
0.07045766 -0.20680384 0.16077335 -0.05169929 0.008585348 0.008164021 -0.0069018775 -0.014405535
-0.094880864 0.20630518 0.074765705 0.04762691 0.04510486 -0.042794544 -0.034194943 -0.104222536
0.10872217 -0.024484497 -0.06865334 0.22203472 0.09124866 -0.0049598236 -0.1453196 -0.057059452
-0.1120942 0.048491627 -0.1643643 0.11562755 -0.046657473 -0.13861644 -0.02238562 0.078557156
0.1031839 -0.10450815 0.036316328 0.24237207 0.055337407 -0.04373769 -0.17419511 0.122021236
-0.09014973 0.09450766 -0.09667108 -0.11808399 0.15637666 0.021009447 0.11219 0.05234208
0.10454523 -0.16665693 0.15238181 -0.19904417 0.05624992 -0.15544619 -0.19875917 0.04290576
0.022726908 -0.10975326 -0.007740954 -0.010463821 -0.12032435 -0.04566525 0.08134878 -0.1172395
0.015319351 0.12397452 -0.016921155 0.17378642 0.05665616 -0.14256632 -0.09822289 -0.023244048
0.035384968 -0.012658767 0.033511564 -0.07530081 0.08702998 0.061469812 -0.24834394 0.024299962
-0.012382914 0.17785321 0.109832905 -0.058376495 -0.052155416 -0.051432744 0.12765773 0.07439814
0.060520504 -0.14378887 0.15089902 0.04803886 -0.054781906 -0.077642806 0.015086843 0.10015191
0.007790038 -0.037125442 0.06468644 0.03374416 -0.049288213 0.1551062 -0.13057436 0.02529765
-0.028203787 0.09662136 -0.02010224 0.079029016 0.061539207 -0.16495536 -0.0477328 0.009805265
0.026815586 0.0723859 0.032017004 0.15276556 0.14818141 -0.091391176 0.04622424 0.05994544
-0.0041902377 -0.029036121 -0.08321491 -0.12484444 -0.064103246 0.14146131 0.11633173 -0.06753763
-0.1866391 0.1250917 0.10332003 -0.08987464 0.02222645 -0.035681274 0.040121336 0.013775678
0.044333827 0.007985643 -0.13849679 0.2658929 0.06293376 -0.09820259 -0.078091785 -0.10170638
-0.07275857 0.07272573 0.115574665 0.20698494 0.025113154 -0.029723339 -0.11705847 -0.20601188

lstms.0.weight_hh_l0 f4 [256, 64]
00000000: 9d14 9cbd 52e0 1ebc 4baf aebd c10d c23d
00000010: 3036 0c3d bcbc 903c 88ad a43a 147d b6bd
00000020: f4a4 66bd 530d 79bc 7e3c 2a3d 2b8f e3bd
00000030: 088e 93bc 7c0a 74bd 38d9 543d 1a54 2e3d
00000040: 8a3e 49bd 8430 8dbd 74f2 d83b a94c 48bd
00000050: 06fc b8bd 62e5 7b3d 1c7b babc e68a eebd
00000060: 6e45 3abd 1c8e 67bd 35a6 803c 7032 7fbd
00000070: f3dc acbd 4147 893d 29ba 083d f717 d33d
00000080: 1150 10bd 3c3e aabd a6e7 b53b ff35 f83c
00000090: 9ecf ac3d dfd3 7ebd 9b3f 563d e1e6 e73d
000000a0: 1dd3 88bd caa4 4b3d 26de 0d3b 9287 04be
000000b0: 3daf bfbd 24e8 693c 8b54 2c3e 34b5 08bd
000000c0: a00e d1bb c272 02bd 050c ce3b a99e f1bd
000000d0: ce6c f63d 615e 7d3d b56a b23c 8e2d 50bd
000000e0: 2eee 73bd 3d2b 9c3c 35b7 c139 9bbc acbb
000000f0: 4b6e 803d 4ba1 2d3d dc31 42bd 8fe8 02be
00000100: 85eb 6cbc 86ab 24bc b3d8 3bbd bd63 05bc
00000110: dea2 c9bc 5431 a93d d559 67bd fbfa 7ebd
00000120: e667 203e ce87 a73d 5c33 f6bd 43b1 18be
00000130: cd1a 9dbd 6251 7e3c 1ba7 6c3d 4530 11bd
00000140: 2c4a 283d 8040 91bd e400 b3bd 6fa0 0a3d
00000150: a14a 0fbb f837 2cbe 36f5 5e3d 95bb 863d
00000160: 33f0 3e3d ce59 e2bc a25d 84bd b524 bf3d
00000170: f31e 04bc 3ed4 043d 3437 e23b c70b a23c
00000180: 2506 24bd d98c a53d 3dec 8bbd 7680 3d3d
00000190: a093 343d 3d74 dc3d bfd3 fe3d 4b1b 883d
000001a0: 4010 50bd 3575 233d 6be2 8c3d 68c7 8ebd
000001b0: a92d b2bd 34c2 933d 3044 ae3b 8bf3 71bc
000001c0: ef1e 11bd cdfb 1d3d 1785 4ebd 606f 12be
000001d0: b86c 093c 3e43 71bc be64 463d 6235 02bd
000001e0: ada0 19bd 566f aa3d 5e38 283e c629 88bd
000001f0: c4c3 90bd 070c 173e e693 983c 28a2 f1bd
00000200: 4518 98bd 2b77 d63c 00cf 2fb6 8e3d 013e
00000210: d3e0 e8bc 66fb a83b 9fa5 a8bd 1ce1 52ba
00000220: c388 813d 7169 85bd a9ae 973d 8a7f 6cbd
00000230: a809 f63d 4047 07bd 432e 43be b12b fc3d
00000240: a464 2bbe c416 e43c 7ce8 9abd 61b1 d5bd
00000250: 9ace a03d d320 d63c 46d0 df3d 6681 d83c
00000260: 9701 1e3d f281 80bd 31a9 4e3d 8d5f fabd
00000270: 7089 bdbc e9ec 9bbd 9ed2 39be a3c1 a1bd
00000280: 91d1 debc edc3 06be 8e26 603c be23 cf3d
00000290: eb8f 75bd 01ca 08bd 8b97 c83b f800 22be
000002a0: 66c7 9d3d 25f5 db3d 2342 ccbc 2036 393c
000002b0: cf27 d13d b8e0 02be b863 3cbe df55 67bd
000002c0: 78d1 d73d 64fc ff3d c13f 1b3c 051d efbd
000002d0: 2e63 ab3c 71b9 61bc 15bd 30bd a1d2 e93c
000002e0: 5210 e6bd 5955 bc3d d10f 0ebb 0d0c 10be
000002f0: 7a0d 863d 4b7b 39bd 3514 eb3d 6918 fc3d
00000300: a345 933d e596 963d 155e 89bd 181d 54be
00000310: 1555 1dbd ede3 4a3c dee9 efbc c8ac 2cbd
00000320: 5d35 943d 6033 023e f3ec efbc fc30 4c3e
00000330: 7fb0 31bd 6315 573e 3c19 113e f9f0 93bb
00000340: 2ecc 8d3c cdb9 723c c35f b5bd 6bca 34bd
00000350: b1b4 c8bc 9fc3 a33d d1f6 fc3d a9d1 2ebd
00000360: 216c febc 6cf5 343d 5a69 acbd 33f9 183d
00000370: 2584 b8bd cc7a 953d 824b 983d 3bba 3dbc
00000380: 30ef 3dbe fcae 6dbd de98 f7bc a8b0 bfbd
00000390: 9ef5 fa3d 82e5 1fbd d41f 28bd 5430 bc3c
000003a0: b941 163d ab08 793d 9bdb b73d aa1b 743d
000003b0: 24d3 093c 63c2 0e3e 0fb5 49bc 88a5 253d
000003c0: ca45 0ebd 800a 953d 6f55 5a3c 160c 11bd
000003d0: f50a 203e 04c4 953d be6f d5bd b221 b5bc
000003e0: ad52 b33d c2ab e3b9 a424 4fbc 4118 e43d
000003f0: f1b9 d2bd e805 83be 733b 89bd ece5 523d
-0.07621119 -0.009697037 -0.08529528 0.094752796 0.034231365 0.01766812 0.0012563923 -0.089105755
-0.056309655 -0.015200931 0.041561596 -0.111112915 -0.018012062 -0.05958031 0.05196497 0.042560674
-0.049131908 -0.06894019 0.0066206995 -0.048901234 -0.09032445 0.061498053 -0.022763781 -0.116475865
-0.04547637 -0.05653201 0.015704254 -0.06230396 -0.0844058 0.06703044 0.03338066 0.10307305
-0.035232607 -0.083126515 0.0055512963 0.030299185 0.08438037 -0.062213775 0.052306753 0.113233335
-0.06680892 0.049717702 0.0021647303 -0.12942341 -0.09359596 0.014276538 0.16829126 -0.033375934
-0.0063799173 -0.031847723 0.006288054 -0.1179784 0.120324716 0.061857585 0.021779398 -0.050824694
-0.059553318 0.019063586 0.00036948328 -0.005271507 0.06271037 0.04239015 -0.04741083 -0.12784027
-0.014460449 -0.01005066 -0.045860957 -0.008141455 -0.024613794 0.08261362 -0.056482155 -0.062251072
0.15664634 0.081801996 -0.12021515 -0.1491137 -0.076711275 0.015522333 0.05777655 -0.035446424
0.04108636 -0.070923805 -0.08740404 0.033844408 -0.002186455 -0.16818225 0.05443307 0.06578747
0.04661579 -0.027630713 -0.064631715 0.09333173 -0.0080640195 0.032428972 0.0069035534 0.019781007
-0.040044922 0.08083505 -0.06832168 0.046265088 0.0440861 0.10764358 0.12442731 0.06645831
-0.050796747 0.0399067 0.06879123 -0.069716275 -0.08700115 0.07214776 0.005318187 -0.014767538
-0.03542989 0.038570214 -0.050419893 -0.14300299 0.008387737 -0.014725504 0.04843592 -0.03178919
-0.037506748 0.08322017 0.16427752 -0.06648593 -0.07068589 0.14750682 0.018625211 -0.11798507
-0.07426504 0.02617987 -2.6197522e-06 0.12621137 -0.028427517 0.005156922 -0.08234715 -0.0008044408
0.06324913 -0.06514252 0.07406361 -0.05773882 0.120135605 -0.033026934 -0.19060616 0.12313021
-0.1673761 0.027842887 -0.07563874 -0.10434223 0.07851906 0.026138699 0.10928397 0.02642889
0.038575735 -0.06274785 0.050454322 -0.12225256 -0.023136824 -0.076135464 -0.1814675 -0.078982614
-0.027199538 -0.13160677 0.013681067 0.10114239 -0.059951704 -0.03339577 0.006121581 -0.15820682
0.07704048 0.10740117 -0.02493388 0.011304408 0.10212671 -0.12781036 -0.18397415 -0.056478377
0.10538 0.124993116 0.009475649 -0.11675457 0.020921316 -0.013777123 -0.043149073 0.028542819
-0.112335816 0.09195966 -0.0021676908 -0.14067097 0.06545539 -0.045283597 0.114784636 0.12309343
0.071910165 0.073529996 -0.06707398 -0.20714223 -0.03841122 0.012383443 -0.029286321 -0.042156965
0.07236741 0.1271491 -0.02928779 0.19940561 -0.04338121 0.21004252 0.14169782 -0.00451481
0.017309275 0.014814806 -0.08856156 -0.044138353 -0.024500223 0.07996296 0.12351764 -0.042680416
-0.03105742 0.044179365 -0.08418532 0.03734703 -0.090095796 0.07298812 0.07436277 -0.011580045
-0.18548274 -0.058028206 -0.03022426 -0.093598664 0.12253879 -0.039037235 -0.04104598 0.022972263
0.03668377 0.060799282 0.08977433 0.059596695 0.008412156 0.1394134 -0.012311234 0.040441066
-0.034734525 0.07277393 0.013326033 -0.035411917 0.1562918 0.07312778 -0.10421704 -0.022110794
0.087560035 -0.00043424784 -0.012643013 0.111374386 -0.10289372 -0.25590444 -0.06700792 0.0514888

lstms.0.bias_ih_l0 f4 [256]
00000000: fe8a d53c cd0f 873c c4cc 003d 85c3 903c
00000010: 1c26 783c 3714 903c 820a a2bc 4ba8 3e3c
00000020: 420b a03c eb77 403c 8126 873c f270 e03c
00000030: bc73 5c3c a99e 943c 96d0 923c 379c 003c
00000040: a8ee 973c c825 8b3c c1eb 613c f9b1 913c
00000050: 4214 b13c 189e 29bb d78e a43c 7d46 4b3c
00000060: 2a69 813c 751f f03c ddb4 d53c 7580 b93c
00000070: 3be4 933c d53d b03c aa62 f83c 9e43 543c
00000080: 8f6b 493c 33ed ae3c 34dd d53b f645 a7ba
00000090: 1bff 873c e1a9 6cbc d3f1 893c ee60 993c
000000a0: 3841 54ba 7a0f 6e3c 9524 2cbc d77d b03c
000000b0: 7222 f53c 3a9d 6e3c 4880 2b3c 2cbe 233c
000000c0: db51 6c3c d207 e63c ee8b c43b 1c8a ba3b
000000d0: 6c56 1fba 7c06 53bc 5446 a83c d975 073c
000000e0: 5afa d1bc 80ea 993c 80b3 533c 6c4b b1bb
000000f0: 75ab 5f3c 02ff 8bbb 26c0 823c 811f b53c
00000100: 297f b13c e6e3 6c3c f38c e93c d51e 733c
00000110: 83d0 523c fa4b 803c 0fd0 9cbc 211d 1a3c
00000120: 74bb 883c 91e1 0b3c 9c7d 623c fcf0 bf3c
00000130: b4c3 3a3c 044a 803c bea8 7c3c e117 b53a
00000140: 2593 793c 391f 6b3c 11bc 363c f172 7b3c
00000150: 7a81 8d3c 747f 6ebb 99a0 8d3c c7a1 2e3c
00000160: 4f39 5c3c cf34 cd3c 1ce6 b83c bbf0 a53c
00000170: f3be 8e3c ce5a 963c e767 d93c 60d9 393c
00000180: 6769 2c3c e785 983c 65c0 ac3b 2efd 28bb
00000190: bcb2 6b3c 383d f4bb f4a6 713c 817b 7b3c
000001a0: f4de 26bb 7b9f 3c3c f8bd 05bc fc8c 963c
000001b0: b275 b53c d77d 383c 779b 043c c93c 093c
000001c0: d48e 493c 6d04 203d 05b8 923b 5b87 e83a
000001d0: c017 a3bb 167e 5bbc cf90 843c f3b4 c83b
000001e0: 0dd3 d1bc f729 733c 3cc3 153c ec1e 91bb
000001f0: ff52 3a3c 59c1 b1bb 0334 643c 90d3 9e3c
00000200: badb d43b 3da8 b1bb e0f8 5ebc 227a 46bb
00000210: 38d0 af3b 4032 c63b d945 d5bb 6470 c7ba
00000220: d2af 95bb 8799 01bb e56a a1bb 81d8 09bb
00000230: f204 c8bb 3a22 a23b 03a9 b5bb f3fc 933c
00000240: fb39 c63b de81 7fbb 319c 9a3a 29d1 b43b
00000250: cbdb 7dbb 3b6b 9d3a 6347 a7bb bba6 b8bb
00000260: 24ce cc3b e741 12bb 0f91 e0bb d6c9 9f3b
00000270: 8eea 89bb 02f7 913b d4bd de3b b173 c6bb
00000280: dd3e c3bb 07c1 d03b 62d3 8f3a 46dc d3bb
00000290: b34c b73b 4504 51bc 5ff3 383c 7f96 bcbb
000002a0: 03d6 013c ebe9 a93b 1beb c5bb 9be5 32bb
000002b0: 4847 523b f8ea 37bb 2994 33bb 75d9 9f3b
000002c0: 0772 a4bb 40e7 0e3c 559e 8dbb 5f07 5dbc
000002d0: 7a43 fc3b e98c 393c 3e85 1abb c89f 183b
000002e0: 9475 9ebb d603 b63b 05bb f43b 1eec 9fbc
000002f0: 3eed 9c3b 5bc3 203b d9a7 d1bb b2e5 ecbb
00000300: 696c d33c 81a8 843c 6299 fb3c dbb7 8f3c
00000310: cb51 753c fd7e 923c ddf9 9fbc 5da3 3f3c
00000320: 001c a13c 1822 373c 83a2 853c cae4 dc3c
00000330: 38ca 543c f81d 933c 473d a03c b24e e13b
00000340: 1be2 983c cffc 883c f3e2 6b3c c9c3 913c
00000350: 2734 aa3c ff9f 3ebb 000d a43c 5a3f 4b3c
00000360: fb77 843c 0046 f73c d5e3 d03c 9fb0 b83c
00000370: f279 9a3c 854c ae3c 7164 f73c 7ecf 563c
00000380: bf5a 473c 00aa ac3c 5e51 d33b 545b c9ba
00000390: 3cd1 863c 2d9d 72bc 9119 8f3c bf3d 9e3c
000003a0: a56d 5fba 358d 703c 9581 44bc ab70 b33c
000003b0: 78ea eb3c d204 753c 6f81 3a3c 0cdf 203c
000003c0: 5e98 6d3c cd51 003d 032c bf3b d1f7 9b3a
000003d0: dc87 8fba 58b2 4cbc fcd2 ae3c c9c4 053c
000003e0: 0ae5 d2bc c756 983c 7404 413c da03 febb
000003f0: 7593 5c3c 3d73 8dbb 51a3 7e3c 848c b43c
0.026067253 0.016487027 0.03144528 0.017671356 0.015145805 0.017587764 -0.019780401 0.011636804
0.019536618 0.011747341 0.016497852 0.027397607 0.013455328 0.018142061 0.017921727 0.0078497445
0.018546417 0.016985789 0.013789118 0.01778506 0.021616105 -0.0025881585 0.020087643 0.012406942
0.015797216 0.029311875 0.026087219 0.02264426 0.018053165 0.021513859 0.030320484 0.012955574
0.01229371 0.02135334 0.0065266136 -0.0012761939 0.016601136 -0.014444799 0.016838944 0.018722977
-0.00080968766 0.014530057 -0.010506769 0.02154438 0.029923651 0.014563853 0.010467596 0.009994071
0.014423813 0.0280799 0.005998126 0.0056927335 -0.00060782465 -0.012879964 0.020541348 0.008267843
-0.025632072 0.018788576 0.012921214 -0.0054106023 0.013651718 -0.0042723427 0.015960764 0.022109749
0.02166708 0.014458632 0.028509593 0.014838894 0.012867096 0.015661228 -0.019142179 0.009406359
0.016690947 0.008537666 0.013823893 0.02343034 0.011399198 0.015660293 0.015421091 0.001381632
0.015232836 0.014350706 0.011153237 0.015347228 0.017273653 -0.0036391886 0.017288493 0.010658688
0.013441398 0.025049595 0.022570662 0.02025639 0.017425036 0.018353846 0.026538802 0.01134333
0.010523177 0.018618537 0.0052719587 -0.0025785672 0.014385875 -0.007453587 0.014749277 0.01534927
-0.002546248 0.0115126325 -0.008162968 0.018377773 0.022150848 0.011260471 0.008093706 0.008376309
0.012302119 0.03906672 0.0044775032 0.0017740534 -0.0049771965 -0.01339676 0.016182331 0.0061250865
-0.025613332 0.014841548 0.009140786 -0.004428735 0.011372327 -0.00542466 0.013928416 0.01938799
0.00649592 -0.005421667 -0.013609141 -0.00302852 0.005365398 0.0060484707 -0.0065085706 -0.001521599
-0.0045680786 -0.0019775347 -0.004926073 -0.0021033587 -0.006104105 0.004947928 -0.0055438294 0.018064952
0.0060493923 -0.003898732 0.0011795816 0.005518098 -0.0038735743 0.0012010107 -0.0051049455 -0.00563511
0.00625016 -0.0022317113 -0.00685323 0.0048763556 -0.0042088693 0.0044544945 0.0067975316 -0.006056272
-0.0059584216 0.006370667 0.0010973031 -0.0064654676 0.00559386 -0.012757366 0.011288493 -0.005755245
0.0079245595 0.005185356 -0.0060399896 -0.00272975 0.0032085944 -0.0028063636 -0.0027401543 0.004878218
-0.005018476 0.0087221265 -0.004321853 -0.013490527 0.0076984735 0.0113250995 -0.0023577954 0.0023288596
-0.0048357937 0.0055546565 0.0074685835 -0.01952177 0.0047890237 0.0024530503 -0.006398183 -0.0072295303
0.02580853 0.01619363 0.030712787 0.017543724 0.014973114 0.017882818 -0.019528324 0.011696664
0.019666672 0.011177562 0.016312843 0.026964564 0.012987666 0.017958626 0.01956047 0.0068758363
0.018662503 0.016722111 0.014397371 0.017793553 0.020776821 -0.0029087064 0.02002573 0.012405241
0.016170492 0.030184746 0.025499264 0.022545157 0.018856976 0.021276722 0.030199261 0.013110993
0.012167632 0.021077156 0.0064489087 -0.0015362301 0.016457193 -0.014807981 0.017468246 0.019316552
-0.0008523113 0.014682104 -0.011993785 0.02190431 0.028798327 0.0149547625 0.011383398 0.0098188035
0.014501659 0.03132801 0.005834104 0.0011899417 -0.0010950523 -0.012493692 0.02134084 0.008164593
-0.02574398 0.018596066 0.011780847 -0.007751924 0.013462891 -0.004316716 0.015541867 0.02203966

lstms.0.bias_hh_l0 f4 [256]
00000000: fe8a d53c cd0f 873c c4cc 003d 85c3 903c
00000010: 1c26 783c 3714 903c 820a a2bc 4ba8 3e3c
00000020: 420b a03c eb77 403c 8126 873c f270 e03c
00000030: bc73 5c3c a99e 943c 96d0 923c 379c 003c
00000040: a8ee 973c c825 8b3c c1eb 613c f9b1 913c
00000050: 4214 b13c 189e 29bb d78e a43c 7d46 4b3c
00000060: 2a69 813c 751f f03c ddb4 d53c 7580 b93c
00000070: 3be4 933c d53d b03c aa62 f83c 9e43 543c
00000080: 8f6b 493c 33ed ae3c 34dd d53b f645 a7ba
00000090: 1bff 873c e1a9 6cbc d3f1 893c ee60 993c
000000a0: 3841 54ba 7a0f 6e3c 9524 2cbc d77d b03c
000000b0: 7222 f53c 3a9d 6e3c 4880 2b3c 2cbe 233c
000000c0: db51 6c3c d207 e63c ee8b c43b 1c8a ba3b
000000d0: 6c56 1fba 7c06 53bc 5446 a83c d975 073c
000000e0: 5afa d1bc 80ea 993c 80b3 533c 6c4b b1bb
000000f0: 75ab 5f3c 02ff 8bbb 26c0 823c 811f b53c
00000100: 297f b13c e6e3 6c3c f38c e93c d51e 733c
00000110: 83d0 523c fa4b 803c 0fd0 9cbc 211d 1a3c
00000120: 74bb 883c 91e1 0b3c 9c7d 623c fcf0 bf3c
00000130: b4c3 3a3c 044a 803c bea8 7c3c e117 b53a
00000140: 2593 793c 391f 6b3c 11bc 363c f172 7b3c
00000150: 7a81 8d3c 747f 6ebb 99a0 8d3c c7a1 2e3c
00000160: 4f39 5c3c cf34 cd3c 1ce6 b83c bbf0 a53c
00000170: f3be 8e3c ce5a 963c e767 d93c 60d9 393c
00000180: 6769 2c3c e785 983c 65c0 ac3b 2efd 28bb
00000190: bcb2 6b3c 383d f4bb f4a6 713c 817b 7b3c
000001a0: f4de 26bb 7b9f 3c3c f8bd 05bc fc8c 963c
000001b0: b275 b53c d77d 383c 779b 043c c93c 093c
000001c0: d48e 493c 6d04 203d 05b8 923b 5b87 e83a
000001d0: c017 a3bb 167e 5bbc cf90 843c f3b4 c83b
000001e0: 0dd3 d1bc f729 733c 3cc3 153c ec1e 91bb
000001f0: ff52 3a3c 59c1 b1bb 0334 643c 90d3 9e3c
00000200: badb d43b 3da8 b1bb e0f8 5ebc 227a 46bb
00000210: 38d0 af3b 4032 c63b d945 d5bb 6470 c7ba
00000220: d2af 95bb 8799 01bb e56a a1bb 81d8 09bb
00000230: f204 c8bb 3a22 a23b 03a9 b5bb f3fc 933c
00000240: fb39 c63b de81 7fbb 319c 9a3a 29d1 b43b
00000250: cbdb 7dbb 3b6b 9d3a 6347 a7bb bba6 b8bb
00000260: 24ce cc3b e741 12bb 0f91 e0bb d6c9 9f3b
00000270: 8eea 89bb 02f7 913b d4bd de3b b173 c6bb
00000280: dd3e c3bb 07c1 d03b 62d3 8f3a 46dc d3bb
00000290: b34c b73b 4504 51bc 5ff3 383c 7f96 bcbb
000002a0: 03d6 013c ebe9 a93b 1beb c5bb 9be5 32bb
000002b0: 4847 523b f8ea 37bb 2994 33bb 75d9 9f3b
000002c0: 0772 a4bb 40e7 0e3c 559e 8dbb 5f07 5dbc
000002d0: 7a43 fc3b e98c 393c 3e85 1abb c89f 183b
000002e0: 9475 9ebb d603 b63b 05bb f43b 1eec 9fbc
000002f0: 3eed 9c3b 5bc3 203b d9a7 d1bb b2e5 ecbb
00000300: 696c d33c 81a8 843c 6299 fb3c dbb7 8f3c
00000310: cb51 753c fd7e 923c ddf9 9fbc 5da3 3f3c
00000320: 001c a13c 1822 373c 83a2 853c cae4 dc3c
00000330: 38ca 543c f81d 933c 473d a03c b24e e13b
00000340: 1be2 983c cffc 883c f3e2 6b3c c9c3 913c
00000350: 2734 aa3c ff9f 3ebb 000d a43c 5a3f 4b3c
00000360: fb77 843c 0046 f73c d5e3 d03c 9fb0 b83c
00000370: f279 9a3c 854c ae3c 7164 f73c 7ecf 563c
00000380: bf5a 473c 00aa ac3c 5e51 d33b 545b c9ba
00000390: 3cd1 863c 2d9d 72bc 9119 8f3c bf3d 9e3c
000003a0: a56d 5fba 358d 703c 9581 44bc ab70 b33c
000003b0: 78ea eb3c d204 753c 6f81 3a3c 0cdf 203c
000003c0: 5e98 6d3c cd51 003d 032c bf3b d1f7 9b3a
000003d0: dc87 8fba 58b2 4cbc fcd2 ae3c c9c4 053c
000003e0: 0ae5 d2bc c756 983c 7404 413c da03 febb
000003f0: 7593 5c3c 3d73 8dbb 51a3 7e3c 848c b43c
0.026067253 0.016487027 0.03144528 0.017671356 0.015145805 0.017587764 -0.019780401 0.011636804
0.019536618 0.011747341 0.016497852 0.027397607 0.013455328 0.018142061 0.017921727 0.0078497445
0.018546417 0.016985789 0.013789118 0.01778506 0.021616105 -0.0025881585 0.020087643 0.012406942
0.015797216 0.029311875 0.026087219 0.02264426 0.018053165 0.021513859 0.030320484 0.012955574
0.01229371 0.02135334 0.0065266136 -0.0012761939 0.016601136 -0.014444799 0.016838944 0.018722977
-0.00080968766 0.014530057 -0.010506769 0.02154438 0.029923651 0.014563853 0.010467596 0.009994071
0.014423813 0.0280799 0.005998126 0.0056927335 -0.00060782465 -0.012879964 0.020541348 0.008267843
-0.025632072 0.018788576 0.012921214 -0.0054106023 0.013651718 -0.0042723427 0.015960764 0.022109749
0.02166708 0.014458632 0.028509593 0.014838894 0.012867096 0.015661228 -0.019142179 0.009406359
0.016690947 0.008537666 0.013823893 0.02343034 0.011399198 0.015660293 0.015421091 0.001381632
0.015232836 0.014350706 0.011153237 0.015347228 0.017273653 -0.0036391886 0.017288493 0.010658688
0.013441398 0.025049595 0.022570662 0.02025639 0.017425036 0.018353846 0.026538802 0.01134333
0.010523177 0.018618537 0.0052719587 -0.0025785672 0.014385875 -0.007453587 0.014749277 0.01534927
-0.002546248 0.0115126325 -0.008162968 0.018377773 0.022150848 0.011260471 0.008093706 0.008376309
0.012302119 0.03906672 0.0044775032 0.0017740534 -0.0049771965 -0.01339676 0.016182331 0.0061250865
-0.025613332 0.014841548 0.009140786 -0.004428735 0.011372327 -0.00542466 0.013928416 0.01938799
0.00649592 -0.005421667 -0.013609141 -0.00302852 0.005365398 0.0060484707 -0.0065085706 -0.001521599
-0.0045680786 -0.0019775347 -0.004926073 -0.0021033587 -0.006104105 0.004947928 -0.0055438294 0.018064952
0.0060493923 -0.003898732 0.0011795816 0.005518098 -0.0038735743 0.0012010107 -0.0051049455 -0.00563511
0.00625016 -0.0022317113 -0.00685323 0.0048763556 -0.0042088693 0.0044544945 0.0067975316 -0.006056272
-0.0059584216 0.006370667 0.0010973031 -0.0064654676 0.00559386 -0.012757366 0.011288493 -0.005755245
0.0079245595 0.005185356 -0.0060399896 -0.00272975 0.0032085944 -0.0028063636 -0.0027401543 0.004878218
-0.005018476 0.0087221265 -0.004321853 -0.013490527 0.0076984735 0.0113250995 -0.0023577954 0.0023288596
-0.0048357937 0.0055546565 0.0074685835 -0.01952177 0.0047890237 0.0024530503 -0.006398183 -0.0072295303
0.02580853 0.01619363 0.030712787 0.017543724 0.014973114 0.017882818 -0.019528324 0.011696664
0.019666672 0.011177562 0.016312843 0.026964564 0.012987666 0.017958626 0.01956047 0.0068758363
0.018662503 0.016722111 0.014397371 0.017793553 0.020776821 -0.0029087064 0.02002573 0.012405241
0.016170492 0.030184746 0.025499264 0.022545157 0.018856976 0.021276722 0.030199261 0.013110993
0.012167632 0.021077156 0.0064489087 -0.0015362301 0.016457193 -0.014807981 0.017468246 0.019316552
-0.0008523113 0.014682104 -0.011993785 0.02190431 0.028798327 0.0149547625 0.011383398 0.0098188035
0.014501659 0.03132801 0.005834104 0.0011899417 -0.0010950523 -0.012493692 0.02134084 0.008164593
-0.02574398 0.018596066 0.011780847 -0.007751924 0.013462891 -0.004316716 0.015541867 0.02203966

lstms.1.weight_ih_l0 f4 [256, 64]
00000000: d121 babc 1b05 13bd 29bb 473c 515b 0cbe
00000010: 9953 633b c6f5 f83c 6c50 ae3d 71de c2bc
00000020: fc98 b33c 4a7c 4dbd 724b 9cbd e5e5 ffbc
00000030: d4f0 39bd bd53 fabc c780 d1bd 949a 5e3d
00000040: 0876 a2bd e0b0 6d3d 6c63 ecbd 1f86 1c3d
00000050: 7b4c 34bd ca00 863d 1eb3 ecba f874 bd3c
00000060: 38c3 5e3d 8005 4abe 756a 413e 9e1e 3a3d
00000070: b4eb 99bd 8e64 3d3d 5eae dfbd 5695 36be
00000080: 2b46 27bc ea3d a13c af71 843d e1a7 6a3d
00000090: 2929 3abd 0d71 3a3d b591 2c3c 1153 9bbc
000000a0: e316 6e3d f4d6 7abd 3ddd 063e 2dec 393d
000000b0: f1ad 8e3d 6fab 00be e8e9 bf3c 792a 2a3d
000000c0: 7976 8b3d 1a36 88bd 7a5e 9fbd 6940 23bd
000000d0: 3349 1cbc 8b66 e4bc dee9 19bd d1e3 1dbe
000000e0: ac86 1a3e df5f 973d c0b2 3fbd f92f 2ebc
000000f0: 4f80 18bc 9645 543d c13d 07be f9b8 afbd
00000100: fb86 ae3d 97a2 543d dbc0 373d ee55 11bc
00000110: 7a17 82bd a6ae 023a 6c2a 073e bb70 093d
00000120: 4198 b4bc 1c42 d9bd 6c3f 7e3c 4400 74bc
00000130: 6758 a2bd bda3 7abd d601 313d 1233 553d
00000140: 9567 e93c 1481 26bd baf4 f63d a89d 523d
00000150: 23d2 bcbd 5dba b43c c086 d7bc a119 1fbd
00000160: 2bd3 e9bc b36b 0a3e 0491 0cbe e23f eebd
00000170: 1bfe c13d 7e7f fabd f8fd 843c 67a9 0dbe
00000180: d84e cc3c 74fa 2d3e 5108 2abd b578 85bd
00000190: 75dc 1cbd 0bd8 663d d9b4 0fbd c14a 033b
000001a0: d9d7 49bd f08f 22be 1a73 223d 1ff4 13be
000001b0: fad4 ccbd 3877 203c 3829 0a3c be59 debd
000001c0: 1724 dc3c 70b2 a03c 47f5 7cbc 9728 5c3c
000001d0: 6230 113d 88ae b13d a6f4 9d3d 7303 96bd
000001e0: d245 e73c 6f98 653d fe94 1b3d d88d 6abc
000001f0: 993a 05be 414a 7fbb 3cb1 cdbd 2a92 38bb
00000200: de70 ab3c 8ed2 cc3d fa94 b3bd 1691 4dbd
00000210: 47e2 f53d d5bc 81bd 84f1 813d 5d65 d33d
00000220: 8dc9 653d 1dc5 d03d ee2a 563e 4ab4 013d
00000230: 7c36 17be 8321 e1bd 595d 38bd 3bd1 3e3d
00000240: 4b0e c0bd ac53 63bd 41ea 113d 7a71 b43d
00000250: 591f 80bd 820e 823d 46b2 3e3d 6abb cc3b
00000260: 9a9f 0c3e 80d1 0ebe 3a11 3abe 57e6 9abd
00000270: da2f df3d bf7e 37be 2dbc 85bd 9be8 ae3d
00000280: 85de 0abe aefc a13b c4b8 ad3c a2dc 0c3c
00000290: c3f7 073e 9b5c 18bc b240 c9bd cd7a 083e
000002a0: c18d 10be 61bf 34bd eede e33d 299f 0b3e
000002b0: 0a7f 30bd 1ee7 513d 18e5 37be edbf 233e
000002c0: 2274 143d 6039 0c3e 4277 bb3c e9d6 6ebc
000002d0: bd5f 183c a112 bb3c 9452 cc3c 4272 123d
000002e0: 6ae1 ebbc 840b e0bd 412a 003c 15ad 8bbd
000002f0: 6e3b ea3d 682a 133e b460 e4b9 fa60 80bd
00000300: aa3c a43d 741b dcbc b792 8cbb 4f10 04bd
00000310: 1a9c 44bd 8326 7cbd 182d 143e 4ea5 1ebe
00000320: eaaf e8bd 1432 cdba f59d 67bd d868 50bd
00000330: 193b 3c3e 177c f9bd 27eb 67bc f708 01bd
00000340: fa2c 7dbc edd6 57bd 6eae 2c3d 9322 913c
00000350: 53b5 033c 2558 a7bc 1b3c 99bd 947b beba
00000360: 14b9 99bb a02f 24bd 99e3 a7bd 6c1c cc3d
00000370: 3031 70bc 7070 87bb 6b79 70bc 5d3f 003e
00000380: c22f fd3c 9ac2 aabc 35a1 fc3c 292b 58bd
00000390: 3915 cbbc 935f 3fbe 2f6b e5bc 2843 ff3d
000003a0: 0099 703d 6a3f 6bbd 9977 e33d 73a2 4f3d
000003b0: af26 47bd 5686 3e3d a3dd cd3c 30ec 153c
000003c0: a26a 0dbe 07bd 6abd 1951 a53b b29b b3bd
000003d0: a3e8 38bd fb3d a5bc e911 8d3d d3c6 5fbe
000003e0: 06e7 ac3d f681 9fbd fb52 f3bc 3453 fabd
000003f0: f2d6 f43d d2eb 203e cb1c ab3d dc94 d03b
-0.022721203 -0.03589354 0.012190619 -0.1370671 0.003468728 0.030390631 0.08511433 -0.023787709
0.021923535 -0.05016736 -0.076315776 -0.031237552 -0.045395687 -0.030557508 -0.102296405 0.054346636
-0.07932669 0.05803001 -0.11542401 0.038213845 -0.04401825 0.06543119 -0.0018058752 0.023127064
0.054385394 -0.1972866 0.18888266 0.045439355 -0.0751566 0.046238475 -0.1092193 -0.17830405
-0.0102096 0.019682843 0.06466996 0.057289008 -0.04544941 0.04551797 0.010532786 -0.018960508
0.058127295 -0.06124015 0.13170333 0.04539125 0.069667704 -0.12565397 0.023426965 0.04154441
0.06809706 -0.06650944 -0.07781692 -0.03985635 -0.009538936 -0.027880928 -0.03757655 -0.15418936
0.15090436 0.07391333 -0.04680133 -0.010631555 -0.009307935 0.051824175 -0.13207151 -0.085802026
0.08521839 0.05191287 0.044861656 -0.008870585 -0.06352134 0.0004985131 0.13199776 0.033554774
-0.022045257 -0.106083125 0.015518051 -0.014892641 -0.07927018 -0.06119131 0.04321464 0.052050658
0.028491775 -0.040650442 0.12058397 0.051419884 -0.09219768 0.022061521 -0.026309371 -0.0388428
-0.028543076 0.13517646 -0.13727194 -0.116332784 0.09472295 -0.122313485 0.016234383 -0.13834153
0.02493994 0.16990072 -0.041511837 -0.06517164 -0.03829618 0.05635838 -0.03508458 0.002003357
-0.049278114 -0.1587522 0.03966055 -0.14448594 -0.100015596 0.009794049 0.008432679 -0.10856961
0.026872678 0.019616336 -0.015439338 0.013437412 0.035446532 0.08675867 0.077126786 -0.07324877
0.028231535 0.056053575 0.037983887 -0.014316045 -0.13010634 -0.003895417 -0.100435704 -0.0028163292
0.020927843 0.100010976 -0.087686494 -0.050187193 0.120060496 -0.06334845 0.063448936 0.10322068
0.056100417 0.101938464 0.20914814 0.031666078 -0.14766878 -0.1099272 -0.0450109 0.046586256
-0.09377726 -0.055499718 0.035623793 0.088107064 -0.06255979 0.063504234 0.046556734 0.0062479274
0.13732758 -0.13947105 -0.18170634 -0.07563465 0.10897799 -0.17919444 -0.06530032 0.0854046
-0.13561447 0.004943452 0.021206267 0.008597525 0.13278107 -0.009299423 -0.09826793 0.13328095
-0.14116575 -0.044127826 0.11126505 0.13634934 -0.043089904 0.0512458 -0.17958486 0.15991183
0.036243565 0.13693762 0.022884015 -0.014577606 0.00930017 0.022836031 0.02494172 0.035753496
-0.02879401 -0.109396964 0.007822574 -0.06820122 0.114371166 0.14371645 -0.00043559598 -0.06268497
0.08019383 -0.02686856 -0.0042899507 -0.032242116 -0.048000433 -0.061560165 0.14470327 -0.15492746
-0.11361678 -0.0015655183 -0.056547124 -0.050881237 0.18381919 -0.121818714 -0.014155186 -0.03150269
-0.015452618 -0.052695204 0.042158537 0.017716682 0.0080388365 -0.020427773 -0.07482167 -0.0014532679
-0.0046912525 -0.04008448 -0.08197708 0.099663585 -0.014660165 -0.0041332766 -0.014677386 0.12524171
0.030906562 -0.020844746 0.030838588 -0.052775536 -0.024790393 -0.18688802 -0.02800521 0.12463981
0.058739662 -0.057433523 0.11106796 0.050692033 -0.048620876 0.04651483 0.025130099 0.00915055
-0.13810208 -0.057309177 0.005045068 -0.08769931 -0.045143735 -0.020171156 0.06888182 -0.21853189
0.08442502 -0.0778846 -0.029702654 -0.12222901 0.1195506 0.15714958 0.08355101 0.0063654017

lstms.1.weight_hh_l0 f4 [256, 64]
00000000: 323c 823e 265b 9c3d 88eb 663d 64ed 1c3e
00000010: 9545 59bd 7c3a 9dbc 5617 0ebe d234 513b
00000020: 8553 babd 9d99 8ebc 8c99 a43d d9cc 6abd
00000030: a306 b63c de8e 93bc 9d97 803c b1cc ccbc
00000040: 079a fe3b 1c90 4a3d 934a 22bc 969b 4d3d
00000050: 354d e83b 0c53 69bc 104a e5bd 2fce cfbd
00000060: 3547 903d 5d8a e3bd ee67 dfbd 7ad0 043e
00000070: 16df 28bd c6f0 5f3d 7d3b 923d b851 90bd
00000080: 22a2 4abc 34fc 823d b3e8 883d 9de7 4e3d
00000090: 6d14 d0bb 041f 83bb f4a7 1b3d 5e51 edbc
000000a0: 900a 0cbd 049d d53b 88be 1abe ba1e e5bc
000000b0: 2f5f 493d 0890 573c 514a e13c b77b 56be
000000c0: c64a 423d bd0b be3d 0553 a4bb 0e9e fd3d
000000d0: c917 8d3c 5da3 a23d e528 dd3d 2fb4 a7bd
000000e0: a42f 8abd 8272 503d da55 03bd ddc0 853d
000000f0: f7a1 0a3d c2c3 b7bd 0534 b1bd e54a 6f3d
00000100: 40a0 2fbe 5a59 a6bc 2e8d c8bd aec8 18be
00000110: 9605 213e 33c1 bdbd c09f c2bb fdfe 24be
00000120: f996 76bc 5426 88bc 9b04 8cbe 6a94 aa3d
00000130: 6312 ddbd 6cac 223d d78f 9a3c 203b d7bd
00000140: 8b6a 183d 5429 ae3d fbd1 22be f445 12be
00000150: 517a 1fbd 793d 1ebc 06be 17bc 541c 173d
00000160: 6f3f a63d 0857 23bc bf7a 40bd c427 9cbd
00000170: e8d4 703c 1131 043d 8bab 2bbd d04d 37bd
00000180: c3c6 8bbd 8ec0 12be 3f99 9cbd 8908 4cbe
00000190: eba1 83bd 82ea afbc 0ffe f53c 7493 253d
000001a0: 289d 0bbd 44fb 9cbd a6b2 75bd 20d8 8a3d
000001b0: ca71 50bd daff 37bc ceb7 4bbd 28bf 183c
000001c0: 373a 543d 70ca e93d 1cdc c0bd f846 24bc
000001d0: 79d6 babd 922b 623d edf9 403c 55e4 c1bd
000001e0: dcae eebc 2713 393a 4250 6a3d 6f3b 213e
000001f0: 23da b83c 2d96 c73c 360d 933d 7055 983d
00000200: e200 fdbd d4ec 083e 5e2d a2bd 1db7 bc3d
00000210: d18e c73d 9e6f cc3d 4640 83bd 683a d73d
00000220: 26be dabd 673e de3a 8f78 24bd 505c e7bd
00000230: ec93 a03c 9202 3ebe 3e01 463d fd8f b8bd
00000240: 3371 18bd 3901 893d 2d6a 2f3d 6b6f 8c3d
00000250: 4c57 063c 168b b0bd 61b4 66bc c313 9c3c
00000260: 3e9e 8cbc 30d3 173e 285a 1b3d f670 263d
00000270: 241e 543d 24c0 bb3d 0406 f23b a7f4 223d
00000280: 6678 a23d 2378 b43d 9f40 063d 6907 87bd
00000290: a0ad 86bd 611b 3f3b 168d bdba a14b 09bd
000002a0: e096 e5bb d38f 38bb f634 5bbd 96c4 4cbb
000002b0: ab53 17bd dfa7 263e f105 30bd aa2a ad3d
000002c0: ecb9 ae3d 6e12 c4bd a100 913d 8574 3ebd
000002d0: a9cb 863c 19e6 3a3d 507f dd3c f632 953d
000002e0: bd53 523d dc1d 63bc f193 113d e7bc 0a3e
000002f0: a324 003c aabb 383e 229a 073e 5b2b 3a3c
00000300: 5da0 11bd ed5b 5b3b 7212 8f3c 629d 3f3e
00000310: 9506 6d3d f089 63bd f95a 103d 72f9 0ebc
00000320: 4eb6 b7bc 6b37 4e3b e66f 71bd 6f9d fcbd
00000330: 89c5 2e3d b71a cf3d 4bf2 24bd 423c 94bd
00000340: 6466 9abd b93a 86bd ba31 e7bd 4fb4 58be
00000350: 3787 75bd 12c9 91bd bdcd e5bd 96f8 783c
00000360: 1e44 aebd 823a aebd 051f 9cbd 1fa0 903b
00000370: 9796 5a3d 24d2 c63c afd9 e2bd a1f9 323d
00000380: 5fee 8cbc 2146 cbbd fc50 1cbe 73eb 24bd
00000390: 1f74 ac3d 7565 6f3d 943b b5bd d895 203d
000003a0: f8a1 133d 968c a5bd 398d 4bbd 1eef 2ebd
000003b0: e34b 083d cdad 5b3d 65d0 2d3e ef09 cbbd
000003c0: 97de adbd e791 1b3d abe4 23bd 3fea aabd
000003d0: 5cb2 b83c 57ee 263d f622 33bd 2806 3bbc
000003e0: 6dff 08be 0056 0ebe 1e33 86bd 65a1 d6bd
000003f0: 724e dcbd 0493 5a3d bd12 c13d e148 c13b
0.2543655 0.07634573 0.056376964 0.15324932 -0.053044874 -0.019192927 -0.1387609 0.0031922353
-0.09097961 -0.017407233 0.08037099 -0.057324264 0.022219962 -0.01801246 0.015697295 -0.024999948
0.0077698263 0.04945384 -0.009905475 0.050197206 0.007089282 -0.014240991 -0.11195767 -0.10146748
0.07044832 -0.11110375 -0.10908495 0.12970152 -0.041228376 0.05467298 0.07140253 -0.070468366
-0.012367757 0.0639576 0.06685009 0.050513852 -0.006350091 -0.0040015 0.03800197 -0.028969463
-0.03418976 0.006518962 -0.15111744 -0.027968753 0.04916304 0.013156898 0.027501257 -0.20945631
0.04743459 0.09279583 -0.0050147795 0.12383662 0.017223256 0.07941315 0.10798816 -0.08188664
-0.06747368 0.050890453 -0.032064296 0.065309264 0.033845868 -0.08972885 -0.086525 0.058421034
-0.17150974 -0.020306278 -0.09792553 -0.14920303 0.15724787 -0.092653655 -0.005939454 -0.16112895
-0.015050643 -0.016619839 -0.27347264 0.08329089 -0.107945226 0.039715216 0.018867416 -0.10509324
0.037210982 0.085039765 -0.15900414 -0.14284497 -0.03893501 -0.009658211 -0.009261614 0.03689225
0.08117568 -0.00996948 -0.04699206 -0.07624772 0.014699198 0.032273356 -0.041911643 -0.044751942
-0.0682502 -0.14331266 -0.07646417 -0.19925131 -0.06427368 -0.021474127 0.030028371 0.040423825
-0.034085423 -0.076651126 -0.059984826 0.06779504 -0.050889768 -0.011230433 -0.049735837 0.009322919
0.05181333 0.11415565 -0.094169825 -0.010026686 -0.09122939 0.055217333 0.011778337 -0.09467379
-0.029136114 0.0007060044 0.057205446 0.15745328 0.022564953 0.024363602 0.07180254 0.07438171
-0.12353684 0.13371593 -0.07918809 0.092146136 0.09744037 0.09982227 -0.064087436 0.10509187
-0.10680799 0.0016955853 -0.040154036 -0.11296904 0.019601785 -0.18555668 0.04834103 -0.090118386
-0.03721733 0.06689686 0.042825866 0.06857189 0.008199524 -0.086202785 -0.014081092 0.019052392
-0.0171653 0.14826655 0.037927777 0.04063507 0.051786557 0.09167507 0.007385971 0.0397841
0.079331204 0.08811977 0.03277647 -0.0659321 -0.06576085 0.0029160606 -0.0014461603 -0.03351939
-0.007006511 -0.0028161898 -0.053517304 -0.0031245104 -0.036945026 0.16274975 -0.042974416 0.08455403
0.085315555 -0.09573828 0.07080198 -0.04649784 0.016454535 0.045629594 0.027038246 0.07285111
0.05134939 -0.0138620995 0.03554148 0.13548623 0.007821235 0.18040338 0.13242391 0.011362876
-0.035553325 0.003347154 0.01746485 0.1871238 0.057867605 -0.05555147 0.03524301 -0.008726465
-0.022425797 0.0031466137 -0.058944605 -0.123347156 0.042668853 0.10112517 -0.04027013 -0.07238056
-0.07539061 -0.06554169 -0.112887815 -0.21162532 -0.059943404 -0.07118429 -0.11220882 0.015195986
-0.08509086 -0.08507253 -0.07623104 0.004413619 0.05336627 0.024270125 -0.11076676 0.043695096
-0.017203508 -0.099254854 -0.15265268 -0.040263604 0.08420586 0.058446366 -0.08849254 0.039205402
0.036043137 -0.08083455 -0.049695227 -0.04270851 0.033275496 0.053632546 0.16974027 -0.09914004
-0.08489721 0.03798094 -0.040012997 -0.0834546 0.022545986 0.040754642 -0.043734513 -0.011415042
-0.13378687 -0.13899994 -0.065527186 -0.10480002 -0.1075715 0.05336286 0.09427402 0.0058985804

lstms.1.bias_ih_l0 f4 [256]
00000000: 158d 69bc 8813 703c 0e2a 0abb 99e0 973b
00000010: ef34 363b 234e 9c3c 050a 3b3c ebda b1bb
00000020: c350 3abb abb8 513c 10c1 24bc 5cf5 923c
00000030: 4d80 0a3c 3d13 823c 8b7a 823b 39c5 193b
00000040: 74de a53c 6c11 483c 3c10 0d3d c047 b4bb
00000050: c306 883c ab3b 0d3d 6c15 df3b feb5 a23c
00000060: 9ee7 a33c 0b45 a73b d4ca 863c ab78 893c
00000070: 3129 9b3c 45b3 293c 6df4 1f3c cf7d 0dbb
00000080: 161e f639 93bc 503c 4562 76bc a8be d3ba
00000090: 73b2 9f3c 70fa 963c 9b0c 9a3c 47cd 8c3c
000000a0: b6ee 40bc 1166 9a3c 9704 0f3c 76c4 873c
000000b0: 0250 663c ff68 3e3b 5a79 943c 5684 2339
000000c0: b092 8fbc 14be 4c3c 3f40 d93c d08b 2e3c
000000d0: 661f 593c e0ff 823c f0f4 b03b 932b c03c
000000e0: 7fc0 173b 1a93 a83c 2f56 703c b931 82bb
000000f0: dd4b 1b3c a67d b33c 4e90 943c 4748 693c
00000100: 7a02 69bc 7f49 493c ceff 65bb 659b 2f3b
00000110: 054a 633a 9e8b 843c 9657 103c 4e54 b4bb
00000120: acf5 8bbb 775d 0c3c 6fba 38bc c5e2 7d3c
00000130: 5c0f c33b c431 563c 98cb f83a 7abd 6439
00000140: aa6f 8b3c b89e 253c b483 df3c bc8e bebb
00000150: 7309 603c 2824 d83c 42f8 8c3b b6e3 843c
00000160: 43bf 8a3c 48ad 4f3b 4c83 5c3c 9058 683c
00000170: ed96 783c f617 0f3c b3ed f33b aeb3 70bb
00000180: fbde 72ba 369a 223c fbb6 7bbc 3f71 35bb
00000190: 3cd8 823c fa4c 803c 8f06 7e3c db8a 753c
000001a0: 4a8f 58bc 1806 823c 249f c33b 2e7b 643c
000001b0: 51aa 2d3c 8081 f3b6 edbf 7a3c 9136 8cba
000001c0: 1d3c 93bc 3609 f83b e76e a03c 0f1f 083c
000001d0: cf38 303c 60ff 603c 5367 8e3b b902 a43c
000001e0: 0da9 343a 1787 853c 5661 4d3c fefc adbb
000001f0: d2df e93b a754 983c 5396 773c 8920 3f3c
00000200: 4879 88bb c05b c93b a2bb 473b 4e81 d3bb
00000210: e498 3cbc 9a5e d6bb f3cc eb3b 3d30 4c3c
00000220: 556f a23a 865e 8a3a 15ce 663c 2a79 e1bb
00000230: 780c e1bb 721f e53b 9543 18bb 53bf a1bb
00000240: 6e3d d5bb 8394 a7bb d4b2 0abb c4b7 60bb
00000250: 34be f1bb f5fc a3ba 5db2 b33b eb8a dfbb
00000260: 4ede d53b ace2 61bb ccef b43b d05b c8bb
00000270: 3d56 18bb 9fe8 cb3b b29c 9c3b 71c3 7f3b
00000280: d32f e73b fd59 e73a 79e7 473b 3ff7 9fbb
00000290: ea6b 0dbc 9548 ec3b 7f77 dbbb 1da2 533b
000002a0: eed6 43bb 3025 e43b 36c1 d63b 3469 cfbb
000002b0: 3c4d 9eba 2bc6 5d3c c0e7 f0bb a4d0 283b
000002c0: 68cc 57bc e9c4 85bc 7c81 d8ba 966c e3ba
000002d0: d9b7 1c3b 78d8 d5bb b535 bbbb 1a95 e1bb
000002e0: 62a6 b7bb b609 e6bb c92e e7bb 5e32 273b
000002f0: 2824 aebb b6f6 e6bb 4eba cbbb 6c46 b6bb
00000300: f55d 6bbc c09a 6e3c bd7f 05bb 86b1 8e3b
00000310: eafb 4d3b c0db 9e3c 16a7 363c fa0d b8bb
00000320: 0539 3bbb 906d 413c 461d 1cbc 7d11 953c
00000330: a448 0c3c f934 7e3c 3026 753b 64f1 f73a
00000340: 2e3f a53c 4b17 4a3c 2e8f 163d 5906 b7bb
00000350: 42e3 853c fa27 0c3d 0ab3 dc3b 6923 9e3c
00000360: 9ff5 a23c f4fb aa3b be72 853c 021d 853c
00000370: 11df a43c 645a 2f3c d57e 293c 1b35 0ebb
00000380: ce04 b039 f109 4b3c c313 79bc a0c6 ebba
00000390: d440 a43c bb15 943c 2500 963c 2186 8d3c
000003a0: dd9f 40bc 303a 943c b6f5 093c 1570 843c
000003b0: d4ff 583c 89bf 623b eff5 913c bc70 213a
000003c0: 843b 8dbc 081d 563c 7711 ea3c aad2 213c
000003d0: 0295 643c 43dd 823c acb9 a53b 412f c23c
000003e0: dddb 013b d43b a53c 8739 693c 507d 8dbb
000003f0: fdb2 1b3c d38e b63c 3dd0 9a3c 2201 663c
-0.014254828 0.014653094 -0.0021082195 0.0046349284 0.0027802547 0.019080227 0.011415963 -0.0054277084
-0.0028429485 0.012800376 -0.010055795 0.017939262 0.008453441 0.015878314 0.0039818934 0.00234635
0.020247675 0.012211185 0.03443931 -0.0055017173 0.016604787 0.034480732 0.0068079736 0.019862171
0.020007905 0.005104666 0.016454138 0.016781172 0.01894054 0.010357683 0.0097628655 -0.002158988
0.00046943192 0.012740272 -0.015038078 -0.0016154842 0.01949427 0.018429965 0.018804839 0.017187728
-0.011775663 0.018847497 0.008729122 0.016573172 0.014057161 0.0029054282 0.018124271 0.0001559419
-0.017526 0.01249649 0.026519893 0.010653451 0.013252115 0.015991151 0.0054002926 0.023458278
0.0023155508 0.020577956 0.014668985 -0.0039732126 0.009478536 0.0219105 0.018135216 0.014238424
-0.014221782 0.012285589 -0.0035095098 0.0026795503 0.00086703926 0.016179856 0.008809945 -0.005503214
-0.0042712297 0.008567206 -0.011274918 0.015495961 0.0059527587 0.0130733885 0.0018981574 0.0002181436
0.017021019 0.010108642 0.02728448 -0.005815355 0.013674128 0.026384428 0.0043020556 0.016221862
0.016936904 0.0031688977 0.013459038 0.014181271 0.015172702 0.00873374 0.0074441074 -0.0036728191
-0.0009264794 0.009924462 -0.01536345 -0.0027685908 0.01597225 0.015661705 0.015504493 0.014986719
-0.0132177565 0.015872046 0.005969899 0.013945384 0.010599689 -7.25704e-06 0.015304548 -0.0010697414
-0.017973 0.0075694574 0.019584132 0.008308186 0.010755732 0.013732761 0.0043458133 0.02002083
0.00068916456 0.016299767 0.012535414 -0.0053097 0.007137277 0.018595053 0.015111524 0.011665472
-0.0041648485 0.0061449707 0.0030476828 -0.0064546233 -0.011511061 -0.006542039 0.0071960627 0.012462673
0.0012392799 0.0010556735 0.01408722 -0.006880899 -0.0068679415 0.006992274 -0.0023233641 -0.0049361377
-0.006507567 -0.0051141395 -0.0021163719 -0.003428922 -0.0073774103 -0.00125113 0.005483909 -0.0068219802
0.006526745 -0.0034467382 0.00552175 -0.0061144605 -0.0023244761 0.006222799 0.0047794217 0.0039026404
0.0070552616 0.001765072 0.0030502959 -0.004881769 -0.008631686 0.007210801 -0.0066975947 0.0032292672
-0.0029882747 0.006962441 0.0065537943 -0.00632968 -0.0012077461 0.013536016 -0.0073518455 0.0025759125
-0.013171293 -0.016329246 -0.0016518082 -0.0017351087 0.0023913293 -0.006526049 -0.0057131895 -0.0068842294
-0.005604551 -0.0070202006 -0.007055138 0.00255122 -0.0053143688 -0.007048453 -0.0062172776 -0.005562594
-0.014365663 0.014563262 -0.0020370327 0.0043546585 0.003143067 0.019391894 0.011148235 -0.0056169005
-0.0028567922 0.011805907 -0.009528464 0.018196816 0.008562241 0.015515559 0.0037406795 0.0018916545
0.020171728 0.012334655 0.03675764 -0.0055854735 0.016343717 0.034217812 0.0067352103 0.019303994
0.019892512 0.0052180234 0.016290065 0.016249184 0.020125898 0.010702703 0.0103451805 -0.0021699134
0.00033572916 0.012392507 -0.0152024655 -0.0017988272 0.020050444 0.018076768 0.018310616 0.017275872
-0.011756864 0.018094152 0.008420398 0.016166726 0.013244588 0.0034599027 0.017817466 0.00061584613
-0.017240293 0.013068445 0.028572781 0.009876886 0.013951542 0.015974646 0.005057534 0.023704173
0.0019814887 0.02017013 0.014234907 -0.004317917 0.009503123 0.0222849 0.018898124 0.014038356
