labs/models/JPY/7_64_64_sgd.pth (torch, 205367 bytes, 9 tensors)

lstms.0.weight_ih_l0 f4 [256, 1]
0	0xbe01b19a	-0.12665406
1	0xbd3c6ac2	-0.04600025
2	0xbc389b0c	-0.011267435
3	0xbcd09d98	-0.025465772
4	0xbd46a0b8	-0.048493117
5	0xbdb8b287	-0.090184264
6	0xbde8e60d	-0.11372004
7	0xbcd7732a	-0.026300032
8	0xbdddcbd6	-0.10829894
9	0x3df8e09f	0.12152218
10	0x3e661e48	0.22472489
11	0x3e293369	0.16523518
12	0xbe019fcd	-0.12658615
13	0x3e006946	0.12540159
14	0x3dfc8628	0.12330276
15	0x3d76be14	0.060239866
16	0x3afdcd2b	0.0019363513
17	0xbdabefbe	-0.083953366
18	0xbce0eade	-0.027455743
19	0x3cfc13b1	0.030771108
20	0xbddcda41	-0.10783816
21	0x3e3ebb16	0.18626055
22	0xbdd2b030	-0.10287511
23	0xbd05cff5	-0.032669026
24	0xbdca0502	-0.098642364
25	0xbc1c8016	-0.009552022
26	0xbd286448	-0.04111126
27	0xbd09205d	-0.03347813
28	0xbcd19c0c	-0.025587104
29	0x3bf5545c	0.007486863
30	0x3dc9407c	0.098267525
31	0x3e26616e	0.16248104
32	0x3d79a3b1	0.060947124
33	0x3d90cbde	0.070701346
34	0xbcad3bc8	-0.02114667
35	0x3bfebcd4	0.007773975
36	0xbd0451f2	-0.03230471
37	0xbcb55ddb	-0.02213948
38	0x3d34bf3a	0.04412768
39	0x3cc4b6d4	0.02401296
40	0x3e30792b	0.17233722
41	0xbe031e32	-0.12804487
42	0xbdb00e4f	-0.08596479
43	0x3dfc7ad1	0.12328113
44	0xbcd25280	-0.025674105
45	0x3dd3870b	0.10328492
46	0xbd6783a2	-0.05652202
47	0xbb1b5803	-0.0023703582
48	0xbd9ac5f5	-0.075572886
49	0xbcb33364	-0.02187509
50	0xbd74be5e	-0.05975186
51	0x3d137f65	0.036010165
52	0x3cd3296b	0.025776586
53	0x3e7d4ed0	0.24737096
54	0x3d40894c	0.047005937
55	0x3e295871	0.16537644
56	0xbc54d8ab	-0.012991111
57	0xbd50dcd1	-0.050991837
58	0xbdecc8cd	-0.11561737
59	0xbc9ec661	-0.019381704
60	0x3dc9088b	0.098160826
61	0xbdcfb4f8	-0.10141939
62	0xbd0fb532	-0.03508491
63	0x3c908b09	0.017644422
64	0x3da086ca	0.07838209
65	0x3d0fc501	0.035099987
66	0xbd0445d0	-0.03229314
67	0xbd8b4a04	-0.06801227
68	0x3dd98256	0.10620563
69	0x3ba8c0bc	0.005149929
70	0x3d70f3e9	0.05882636
71	0x3d391044	0.045181528
72	0xbe04cff4	-0.12969953
73	0x3ddd4a99	0.10805244
74	0x3afb7260	0.0019183867
75	0x3e09b669	0.1344849
76	0xbd87a3b7	-0.06623023
77	0x3dc4057e	0.0957136
78	0xbd03b3cf	-0.0321539
79	0x3ce89556	0.028391521
80	0xbc46522c	-0.012104552
81	0xbd866d74	-0.06563845
82	0xbe17245c	-0.14759964
83	0xbd86f3a1	-0.06589437
84	0xbe19cb0e	-0.15018865
85	0xbba80923	-0.0051280423
86	0xbd2d2855	-0.04227479
87	0x3d451bd1	0.04812223
88	0xbcd7e94b	-0.02635636
89	0x3ca3eb91	0.020009788
90	0x3d57975b	0.05263458
91	0xbd8ce13c	-0.068788975
92	0x3d93633d	0.071966626
93	0x3cdef5b5	0.027216772
94	0x3d390db9	0.045179103
95	0x3dd31a58	0.10307759
96	0xbe049bc3	-0.12950043
97	0xbd424288	-0.04742673
98	0x3b43b7df	0.0029864234
99	0xbd54f258	-0.05198893
100	0x3deb4751	0.11488212
101	0xbabdf706	-0.0014493174
102	0x3c11421a	0.0088658575
103	0x3debd99a	0.115161136
104	0x3cbfc319	0.02340846
105	0x3c340367	0.010987139
106	0xbe24f837	-0.16110311
107	0x3da08002	0.078369156
108	0x3daf4ae7	0.08559208
109	0x3d6d62eb	0.057955664
110	0xbdd002df	-0.101567976
111	0x3d6efdef	0.05834764
112	0x3d1df1e2	0.038560756
113	0x3e2ae2a6	0.16688022
114	0xbe3db5ef	-0.18526433
115	0x3c4bb4d3	0.012433249
116	0x3c2782f4	0.010224093
117	0xbcfe66af	-0.031054823
118	0x3ca8f632	0.020625208
119	0x3c9263cc	0.017869852
120	0x3e28ebce	0.16496202
121	0x3d2275ad	0.039663006
122	0x3d5d2f06	0.053999923
123	0xbdabe488	-0.08393198
124	0x3d85f9e6	0.06541805
125	0x3ce67108	0.02813007
126	0xbc3649bb	-0.011125977
127	0xbdd22270	-0.10260475
128	0xbe0928a8	-0.13394415
129	0x3d7fa541	0.062413458
130	0xbdb19f4c	-0.086729616
131	0x3d600e19	0.054700945
132	0x3cf8525a	0.030312706
133	0xbe43ddc0	-0.1912756
134	0x3d8f9af6	0.07011978
135	0xbc92fb30	-0.017942041
136	0x3dc3025e	0.09521936
137	0x3a0037e6	0.0004891142
138	0xbdbd486d	-0.0924233
139	0xbdc23f19	-0.09484691
140	0xbe282911	-0.16421916
141	0xbccec7aa	-0.025241692
142	0x3d3d3506	0.046193145
143	0xbdd109ef	-0.10206973
144	0x3d3b8a58	0.04578623
145	0xbd0fbf68	-0.03509465
146	0x3ba6020e	0.005066163
147	0xbdfa7d4c	-0.1223093
148	0xbdaf4c79	-0.08559508
149	0x3e6fb393	0.23408346
150	0x3aed2d23	0.0018095117
151	0xbd39620d	-0.045259524
152	0xbd481840	-0.04885125
153	0x3d88b2db	0.06674739
154	0x3cc3ef3b	0.023917785
155	0xbe103557	-0.14082848
156	0xbd89ee69	-0.06734926
157	0xbe204195	-0.15650018
158	0x3cf5ec69	0.030019956
159	0x3d86db2d	0.06584773
160	0x3d04ed6c	0.032452986
161	0x3d9927fc	0.074783295
162	0xbdb78e0f	-0.089626424
163	0x3db424b1	0.08796061
164	0xbda6cb19	-0.081442066
165	0xbd866d54	-0.065638214
166	0xbcd7f53f	-0.02636206
167	0xbc4024a4	-0.011727486
168	0x3dc10c30	0.09426153
169	0xbd380baf	-0.044933017
170	0x3e363ab7	0.17795835
171	0x3da68d8b	0.08132466
172	0xbdc11aad	-0.09428916
173	0xbcf2fa20	-0.029660285
174	0xbaebb132	-0.0017981885
175	0xbd970dca	-0.07375677
176	0xbd0d0c39	-0.034435485
177	0xbdedadb2	-0.116053954
178	0x3e50d7c0	0.20394802
179	0xbcf3bfc4	-0.029754527
180	0x3c120acc	0.008913707
181	0xbdb8f875	-0.090317644
182	0x3d84398e	0.0645629
183	0xbd88902a	-0.06668122
184	0x3de07ec2	0.10961677
185	0xbd870c07	-0.06594091
186	0x3cd30163	0.025757497
187	0xbca08d48	-0.019598618
188	0x3e109d94	0.14122611
189	0x3da36ff6	0.07980339
190	0xbe0a4418	-0.13502538
191	0x3c73e422	0.014885934
192	0x3ccacba2	0.024755303
193	0xbcb3acf0	-0.021933049
194	0x3ba5ac5d	0.0050559477
195	0xbe60c23e	-0.21949098
196	0xbcc5d9b6	-0.024151664
197	0xbd407957	-0.04699072
198	0xbaa4bb5a	-0.0012568042
199	0x3e032098	0.12805402
200	0xbcc090e8	-0.023506597
201	0xbcfde4df	-0.030992923
202	0x3d6fcad3	0.058543038
203	0xbd91de48	-0.07122475
204	0x3c01cd6d	0.0079225125
205	0xbcb7fdf0	-0.022459954
206	0xbc901a03	-0.017590528
207	0xbd9fbaa4	-0.07799271
208	0xbdae19b3	-0.085009955
209	0x3cb8f988	0.022579923
210	0xbd1f3445	-0.038868207
211	0xbda44e95	-0.08022801
212	0xbcf6f1af	-0.03014454
213	0xbd6f2c57	-0.058391895
214	0x3e643fcd	0.22289963
215	0xbdb8c15a	-0.09021254
216	0x3de44a91	0.11147035
217	0x3df782a4	0.120854646
218	0x3e081500	0.13289261
219	0xbe716ae9	-0.23575939
220	0x3d61d2dc	0.05513273
221	0xbc710ccd	-0.014712525
222	0x3d8e01a8	0.0693391
223	0xbd7a97f1	-0.06118006
224	0xbd7b54ef	-0.061360296
225	0x3dc6930b	0.09696015
226	0x3d8a3876	0.0674905
227	0xbd805d4f	-0.06267797
228	0x3d792b00	0.060832024
229	0xbe0d1f90	-0.13781571
230	0xbb1568bc	-0.0022798022
231	0x3be1b4ed	0.006888023
232	0xbe72f4de	-0.23726222
233	0x3d9151a6	0.07095651
234	0x3d969ffc	0.07354733
235	0xbe120f94	-0.14263755
236	0x3c110c0f	0.008852973
237	0xbdf3058b	-0.118662916
238	0xbd21a966	-0.03946819
239	0x3db48b42	0.08815624
240	0xbe0bb8e9	-0.13644756
241	0xbd60ed7d	-0.054913986
242	0x3c140fcc	0.009036969
243	0x3dbf0936	0.09327929
244	0xbddf788a	-0.10911663
245	0x3d8dce58	0.069241226
246	0xbd5be334	-0.053683475
247	0x3d7ba80b	0.061439555
248	0x3da1010a	0.07861526
249	0xbe37fa7a	-0.17966643
250	0xbd64425d	-0.05572735
251	0xbdd263b5	-0.10272924
252	0xbde3c45d	-0.11121438
253	0xbdd4ff90	-0.10400307
254	0x3e05f635	0.13082202
255	0xbd7d2470	-0.061802328

lstms.0.weight_hh_l0 f4 [256, 64]
0	0xbd88773a	-0.06663366
1	0xbd643f7d	-0.05572461
2	0xbd9b527f	-0.07584094
3	0x3cf8f811	0.030391725
4	0x3d106987	0.03525689
5	0x3b792948	0.003801899
6	0x3df30755	0.11866633
7	0x3dfee9c2	0.124469295
8	0xbc6aff2b	-0.014343063
9	0x3c151b52	0.009100752
10	0xbcd2a819	-0.02571492
11	0xbcbcda60	-0.023053348
12	0x3d99675b	0.074904166
13	0xbdc71584	-0.09720901
14	0xbac638ad	-0.0015123092
15	0x3e0a2f6a	0.1349465
16	0x3dcba448	0.099434435
17	0xbdc4a3ca	-0.09601553
18	0x3da61248	0.081089556
19	0x3d6b1f08	0.05740264
20	0xbda95d4c	-0.08269748
21	0x3dac0431	0.08399237
22	0x3e2b5ac1	0.16733839
23	0x3dbb15c9	0.091350146
24	0xbe19a08b	-0.15002649
25	0x3d9f1def	0.07769381
26	0x3d61bb0f	0.055110034
27	0xbc5f4b57	-0.013628802
28	0xbc312695	-0.010812421
29	0xbd507cab	-0.050900143
30	0x3dccd388	0.10001284
31	0xbdf658cc	-0.120286554
32	0x3d050e4e	0.032484345
33	0xbd1faef0	-0.038985193
34	0xbcbeb69e	-0.023280438
35	0x3dd65149	0.10464723
36	0xbdadb491	-0.08481706
37	0xbdc86dec	-0.09786591
38	0xbcf11252	-0.029427681
39	0xbe302d1c	-0.17204708
40	0xbbe2587d	-0.0069075213
41	0x3d0213b9	0.03175709
42	0xbdf13889	-0.11778361
43	0xbd83bbae	-0.064322814
44	0x3db64f28	0.089018166
45	0x3da6f1a4	0.08151558
46	0x3dcbc0ae	0.0994886
47	0xbdf7d680	-0.121014595
48	0x3d81692a	0.063188866
49	0xbde4a6dd	-0.11164639
50	0x3c441d2e	0.011969848
51	0xbd1e6cff	-0.038678166
52	0xbc456fa5	-0.012050544
53	0x3da9ab26	0.08284597
54	0x3d84b312	0.064794675
55	0x3d928cc2	0.07155754
56	0xbc74589c	-0.014913704
57	0xbe053a39	-0.13010491
58	0x3d578e4e	0.052625947
59	0xbda8ef03	-0.08248713
60	0xbd7ccc13	-0.061718058
61	0xbe35bcf1	-0.17747857
62	0x3b88d0f0	0.004175298
63	0xbd96f088	-0.073700964
64	0xbcf8d814	-0.030376472
65	0xbd951490	-0.072793126
66	0x3d7b3c43	0.061336767
67	0x3c390f03	0.011295083
68	0x3d83e794	0.064406544
69	0x3afdfbdc	0.0019377428
70	0x3d47e88c	0.04880576
71	0x3da6caca	0.08144148
72	0xbd2bcd64	-0.041943923
73	0x3d015b7e	0.031581394
74	0xbb5a0c79	-0.0033271594
75	0xbd737380	-0.05943632
76	0x3d2797a6	0.040916108
77	0xbdab77f4	-0.083724886
78	0x3d545216	0.051836096
79	0x3b10b996	0.0022083274
80	0x3d285566	0.041097067
81	0x3bfca703	0.007710339
82	0x3d4854a3	0.04890884
83	0xbd83a3b3	-0.064277075
84	0xbd87d0ff	-0.0663166
85	0x3de8aa77	0.113606386
86	0x3ad3febd	0.001617394
87	0xbdeb1e16	-0.11480348
88	0x3d0319f0	0.032007158
89	0x3d0c127a	0.034197308
90	0x3c6d79c0	0.0144943595
91	0xbd4367e8	-0.047706515
92	0xbd8b63f1	-0.06806172
93	0x3cd6d342	0.026223782
94	0x3d66e148	0.05636719
95	0xbe058485	-0.13038833
96	0x3db981b8	0.09057945
97	0xbd662c53	-0.056194615
98	0xbde26003	-0.11053469
99	0x3d55e3a5	0.052219052
100	0x3c594e88	0.013263352
101	0xbd9378f7	-0.072008066
102	0x3b0ae651	0.0021194408
103	0xbdf83010	-0.12118542
104	0xbc72d0eb	-0.014820318
105	0xbcb60fc8	-0.022224322
106	0x3daffb6f	0.08592879
107	0xbdcaba58	-0.098988235
108	0xbdc76f97	-0.09738081
109	0x3e2e36c5	0.1701308
110	0x3ce4b4ab	0.02791818
111	0x3d0d49d1	0.034494225
112	0xbd252371	-0.040317003
113	0x3e06051d	0.13087888
114	0xbda610bd	-0.08108661
115	0xbe15f431	-0.14643933
116	0x3d707957	0.05870947
117	0xbda1f99d	-0.07908938
118	0xbdc8db28	-0.09807426
119	0x3d1de12a	0.03854481
120	0xbd613dff	-0.054990765
121	0xbdaa97c5	-0.08329729
122	0x399e1f22	0.00030159304
123	0x3d28beaf	0.041197475
124	0x3dde4385	0.10852722
125	0x3e498da2	0.19682935
126	0xbc57fa17	-0.013182185
127	0x3e182651	0.14858367
128	0x3da2c43f	0.07947587
129	0x3d811805	0.063034095
130	0xbd82707a	-0.063691095
131	0x3d92ff44	0.07177594
132	0xbe369ef1	-0.17834069
133	0x3dd76a0d	0.105182745
134	0x3da958b7	0.08268874
135	0xbd189ffb	-0.037261944
136	0x3c11cdff	0.008899211
137	0xbdd13030	-0.10214269
138	0x3d5e05bd	0.05420469
139	0xbc22911a	-0.00992229
140	0xbdaee01c	-0.08538839
141	0xbdacd70c	-0.084394544
142	0x3d8f8289	0.070073195
143	0x3d2a5dd0	0.041593373
144	0x3dc59e52	0.09649338
145	0x3c557035	0.0130272405
146	0xbdfedbbb	-0.12444254
147	0xbd7fc151	-0.06244022
148	0xbb4e7199	-0.0031500815
149	0xbcc71263	-0.02430076
150	0xbe03e893	-0.12881689
151	0x3e1890f6	0.14899048
152	0x3d8849cb	0.066547
153	0xbd5e86ea	-0.054327883
154	0xbd850912	-0.06495871
155	0x3d9527dd	0.07282994
156	0xbc6b876e	-0.014375551
157	0x3cc425e7	0.023943854
158	0xbe2a1267	-0.16608582
159	0xbd815a09	-0.06316001
160	0x3ddd0bb8	0.10793251
161	0x3c1a3c6c	0.00941382
162	0x3ba59443	0.0050530746
163	0xbc2a0983	-0.010378244
164	0x3d7f2fb6	0.06230136
165	0x3c8d788b	0.017269393
166	0x3d442249	0.04788426
167	0xbdbd12a3	-0.0923207
168	0xbd1dd355	-0.03853162
169	0x3cd12fdb	0.025535515
170	0x3d9ff90d	0.078111745
171	0xbdfbfc90	-0.12304032
172	0x3d713929	0.058892403
173	0x3df0f630	0.117657065
174	0xbd45c322	-0.048281796
175	0xbdbff4a4	-0.09372833
176	0x3d520254	0.05127175
177	0x3d5d1fd0	0.053985417
178	0xbd93d61c	-0.072185725
179	0xbd8693e6	-0.06571178
180	0xbb9cf5cb	-0.004790043
181	0x3e0b8238	0.13623893
182	0x3c23648e	0.009972705
183	0xbd8873e5	-0.0666273
184	0xbe6e99d4	-0.23300868
185	0xbb86eaed	-0.004117361
186	0x3c3c27bf	0.011484086
187	0x3ccae513	0.024767434
188	0x3e48ea6d	0.19620676
189	0x3d165712	0.03670413
190	0x3e15481a	0.14578286
191	0x3cc01516	0.023447555
192	0xbd600d31	-0.05470008
193	0x3d4d3fdc	0.05010973
194	0xbd7c8af2	-0.061655946
195	0x3e2e816a	0.17041555
196	0x3cfddec7	0.030990018
197	0x3d9099f8	0.07060617
198	0x3cc3a408	0.023881927
199	0x3cdcb65d	0.026942426
200	0x3e2e6935	0.17032321
201	0xbb3b590d	-0.0028587014
202	0x3bc41ed5	0.005985121
203	0xbe29a737	-0.16567694
204	0x3c4c9103	0.012485745
205	0x3d93603f	0.07196092
206	0xbcfad672	-0.030619834
207	0x3d332d31	0.04374427
208	0xbd02f82f	-0.031974968
209	0xbcd451f2	-0.02591798
210	0xbc7ec7ad	-0.015550536
211	0x3d9ed8d2	0.07756199
212	0xbe0053e0	-0.12531996
213	0x3dcfcbbe	0.101462826
214	0x3da84542	0.08216335
215	0xbd3e4922	-0.046456464
216	0x3d4a6f50	0.049422562
217	0x3c2044b1	0.009782002
218	0xbde60de0	-0.11233115
219	0x3df642bd	0.12024448
220	0x3db8c590	0.09022057
221	0x3de04c74	0.10952082
222	0x3cd82d6e	0.02638885
223	0x3e08f2dc	0.13373893
224	0xbc34a118	-0.011024736
225	0xbcfddf8d	-0.030990386
226	0x3d247545	0.0401509
227	0xbc0a0910	-0.008425012
228	0x3de2ffd3	0.11083951
229	0x3d9579c9	0.07298619
230	0x3c8565d2	0.016283903
231	0xbafc0e32	-0.0019230305
232	0xbd063ebc	-0.032774672
233	0xbd6f62ad	-0.058443714
234	0x3d2d9b27	0.042384293
235	0x3e24de8d	0.16100521
236	0xbdc3fb33	-0.09569397
237	0xbc9981a4	-0.018738575
238	0xbe1a4192	-0.15064076
239	0x3da82e80	0.08211994
240	0x3c2a9fdb	0.010414089
241	0x3d2f4481	0.04278994
242	0x3df90725	0.12159566
243	0xbd8e036a	-0.06934245
244	0xbdaa1d89	-0.08306415
245	0xbc93aeb1	-0.018027635
246	0xbce27444	-0.02764333
247	0x3c87f926	0.016598295
248	0xbbace794	-0.0052766297
249	0x3d7ddda7	0.061978962
250	0x3e0fc797	0.14040981
251	0xbcd81fda	-0.026382376
252	0xbd8d281a	-0.068924144
253	0x3cb6e680	0.022326708
254	0xbc8bde13	-0.017073667
255	0xbd5b8a5f	-0.053598758

lstms.0.bias_ih_l0 f4 [256]
0	0x39bf8784	0.00036531326
1	0xb7373b19	-1.092141e-05
2	0xb7f5cc90	-2.9301533e-05
3	0xb87eab91	-6.0718103e-05
4	0x3901b4e1	0.00012369781
5	0xb85afc07	-5.220997e-05
6	0x383f796f	4.5651042e-05
7	0x39837d14	0.00025079458
8	0x38ee4c1a	0.000113628994
9	0xb802aa3d	-3.1152962e-05
10	0x3981aa63	0.00024731745
11	0xb8f72471	-0.000117846655
12	0x393ee0c9	0.00018203551
13	0x369011cf	4.2936076e-06
14	0x38ff4e73	0.0001217396
15	0x39483862	0.0001909449
16	0x3825a079	3.9488517e-05
17	0xb79a1400	-1.8367544e-05
18	0x37b3375f	2.1364247e-05
19	0xb98941d7	-0.0002617973
20	0x39a7629b	0.0003192619
21	0x3a09dcd7	0.0005259043
22	0xb5b86fb6	-1.374158e-06
23	0xb7cefdca	-2.4675293e-05
24	0x383f886d	4.5665005e-05
25	0x37dce34e	2.633189e-05
26	0x38208aa9	3.827611e-05
27	0x36d67134	6.3908756e-06
28	0x37898e2c	1.6397877e-05
29	0x383bd338	4.4780987e-05
30	0x391d8d13	0.00015025241
31	0xb8cb052c	-9.680758e-05
32	0xb9305c49	-0.00016819047
33	0x3866c672	5.502109e-05
34	0x380d0005	3.3617038e-05
35	0x398baac7	0.00026639385
36	0x39510dfb	0.00019937001
37	0x39a01e40	0.00030540116
38	0x361b0575	2.3099976e-06
39	0xb6933838	-4.387486e-06
40	0xb778f947	-1.4839991e-05
41	0x38311096	4.2215535e-05
42	0xba0c473e	-0.0005351192
43	0xb797eca7	-1.8110803e-05
44	0x37d8e598	2.585612e-05
45	0xb88c2155	-6.681929e-05
46	0xb709de92	-8.2176575e-06
47	0x38e1a3c0	0.00010759337
48	0x37c9679e	2.4009318e-05
49	0x37974c2b	1.8036071e-05
50	0x39a47e2b	0.0003137452
51	0x369d38ae	4.685563e-06
52	0xb85a135e	-5.1993287e-05
53	0x38e9d5b8	0.00011150114
54	0x38ac442e	8.2142986e-05
55	0x37e76f3d	2.7589145e-05
56	0xb94b47e3	-0.00019386369
57	0xb74903e4	-1.19814395e-05
58	0xb624ad63	-2.4538829e-06
59	0x3754f03a	1.2692117e-05
60	0xb650873a	-3.1073128e-06
61	0xb7769e2a	-1.4699568e-05
62	0x393a5495	0.00017769852
63	0xb7031c95	-7.814863e-06
64	0x39c1112a	0.00036824617
65	0xb7359572	-1.0823236e-05
66	0xb7f78c8d	-2.9510144e-05
67	0xb87d25a9	-6.0354974e-05
68	0x38fd8893	0.00012089419
69	0xb85f03ff	-5.3171065e-05
70	0x383f8ca7	4.566894e-05
71	0x39828f67	0.00024902375
72	0x38fa212f	0.0001192711
73	0xb7fb8088	-2.9981384e-05
74	0x39779b2b	0.0002361356
75	0xb8e68aa8	-0.000109930814
76	0x39406986	0.00018349857
77	0x368b2b68	4.147576e-06
78	0x38f87055	0.00011846485
79	0x394609a0	0.00018886337
80	0x3822a3ed	3.8776478e-05
81	0xb79b4210	-1.8508203e-05
82	0x37bbf62a	2.2406766e-05
83	0xb987bf06	-0.0002589153
84	0x39b27c7d	0.00034043557
85	0x3a04a0bc	0.00050593517
86	0xb5c368cf	-1.4559135e-06
87	0xb7d00878	-2.4799476e-05
88	0x3842f128	4.64778e-05
89	0x37da75d3	2.6042491e-05
90	0x381ec49f	3.7853253e-05
91	0x36cf9c92	6.187308e-06
92	0x37886afe	1.6262285e-05
93	0x3837e58b	4.384438e-05
94	0x39167e02	0.00014352056
95	0xb8c19550	-9.230769e-05
96	0xb92ea9c9	-0.00016657183
97	0x386488a0	5.4486678e-05
98	0x380bc0ab	3.331962e-05
99	0x398deb15	0.00027068765
100	0x394be449	0.00019444631
101	0x39a199b4	0.0003082283
102	0x3617d5ab	2.2625125e-06
103	0xb68e120c	-4.2340307e-06
104	0xb76feb22	-1.4300256e-05
105	0x3833ab26	4.283632e-05
106	0xba12b1fb	-0.0005595979
107	0xb793718a	-1.7576636e-05
108	0x37d56a64	2.544112e-05
109	0xb8875a93	-6.4541724e-05
110	0xb70d1b81	-8.410659e-06
111	0x38de69bd	0.0001060548
112	0x37cb67df	2.4247855e-05
113	0x379414bd	1.7652632e-05
114	0x39adb598	0.0003313243
115	0x369bcace	4.6429695e-06
116	0xb85588b4	-5.0910472e-05
117	0x38e06130	0.00010699255
118	0x38a82fc2	8.01976e-05
119	0x37dcf98d	2.634225e-05
120	0xb944555a	-0.00018723813
121	0xb747bab1	-1.1904792e-05
122	0xb6276532	-2.4943843e-06
123	0x37550f7b	1.2699394e-05
124	0xb63ab79b	-2.7823032e-06
125	0xb777a41c	-1.4760557e-05
126	0x393ba95c	0.00017896801
127	0xb70495f5	-7.902728e-06
128	0x3aba9daa	0.0014237661
129	0xb86b8ef3	-5.6161498e-05
130	0xb92fd3bf	-0.00016768182
131	0x39e9deef	0.00044607322
132	0xba0d2f73	-0.00053857936
133	0xb869d5aa	-5.575052e-05
134	0xb9fb671a	-0.00047951267
135	0x3a7c44f9	0.0009623315
136	0xba87432e	-0.0010319704
137	0xba449d7d	-0.0007500274
138	0x39435497	0.00018628161
139	0xb92b319e	-0.00016326315
140	0xb6efec59	-7.1502695e-06
141	0x396641f9	0.00021959086
142	0xb971b615	-0.00023051382
143	0x3a293bb5	0.00064557354
144	0xb9ef18be	-0.00045604067
145	0x38982550	7.254875e-05
146	0xba92f003	-0.0011210445
147	0xba5a8b18	-0.00083367666
148	0x3b178ed5	0.0023125906
149	0xb9eee5f7	-0.00045566235
150	0xb8c2127b	-9.254083e-05
151	0xba6f17a2	-0.0009120648
152	0x39f78b69	0.0004721538
153	0x38ee13a7	0.00011352385
154	0xb9aa425c	-0.00032474368
155	0xb9ca3f8a	-0.00038575783
156	0x39089e31	0.00013028902
157	0x389ba753	7.4221425e-05
158	0xba1aed81	-0.00059100246
159	0x38957ddc	7.128317e-05
160	0x3a98693c	0.0011628042
161	0xb998c944	-0.00029141654
162	0xb9401dbf	-0.00018321628
163	0xbb1615ec	-0.002290125
164	0x3a1065de	0.00055083435
165	0x3b027b62	0.0019909968
166	0xba97f8d9	-0.0011594548
167	0x39ed81ed	0.00045300965
168	0x3991f32f	0.0002783774
169	0x3a621e81	0.0008625761
170	0x3b0d1ee1	0.0021533298
171	0xb971e75c	-0.00023069739
172	0x3992f5b9	0.00028030368
173	0xba206fba	-0.0006120164
174	0x3a104971	0.00055041077
175	0x390d0b68	0.00013451057
176	0x3a86fa7f	0.0010298042
177	0xb96391ea	-0.00021702764
178	0xba6d6298	-0.0009055524
179	0xb7e23a03	-2.6968313e-05
180	0x3a534872	0.00080598064
181	0xb8b2d653	-8.5276224e-05
182	0xb9bf63ed	-0.0003650481
183	0x37e53218	2.7322254e-05
184	0x388d4dbc	6.737883e-05
185	0x392c6d17	0.00016443837
186	0x3928512d	0.00016051969
187	0x3a7c9ba9	0.0009636232
188	0x393fee80	0.00018304028
189	0x399473ec	0.00028315128
190	0x3a761702	0.00093875837
191	0x3a8caaff	0.0010732113
192	0x39c539c6	0.00037617813
193	0xb7380db3	-1.0970444e-05
194	0xb7f7128e	-2.9453335e-05
195	0xb873e8a4	-5.815238e-05
196	0x390206d6	0.00012400313
197	0xb85f2c09	-5.3208354e-05
198	0x3841569b	4.6095443e-05
199	0x3987f5b6	0.00025932275
200	0x38f27114	0.00011560522
201	0xb80054b5	-3.0596468e-05
202	0x397cb864	0.00024101284
203	0xb8e895b3	-0.00011090506
204	0x39464b76	0.00018910863
205	0x368d3858	4.2086867e-06
206	0x38f8ac02	0.000118576005
207	0x3943323b	0.00018615361
208	0x38204d90	3.821921e-05
209	0xb79ae71d	-1.8465851e-05
210	0x37b5ae39	2.165801e-05
211	0xb98583ff	-0.00025466082
212	0x39ac76ed	0.00032895003
213	0x3a0504b9	0.0005074251
214	0xb5ccf1a8	-1.5269516e-06
215	0xb7ce04db	-2.4559375e-05
216	0x38455241	4.7045065e-05
217	0x37e0d0aa	2.6800048e-05
218	0x3828acc9	4.021524e-05
219	0x36e1021e	6.705769e-06
220	0x378cdc7f	1.6791977e-05
221	0x383b97bf	4.47256e-05
222	0x391c9eee	0.00014936525
223	0xb8c6e081	-9.483193e-05
224	0xb92add8d	-0.00016294997
225	0x3867be03	5.5251654e-05
226	0x380e8a3f	3.398419e-05
227	0x398a305f	0.0002635745
228	0x39570231	0.00020504814
229	0x399d2979	0.00029976273
230	0x36149aaf	2.2143756e-06
231	0xb692d222	-4.3756017e-06
232	0xb75df898	-1.3230507e-05
233	0x383ad05d	4.453991e-05
234	0xba1115eb	-0.0005534577
235	0xb7948e6d	-1.7709297e-05
236	0x37da60af	2.6032647e-05
237	0xb8865b92	-6.406674e-05
238	0xb70a6edf	-8.251255e-06
239	0x38e6943e	0.00010994867
240	0x37c85ba9	2.388454e-05
241	0x379658f1	1.792281e-05
242	0x39a6de49	0.00031827603
243	0x369f4ade	4.747285e-06
244	0xb852b91a	-5.024029e-05
245	0x38e52424	0.00010926303
246	0x38a626b8	7.922709e-05
247	0x37e2e200	2.7046539e-05
248	0xb9516e2a	-0.00019972833
249	0xb7460e44	-1.1805041e-05
250	0xb6262062	-2.4754777e-06
251	0x374debae	1.2273826e-05
252	0xb6344be6	-2.6866269e-06
253	0xb771bccf	-1.440868e-05
254	0x3941de25	0.0001848867
255	0xb701dbc0	-7.740164e-06

lstms.0.bias_hh_l0 f4 [256]
0	0x39bf8784	0.00036531326
1	0xb7373b19	-1.092141e-05
2	0xb7f5cc90	-2.9301533e-05
3	0xb87eab91	-6.0718103e-05
4	0x3901b4e1	0.00012369781
5	0xb85afc07	-5.220997e-05
6	0x383f796f	4.5651042e-05
7	0x39837d14	0.00025079458
8	0x38ee4c1a	0.000113628994
9	0xb802aa3d	-3.1152962e-05
10	0x3981aa63	0.00024731745
11	0xb8f72471	-0.000117846655
12	0x393ee0c9	0.00018203551
13	0x369011cf	4.2936076e-06
14	0x38ff4e73	0.0001217396
15	0x39483862	0.0001909449
16	0x3825a079	3.9488517e-05
17	0xb79a1400	-1.8367544e-05
18	0x37b3375f	2.1364247e-05
19	0xb98941d7	-0.0002617973
20	0x39a7629b	0.0003192619
21	0x3a09dcd7	0.0005259043
22	0xb5b86fb6	-1.374158e-06
23	0xb7cefdca	-2.4675293e-05
24	0x383f886d	4.5665005e-05
25	0x37dce34e	2.633189e-05
26	0x38208aa9	3.827611e-05
27	0x36d67134	6.3908756e-06
28	0x37898e2c	1.6397877e-05
29	0x383bd338	4.4780987e-05
30	0x391d8d13	0.00015025241
31	0xb8cb052c	-9.680758e-05
32	0xb9305c49	-0.00016819047
33	0x3866c672	5.502109e-05
34	0x380d0005	3.3617038e-05
35	0x398baac7	0.00026639385
36	0x39510dfb	0.00019937001
37	0x39a01e40	0.00030540116
38	0x361b0575	2.3099976e-06
39	0xb6933838	-4.387486e-06
40	0xb778f947	-1.4839991e-05
41	0x38311096	4.2215535e-05
42	0xba0c473e	-0.0005351192
43	0xb797eca7	-1.8110803e-05
44	0x37d8e598	2.585612e-05
45	0xb88c2155	-6.681929e-05
46	0xb709de92	-8.2176575e-06
47	0x38e1a3c0	0.00010759337
48	0x37c9679e	2.4009318e-05
49	0x37974c2b	1.8036071e-05
50	0x39a47e2b	0.0003137452
51	0x369d38ae	4.685563e-06
52	0xb85a135e	-5.1993287e-05
53	0x38e9d5b8	0.00011150114
54	0x38ac442e	8.2142986e-05
55	0x37e76f3d	2.7589145e-05
56	0xb94b47e3	-0.00019386369
57	0xb74903e4	-1.19814395e-05
58	0xb624ad63	-2.4538829e-06
59	0x3754f03a	1.2692117e-05
60	0xb650873a	-3.1073128e-06
61	0xb7769e2a	-1.4699568e-05
62	0x393a5495	0.00017769852
63	0xb7031c95	-7.814863e-06
64	0x39c1112a	0.00036824617
65	0xb7359572	-1.0823236e-05
66	0xb7f78c8d	-2.9510144e-05
67	0xb87d25a9	-6.0354974e-05
68	0x38fd8893	0.00012089419
69	0xb85f03ff	-5.3171065e-05
70	0x383f8ca7	4.566894e-05
71	0x39828f67	0.00024902375
72	0x38fa212f	0.0001192711
73	0xb7fb8088	-2.9981384e-05
74	0x39779b2b	0.0002361356
75	0xb8e68aa8	-0.000109930814
76	0x39406986	0.00018349857
77	0x368b2b68	4.147576e-06
78	0x38f87055	0.00011846485
79	0x394609a0	0.00018886337
80	0x3822a3ed	3.8776478e-05
81	0xb79b4210	-1.8508203e-05
82	0x37bbf62a	2.2406766e-05
83	0xb987bf06	-0.0002589153
84	0x39b27c7d	0.00034043557
85	0x3a04a0bc	0.00050593517
86	0xb5c368cf	-1.4559135e-06
87	0xb7d00878	-2.4799476e-05
88	0x3842f128	4.64778e-05
89	0x37da75d3	2.6042491e-05
90	0x381ec49f	3.7853253e-05
91	0x36cf9c92	6.187308e-06
92	0x37886afe	1.6262285e-05
93	0x3837e58b	4.384438e-05
94	0x39167e02	0.00014352056
95	0xb8c19550	-9.230769e-05
96	0xb92ea9c9	-0.00016657183
97	0x386488a0	5.4486678e-05
98	0x380bc0ab	3.331962e-05
99	0x398deb15	0.00027068765
100	0x394be449	0.00019444631
101	0x39a199b4	0.0003082283
102	0x3617d5ab	2.2625125e-06
103	0xb68e120c	-4.2340307e-06
104	0xb76feb22	-1.4300256e-05
105	0x3833ab26	4.283632e-05
106	0xba12b1fb	-0.0005595979
107	0xb793718a	-1.7576636e-05
108	0x37d56a64	2.544112e-05
109	0xb8875a93	-6.4541724e-05
110	0xb70d1b81	-8.410659e-06
111	0x38de69bd	0.0001060548
112	0x37cb67df	2.4247855e-05
113	0x379414bd	1.7652632e-05
114	0x39adb598	0.0003313243
115	0x369bcace	4.6429695e-06
116	0xb85588b4	-5.0910472e-05
117	0x38e06130	0.00010699255
118	0x38a82fc2	8.01976e-05
119	0x37dcf98d	2.634225e-05
120	0xb944555a	-0.00018723813
121	0xb747bab1	-1.1904792e-05
122	0xb6276532	-2.4943843e-06
123	0x37550f7b	1.2699394e-05
124	0xb63ab79b	-2.7823032e-06
125	0xb777a41c	-1.4760557e-05
126	0x393ba95c	0.00017896801
127	0xb70495f5	-7.902728e-06
128	0x3aba9daa	0.0014237661
129	0xb86b8ef3	-5.6161498e-05
130	0xb92fd3bf	-0.00016768182
131	0x39e9deef	0.00044607322
132	0xba0d2f73	-0.00053857936
133	0xb869d5aa	-5.575052e-05
134	0xb9fb671a	-0.00047951267
135	0x3a7c44f9	0.0009623315
136	0xba87432e	-0.0010319704
137	0xba449d7d	-0.0007500274
138	0x39435497	0.00018628161
139	0xb92b319e	-0.00016326315
140	0xb6efec59	-7.1502695e-06
141	0x396641f9	0.00021959086
142	0xb971b615	-0.00023051382
143	0x3a293bb5	0.00064557354
144	0xb9ef18be	-0.00045604067
145	0x38982550	7.254875e-05
146	0xba92f003	-0.0011210445
147	0xba5a8b18	-0.00083367666
148	0x3b178ed5	0.0023125906
149	0xb9eee5f7	-0.00045566235
150	0xb8c2127b	-9.254083e-05
151	0xba6f17a2	-0.0009120648
152	0x39f78b69	0.0004721538
153	0x38ee13a7	0.00011352385
154	0xb9aa425c	-0.00032474368
155	0xb9ca3f8a	-0.00038575783
156	0x39089e31	0.00013028902
157	0x389ba753	7.4221425e-05
158	0xba1aed81	-0.00059100246
159	0x38957ddc	7.128317e-05
160	0x3a98693c	0.0011628042
161	0xb998c944	-0.00029141654
162	0xb9401dbf	-0.00018321628
163	0xbb1615ec	-0.002290125
164	0x3a1065de	0.00055083435
165	0x3b027b62	0.0019909968
166	0xba97f8d9	-0.0011594548
167	0x39ed81ed	0.00045300965
168	0x3991f32f	0.0002783774
169	0x3a621e81	0.0008625761
170	0x3b0d1ee1	0.0021533298
171	0xb971e75c	-0.00023069739
172	0x3992f5b9	0.00028030368
173	0xba206fba	-0.0006120164
174	0x3a104971	0.00055041077
175	0x390d0b68	0.00013451057
176	0x3a86fa7f	0.0010298042
177	0xb96391ea	-0.00021702764
178	0xba6d6298	-0.0009055524
179	0xb7e23a03	-2.6968313e-05
180	0x3a534872	0.00080598064
181	0xb8b2d653	-8.5276224e-05
182	0xb9bf63ed	-0.0003650481
183	0x37e53218	2.7322254e-05
184	0x388d4dbc	6.737883e-05
185	0x392c6d17	0.00016443837
186	0x3928512d	0.00016051969
187	0x3a7c9ba9	0.0009636232
188	0x393fee80	0.00018304028
189	0x399473ec	0.00028315128
190	0x3a761702	0.00093875837
191	0x3a8caaff	0.0010732113
192	0x39c539c6	0.00037617813
193	0xb7380db3	-1.0970444e-05
194	0xb7f7128e	-2.9453335e-05
195	0xb873e8a4	-5.815238e-05
196	0x390206d6	0.00012400313
197	0xb85f2c09	-5.3208354e-05
198	0x3841569b	4.6095443e-05
199	0x3987f5b6	0.00025932275
200	0x38f27114	0.00011560522
201	0xb80054b5	-3.0596468e-05
202	0x397cb864	0.00024101284
203	0xb8e895b3	-0.00011090506
204	0x39464b76	0.00018910863
205	0x368d3858	4.2086867e-06
206	0x38f8ac02	0.000118576005
207	0x3943323b	0.00018615361
208	0x38204d90	3.821921e-05
209	0xb79ae71d	-1.8465851e-05
210	0x37b5ae39	2.165801e-05
211	0xb98583ff	-0.00025466082
212	0x39ac76ed	0.00032895003
213	0x3a0504b9	0.0005074251
214	0xb5ccf1a8	-1.5269516e-06
215	0xb7ce04db	-2.4559375e-05
216	0x38455241	4.7045065e-05
217	0x37e0d0aa	2.6800048e-05
218	0x3828acc9	4.021524e-05
219	0x36e1021e	6.705769e-06
220	0x378cdc7f	1.6791977e-05
221	0x383b97bf	4.47256e-05
222	0x391c9eee	0.00014936525
223	0xb8c6e081	-9.483193e-05
224	0xb92add8d	-0.00016294997
225	0x3867be03	5.5251654e-05
226	0x380e8a3f	3.398419e-05
227	0x398a305f	0.0002635745
228	0x39570231	0.00020504814
229	0x399d2979	0.00029976273
230	0x36149aaf	2.2143756e-06
231	0xb692d222	-4.3756017e-06
232	0xb75df898	-1.3230507e-05
233	0x383ad05d	4.453991e-05
234	0xba1115eb	-0.0005534577
235	0xb7948e6d	-1.7709297e-05
236	0x37da60af	2.6032647e-05
237	0xb8865b92	-6.406674e-05
238	0xb70a6edf	-8.251255e-06
239	0x38e6943e	0.00010994867
240	0x37c85ba9	2.388454e-05
241	0x379658f1	1.792281e-05
242	0x39a6de49	0.00031827603
243	0x369f4ade	4.747285e-06
244	0xb852b91a	-5.024029e-05
245	0x38e52424	0.00010926303
246	0x38a626b8	7.922709e-05
247	0x37e2e200	2.7046539e-05
248	0xb9516e2a	-0.00019972833
249	0xb7460e44	-1.1805041e-05
250	0xb6262062	-2.4754777e-06
251	0x374debae	1.2273826e-05
252	0xb6344be6	-2.6866269e-06
253	0xb771bccf	-1.440868e-05
254	0x3941de25	0.0001848867
255	0xb701dbc0	-7.740164e-06

lstms.1.weight_ih_l0 f4 [256, 64]
0	0xbd20ef69	-0.03929082
1	0xbcb3c131	-0.021942707
2	0x3c978956	0.018498104
3	0x3d8f476e	0.06996046
4	0x3c87d0b9	0.016579019
5	0xbb323c1f	-0.002719648
6	0xbe00a6a1	-0.12563564
7	0x3da13560	0.078715086
8	0xbc2e61d9	-0.010643446
9	0x3d564e79	0.05232093
10	0xbd9b51c2	-0.075839534
11	0xbd802241	-0.062565334
12	0x3dbf114b	0.0932947
13	0x3c5181a6	0.012787258
14	0xbcfdfb27	-0.031003548
15	0xbd620b80	-0.05518675
16	0xbd33f29e	-0.04393255
17	0xbdbc3e47	-0.09191566
18	0xbca3a7c3	-0.019977456
19	0xbdd081a5	-0.10180978
20	0xbc2986da	-0.0103470925
21	0xbd9fabd4	-0.077964455
22	0xbe00a0f9	-0.12561406
23	0xbd98e9e2	-0.074664846
24	0xbd847775	-0.06468097
25	0x3d248314	0.04016407
26	0x3e1fcdd1	0.15605856
27	0xbdba994e	-0.09111272
28	0x3d736e25	0.059431214
29	0x3d956931	0.07295454
30	0x3d70526d	0.058672357
31	0x3db614f2	0.08890714
32	0xbd17fb3e	-0.037104838
33	0x3c48385c	0.012220468
34	0xbd87756d	-0.06614194
35	0x3cf0b39c	0.02938252
36	0x3def0893	0.11671557
37	0xbe23cca0	-0.15996027
38	0x3e7f525f	0.24933766
39	0x3d2aed0f	0.041729983
40	0xbcd52274	-0.026017405
41	0x3cb308ac	0.021854721
42	0xbdb33784	-0.08750823
43	0xbd72e247	-0.059297826
44	0x3d9b0ae5	0.07570437
45	0xbe16f9ab	-0.14743678
46	0xbd8c3e2b	-0.06847795
47	0x3df27fa3	0.11840751
48	0xbddc2e7e	-0.10751055
49	0xbd4998a8	-0.04921785
50	0xbc9ac830	-0.018894285
51	0xbdb88fd6	-0.090118095
52	0x3dd7a97c	0.105303735
53	0xbd14d88d	-0.03633933
54	0xbb984af8	-0.004647609
55	0x3c7a5969	0.015280106
56	0xbd5ba05f	-0.05361974
57	0xbd0bcd37	-0.034131255
58	0x3a723dbd	0.0009240767
59	0xbdb9ed9c	-0.090785235
60	0xbe4c2010	-0.19934106
61	0xbdf2857e	-0.11841868
62	0xbe0cf185	-0.13764007
63	0x3c87aad1	0.016560944
64	0x3baf7fc1	0.0053558056
65	0xbcd58d8d	-0.026068473
66	0xbc818392	-0.015809808
67	0x3e1c08ad	0.15237685
68	0xbd787db1	-0.060666744
69	0x3d64fa46	0.05590274
70	0xbc82be8d	-0.015960002
71	0xbd8867e8	-0.066604435
72	0x3db64b44	0.089010745
73	0xba6a4764	-0.00089370296
74	0x3cf61697	0.030040069
75	0xbc97f174	-0.018547751
76	0x3d08bfe3	0.033386122
77	0x3dfb406e	0.12268148
78	0xb895531d	-7.120355e-05
79	0xbde3eb53	-0.11128869
80	0xbd3c0fef	-0.045913633
81	0x3e28072c	0.16408986
82	0xbe0a02d9	-0.13477649
83	0xba110a67	-0.0005532861
84	0xbd35fda4	-0.044431344
85	0xbddf4a77	-0.10902875
86	0x3c8a16ea	0.01685663
87	0x3b63d602	0.003476501
88	0xbd39024f	-0.045168217
89	0xbcc23516	-0.023706954
90	0x3e019e2f	0.12657999
91	0x3cb3a5c6	0.021929633
92	0xbd9ca453	-0.0764853
93	0x3baae8d1	0.005215742
94	0x3ce2b2b9	0.027673112
95	0x3cb8a331	0.022538753
96	0x3d1ef7e0	0.03881061
97	0x3dd1a1c7	0.10235935
98	0x3d95b3a0	0.073096514
99	0xbd46836d	-0.04846518
100	0xbb27ed9a	-0.00256238
101	0x3d9d2f61	0.076750524
102	0x3d8410a8	0.064484894
103	0x3e47950a	0.19490448
104	0xbc5c7637	-0.013455919
105	0x3cf8efc9	0.030387776
106	0xba41cd40	-0.00073929504
107	0xbac8db4c	-0.0015324145
108	0x3bc3eae9	0.005978931
109	0x3da6f087	0.08151346
110	0x3dc06230	0.09393728
111	0x3ce63414	0.028101005
112	0x3cdc01b5	0.026856283
113	0x3dc11938	0.09428638
114	0xbd413b3e	-0.04717564
115	0xbba538de	-0.0050421795
116	0x3cb2fe5a	0.0218498
117	0xbc9ac54d	-0.018892908
118	0xbc9dbeb8	-0.01925598
119	0xbd6b3cc8	-0.057431012
120	0xbd4635c4	-0.04839112
121	0x3cf0fad8	0.029416487
122	0x3d8f885c	0.0700843
123	0xbd04031c	-0.032229528
124	0x3cdc5ef0	0.026900738
125	0xbd444914	-0.047921255
126	0xbdda9cdd	-0.106744505
127	0xbd5bcea4	-0.053663865
128	0xbac88435	-0.001529819
129	0x3e1d2470	0.15345931
130	0x3ddafd16	0.106928036
131	0x3e4600d5	0.19336255
132	0xbd2e960c	-0.042623565
133	0xbe0bbf62	-0.13647225
134	0x3d13fd58	0.03613028
135	0xbc6f14b8	-0.014592342
136	0xbdd0b288	-0.10190302
137	0x3e049b82	0.12949947
138	0xbd3c91e8	-0.046037585
139	0x3d3ebe9e	0.046568505
140	0xbd09897a	-0.033578373
141	0x3e0104be	0.12599465
142	0xbdd2e5cd	-0.10297737
143	0x3d89bff5	0.06726066
144	0xbd3f9c77	-0.046780076
145	0xbd6f2843	-0.058388006
146	0xbd61c9f4	-0.055124238
147	0x3ca7115c	0.02039402
148	0x3daefa27	0.085438065
149	0x3dcca3f3	0.09992208
150	0xbd909bdd	-0.070609786
151	0xbd64c68f	-0.055853423
152	0x3d5a7095	0.053330023
153	0xbcb55c26	-0.022138666
154	0xbd0d7c1c	-0.034542188
155	0xbddef6ea	-0.10886939
156	0x3d2ce0bc	0.04220651
157	0x3cd9b5d2	0.026575956
158	0xbe423b7a	-0.18968001
159	0x3caa7ea3	0.020812338
160	0x3e111058	0.14166391
161	0x3dfbea03	0.123004936
162	0x3d963714	0.07334724
163	0xbdc7596e	-0.09733854
164	0xbd832643	-0.06403782
165	0x39edb733	0.00045340657
166	0x3d727814	0.059196547
167	0x3e03f0dd	0.12884851
168	0x3db59aab	0.08867391
169	0x3e03167d	0.12801547
170	0xbdd4d521	-0.103922136
171	0x3e2e39ce	0.17014238
172	0x3df60de8	0.12014371
173	0xbd5c8ce9	-0.05384532
174	0x3c8ae37d	0.016954178
175	0xbc85c83e	-0.016330834
176	0x3d4ff410	0.050769866
177	0xbd93036b	-0.07178386
178	0xbd53cd86	-0.051709674
179	0xbdaacde4	-0.08340052
180	0x3d24c2b0	0.04022473
181	0x3cea6739	0.028613674
182	0xbdc987c0	-0.098403454
183	0x3d30f23e	0.04319977
184	0xbdb2d8da	-0.087327674
185	0xbdf17d6f	-0.11791503
186	0x3cd8aba2	0.026449028
187	0x3c535ee2	0.01290104
188	0x3d1d4fdc	0.038406238
189	0x3d4f87c8	0.0506666
190	0xbdbeef8b	-0.09323033
191	0xbe26753a	-0.16255656
192	0x3b96724c	0.004591262
193	0x3c806466	0.015672874
194	0xbc8ebde9	-0.01742454
195	0x3d386fe8	0.045028597
196	0xbd16b730	-0.036795795
197	0x3d2b0642	0.041754015
198	0x3d5ea4c1	0.05435634
199	0x3d7c5a9c	0.06160985
200	0x3d4a5f3d	0.049407233
201	0x3df148a9	0.11781437
202	0x3d20add0	0.03922826
203	0x3cd3b034	0.025840856
204	0x3d021e78	0.03176734
205	0x3db7e078	0.08978361
206	0x3dfe24ca	0.12409361
207	0x3bd77169	0.006574799
208	0x3df02001	0.11724854
209	0xbd984dad	-0.074366905
210	0x3d44c924	0.048043385
211	0x3d640d53	0.05567677
212	0x3e185f03	0.14879994
213	0xbdb7ca3c	-0.0897412
214	0xbddd6a42	-0.10811283
215	0x3d7a6e7d	0.061140526
216	0xbc7fdfe9	-0.015617349
217	0x3d9f7b9b	0.07787248
218	0x3d5e0f9c	0.054214105
219	0xbb44d2ea	-0.003003294
220	0x3e35803c	0.17724699
221	0x3d4509a4	0.048104897
222	0xbd4b29c8	-0.049600393
223	0x3b61036c	0.0034334315
224	0x3da26c5d	0.07930825
225	0xbce84704	-0.028354175
226	0xbd3938b5	-0.045220096
227	0xbdfc75ad	-0.123271324
228	0x3c0084de	0.007844178
229	0x3d06e1cf	0.03293019
230	0x3da02c25	0.0782092
231	0x3d245cf5	0.040127713
232	0xbbaf6ed6	-0.005353789
233	0xbd9cf94b	-0.07664736
234	0x3c7fc591	0.015611068
235	0x3cf036ae	0.029322948
236	0x3e2382ee	0.15967914
237	0x3dbbfbeb	0.09178909
238	0x3d1c5090	0.038162768
239	0xbd8e9f49	-0.06963975
240	0x3cf6da1e	0.030133303
241	0xbdb5cc76	-0.088768885
242	0xbe34c579	-0.17653455
243	0xbd863a9f	-0.0655415
244	0x3cf49340	0.02985537
245	0x3cf612b4	0.030038215
246	0xbc912e94	-0.017722405
247	0xbd9f4662	-0.07777096
248	0x3de9e06f	0.114197604
249	0xbc4d2b6e	-0.0125225615
250	0x3d50d0b3	0.05098028
251	0x3dec4173	0.11535921
252	0xbd55a3c4	-0.052158132
253	0xbd99e831	-0.0751499
254	0xbc9972ce	-0.018731501
255	0x3e433f9d	0.19067235

lstms.1.weight_hh_l0 f4 [256, 64]
0	0xbcccbac4	-0.0249914
1	0x3db9fa3b	0.09080931
2	0xbd41aef2	-0.04728598
3	0x3db1e5b2	0.08686389
4	0x3c9efaf4	0.019406773
5	0x3cd4106b	0.025886735
6	0xbd57425f	-0.05255353
7	0xbd5dd8d3	-0.054161858
8	0x3b0830b5	0.0020780985
9	0xbe186b0b	-0.14884584
10	0xbca12e89	-0.01967551
11	0xbcf0ccb3	-0.029394483
12	0x3cbdae70	0.023154467
13	0xbd09326a	-0.033495344
14	0xbcad6591	-0.021166595
15	0x3b22adf6	0.0024822927
16	0x3c6a2984	0.014292125
17	0x3cdc0642	0.026858453
18	0x3df632df	0.12021422
19	0xbcd5161e	-0.026011523
20	0xbcf6a9d5	-0.03011028
21	0xbe036e42	-0.12835029
22	0xbe205e16	-0.15660891
23	0xbd84900c	-0.06472787
24	0x3d83f017	0.06442278
25	0x3da7e2a0	0.08197522
26	0xbc86050d	-0.01635983
27	0xbd0d63ea	-0.034519114
28	0x3c225980	0.009909034
29	0x3b69ae12	0.0035656733
30	0xbdb5daba	-0.088796094
31	0xbd6d0c0d	-0.05787282
32	0xbd8d269f	-0.06892132
33	0xbe103168	-0.14081347
34	0xbd66986d	-0.05629771
35	0x3c6b36d1	0.014356331
36	0x3d624f58	0.05525145
37	0x3d545b56	0.051844917
38	0xbc7a1e9a	-0.015266085
39	0xbd9028c3	-0.07039025
40	0x3cc19873	0.023632264
41	0xbc664c4e	-0.014056278
42	0xbd114808	-0.035469085
43	0xbda683e1	-0.08130623
44	0x3cfd9d00	0.030958652
45	0x3d0a5e5f	0.033781406
46	0xbd42adb9	-0.047528956
47	0xbd411412	-0.04713828
48	0x3da15307	0.07877164
49	0xbdbd4861	-0.09242321
50	0xbc535416	-0.012898466
51	0x3cd4d967	0.025982572
52	0xbd844857	-0.0645911
53	0x3d9cf6df	0.076642744
54	0xbd624557	-0.05524191
55	0xbd9ce7af	-0.07661378
56	0x3da608c9	0.081071444
57	0xbd3d5d8a	-0.046231784
58	0xbd1a63af	-0.037692722
59	0xbe3d7439	-0.18501367
60	0x3db8c219	0.09021396
61	0xbd452dea	-0.04813949
62	0xbc9bc811	-0.019016298
63	0x3c92039c	0.017823987
64	0x3aa41492	0.0012518337
65	0x3d30a510	0.043126166
66	0x3d10697a	0.03525684
67	0xbd4233a8	-0.047412544
68	0xbbb7eda3	-0.0056130453
69	0x3cafc77d	0.021457428
70	0x3d97c5b0	0.07410753
71	0x3de52186	0.11188035
72	0xbc85d2e1	-0.016335906
73	0xbdc178c6	-0.09446864
74	0x3d4750a6	0.048660897
75	0xbd3c9467	-0.046039965
76	0xbd2966a8	-0.041357666
77	0x3d3c7308	0.04600814
78	0xbe4d2c0f	-0.20036338
79	0x3dbe19a4	0.09282234
80	0x3c333dc9	0.010940024
81	0x3e4e94f6	0.20174012
82	0xbbc2f404	-0.005949499
83	0x3e51054e	0.2041218
84	0xbd42ea34	-0.047586635
85	0x3e04b260	0.1295867
86	0x3c79b32a	0.01524047
87	0x3dc05184	0.09390548
88	0x3e3097d1	0.17245413
89	0xbd19c9ce	-0.03754597
90	0xbca6c624	-0.020358153
91	0x3c0ccfeb	0.008594493
92	0xbcca54ed	-0.024698699
93	0x3dc58e0f	0.09646236
94	0xbd6e919e	-0.05824434
95	0xbcee8e2f	-0.029120533
96	0xbe1a9951	-0.15097548
97	0x3c4783dd	0.012177435
98	0x3dc0d669	0.094158955
99	0xbd201ec2	-0.039091833
100	0xbc7348f9	-0.014848941
101	0x3bd4c4e3	0.0064931973
102	0x3b264692	0.0025371653
103	0x3db78926	0.08961706
104	0x3d19e568	0.037572294
105	0x3dc547e1	0.096328504
106	0xbdba4fec	-0.09097275
107	0xbcf81fe6	-0.030288648
108	0xbc496e7f	-0.012294411
109	0x3e36b8ee	0.17843983
110	0x3d852e5e	0.065029845
111	0xbcea154e	-0.028574612
112	0x3cb7f9c6	0.022457968
113	0xbd667452	-0.056263275
114	0xbbbbf28c	-0.005735701
115	0xbded98c4	-0.11601403
116	0x3d45aaf3	0.048258733
117	0xbd01c7a5	-0.031684536
118	0x3d2d3e46	0.042295717
119	0xbe002e96	-0.12517771
120	0xb9b18a13	-0.00033862944
121	0xbd983418	-0.07431811
122	0x3dabd1c4	0.08389619
123	0x3d8fd139	0.07022328
124	0x3d87414f	0.066042535
125	0xbd763c14	-0.06011589
126	0xbdc586ad	-0.09644828
127	0x3e27203e	0.16320893
128	0xbc5238bf	-0.012830912
129	0xbdc0ec38	-0.09420055
130	0xbdc2c987	-0.095110945
131	0xbd2959b3	-0.04134531
132	0x3dd30f50	0.10305655
133	0xbccc304f	-0.02492538
134	0x3d837e81	0.06420613
135	0x3bcfffc2	0.0063476274
136	0xbd2430de	-0.040085666
137	0xbd2b00cc	-0.041748807
138	0xbd6099e7	-0.054834273
139	0x3da6db02	0.08147241
140	0x3cd3513c	0.025795572
141	0xbd4a3182	-0.04936362
142	0x3e401dbe	0.18761346
143	0xbcbb0355	-0.022828737
144	0xbaa08034	-0.0012245239
145	0x3d529a7f	0.05141687
146	0x3d865d82	0.06560804
147	0xbd96d1f3	-0.073642634
148	0x3e45860f	0.1928942
149	0xbe39819c	-0.18115848
150	0xbe02f60b	-0.1278917
151	0xbd5788e4	-0.052620783
152	0xbaf6ce18	-0.0018829731
153	0x3dc09d42	0.094049945
154	0xbd32abee	-0.043620996
155	0xbd623058	-0.055221885
156	0xbd668151	-0.05627567
157	0xbd913b16	-0.07091348
158	0x3df7a300	0.12091637
159	0x3d2c4759	0.04206023
160	0xbce323e2	-0.027727071
161	0xbae345bb	-0.0017339507
162	0xbb58b032	-0.0033064005
163	0x3ba902c0	0.0051577985
164	0x3cd4562b	0.025919994
165	0x3d97b848	0.07408196
166	0xbc5c0400	-0.013428688
167	0xbd4443a4	-0.04791607
168	0xbd823888	-0.06358439
169	0xbe0e7de2	-0.13915208
170	0x3d5b499f	0.053537007
171	0xbe556f35	-0.20843203
172	0x3d7f6ad9	0.062357757
173	0xbc4a759f	-0.012357145
174	0x3e4478f4	0.19186765
175	0xbe1ba313	-0.15198927
176	0xbc193e21	-0.009353192
177	0x3e4056ea	0.18783155
178	0x3b100edb	0.002198151
179	0xbd627b24	-0.055293217
180	0xbd7666d1	-0.060156647
181	0x3d62b8b8	0.055351943
182	0x3e3830fd	0.17987438
183	0xbdc0714d	-0.093966104
184	0xbdc5b251	-0.09653152
185	0x3de20924	0.110369
186	0x3dc764cd	0.09736023
187	0x3c857e4f	0.01629558
188	0xbd3ba732	-0.045813747
189	0xbdb72ab2	-0.0894369
190	0xbdc56dc8	-0.0964008
191	0xbc167f7a	-0.009185666
192	0xbccbc05a	-0.024871994
193	0x3bb6cf94	0.0055789445
194	0xbd76b76e	-0.060233526
195	0xbc65247c	-0.013985749
196	0x3db8d4bc	0.09024951
197	0xbca67073	-0.020317292
198	0xbd33ae60	-0.04386747
199	0x3d7f7dd4	0.06237586
200	0x3c728f43	0.014804664
201	0x3d034484	0.032047763
202	0x3cef454d	0.02920785
203	0xbdafc944	-0.0858331
204	0xbd80972c	-0.06278834
205	0x3cf0200a	0.029312152
206	0xbd0f83dd	-0.035037864
207	0x3db0df9b	0.08636399
208	0x3cb3fee0	0.02197212
209	0x3d523218	0.051317304
210	0xbd87a5e6	-0.066234395
211	0xbb676308	-0.003530683
212	0x3e5bc9b1	0.21463658
213	0x3dce309c	0.10067865
214	0x3d9013b3	0.07035007
215	0xbd26c89e	-0.040718667
216	0x3db9e185	0.090762176
217	0x3dadc9b5	0.08485738
218	0xbd0dc678	-0.034613103
219	0xbbf31c8b	-0.007419174
220	0xbdd621a1	-0.10455633
221	0x3cfda851	0.030964049
222	0xbbbca9bc	-0.0057575386
223	0xbd2948b6	-0.04132911
224	0xbd0ce6af	-0.034399685
225	0x3e01ca78	0.12674892
226	0xbddfa0a4	-0.10919312
227	0x3d8eb003	0.06967165
228	0xbcb9c628	-0.022677496
229	0xbd16fc05	-0.03686144
230	0xbd12b2b8	-0.03581497
231	0x3be63196	0.007024954
232	0xbba0b6dc	-0.004904611
233	0x3e266045	0.16247661
234	0xbde9b950	-0.11412299
235	0xbdce7b92	-0.10082163
236	0xbd064bd0	-0.032787144
237	0xbd265832	-0.040611453
238	0x3d9bf2db	0.076146804
239	0x3d3e60c2	0.046478994
240	0xbcc51963	-0.024059957
241	0x3da10107	0.07861524
242	0x3da176c9	0.078839846
243	0x3c88677f	0.016650913
244	0xbdf976a8	-0.12180835
245	0x3df5b186	0.119967505
246	0x3d11a266	0.035555266
247	0xbd7f9aea	-0.062403597
248	0xbd8ccfac	-0.06875548
249	0x3cd3d5e5	0.025858829
250	0x3da4c6ab	0.080457054
251	0xbe455074	-0.19268972
252	0xbd4c1746	-0.049826883
253	0x3dfd9eeb	0.12383827
254	0x3a0de1c0	0.00054123625
255	0x3d4668e7	0.048439886

lstms.1.bias_ih_l0 f4 [256]
0	0xb90fc714	-0.00013711705
1	0xb8721327	-5.7715133e-05
2	0x38acea82	8.2452796e-05
3	0xb9c0f9d9	-0.00036807245
4	0xb8cb0352	-9.680413e-05
5	0x387dca2a	6.050818e-05
6	0x397649b0	0.00023487839
7	0xb79bf91b	-1.8593439e-05
8	0xb8ccfae5	-9.774211e-05
9	0x374798eb	1.1896928e-05
10	0x39554f22	0.00020342742
11	0x39876b39	0.00025829094
12	0x38181845	3.6262227e-05
13	0xb8308530	-4.208571e-05
14	0xb883866a	-6.271603e-05
15	0x37855dd1	1.5898522e-05
16	0x3811a173	3.4721055e-05
17	0xb8bfe966	-9.1510636e-05
18	0x399a2ecf	0.00029408044
19	0x39086fdd	0.00013011643
20	0x39e8dde3	0.00044415807
21	0x3665ea6a	3.4260106e-06
22	0x38596e85	5.183976e-05
23	0x38c390e0	9.32531e-05
24	0xb91c6400	-0.00014914572
25	0x37ea15fb	2.790521e-05
26	0xb8bacfc5	-8.907871e-05
27	0x385ecb94	5.311852e-05
28	0xb79a782c	-1.841419e-05
29	0xb887030d	-6.43787e-05
30	0x38bf9b11	9.136473e-05
31	0xb866a455	-5.498932e-05
32	0x38a32971	7.780165e-05
33	0x3814041b	3.5289773e-05
34	0x38cbec15	9.723768e-05
35	0x388884e6	6.5097396e-05
36	0x384ece4d	4.930636e-05
37	0x39a1278c	0.00030737778
38	0xb9751227	-0.00023371783
39	0x38720b9d	5.7708112e-05
40	0x3a082066	0.0005192816
41	0x38a66ede	7.9361474e-05
42	0x3937d314	0.00017530873
43	0x39210180	0.00015354715
44	0x3588efc6	1.0202573e-06
45	0x390722ff	0.0001288764
46	0x38c65626	9.457422e-05
47	0x34db210a	4.0815968e-07
48	0xb869630e	-5.564378e-05
49	0xb99d08ad	-0.00029951837
50	0x37ea6c6a	2.7945458e-05
51	0xb9562ec6	-0.00020426055
52	0xb8cd6bf1	-9.7952674e-05
53	0x38cf1951	9.875245e-05
54	0x3927aa41	0.00015989786
55	0x39070ac6	0.00012878617
56	0xb9226258	-0.0001548616
57	0x38dcc684	0.00010527394
58	0xb910540f	-0.00013764224
59	0x3902cd06	0.00012474143
60	0xb7645182	-1.36088365e-05
61	0x3a2f5887	0.0006688912
62	0x3839fe49	4.434426e-05
63	0x386adc92	5.599537e-05
64	0xb90f1bb7	-0.00013647867
65	0xb8733151	-5.7981644e-05
66	0x38aac168	8.1422564e-05
67	0xb9c0e02e	-0.0003678812
68	0xb8c9c22d	-9.620595e-05
69	0x3880b2ad	6.1367966e-05
70	0x3978e918	0.00023737957
71	0xb79b6590	-1.8524734e-05
72	0xb8d03574	-9.928169e-05
73	0x37454ba7	1.1759729e-05
74	0x394f0633	0.00019743368
75	0x3984ff58	0.00025367248
76	0x3817900d	3.6135363e-05
77	0xb8300908	-4.197008e-05
78	0xb883238f	-6.25319e-05
79	0x37844ade	1.5770489e-05
80	0x380f7f4a	3.4212404e-05
81	0xb8bf4647	-9.12068e-05
82	0x399b5856	0.0002962972
83	0x3909830b	0.00013114155
84	0x39e791da	0.0004416842
85	0x36626227	3.3733756e-06
86	0x385529d6	5.082212e-05
87	0x38bc08fb	8.966211e-05
88	0xb919e03b	-0.0001467475
89	0x37e819b5	2.7668526e-05
90	0xb8b9224b	-8.827875e-05
91	0x385c53df	5.25302e-05
92	0xb79c73fd	-1.865066e-05
93	0xb88582d7	-6.366305e-05
94	0x38c0a0b6	9.185208e-05
95	0xb8660010	-5.483633e-05
96	0x38a56e3e	7.888347e-05
97	0x38152b62	3.556477e-05
98	0x38cde12f	9.8171055e-05
99	0x3889a0f8	6.562652e-05
100	0x384e8c6f	4.9245016e-05
101	0x399ff242	0.0003050734
102	0xb96fc021	-0.0002286439
103	0x386bd26a	5.622433e-05
104	0x3a0700fd	0.00051499886
105	0x38a37e85	7.796012e-05
106	0x3934eb5e	0.00017253819
107	0x3920d910	0.00015339651
108	0x35881fcc	1.0142044e-06
109	0x3903c819	0.00012567676
110	0x38bd3c0e	9.023408e-05
111	0x34e50305	4.265677e-07
112	0xb8688bd4	-5.5443335e-05
113	0xb99d5fa1	-0.00030016623
114	0x37f031a6	2.8633349e-05
115	0xb957f2fc	-0.00020594517
116	0xb8cbb02d	-9.7126096e-05
117	0x38cb0785	9.681195e-05
118	0x3928ad94	0.00016086391
119	0x390409ac	0.00012592104
120	0xb921133f	-0.00015361326
121	0x38d9376d	0.0001035769
122	0xb90fdc52	-0.00013719618
123	0x3904c241	0.00012660866
124	0xb76226da	-1.3479696e-05
125	0x3a2eb5f7	0.0006664688
126	0x38389f85	4.4017583e-05
127	0x3868b594	5.5482218e-05
128	0x3ae56f4d	0.0017504484
129	0xbb00a583	-0.0019629903
130	0x3aa151de	0.0012307724
131	0xbb257d73	-0.0025251776
132	0xbb376df5	-0.0027989123
133	0x3b2213e4	0.0024731094
134	0xbad0df91	-0.0015935769
135	0xb995b4ac	-0.00028554106
136	0xbb16f5f2	-0.0023034778
137	0x3a705541	0.0009167977
138	0xbb02402f	-0.0019874682
139	0xbb1cee15	-0.002394562
140	0x3ab3732c	0.001369094
141	0xb9e8dc92	-0.00044414826
142	0x3a8256a9	0.000994404
143	0xbab3a143	-0.0013704676
144	0xbb2595df	-0.0025266332
145	0xbaf70b5e	-0.0018847992
146	0xbb4ed479	-0.003155975
147	0xbb2902f7	-0.002578912
148	0x3b3c6b8b	0.0028750624
149	0xb8c7e2f2	-9.531331e-05
150	0xba23000f	-0.0006217965
151	0xba79283c	-0.00095045916
152	0x3accbd07	0.0015620299
153	0x39dcee1b	0.00042139072
154	0xbae74d90	-0.0017647017
155	0xba1cfc15	-0.0005988491
156	0xb9cb82d8	-0.00038816663
157	0xbb013d34	-0.0019720318
158	0xbb18cfd3	-0.0023317232
159	0x3ac56eae	0.0015062892
160	0x3b04f96d	0.002029027
161	0x3b0cdb4b	0.0021493013
162	0xbac99221	-0.0015378633
163	0x3b347e6c	0.0027541174
164	0x3a9921a2	0.0011682997
165	0xbb03e4fd	-0.0020125501
166	0xbac7fbcf	-0.001525754
167	0x39f29d43	0.00046275006
168	0x3b0b7938	0.0021281969
169	0x3a5c5e85	0.00084064185
170	0x3a7a4ed5	0.000954849
171	0xbae2d2f8	-0.0017305305
172	0xba273eca	-0.0006379901
173	0x3a3c9638	0.0007194015
174	0xbaa4495f	-0.0012534073
175	0xbaa7802f	-0.001277929
176	0xbae935d5	-0.0017792532
177	0x3b5abb8d	0.003337595
178	0x3a0b6c81	0.00053185975
179	0xbb1296db	-0.002236775
180	0x3aea706b	0.0017886286
181	0x3abe4643	0.0014516789
182	0x3ad2198a	0.001602934
183	0xbab0fc9d	-0.0013503019
184	0xbb25afbb	-0.0025281745
185	0xba259747	-0.00063167926
186	0xbad58090	-0.0016288925
187	0x3b2898ab	0.0025725763
188	0x3a8d92a1	0.0010801145
189	0xbb3be276	-0.0028668917
190	0xba0b032d	-0.00053029024
191	0x3a744450	0.00093180407
192	0xb910401b	-0.00013756791
193	0xb874e27a	-5.8385056e-05
194	0x38add5c2	8.289098e-05
195	0xb9c4a47b	-0.0003750658
196	0xb8c9d350	-9.623787e-05
197	0x387cbccb	6.025731e-05
198	0x397a2332	0.00023854969
199	0xb79aacae	-1.843864e-05
200	0xb8cf72a6	-9.891884e-05
201	0x3747bd9d	1.1905472e-05
202	0x3954487a	0.00020244895
203	0x39885d06	0.0002600925
204	0x381714d9	3.602062e-05
205	0xb82ec4cf	-4.1668125e-05
206	0xb8818862	-6.1766026e-05
207	0x37865354	1.6012847e-05
208	0x38117e19	3.468813e-05
209	0xb8bec12a	-9.0958856e-05
210	0x399c4bba	0.0002981106
211	0x390b006b	0.00013256229
212	0x39ec03cb	0.00045016254
213	0x3664d10e	3.4096333e-06
214	0x3858383e	5.1550793e-05
215	0x38c63efe	9.453109e-05
216	0xb91ca7fc	-0.00014939898
217	0x37eaecf4	2.8005314e-05
218	0xb8ba79ad	-8.891835e-05
219	0x385adaac	5.2178904e-05
220	0xb79bbd3c	-1.8565559e-05
221	0xb8867e12	-6.4131e-05
222	0x38c00e82	9.157976e-05
223	0xb867ba7d	-5.5248373e-05
224	0x38a4ba36	7.854814e-05
225	0x3814d58a	3.5484823e-05
226	0x38ce7c54	9.8460034e-05
227	0x388ab2fa	6.61369e-05
228	0x384c8314	4.8759466e-05
229	0x39a05d04	0.0003058688
230	0xb97188e9	-0.00023034554
231	0x386a1426	5.5808712e-05
232	0x3a077852	0.00051677704
233	0x38a451a5	7.835337e-05
234	0x393636a0	0.00017377222
235	0x39212bc2	0.00015370458
236	0x35890ef4	1.0211647e-06
237	0x39056f81	0.00012725407
238	0x38c54b2e	9.407695e-05
239	0x34e3f4e4	4.2460226e-07
240	0xb8688816	-5.543985e-05
241	0xb99e777c	-0.0003022513
242	0x37ec7104	2.818602e-05
243	0xb956a35a	-0.00020469484
244	0xb8cb7a74	-9.702603e-05
245	0x38cdff7c	9.8227494e-05
246	0x3927fbcc	0.00016020163
247	0x390605c0	0.00012781378
248	0xb922ce9c	-0.00015526492
249	0x38ddfa48	0.0001058472
250	0xb9121e71	-0.00013934985
251	0x390427b6	0.00012603294
252	0xb7639142	-1.3564075e-05
253	0x3a2fa56e	0.0006700371
254	0x383823a2	4.3902204e-05
255	0x386e15dc	5.676398e-05
