labs/models/USD_10_8.pth (torch, 3615 bytes, 5 tensors)

lstms.0.weight_ih_l0 f4 [32, 1]
00000000: ee20 8bbe 0bdd 41be 0196 00bc acf4 e6bd
00000010: 37dd 813c 9cbd a0be 8ca2 a7bc 54bd ce3d
00000020: 4833 6f3e 4441 5dbe 148c 023e aaea c93d
00000030: 65e2 4fbe 3d1f a4bc 9b17 50be 6f0b 26be
00000040: 7605 71be e579 8f3e 725a ad3d 32e8 eb3d
00000050: 7260 243e 9559 923e 75ee 1d3e a704 7dbd
00000060: cfca 0c3e 2e26 98bc ac71 9c3d 1d7c 823e
00000070: 992f fc3c e4a1 0bbd 7631 993d 0f3d c3be
-0.2717356 -0.18931977 -0.007848264 -0.11277136 0.015852554 -0.3139466 -0.02046325 0.10094705
0.23359406 -0.21606928 0.12748748 0.09859212 -0.20301206 -0.020034427 -0.20321505 -0.16215299
-0.2353724 0.28022686 0.08464517 0.11518897 0.16052416 0.2858397 0.15422995 -0.061772015
0.1374924 -0.018572893 0.07638869 0.25485316 0.030784415 -0.034089938 0.07480137 -0.38132522

lstms.0.weight_hh_l0 f4 [32, 8]
00000000: c558 5cbe 84f2 9cbe 9a78 2a3e 962a 95be
00000010: 7b51 183d 312f fdbb ce79 ddbd 8cb1 35be
00000020: 663e 5bbd 9b64 8a3c 8dca 88be 94af 1bbe
00000030: d3e6 8b3c c3af 413e 9dab 823d 223f 243f
00000040: 5a2e 8b3e cc37 1a3e ba2d 31be d4f6 b7be
00000050: 4836 a93d 91c0 adbc 2f75 5bbe b5f5 2d3e
00000060: bdd9 b13e 3c02 2fbe eed5 073e 59ec cfbe
00000070: e9d3 4abd 6a5e a6bc 64db 833e e33f 8c3e
00000080: 9df4 bebb c8d1 323e c051 893e 89bb e5be
00000090: 21c1 3abd 4a97 13be 8216 b6bd f9d7 df3e
000000a0: b061 0d3f 0ac7 a3be 941c 03bf 9dfc 133e
000000b0: 5ea3 83be 0ec8 b8be 0ac7 d7bd e689 413e
000000c0: f7aa e13d 5dee 873e 07af acbd 619d b23d
000000d0: d419 93be b310 7abe 1b21 f5be f3bb 0f3e
000000e0: 49b7 97bd 0436 b9bd 2b9a 98be 7c73 9fbd
000000f0: ab31 ddbe 5b9d 1d3e 1bf7 33bd fec1 ec3d
00000100: 114c 083e 7817 95be 0d59 0f3e 9eee e73d
00000110: cabd 493d 7c4d 463d eb9d 873d 6c3f 5bbe
00000120: c324 eebd 9847 88bd ad5a 5cbe e04d 89bd
00000130: 35d0 fd3e 1e5e 3ebe 1bb9 a8be dd24 7d3d
00000140: 366b ca3d 6f5c b1be d825 a73e 6add f5bd
00000150: 2479 34bd ed66 e2bd 69cb 843e 5472 353d
00000160: 52ae 54be 7859 aebe 075c 6a3e 2ef7 853e
00000170: 180d 153e a492 6c3e f202 8dbe 84c9 9fbe
00000180: 30d1 9bbd 63aa 4d3c 4f9a 973e 0deb 63be
00000190: b69a cebb 01d8 57be 8f25 203e c44a 2fbc
000001a0: 6ecd c23c 333b b6bd 5c83 b1bd d679 863d
000001b0: 7cd2 de39 70f4 c63c 530b 23bd e0a3 9f3d
000001c0: c112 143e 2690 3c3c 589e 0d3f bc92 13be
000001d0: 8f8a 273f de75 b83d 7d25 9d3e 5008 3f3d
000001e0: e1a4 f13c 9060 18be f706 443d b408 81b9
000001f0: 0975 8e3e 22e6 59be 65d9 8d3e 08be ce3d
00000200: ecbd d33d aea4 b7bd 6192 cabd 8834 8d3e
00000210: 763d 783e e6e3 333c 269d 003f e535 623e
00000220: 01c7 f03d 2b37 6c3e b997 993e 2d20 b13e
00000230: 7707 0a3d 3d8f 1fbe ac48 653e 9d98 3abf
00000240: 24f5 2a3e 5612 b63d 80e8 0b3c ad16 9fbe
00000250: 3a8c 6fbe b414 8a3d 95aa af3d 423e 93be
00000260: f40d 483e 6e45 a33e ccbc 7dbd e656 4d3e
00000270: 8378 c7bd 8f53 1fbe ed47 223e d703 e2bd
00000280: beef 8fbe f4ff b8be 5c10 0bbf c49d 293e
00000290: f0db ac3d 5786 30be 4a37 0d3d 19c6 a53e
000002a0: 17d4 52be 47f6 1f3e 2527 2e3e 1ff4 b3be
000002b0: c925 64bc 392a 5b3e 0411 a2bd 5af2 cfbd
000002c0: 2bff a8be fab9 87be 4d8b 0ebf b39d 223e
000002d0: 2954 bbbd 6487 c5be ed7e 103e fe8e c93d
000002e0: 398c 7e3e 4005 c2bd 7e92 b73d ab2f 0abf
000002f0: b7da 293e d0e7 723e 8806 a93d dd0c 9dbe
00000300: 6383 05bf d340 1c3f a1c3 1cbe 07aa 963e
00000310: f628 4e3e 25b5 8b3e 93f8 70be f736 9cbd
00000320: d614 c0bd 8f65 2bbf 7aad 1f3d 01ab 623e
00000330: 9bea 143e 1595 c0bd 2497 1ebf cb09 833e
00000340: c235 abbb 1fc5 6abe b44d 20be 8233 b33a
00000350: 87e5 afbd 1c07 05be 6816 113e aa6e 913e
00000360: ee20 003e eb04 c2bd 33ab 68be 1aa7 15bd
00000370: 6d72 1fbd b6b6 1dbf 4df8 47be 56f1 233e
00000380: 8b8a 133e e91a 03be 1aba 1d3d 2e76 06be
00000390: a7b1 bdbc a9dd 193e 8758 90bd ba28 e93e
000003a0: 13c6 ffbe 8f4b 723d 9549 55bd 549a 07be
000003b0: 55d1 aebc 4b0a 3abd 73c9 cf3d 9e55 1bbe
000003c0: d3cd b5be b9c1 b73e 6c44 4c3e 4c85 813e
000003d0: ba58 a1be 09bf 4dbe 5505 233e 40ac 863c
000003e0: b1bb f13c 19a7 0dbe 589f f6be a9de 0dbe
000003f0: 5fc1 7ebe fcfe a83d 6e49 bebd 3791 d53e
-0.21518238 -0.30653775 0.16647568 -0.29134053 0.03718708 -0.007726573 -0.10814248 -0.1774351
-0.053526305 0.016893676 -0.26717034 -0.15203696 0.017077839 0.18914704 0.06380389 0.64158833
0.271838 0.15060347 -0.173026 -0.35930502 0.082623065 -0.021209987 -0.2143142 0.16988261
0.34736434 -0.17090696 0.13265201 -0.40610006 -0.0495185 -0.020308692 0.2575332 0.27392492
-0.0058275 0.17462838 0.26820183 -0.4486964 -0.04559434 -0.14413181 -0.08891012 0.43719462
0.55227184 -0.31987792 -0.5121548 0.14451833 -0.25710577 -0.3609013 -0.105360106 0.1890026
0.11018937 0.26549044 -0.08431821 0.08721424 -0.28730643 -0.24420433 -0.4787682 0.1403654
-0.07408006 -0.09043506 -0.2980512 -0.07785699 -0.43201956 0.15392058 -0.04393683 0.115604386
0.13310267 -0.29119468 0.13998814 0.113248095 0.049253263 0.04841374 0.06621917 -0.21410912
-0.116281055 -0.066542804 -0.21518965 -0.067043066 0.49572912 -0.1859059 -0.32953724 0.061802734
0.0988373 -0.34640834 0.3264606 -0.12005122 -0.04406084 -0.11054788 0.2593644 0.044298485
-0.20769623 -0.34052634 0.22886668 0.26165146 0.14555776 0.23102814 -0.2754131 -0.31208432
-0.07608259 0.01255283 0.29609916 -0.22257634 -0.006305064 -0.21078493 0.15639327 -0.010698978
0.023779597 -0.0889801 -0.08667633 0.06566207 0.00042499963 0.024286479 -0.03980572 0.077949286
0.14460279 0.011508977 0.5531974 -0.14411443 0.654458 0.090068564 0.30692664 0.046638787
0.029497566 -0.14880586 0.047858205 -0.00024611282 0.27823666 -0.21279195 0.2770492 0.10094839
0.10338959 -0.08966957 -0.09891201 0.2757914 0.24242195 0.010979628 0.5023979 0.22090872
0.11756707 0.2306792 0.29998568 0.3459486 0.033698525 -0.15581985 0.22391003 -0.7288912
0.16695076 0.08890216 0.008539319 -0.31071988 -0.23393336 0.0674223 0.08577458 -0.28758436
0.19536573 0.31888908 -0.06194763 0.2005268 -0.09739783 -0.15559219 0.1584775 -0.11035889
-0.28112596 -0.36132777 -0.5432184 0.16564089 0.08440387 -0.17238747 0.034476556 0.323777
-0.20588718 0.15621291 0.1700712 -0.35147187 -0.013925024 0.21402825 -0.07913402 -0.10153647
-0.33007178 -0.26509076 -0.55681306 0.1588047 -0.09146912 -0.38579857 0.14110918 0.09841727
0.24858178 -0.094736576 0.08963488 -0.53978986 0.1658734 0.23721242 0.08253199 -0.30673876
-0.52153605 0.61036414 -0.15309002 0.29426596 0.20132813 0.2728664 -0.23532324 -0.07627671
-0.09378974 -0.6695184 0.0389838 0.22135545 0.1454262 -0.09403435 -0.6194937 0.2559341
-0.0052249143 -0.22926758 -0.15654641 0.0013671967 -0.08588701 -0.12990993 0.14168704 0.28404742
0.12512562 -0.09473594 -0.22721557 -0.036536314 -0.038927484 -0.6160692 -0.19528313 0.16010031
0.14408319 -0.12803234 0.03850756 -0.1313102 -0.023156 0.15025963 -0.07048135 0.45538884
-0.49955806 0.05915409 -0.052072126 -0.13242465 -0.021340052 -0.045419972 0.10145845 -0.15169379
-0.35508594 0.35889986 0.19947976 0.2529701 -0.31513005 -0.20092405 0.15920003 0.016439557
0.029508444 -0.13833274 -0.48168445 -0.1385447 -0.24878453 0.082517594 -0.09291349 0.41712353

lstms.0.bias_ih_l0 f4 [32]
00000000: f652 18bd 85c7 dd3d 5655 9d3d ec95 c03d
00000010: 6e20 ba3c 7223 8d3d 300c ec3c c4da 943d
00000020: e306 18bd 3226 de3d 0601 9f3d 85e8 c03d
00000030: 6fc9 a03c f3b8 883d 2b6c e83c a775 933d
00000040: c05f 2dbd 41be c4bd 4698 97bd 4f7b bbbd
00000050: ab49 8e3d 371c 8cbd 0d66 abbd b26b a93d
00000060: 81c6 1ebd 2b8d d23d 1091 9b3d 69bb bb3d
00000070: 7b55 af3c 75e5 813d 8dd3 f13c 6c65 9b3d
-0.037188493 0.10829071 0.07682292 0.09403595 0.022720542 0.06891526 0.028814405 0.07268289
-0.037115943 0.10847129 0.07763867 0.094193496 0.019627301 0.06675901 0.028371891 0.07200175
-0.042327642 -0.096066006 -0.07402091 -0.091543786 0.06947645 -0.06841319 -0.08369074 0.082724944
-0.038763527 0.10280832 0.07596028 0.09166605 0.021403065 0.063425936 0.02951982 0.07587704

lstms.0.bias_hh_l0 f4 [32]
00000000: f652 18bd 85c7 dd3d 5655 9d3d ec95 c03d
00000010: 6e20 ba3c 7223 8d3d 300c ec3c c4da 943d
00000020: e306 18bd 3226 de3d 0601 9f3d 85e8 c03d
00000030: 6fc9 a03c f3b8 883d 2b6c e83c a775 933d
00000040: c05f 2dbd 41be c4bd 4698 97bd 4f7b bbbd
00000050: ab49 8e3d 371c 8cbd 0d66 abbd b26b a93d
00000060: 81c6 1ebd 2b8d d23d 1091 9b3d 69bb bb3d
00000070: 7b55 af3c 75e5 813d 8dd3 f13c 6c65 9b3d
-0.037188493 0.10829071 0.07682292 0.09403595 0.022720542 0.06891526 0.028814405 0.07268289
-0.037115943 0.10847129 0.07763867 0.094193496 0.019627301 0.06675901 0.028371891 0.07200175
-0.042327642 -0.096066006 -0.07402091 -0.091543786 0.06947645 -0.06841319 -0.08369074 0.082724944
-0.038763527 0.10280832 0.07596028 0.09166605 0.021403065 0.063425936 0.02951982 0.07587704

fc.weight f4 [1, 8]
00000000: 9577 e0bc 2595 fc3d c33c d83e 504d 533e
00000010: 3d70 28be 5fbc 1a3e a5f3 d33d b1ba 59be
-0.027400771 0.123331346 0.42233858 0.20634961 -0.16449066 0.1511092 0.10349206 -0.21262623
