labs/models/USD_9_8.pth (torch, 3351 bytes, 5 tensors)

lstms.0.weight_ih_l0 f4 [32, 1]
0	0xbee7e747	-0.45293638
1	0xbdcf9c5d	-0.10137246
2	0x3e5a4104	0.21313864
3	0xbe0ae288	-0.13562977
4	0xbd869cd6	-0.06572883
5	0xbb825749	-0.0039776904
6	0x3e5b0429	0.21388306
7	0x3e329fae	0.17443725
8	0x3e35e695	0.17763741
9	0xbdbd281b	-0.09236165
10	0x3e8bf634	0.27336276
11	0x3e96cc5f	0.29452798
12	0x3d4f2d9f	0.050580617
13	0x3f0414cd	0.5159424
14	0xbe0307ba	-0.12795916
15	0x3d918492	0.07105364
16	0xbd2cc5d5	-0.042180855
17	0xbe58dddb	-0.21178381
18	0x3e55bb3e	0.20872208
19	0xbd85e332	-0.06537475
20	0xbe1168bf	-0.14200114
21	0x3f03ba11	0.5145579
22	0xbdc3bafb	-0.09557148
23	0xbe2529fb	-0.16129296
24	0x3ea1f7c6	0.3163435
25	0xbe0da248	-0.13831437
26	0xbd828b7b	-0.0637426
27	0xbd37e94f	-0.044900235
28	0xbea9f609	-0.33195522
29	0xbf001278	-0.5002818
30	0xbd29e8e0	-0.041481853
31	0x3b6bfacb	0.0036007639

lstms.0.weight_hh_l0 f4 [32, 8]
0	0x3e70ee67	0.23528443
1	0x3eb7e7a1	0.35918906
2	0x3ea6aa85	0.3255197
3	0x3d41c44f	0.047306355
4	0xbe85a424	-0.26101792
5	0xbe5303b8	-0.20606887
6	0xbc298c62	-0.010348411
7	0x3e124c3a	0.1428689
8	0x3e267092	0.1625388
9	0x3e4ba770	0.19888091
10	0xbe38f66a	-0.1806275
11	0x3ecf8221	0.40528968
12	0x3d4f190a	0.05056099
13	0x3d7f93a9	0.06239668
14	0x3e6714fe	0.22566602
15	0x3d56295d	0.05228554
16	0x3e872f19	0.2640312
17	0x3de414f5	0.1113681
18	0x3d789311	0.06068713
19	0xbdb18516	-0.08667962
20	0xbd2c381a	-0.04204569
21	0x3e5e2cc6	0.21696767
22	0xbecca5a7	-0.39970133
23	0xbe374c62	-0.17900231
24	0x3dbe620e	0.09296046
25	0xbed89f9c	-0.42309272
26	0xbe3a7e66	-0.1821228
27	0x3e2cbfab	0.1686999
28	0x3df63459	0.12021703
29	0xbe10f7c5	-0.14157017
30	0xbeca6748	-0.39531922
31	0xbe91d3fa	-0.28482038
32	0x3da3377d	0.07969568
33	0x3d914465	0.07093123
34	0xbe7b5239	-0.24543084
35	0x3e4b9ba4	0.19883591
36	0xbd7fec11	-0.06248099
37	0xbed3da9f	-0.41377732
38	0xbd61dbc2	-0.055141218
39	0xbef590c9	-0.47962025
40	0x39b23244	0.00033988256
41	0xbdcb29ea	-0.09920104
42	0x3e8cd358	0.27504992
43	0x3cc6557a	0.02421068
44	0x3e923c5c	0.28561676
45	0xbe085219	-0.13312568
46	0x3d2942d0	0.041323483
47	0xbeca9fb8	-0.3957498
48	0xbe0cd42b	-0.1375281
49	0x3eb67c9b	0.3564194
50	0xbe6cfea5	-0.23144014
51	0x3ee6b064	0.4505645
52	0x3f0e3ea8	0.55564356
53	0x3bc1a913	0.005910048
54	0xbeae6dea	-0.34068233
55	0xbda50383	-0.080573104
56	0xbd78937a	-0.06068752
57	0x3ecb0cd2	0.3965822
58	0xbe9ca18a	-0.30591995
59	0x3edcca6c	0.43123186
60	0xbe4b7fe1	-0.19873
61	0xbd2b6db6	-0.041852675
62	0x3dab5522	0.08365847
63	0xbe562306	-0.20911798
64	0x3e64e83e	0.22354218
65	0x3e84f127	0.25965235
66	0x3e3e606b	0.18591468
67	0x3edf6771	0.43633607
68	0x3e717ae3	0.23582034
69	0xbe30793e	-0.1723375
70	0x3e2f75b1	0.1713474
71	0x3defb2c6	0.1170402
72	0x3eb0fe74	0.34569132
73	0x3dfa3dd3	0.12218823
74	0xbece5c5b	-0.40304837
75	0x3ccd77f5	0.025081614
76	0xbca63b38	-0.02029191
77	0x3c35990a	0.011083851
78	0x3f00ca06	0.50308263
79	0xbe5f8450	-0.21827817
80	0xbdbb1272	-0.091343775
81	0xbc45afe2	-0.0120658595
82	0x3d9c691c	0.076372355
83	0x3e389238	0.18024528
84	0x3e9430a3	0.28943357
85	0x3d0fff35	0.035155494
86	0xbdb87734	-0.09007111
87	0x3e0819db	0.13291113
88	0x3e16f90b	0.1474344
89	0x3e26d3f9	0.16291799
90	0xbe501984	-0.20322233
91	0x3e70c3ab	0.23512141
92	0xbc4552e0	-0.012043685
93	0xb7399b00	-1.1062948e-05
94	0x3df83aaf	0.12120568
95	0x3e7e2651	0.24819304
96	0x3e2f5106	0.17120752
97	0xbee619fa	-0.44941694
98	0x3dd87aca	0.10570295
99	0x3ed85a26	0.42256278
100	0x3e5080f8	0.20361698
101	0xbd0f38cf	-0.034966286
102	0x3e76f1ab	0.24115627
103	0xbed1df50	-0.40990686
104	0x3e89fe19	0.26951674
105	0x3db5cc51	0.08876861
106	0x3dbca8a3	0.092118524
107	0x3e3ca0b2	0.18420675
108	0xbdfdd8e1	-0.12394882
109	0xbdc964f6	-0.0983371
110	0xbe82429c	-0.25441444
111	0xbca15c6c	-0.01969739
112	0x3e7559ec	0.23960084
113	0xbe3ab976	-0.1823481
114	0x3ec78466	0.389682
115	0xbe064400	-0.13111877
116	0x3ed07620	0.40715122
117	0xbd1d433b	-0.038394194
118	0x3e2c3861	0.16818382
119	0x3e19a366	0.15003738
120	0xbded1bd1	-0.11577571
121	0xbddcff7f	-0.107909195
122	0x3d3916bf	0.045187708
123	0x3e92bab1	0.2865806
124	0xbe701d0c	-0.2344858
125	0x3d5ff94d	0.05468111
126	0x3e981cfb	0.2970961
127	0xbea79f4b	-0.32738718
128	0xbe103cf1	-0.14085747
129	0x3efa0d00	0.48838043
130	0x3e0397c1	0.12850858
131	0x3d169e71	0.036772195
132	0x3e3d79c0	0.18503475
133	0x3e1578cf	0.14596866
134	0xbd9e3c6c	-0.07726368
135	0xbe3631ec	-0.17792481
136	0xbe47a481	-0.19496347
137	0xbe318e47	-0.17339431
138	0xbe211dad	-0.15733977
139	0x3f08df78	0.53465986
140	0xbdcd605d	-0.100281455
141	0xbd1a293e	-0.037636988
142	0xbd903909	-0.070421286
143	0xbdcee740	-0.10102701
144	0x3df62735	0.12019197
145	0x3bc5c9d2	0.0060360217
146	0x3ea631cf	0.32459876
147	0xbcbf8c02	-0.02338219
148	0x3f137e94	0.5761502
149	0xbe8e9546	-0.27848262
150	0xbeaf00b9	-0.3418024
151	0x3d71eef3	0.05906577
152	0x3eb4c3d7	0.35305664
153	0x3e6a3178	0.22870433
154	0x3e252256	0.1612638
155	0xbe30cb3d	-0.17265029
156	0x3c5c80b5	0.0134584205
157	0xbdd8ea6e	-0.10591589
158	0x3d8e6a22	0.06953837
159	0xbd59971d	-0.05312263
160	0x3e34a142	0.1763964
161	0x3ea6d109	0.32581356
162	0x3bf0594a	0.007334863
163	0x3e96b6de	0.29436392
164	0xbdef93af	-0.1169809
165	0xbe2c33ac	-0.16816586
166	0x3e5fb1f7	0.21845232
167	0xbe21ad46	-0.15788755
168	0xbd8864d5	-0.06659857
169	0x3e4cbd97	0.19994198
170	0xbe1c3a61	-0.15256645
171	0xbca08407	-0.019594206
172	0xbe12dd3d	-0.14342208
173	0x3e78de2e	0.24303505
174	0x3b9a2aa5	0.0047047907
175	0x3eb35fce	0.3503403
176	0x3e96342e	0.29336685
177	0xbe1985d2	-0.14992455
178	0x3c9d2fa6	0.01918776
179	0x3e44ae1c	0.19207042
180	0x3ec16e78	0.37779593
181	0xbe3317a9	-0.17489494
182	0x3ecaa570	0.39579344
183	0x3e80b5af	0.25138614
184	0xbe9b91d1	-0.30384687
185	0xbd9fb00e	-0.07797252
186	0xbd9a791e	-0.075426325
187	0x3cab908c	0.020942949
188	0xbe357230	-0.1771934
189	0xbe0d2874	-0.13784963
190	0xbe4a8ab3	-0.19779472
191	0xbde40c3f	-0.11135148
192	0x3c64c4d2	0.013962941
193	0xbded03da	-0.11573
194	0xbd903cb3	-0.070428275
195	0x3e369262	0.17829278
196	0x3ebe6226	0.37184256
197	0x3cd32b7c	0.02577757
198	0xbe885556	-0.26627606
199	0x3d556a9b	0.05210362
200	0xbe2437f5	-0.16036971
201	0x3f0eddc0	0.55807114
202	0xbd86910c	-0.06570634
203	0x3edbedf4	0.4295498
204	0x3ef87a5c	0.48530853
205	0xbe579c4b	-0.21055715
206	0x3f05c305	0.522507
207	0x3cd69a6c	0.026196681
208	0xbe0d6d55	-0.13811238
209	0xbd9e3116	-0.07724206
210	0x3ea2e816	0.31817693
211	0x3e0154d0	0.1263001
212	0xbda83abf	-0.0821433
213	0x3da2c3e7	0.07947522
214	0x3ded89a7	0.11598521
215	0xbdd45a9c	-0.10368845
216	0x3e8e021a	0.27735978
217	0x3e41ffb8	0.18945205
218	0x3e9b31d9	0.30311468
219	0x3d979904	0.07402232
220	0xbde8e9dc	-0.1137273
221	0xbd519418	-0.051166624
222	0x3d6f980b	0.05849461
223	0x3e415c63	0.18882899
224	0x3eacfc72	0.3378635
225	0x3c78bf31	0.015182302
226	0x3e99a9a7	0.30012247
227	0x3dc015de	0.09379171
228	0x3f1973dc	0.5994241
229	0xbdc4d7fc	-0.09611508
230	0x3da16cda	0.0788209
231	0x3d71e4bd	0.059056032
232	0x3dc3ced3	0.09560933
233	0x3ef42154	0.47681677
234	0xbdf5ef18	-0.12008494
235	0x3ee525e0	0.4475546
236	0xbd73ef03	-0.05955411
237	0xbe67abe9	-0.22624172
238	0x3cdbc7af	0.026828615
239	0x3e33aade	0.1754565
240	0x3ce364aa	0.027757961
241	0x3efd145c	0.49429595
242	0x3d32a93d	0.04361843
243	0xbe30f240	-0.17279911
244	0x3e57154e	0.21004221
245	0xbd43e605	-0.047826786
246	0xbdac73c7	-0.0842052
247	0x3e67984f	0.22616695
248	0xbe813aa6	-0.25240058
249	0xbeb296ca	-0.34880668
250	0xbe874672	-0.26420933
251	0x3d8c5110	0.06851399
252	0xbbb168ca	-0.005414103
253	0x3cdaa292	0.026688848
254	0xbe933bfd	-0.28756705
255	0xbc6df438	-0.014523558

lstms.0.bias_ih_l0 f4 [32]
0	0x3daa2c60	0.08309245
1	0x3de475cf	0.11155283
2	0x38bb17d4	8.921293e-05
3	0x3dcc938c	0.0998908
4	0x3dfcc53c	0.12342307
5	0x3ddcd482	0.1078272
6	0x3df55925	0.119798936
7	0xbb4ee203	-0.003156782
8	0x3da80e0d	0.08205805
9	0x3dec21a5	0.11529855
10	0x3b6b1d61	0.0035875665
11	0x3dd07833	0.10179176
12	0x3e01c185	0.12671478
13	0x3de33544	0.11094144
14	0x3dfc75c0	0.123271465
15	0xba9b0488	-0.0011826912
16	0x3dcd901e	0.10037254
17	0x3dc4c338	0.096075475
18	0x3d909f21	0.070616014
19	0x3dc8ee46	0.09811072
20	0x3dc61eb8	0.09673828
21	0xbdd452ef	-0.10367381
22	0x3dba85d6	0.091075584
23	0xbd9764cb	-0.073922716
24	0x3d9ea18c	0.07745656
25	0x3de12778	0.10993856
26	0x3b11d05e	0.002224944
27	0x3dcb853a	0.0993752
28	0x3dfd9700	0.123823166
29	0x3de01f82	0.1094351
30	0x3dfa8564	0.122324735
31	0x38e524ca	0.000109264234

lstms.0.bias_hh_l0 f4 [32]
0	0x3daa2c60	0.08309245
1	0x3de475cf	0.11155283
2	0x38bb17d4	8.921293e-05
3	0x3dcc938c	0.0998908
4	0x3dfcc53c	0.12342307
5	0x3ddcd482	0.1078272
6	0x3df55925	0.119798936
7	0xbb4ee203	-0.003156782
8	0x3da80e0d	0.08205805
9	0x3dec21a5	0.11529855
10	0x3b6b1d61	0.0035875665
11	0x3dd07833	0.10179176
12	0x3e01c185	0.12671478
13	0x3de33544	0.11094144
14	0x3dfc75c0	0.123271465
15	0xba9b0488	-0.0011826912
16	0x3dcd901e	0.10037254
17	0x3dc4c338	0.096075475
18	0x3d909f21	0.070616014
19	0x3dc8ee46	0.09811072
20	0x3dc61eb8	0.09673828
21	0xbdd452ef	-0.10367381
22	0x3dba85d6	0.091075584
23	0xbd9764cb	-0.073922716
24	0x3d9ea18c	0.07745656
25	0x3de12778	0.10993856
26	0x3b11d05e	0.002224944
27	0x3dcb853a	0.0993752
28	0x3dfd9700	0.123823166
29	0x3de01f82	0.1094351
30	0x3dfa8564	0.122324735
31	0x38e524ca	0.000109264234

fc.weight f4 [1, 8]
0	0xbdf5c891	-0.12001146
1	0xbec8bde1	-0.39207366
2	0xbeb1f345	-0.34755912
3	0xbe8dc00b	-0.2768558
4	0xbe518ee8	-0.2046467
5	0x3dc215ef	0.0947684
6	0xbec2370d	-0.37932625
7	0x3e7698d6	0.2408174
