labs/models/USD_8_8.pth (torch, 3351 bytes, 5 tensors)

lstms.0.weight_ih_l0 f4 [32, 1]
-0.12345518 0.1515591 0.16257256 0.051203374 0.088135555 0.09987346 -0.05516718 -0.19719794
0.04609093 -0.16155279 -0.20972647 0.015569766 0.02158209 0.22477135 -0.18307696 -0.33197924
-0.08856148 0.03234102 0.43246394 0.10202568 -0.14460337 -0.05259396 0.17426907 0.3322177
0.15556292 -0.036111183 -0.096411645 0.46898004 -0.4008488 -0.33004105 0.012734235 0.024974933
00000000: 12d6 fcbd 4f32 1b3e 6c79 263e a1ba 513d
00000010: 6a80 b43d 758a cc3d fbf6 61bd 42ee 49be
00000020: d8c9 3c3d 186e 25be 89c2 56be 5518 7f3c
00000030: eccc b03c 762a 663e 8778 3bbe 2ff9 a9be
00000040: b95f b5bd 0478 043d ea6b dd3e d7f2 d03d
00000050: e812 14be c46c 57bd 9773 323e 7018 aa3e
00000060: e34b 1f3e 52e9 13bd 7873 c5bd 271e f03e
00000070: 0e3c cdbe 24fb a8be 41a3 503c 3b98 cc3c

lstms.0.weight_hh_l0 f4 [32, 8]
-0.06845658 0.07701968 0.16860159 0.20645359 0.16745196 -0.60235566 0.31985137 0.29031992
-0.25642812 0.1661977 -0.030518755 -0.33351877 0.0038340185 -0.08625529 -0.12910426 -0.30227086
0.13389616 0.52911836 0.16383433 -0.060635682 0.55356795 -0.058465213 -0.22096945 -0.10846723
-0.21257742 0.010538921 -0.13982242 -0.049295757 -0.10128497 0.19200438 -0.039944492 0.20013803
-0.15862618 -0.15589765 -0.051931664 -0.05906121 0.06203931 -0.30948117 -0.40090802 0.07285498
0.08319322 0.1743801 0.3403628 -0.3092954 -0.18518096 0.06827506 -0.28431877 0.29941565
0.45218378 0.15494631 -0.23604928 -0.038241457 0.5738122 -0.03778126 -0.023741052 -0.23738651
0.097146906 -0.15017866 -0.02617921 0.010378624 0.15654306 0.083693795 -0.053670574 -0.37120676
0.47760427 -0.31815052 0.15876259 0.26447055 -0.02809882 -0.23797543 0.25822815 0.0915739
-0.09482856 -0.035417806 -0.099603444 0.27201307 -0.4737934 -0.22668757 0.11634483 -0.31379738
0.038236335 -0.2409591 -0.05203336 -0.01060596 0.43253395 -0.05947284 -0.22325528 -0.11881416
-0.20433828 0.34440222 -0.044914108 0.5491289 0.11820808 0.22913975 -0.20705077 0.055214737
-0.25270745 0.08148153 -0.3370475 -0.21065137 0.43450487 0.056670357 -0.01572515 0.0063642645
0.03411264 -0.013766378 -0.22482419 -0.12349629 -0.02476063 -0.15979323 0.05392643 -0.10239445
0.049920417 0.063507736 -0.06811199 0.16796784 -0.38680393 -0.20480874 -0.4677365 -0.291465
-0.33175236 0.11997702 0.22641963 0.12108755 0.2639813 -0.55639833 -0.046400238 -0.15711427
0.03737957 0.11224999 -0.31908983 0.25897497 -0.16706559 0.008256972 0.07872625 0.16800387
-0.029669078 -0.23064026 -0.012194512 0.29288226 -0.26023948 -0.10840084 -0.32976413 -0.2681995
-0.14409925 0.030068127 0.2718228 0.24467917 -0.07986352 0.23165232 0.07149585 -0.1359372
-0.24872346 0.111925 -0.02760664 0.004273457 -0.15896924 0.12411273 0.0684573 -0.1369723
0.22674927 0.07644429 -0.015483221 0.01886988 0.27759817 -0.1580096 0.20550844 -0.12900925
0.24513447 -0.25009757 0.05875139 -0.16500098 -0.11528639 -0.14421445 0.52641183 -0.0467624
-0.189799 -0.16962151 -0.10191548 0.37795424 -0.06948325 0.21241449 0.16445793 0.17269294
0.09589502 -0.1994907 -0.3098534 -0.24650337 -0.17529123 0.072809786 0.004534887 -0.053183626
0.03740275 -0.02607891 -0.21912545 0.2410594 -0.14129886 -0.06915941 0.15305471 -0.12783389
0.08378837 0.47031876 0.09805582 0.13516316 -0.17274773 0.13110623 -0.0041931747 -0.057152625
0.42392594 0.10260347 -0.45728412 -0.43128657 -0.15118504 -0.11241619 -0.47819793 0.15400624
-0.33968356 0.63017243 -0.32994205 0.11026651 -0.2569726 0.27705252 -0.1328881 0.3757007
0.069109716 -0.33754665 -0.22325355 0.02654075 0.26570293 -0.078972556 -0.2639488 -0.0009960617
0.019463446 -0.2839707 -0.15593664 0.34609842 0.27526695 -0.03471968 0.13527913 -0.17858222
-0.0385041 -0.14333966 -0.5191762 -0.037755385 0.28225815 -0.088548675 -0.41259992 -0.4736744
0.053274985 -0.08474659 -0.18161044 0.032271966 -0.21437287 0.22451611 -0.3046169 0.4437928
00000000: f732 8cbd 7ebc 9d3d e5a5 2c3e 9268 533e
00000010: 8778 2b3e fb33 1abf 8fc3 a33e d0a4 943e
00000020: 8c4a 83be bb2f 2a3e 7802 fabc f9c2 aabe
00000030: 2844 7b3b 9da6 b0bd e833 04be 3fc3 9abe
00000040: 131c 093e 4d74 073f 30c4 273e 1f5d 78bd
00000050: a1b6 0d3f 3879 6fbd d145 62be 1124 debd
00000060: e5ad 59be 70ab 2c3c 9c2d 0fbe 59ea 49bd
00000070: 7f6e cfbd cc9c 443e d69c 23bd fcf0 4c3e
00000080: e76e 22be a2a3 1fbe 4cb6 54bd 2bea 71bd
00000090: ee1c 7e3d 5174 9ebe d143 cdbe fe34 953d
000000a0: 3561 aa3d b290 323e 0844 ae3e f75b 9ebe
000000b0: 14a0 3dbe cbd3 8b3d 3b92 91be 024d 993e
000000c0: a284 e73e 3faa 1e3e e7b6 71be 13a3 1cbd
000000d0: 5be5 123f 86c0 1abd 987c c2bc 7315 73be
000000e0: f5f4 c63d 6fc8 19be c875 d6bc 1b0b 2a3c
000000f0: d34c 203e a767 ab3d add5 5bbd d00e bebe
00000100: 8c88 f43e a0e4 a2be a992 223e af68 873e
00000110: 7f2f e6bc d5af 73be 7b36 843e 198b bb3d
00000120: 7a35 c2bd 4312 11bd e4fc cbbd 4c45 8b3e
00000130: 0c95 f2be c920 68be 3346 ee3d 0daa a0be
00000140: b49d 1c3d fbbd 76be ef20 55bd 9fc4 2dbc
00000150: 1775 dd3e cb99 73bd 089d 64be d754 f3bd
00000160: 0e3e 51be 7d55 b03e dbf7 37bd b693 0c3f
00000170: 1417 f23d 9ca3 6a3e 1e05 54be d928 623d
00000180: df62 81be cadf a63d 7d91 acbe feb4 57be
00000190: 6c77 de3e 2d1f 683d 08d2 80bc 528b d03b
000001a0: b2b9 0b3d 608c 61bc 5038 66be 9feb fcbd
000001b0: ced6 cabc d6a0 23be f6e1 5c3d 2eb4 d1bd
000001c0: 5a79 4c3d 5810 823d 4d7e 8bbd c3ff 2b3e
000001d0: 2a0b c6be 62b9 51be 297b efbe e73a 95be
000001e0: 72db a9be 83b6 f53d 8cda 673e c0fc f73d
000001f0: 8f28 873e 1f70 0ebf 2d0e 3ebd 90e2 20be
00000200: 521b 193d 53e3 e53d be5f a3be 5e98 843e
00000210: 3e13 2bbe 4048 073c 3a3b a13d 3509 2c3e
00000220: 910c f3bc f62c 6cbe 7ecb 47bc aaf4 953e
00000230: 1c3e 85be 4201 debd d8d6 a8be 7251 89be
00000240: c18e 13be 6f51 f63c 5c2c 8b3e 2d8d 7a3e
00000250: 7c8f a3bd 4436 6d3e 6b6c 923d 1f33 0bbe
00000260: 5db1 7ebe ef38 e53d 5227 e2bc 5b08 8c3b
00000270: d5c8 22be d12e fe3d 5733 8c3d 7742 0cbe
00000280: f630 683e d38e 9c3d 56ad 7dbc 0295 9a3c
00000290: 5921 8e3e 45cd 21be ce70 523e 001b 04be
000002a0: 8804 7b3e ca0c 80be 4ca5 703d 04f6 28be
000002b0: 451b ecbd f4ac 13be edc2 063f ee89 3fbd
000002c0: ab5a 42be 43b1 2dbe 10b9 d0bd 3883 c13e
000002d0: 3c4d 8ebd 2f83 593e a967 283e 6bd6 303e
000002e0: 9c64 c43d 4a47 4cbe 1ba5 9ebe 616b 7cbe
000002f0: 8b7f 33be 4c1d 953d 6499 943b 13d7 59bd
00000300: a033 193d 70a3 d5bc 6c62 60be 46d8 763e
00000310: a6b0 10be 73a3 8dbd 60ba 1c3e e3e6 02be
00000320: 3d99 ab3d 9fcd f03e 7dd1 c83d 3668 0a3e
00000330: c8e4 30be b640 063e e666 89bb df18 6abd
00000340: d20c d93e c521 d23d 2521 eabe 98d1 dcbe
00000350: 40d0 1abe 763a e6bd 5cd6 f4be d0b3 1d3e
00000360: 01eb adbe fb52 213f 2aee a8be 68d3 e13d
00000370: ea91 83be d4d9 8d3e d113 08be d85b c03e
00000380: 6589 8d3d ead2 acbe 949c 64be fd6b d93c
00000390: 370a 883e 5dbc a1bd 4c24 87be 498e 82ba
000003a0: ce71 9f3c 9c64 91be dbad 1fbe d033 b13e
000003b0: caef 8c3e 3936 0ebd 9d86 0a3e 42de 36be
000003c0: 7ab6 1dbd a2c7 12be bbe8 04bf 64a5 1abd
000003d0: 2484 903e 0259 b5bd 4c40 d3be 7385 f2be
000003e0: df36 5a3d 9f8f adbd 16f8 39be 9c2f 043d
000003f0: 9084 5bbe 8de7 653e bff6 9bbe cf38 e33e

lstms.0.bias_ih_l0 f4 [32]
-0.020388726 0.049564324 0.10105133 -0.014231756 0.10940076 0.056560352 0.10776076 0.09919416
-0.020176398 0.04916813 0.10397612 -0.014309281 0.11090325 0.05960411 0.108727075 0.09549486
-0.0347113 0.0811491 -0.09728971 0.06298798 0.09095342 -0.08141559 -0.0891505 -0.09476655
-0.020914 0.050151512 0.100028016 -0.01795188 0.110655524 0.061076004 0.10529383 0.09302553
00000000: 4206 a7bc f603 4b3d 00f4 ce3d 502c 69bc
00000010: 810d e03d d4ab 673d acb1 dc3d 4f26 cb3d
00000020: f948 a5bc 8564 493d 6ff1 d43d 7971 6abc
00000030: 3e21 e33d 7023 743d 4dac de3d cf92 c33d
00000040: 702d 0ebd 8031 a63d d43f c7bd d8ff 803d
00000050: c945 ba3d 38bd a6bd 8a94 b6bd f714 c2bd
00000060: d653 abbc ac6b 4d3d 7ddb cc3d d20f 93bc
00000070: 5d9f e23d d52a 7a3d 4ba4 d73d 2b84 be3d

lstms.0.bias_hh_l0 f4 [32]
-0.020388726 0.049564324 0.10105133 -0.014231756 0.10940076 0.056560352 0.10776076 0.09919416
-0.020176398 0.04916813 0.10397612 -0.014309281 0.11090325 0.05960411 0.108727075 0.09549486
-0.0347113 0.0811491 -0.09728971 0.06298798 0.09095342 -0.08141559 -0.0891505 -0.09476655
-0.020914 0.050151512 0.100028016 -0.01795188 0.110655524 0.061076004 0.10529383 0.09302553
00000000: 4206 a7bc f603 4b3d 00f4 ce3d 502c 69bc
00000010: 810d e03d d4ab 673d acb1 dc3d 4f26 cb3d
00000020: f948 a5bc 8564 493d 6ff1 d43d 7971 6abc
00000030: 3e21 e33d 7023 743d 4dac de3d cf92 c33d
00000040: 702d 0ebd 8031 a63d d43f c7bd d8ff 803d
00000050: c945 ba3d 38bd a6bd 8a94 b6bd f714 c2bd
00000060: d653 abbc ac6b 4d3d 7ddb cc3d d20f 93bc
00000070: 5d9f e23d d52a 7a3d 4ba4 d73d 2b84 be3d

fc.weight f4 [1, 8]
0.155356 -0.1631561 0.22828552 -0.3342242 -0.36465725 0.31055644 0.4099478 0.06465344
00000000: a515 1f3e 6512 27be aec3 693e 6f1f abbe
00000010: 5bb4 babe 4101 9f3e aee4 d13e 0669 843d
