labs/models/USD_9_64.pth (torch, 71071 bytes, 5 tensors)

lstms.0.weight_ih_l0 f4 [256, 1]
00000000: 753f d9bc 2b3d 3a3c 7e28 cebb e1f3 343e
00000010: 8567 a9bc e7ab 1ebe 3775 22be 1453 42bd
00000020: 8ff8 c23d 58f7 3a3e 0838 bb3c 026d 90bd
00000030: 78df f238 14ee b1bd 0b4b 383e 2bf6 793d
00000040: 76ad 04be d255 0d3e fddd 72bc 90e1 e4bc
00000050: 596f c8bb 1cf9 3f3e 1d18 8b3d 9672 0fbd
00000060: a160 f23a d500 1fbe b292 e73d 9b03 153d
00000070: 4719 123e 193b 2e3d 6cf3 553c 2995 0dbe
00000080: a37a 48bd 2c4c 283d a13a b83d f96d 553e
00000090: edc7 3b3e d154 6cbd b16e c0bc 0457 26bc
000000a0: f7cb 0dbe 8131 213e 5ba2 e03c ef81 943c
000000b0: 21ef 9e3d 263a 6e3d 830f b13d a609 383e
000000c0: d324 ae3c dd54 1e3e 2c62 763d 33c1 663d
000000d0: a8cb 8f3d 0e9b 82bd 129f 013e 9716 523d
000000e0: d75c 9fbd ad05 d1bd 6098 ebbd 6824 453e
000000f0: b255 083d 2020 0f3e 2a18 82bd b910 98bc
00000100: e30e 933c 1110 083e 3335 2b3e 20cf d83d
00000110: 3d30 47be 7e2b b5bd 3900 3fbd 17ee 54bd
00000120: f12b f33d a838 633d 5572 99bd 3c0d 0abd
00000130: 362b 96bd bf7b fcbd dc76 a4bd 1e6c b33d
00000140: d75c 4b3d 24ae 59bd 2dd4 90bd d64d ce3d
00000150: d013 d7bd 199d 5d3d 7235 093e a059 bd3d
00000160: c700 a3bd 5b14 c73d f206 94bb 25fe ef3c
00000170: 9d51 1e3e 67ef e03c 6064 dc3c ad04 66bb
00000180: 67cc 513d dd4d 0bbc 2329 843d 3d91 c1bd
00000190: a50b 8e3c b966 9bbd ac29 bcbd f4ca 393e
000001a0: a46a 18bd 53d2 493d dd7f 523d c7cb 9e3d
000001b0: d6f5 7cbd cf64 903d 6cc2 1d3d f07e 42bd
000001c0: 8a0c f1bc c2a8 323e 4bbc 773e db61 13bd
000001d0: bb0e f0bd 168a 063e e6b4 463e 7908 2c3d
000001e0: 7fe5 9e3d 4e05 01bd 29a3 bc3a dc83 6b3d
000001f0: 7ea4 9d3c dcf1 88bd 688d f13d 542c 0fbd
00000200: 2c1a c13d a99b 063d f274 023e 446c 023e
00000210: e21b 87bc 3f42 abbc f56b 15be a734 8dbd
00000220: 4544 043d e687 4b3e e911 5fba aa5c d73b
00000230: 4e04 4abd 9db1 cb3d 624a 18bd 1d45 4ebd
00000240: 14c6 143e 7bcb 8bbd 393b 5bbb dd45 923d
00000250: 13fc 343d 7eec 873d 0eb1 513b 0d28 9c3c
00000260: 2f31 a83c 7648 c93d 2bca 2abc 9b3d 1b3e
00000270: 1fcb 8d3b edc4 be3a 10bc 893d fdd5 e7bd
00000280: 35bb abbd 5a66 123b d633 94bd 09f6 13be
00000290: 012e 4cba 6c93 413c f5ef 9abc a8f8 0f3e
000002a0: 070a c8bb 85f1 263e d92d 10be fdc4 0abe
000002b0: 8498 6fbd 2040 103c 27e3 76bc dba2 9fbd
000002c0: 0232 8cbd 3345 013e 34dd 7b3b 4c31 023d
000002d0: 4739 06be 177c a4bd 250c 98bd e5f4 c0bd
000002e0: a7c3 1b3c 7ee6 b4bd 884a 94bd dd27 09bd
000002f0: ec53 4e3d ca78 6f3d db20 923d 541f b3bd
00000300: c430 0dbe 032a d53c f641 26bd ab39 563e
00000310: 499b 53bc 66f0 acbc 730d 34bd 9595 cd3c
00000320: 59b5 45bd 812c 8cbd 039e 22bd 0ac8 83bd
00000330: 7524 a03d 1680 783d c409 053e 2e98 33bc
00000340: 657e 96bd 3640 e03d aa5d 4fbd ab88 af3a
00000350: 6aaf a1bd 98d7 f23d abe6 333d 9249 3fbe
00000360: 6704 a83d 3793 4abc ca31 95bd 644d e338
00000370: 02a8 f4bd 04b8 533c 7d15 dbbd 504b 223e
00000380: 3761 1f3e f626 0bbb b4a1 993d e6a3 73bd
00000390: d6d9 8ebc 5a5c bb3d 48ba 143d 5705 5a3e
000003a0: ee3e 353d fd74 543d 4ff2 693e 7b50 a4bc
000003b0: e263 093d b820 0b3d 2453 4b3d b6c1 4d3d
000003c0: cc59 1d3e db7f 713d 3c0d 0f3e abb6 39bd
000003d0: d500 983d 919d 88bc 8a7b 583e 9a3d f73d
000003e0: 7356 483d 2899 5b3c 8c23 283d 5917 cd3d
000003f0: 09b7 e8bd 6756 7f3d b95d 29bd 54db a6bd
-0.026519516 0.011367123 -0.006291448 0.17671157 -0.020679245 -0.15495263 -0.15865026 -0.04744251
0.09520065 0.18258417 0.022853866 -0.070520416 0.000115810835 -0.08687988 0.17997377 0.06102578
-0.12956795 0.13802269 -0.014823434 -0.027939588 -0.0061167893 0.18747371 0.067917086 -0.035021387
0.0018491932 -0.15527661 0.11307277 0.03638039 0.14267455 0.04253683 0.013058525 -0.13826431
-0.04894508 0.04108827 0.089955576 0.20842732 0.18337984 -0.057698075 -0.023490282 -0.010152582
-0.13847338 0.1574154 0.027421167 0.018128363 0.07760454 0.058160923 0.08645537 0.1797243
0.021257794 0.1546206 0.060152218 0.056336593 0.07021266 -0.063772306 0.12658337 0.051291075
-0.0778138 -0.10206161 -0.115036726 0.19252169 0.03328485 0.13977098 -0.06352265 -0.018562661
0.017951434 0.13287379 0.16719513 0.10586381 -0.19451995 -0.08846186 -0.04663107 -0.051984873
0.118736155 0.055473953 -0.0749251 -0.033704028 -0.073324606 -0.1232829 -0.08030483 0.08760856
0.049649086 -0.05314459 -0.07071719 0.1007344 -0.10501826 0.054104898 0.13399294 0.0924561
-0.07959133 0.097206794 -0.0045174295 0.02929599 0.1546082 0.027457906 0.026903331 -0.0035098002
0.051220324 -0.008502451 0.06453159 -0.0945153 0.017339537 -0.07587952 -0.09187636 0.18143827
-0.037211075 0.049272846 0.05139147 0.07753711 -0.061757885 0.07050478 0.038515493 -0.04748434
-0.029424924 0.17447188 0.24192922 -0.035981994 -0.117215596 0.13138613 0.19404945 0.042000268
0.07758617 -0.0314992 0.0014391887 0.057498798 0.019243475 -0.06686756 0.11794549 -0.034954384
0.0942882 0.032863293 0.12739924 0.12736613 -0.016492788 -0.020905612 -0.14591964 -0.06894808
0.03229167 0.1987606 -0.0008509444 0.0065723257 -0.04932051 0.099459864 -0.037180312 -0.05035888
0.14528686 -0.0682592 -0.0033452048 0.071422316 0.04418571 0.06636904 0.0031996402 0.019062066
0.020531265 0.09828274 -0.010424177 0.1516022 0.0043271924 0.0014554538 0.06725323 -0.11320112
-0.08385316 0.0022338838 -0.072364494 -0.14449324 -0.00077888375 0.011814933 -0.018913249 0.14059699
-0.006104711 0.1630307 -0.1407999 -0.13551708 -0.05849506 0.008804351 -0.015068806 -0.07794734
-0.06845476 0.12624054 0.0038431408 0.031785294 -0.13107787 -0.08031481 -0.074241914 -0.0942171
0.009507096 -0.088330254 -0.07240778 -0.033485282 0.050373003 0.058464803 0.07135173 -0.0874621
-0.13788134 0.02602101 -0.04059025 0.20920436 -0.012915441 -0.021110725 -0.04395814 0.02509574
-0.04826865 -0.06844426 -0.039701473 -0.06434639 0.078194536 0.060669027 0.12992007 -0.010961575
-0.073483266 0.10949747 -0.050626434 0.0013392171 -0.07894786 0.118575275 0.043921154 -0.18680409
0.08203965 -0.0123642 -0.07284887 0.000108386186 -0.119461074 0.012922291 -0.10697458 0.15849042
0.15564428 -0.002123294 0.075015455 -0.059482478 -0.017437857 0.09148474 0.036310464 0.212911
0.044249468 0.05186938 0.2284634 -0.020057907 0.03354252 0.03396675 0.049639836 0.050233565
0.15366286 0.058959823 0.13969892 -0.04534022 0.07422034 -0.016676696 0.21140876 0.120722964
0.04891057 0.0134032145 0.041049525 0.10014219 -0.11363036 0.06233826 -0.041349147 -0.08147302

lstms.0.weight_hh_l0 f4 [256, 64]
00000000: dbc8 52be f001 65bd 9d95 463c df92 c5bc
00000010: fb83 cfbb fff3 fb3d 9320 f5bc b7e2 d83c
00000020: 558d f93d 41e4 2bbe a88d 103d eae2 9e3c
00000030: ec81 323d a5cf 5dbd ea75 92bc 3798 0d3d
00000040: d6b7 4fbd 6b41 f83c 727e 83bd 74ab 273c
00000050: b0b2 613c e6d0 1fbe 6000 2dbe 8329 2abd
00000060: d9fa 51bd 2246 d43d c94d 2ebe 3bec e6bc
00000070: cb76 df3d a719 913c 6086 913d 78d6 cd3c
00000080: 37f6 9b3c 8553 ca3d 9fe9 ec3d 9768 79bc
00000090: b233 5fbd 1469 863d 21ba dfbc afb6 c6bd
000000a0: 74ea c5bb 61d0 fabd 64b6 d03c 4af3 47bc
000000b0: 7c91 0c3d 9b07 0abd 2005 ac3c 01a1 a3bc
000000c0: 1141 303e 1645 75bd 7974 7d3d b181 8c3b
000000d0: 075c 173d a25c fcbc 0878 bc3d a24c d4bc
000000e0: c4f8 553c 1b60 2bbe 3180 2c3e 2aac aa3d
000000f0: 9c9d b2bc 5a4f 18bd 1012 d2bc 2875 0a3e
00000100: d375 fb3c 0ed9 8fbc 96d0 b73c 3b9b 023e
00000110: 6e0b a63c d5df b7bd f386 10be bf39 2ebd
00000120: 26f9 d6bc 49e6 b6bc 455f c8bc 5a41 cfbd
00000130: 2947 97bd 2de2 063e e24d 13be a373 883c
00000140: 57e2 d0bd 24cf c8bd d838 953d bbea 10bd
00000150: acf6 a13d 2224 0d3d ae3a 0ebc 0549 ff3d
00000160: b6d1 1b3d 2b2a aabc 79ee be3d 9f94 953d
00000170: dc32 17be 8acd a3bc 4e3d 953d cefa 98bd
00000180: 50e4 1dbd e472 63bb b7d8 e53c 3967 24be
00000190: 6df1 d13d f8c9 63bc 2a35 dabd 846e 8c3d
000001a0: 792d 47bd a522 083d 87f2 b03d d55b 653d
000001b0: cf77 50bd 08c2 ff3c 875c 8e3d 407f eb3d
000001c0: 010c bfbd 12fc bf3d f7e9 89bd ef65 953d
000001d0: 38b2 9abc feba 2f3e d9bb 063c cedf 693c
000001e0: 8c29 4f3d 624e 36bd 5fb0 0ebd df69 9fbd
000001f0: c63f 14be 032f 5f3d b16f 473e f1a4 893d
00000200: a95c 8bbd c822 03be 4de8 b03d 3e6a c53c
00000210: 7587 943d 6b65 f9bd 0127 993d 24e4 4b3d
00000220: db05 c13d 9694 2e3d 4b58 153d 532e 2e3d
00000230: 1515 e4bd 3fff 4ebd 8be3 f13d 3bbf 363c
00000240: fbc9 59bb 3b5d a9bd be9f 1e3d 0b8e 04be
00000250: f8ef 853d fa12 0fbd 1c90 3bbc 73d8 f2bd
00000260: e594 5dbd ebf2 1f3e eec5 9c3c c8e9 093d
00000270: 97a9 a9bd 7e0f 42bd 9dc8 86bd 297f 35bd
00000280: 8160 dbbd 6e49 e03a e759 45bb e739 113e
00000290: 4572 7e3d f6ea cfbd 5fca e0bb f20d 1dbd
000002a0: 1abd f93d eda1 afbd 7dd8 503c 827d ffbd
000002b0: 50f3 e8bd 4143 8fbd 5acd 53bd 64f4 88bd
000002c0: 91a6 9fbb 829d c23d a19a f4bb af06 6dbd
000002d0: 0995 f8bd 7c2a 9a3d 53d8 7bbd 95b3 edbd
000002e0: 2fd8 023e 02e4 3cbe 76e3 cfbd 44c5 833d
000002f0: 5faa 783d 4141 f23d 19ef 223b 8fe0 45bd
00000300: 0e19 723d b9ec d7bc ae19 bebc 47f8 e73d
00000310: 212b 84bd bcad c8bd eb85 733d 78b3 82bd
00000320: db03 96bd a657 1c3d 963f 993d e3bb 033d
00000330: 35f9 ae3c b653 6f3d d54e 203e 523c ebbc
00000340: 14e4 fc3c 7730 43bd 6c0a f93d 1da8 193d
00000350: 7a25 453d f795 0bbe a821 1ebd 79e2 d23d
00000360: 5d67 663d 2221 9b3d b3e4 4bbc 7e0d 233d
00000370: 0af8 5ebd ff02 ebbc 41cd 0cbe 9823 e3bd
00000380: 2409 723c e56e 463d 2a66 e8bc 292e b8bb
00000390: 10e7 6f3d d4ea 75bc 0e43 533e 42aa 3dbe
000003a0: 0de8 783c 3cd3 263e f448 a7bc ac10 ce3c
000003b0: 5c18 e0bd fe32 ee3b 2d9f 593d 9571 273c
000003c0: c5ad 843c 55d4 6cbd 28b7 08bd 9ec4 ebbc
000003d0: dff2 aabd e026 2dbe 0c53 14bb b6f4 13bd
000003e0: 2c7b 573d e6eb 30bd 02ad e53c 54c9 423b
000003f0: 489f 8e3c baa2 af3d 1239 61bd 3b88 663c
-0.20584433 -0.05591005 0.0121206315 -0.024117885 -0.006332872 0.12302398 -0.02992276 0.026475294
0.1218516 -0.1678629 0.035291344 0.01939531 0.043580934 -0.054153103 -0.017878491 0.03456899
-0.05071243 0.030304631 -0.06420602 0.010233749 0.013775513 -0.15607032 -0.16894674 -0.041543495
-0.051264618 0.10364939 -0.1702186 -0.028188815 0.1091133 0.017712427 0.07105708 0.02512668
0.019038303 0.09879211 0.11567997 -0.01522269 -0.05449266 0.06563011 -0.027310433 -0.09702813
-0.006039912 -0.12246776 0.025477596 -0.012204001 0.034318432 -0.03369866 0.020998538 -0.019974234
0.17212321 -0.05988034 0.061878655 0.0042879214 0.036953 -0.03080589 0.09202582 -0.025915448
0.013059799 -0.1673588 0.16845776 0.08333619 -0.02180367 -0.03718505 -0.025643378 0.13521254
0.030695831 -0.017559554 0.022438329 0.12754528 0.020269122 -0.089782394 -0.14113979 -0.04253554
-0.02624185 -0.022326605 -0.02445949 -0.10119887 -0.073866196 0.13172217 -0.14385179 0.016656702
-0.10199421 -0.09805134 0.07286233 -0.035380106 0.07908377 0.034458287 -0.0086809825 0.12465099
0.038041793 -0.02077206 0.09322829 0.07303738 -0.14765495 -0.01999547 0.072870836 -0.07469712
-0.038547814 -0.0034705931 0.02805744 -0.16055001 0.102511264 -0.013903134 -0.106546715 0.06857017
-0.04862735 0.033236165 0.086400084 0.05599578 -0.05089551 0.031220451 0.06951242 0.114988804
-0.093284614 0.093742505 -0.067340784 0.07294833 -0.01888381 0.17161176 0.008223497 0.014274551
0.05057673 -0.044508345 -0.03483617 -0.07783865 -0.14477453 0.054488193 0.194762 0.06720913
-0.06804783 -0.12806237 0.08638058 0.024098512 0.07252399 -0.12177547 0.074781425 0.04977812
0.09424945 0.04262217 0.036461156 0.042524647 -0.111368336 -0.05053639 0.118109785 0.011153991
-0.0033231962 -0.082697354 0.03872656 -0.1294481 0.06539911 -0.034930207 -0.011447933 -0.11857691
-0.054097075 0.1562001 0.019137349 0.033670217 -0.082843 -0.047378056 -0.06581233 -0.044310723
-0.10711766 0.0017111728 -0.00301134 0.14182244 0.062120695 -0.10152237 -0.006860062 -0.038343377
0.121942714 -0.08575807 0.012746927 -0.124751106 -0.11374533 -0.069952495 -0.05170951 -0.06687239
-0.004872151 0.095026985 -0.0074647223 -0.057867702 -0.12137801 0.075276345 -0.0614856 -0.11606518
0.1277778 -0.18446353 -0.101508066 0.0643411 0.060709354 0.118288524 0.0024861752 -0.04830986
0.059105925 -0.026357995 -0.023205604 0.11326652 -0.06453539 -0.09798762 0.059453886 -0.06381887
-0.07324954 0.038169526 0.07482831 0.032161605 0.021359066 0.058429442 0.15655072 -0.028715286
0.030870475 -0.04765364 0.12160191 0.03751384 0.048131444 -0.13631426 -0.038606316 0.102971025
0.05625092 0.07574679 -0.012444663 0.03980779 -0.054435767 -0.028687952 -0.13750173 -0.11090773
0.014772687 0.0484456 -0.028369028 -0.005620737 0.058569968 -0.015009601 0.20631048 -0.1852198
0.015192044 0.16291517 -0.020420529 0.025154434 -0.10942146 0.0072692623 0.053130317 0.010219951
0.016196141 -0.057819683 -0.033377796 -0.028780278 -0.08347105 -0.16909361 -0.0022632508 -0.036122046
0.0526077 -0.04319372 0.028036598 0.0029722052 0.017409936 0.085759595 -0.054986067 0.014070566

lstms.0.bias_ih_l0 f4 [256]
00000000: 2333 3a3c 8eff ca3b 3ec6 53bb 96f5 90bb
00000010: ece5 473c 5eb1 3e3c 717c 333c e881 cf3b
00000020: ec29 6d3c d14b 9ebc ba10 213c a34d 723c
00000030: 57ca 433b f6d5 67bc 2963 843c 069c 233c
00000040: f859 683c 4503 6f3c 8bca 2b3c 9af7 3a3a
00000050: 38b5 0f3c 83b0 543c c2a4 973c 0349 0e3c
00000060: ff44 563c 73b8 353c 041d 503c b738 00bc
00000070: c60a aabb 8bc7 913b c818 303c 1761 aebb
00000080: f784 203c 45d0 5a3c 9dd7 4a3c 4c0d b1bb
00000090: 8e45 0e3c 09ff 513c 5c1e 2f3c e7ac c7bc
000000a0: 8448 0d3c 5d15 3c3c 84cd dc3b b75b 1c3c
000000b0: 0ada 2cbb 802a 523c c179 763c 6444 4e3b
000000c0: a70f 673c 3090 69bc fed3 813c 3747 1f3c
000000d0: f748 0cbc a085 003b 2b10 993c cc8c a53b
000000e0: a7bb de3c 780b ff3b 2601 28bc 0921 333c
000000f0: 6a44 71bc 3942 123b ec99 8f3c 29cb 0c3c
00000100: b64f 1d3c 5761 ce3b 0ee7 0fbb ecdc 2fbb
00000110: 23de 1d3c c9e4 1b3c 9e92 133c fac0 af3b
00000120: 9925 853c 2b2e 9cbc 16aa 0c3c bdd8 503c
00000130: db21 123b 6e71 6cbc 4137 833c 590c 373c
00000140: 2338 563c 88cb 783c bb6b 0d3c 0ee6 5f3a
00000150: 70ac 023c 5322 663c 7141 933c 07ac 093c
00000160: 5e10 423c 0eaa 2b3c cd94 453c 662c ffbb
00000170: 9bc4 34bb 689b 8a3b 6296 203c 2ba2 bdbb
00000180: db9f 163c 130d 483c 4d76 403c 60b9 86bb
00000190: 91da 2e3c 98c9 323c 5587 0e3c a7cc c0bc
000001a0: 5023 d53b ea62 3d3c feef d03b f531 163c
000001b0: b794 c5ba 3a85 593c 2f04 683c 24ab a33b
000001c0: abaf 573c ffd9 5dbc 8cdd 8f3c 1488 0e3c
000001d0: f261 0cbc 08cd 023b aaec a63c a66c e73b
000001e0: ced6 e93c 18c1 dc3b d36e 2ebc 6d1c 7b3c
000001f0: c190 79bc bf10 2f3b 89b6 7d3c 89e6 ee3b
00000200: 7552 e8bc 031f e7bc bdcc c43c bf4e b73c
00000210: cfe8 e43c 8912 f3bc d76f eb3c f564 debc
00000220: 5582 f7bc 7816 02bc 9d16 013d 64e6 07bd
00000230: 700e e03c 2485 b23c aea2 063d 1b1c 033d
00000240: 8c1c fabc 4499 013d 79a9 f13c b432 d13c
00000250: a5a0 07bd d0d0 0fbd f851 fdbc 8233 efbc
00000260: ac00 02bd 80b4 f8bc 7b21 f13c 9b92 cb3c
00000270: e28b b5bc d789 d93c 1ced f1bc e3b0 c6bc
00000280: b736 f93c 1b3b 053d 3d47 003d 19bf e5bc
00000290: 3b16 ed3c 1e9c e8bc 7f09 ed3c 0893 a03c
000002a0: b321 e83c 2f97 febc 0011 003d c0cd 003d
000002b0: 4f17 a2bc d908 06bd aff4 093d bca4 e2bc
000002c0: 782e 123d 209b a73c 704e 11bd 9465 04bd
000002d0: 0f62 a5bc 04e6 d3bc 845b 033d d2e7 e2bc
000002e0: f775 e93c 42db f33c e63a c2bc c2f0 ecbc
000002f0: 0b93 0d3c 3bed ea3c 16ea f9bc 206e e23c
00000300: a22a 403c f729 d03b ec4a 4abb a734 95bb
00000310: ada8 393c 3531 313c 8c76 143c 28ac bf3b
00000320: c86d 883c 0e61 9fbc a7ec 223c 3bff 593c
00000330: 6541 1c3b 53ac 6cbc 8eb9 793c 713f 373c
00000340: 7b49 463c 7b54 843c ae31 323c 90f0 e939
00000350: 2b64 083c a849 573c dd5e 903c c39d 133c
00000360: 7eb0 4b3c 4199 1e3c 6ec2 503c 500a f2bb
00000370: 5ad9 81ba 2800 8c3b 887e 323c f734 dcbb
00000380: a4a2 1e3c 58cc 403c d30f 403c 699e 7dbb
00000390: d023 3b3c 6958 403c 7da0 1f3c 5964 cabc
000003a0: b035 ea3b 5656 3f3c 69f2 cf3b f9b6 103c
000003b0: d7ae d9ba cb38 4e3c 1547 663c a179 a43b
000003c0: fdcd 4c3c d9b1 64bc 1ff1 693c df11 1f3c
000003d0: 6856 08bc 1f73 f138 278c 913c 0a76 553b
000003e0: 43db cd3c e23a ed3b 56ea 31bc cdcb 503c
000003f0: b57b 80bc 8eca 413b f124 863c c5ec fd3b
0.011364731 0.0061950153 -0.0032314206 -0.0044238074 0.012200814 0.011638967 0.010954962 0.0063326247
0.014475327 -0.019323261 0.009830648 0.014789018 0.0029875243 -0.014150133 0.016160564 0.009985929
0.0141816065 0.014588182 0.010485302 0.00071322324 0.008771233 0.012981537 0.01851118 0.0086844
0.013077973 0.011091339 0.01270223 -0.007826022 -0.0051892726 0.004448836 0.010748096 -0.0053216326
0.009797326 0.013355319 0.012380508 -0.0054031964 0.008683575 0.012817153 0.010688391 -0.024374438
0.008623246 0.011479703 0.0067383666 0.009543351 -0.0026375079 0.012827516 0.015043677 0.003147387
0.014102853 -0.014255568 0.015848156 0.009721569 -0.008562318 0.0019610897 0.018684467 0.0050521847
0.027189089 0.0077833496 -0.01025418 0.010933169 -0.014725784 0.0022317304 0.01752945 0.008593359
0.009601524 0.006298225 -0.0021957788 -0.002683456 0.009635481 0.009514996 0.009007124 0.005363581
0.01625328 -0.019064983 0.0085854735 0.012746987 0.0022298011 -0.014431341 0.016017558 0.0111723775
0.0130749075 0.015185244 0.008631642 0.0008541056 0.007975683 0.0140462695 0.01797554 0.008402831
0.011844723 0.010477556 0.012059403 -0.007787275 -0.0027583006 0.0042299516 0.009801479 -0.005787154
0.009193386 0.012210148 0.011746955 -0.004111454 0.0106722275 0.0109123215 0.008699258 -0.023535086
0.0065044537 0.0115592275 0.0063762655 0.009167184 -0.0015074228 0.013276393 0.014161154 0.004994767
0.013164441 -0.013540744 0.017561696 0.008699436 -0.008568274 0.0019958634 0.020376522 0.0070625124
0.02854481 0.0067368858 -0.01064654 0.015326601 -0.015232266 0.0026712862 0.015485414 0.0072906655
-0.028359631 -0.02821303 0.024023408 0.022376416 0.027943043 -0.029671924 0.028739853 -0.02714775
-0.030213514 -0.007939927 0.031515706 -0.033178702 0.027350634 0.021792002 0.032869987 0.032009225
-0.03053119 0.031640306 0.029499756 0.025536872 -0.033112187 -0.03511125 -0.030922875 -0.029199366
-0.031738922 -0.030359507 0.02943491 0.02485018 -0.022161428 0.026554985 -0.029532008 -0.024254268
0.030421598 0.03252707 0.031317938 -0.028045224 0.028941264 -0.028394755 0.028935192 0.01960136
0.028336382 -0.03107795 0.031266212 0.03144622 -0.019786505 -0.03272328 0.033680614 -0.027666442
0.035688847 0.020459712 -0.035475194 -0.032323435 -0.02018836 -0.025866516 0.032069698 -0.027698431
0.028498633 0.029767636 -0.023709726 -0.028923396 0.008641015 0.028677573 -0.030507129 0.027640402
0.011728914 0.006352659 -0.003086741 -0.004553396 0.011331719 0.0108149545 0.009061467 0.00584938
0.01665391 -0.019455459 0.009944118 0.013305481 0.002384269 -0.014445382 0.015241994 0.011184559
0.01210248 0.016153565 0.010876102 0.00044620456 0.008324663 0.01314012 0.01762336 0.009009781
0.012432216 0.009680093 0.012741668 -0.0073864833 -0.0009906695 0.0042724796 0.010894425 -0.006720181
0.009682331 0.011767469 0.011722523 -0.0038699156 0.011422113 0.011739829 0.009742853 -0.024706053
0.0071475133 0.011678299 0.006346036 0.008832687 -0.0016607892 0.012586783 0.014055033 0.005019382
0.012500283 -0.013958418 0.014278679 0.009708851 -0.008321382 0.000115132185 0.017767025 0.0032571577
0.025128966 0.0072396854 -0.010859093 0.012743902 -0.015683988 0.0029570195 0.016375037 0.0077491724

lstms.0.bias_hh_l0 f4 [256]
00000000: 2333 3a3c 8eff ca3b 3ec6 53bb 96f5 90bb
00000010: ece5 473c 5eb1 3e3c 717c 333c e881 cf3b
00000020: ec29 6d3c d14b 9ebc ba10 213c a34d 723c
00000030: 57ca 433b f6d5 67bc 2963 843c 069c 233c
00000040: f859 683c 4503 6f3c 8bca 2b3c 9af7 3a3a
00000050: 38b5 0f3c 83b0 543c c2a4 973c 0349 0e3c
00000060: ff44 563c 73b8 353c 041d 503c b738 00bc
00000070: c60a aabb 8bc7 913b c818 303c 1761 aebb
00000080: f784 203c 45d0 5a3c 9dd7 4a3c 4c0d b1bb
00000090: 8e45 0e3c 09ff 513c 5c1e 2f3c e7ac c7bc
000000a0: 8448 0d3c 5d15 3c3c 84cd dc3b b75b 1c3c
000000b0: 0ada 2cbb 802a 523c c179 763c 6444 4e3b
000000c0: a70f 673c 3090 69bc fed3 813c 3747 1f3c
000000d0: f748 0cbc a085 003b 2b10 993c cc8c a53b
000000e0: a7bb de3c 780b ff3b 2601 28bc 0921 333c
000000f0: 6a44 71bc 3942 123b ec99 8f3c 29cb 0c3c
00000100: b64f 1d3c 5761 ce3b 0ee7 0fbb ecdc 2fbb
00000110: 23de 1d3c c9e4 1b3c 9e92 133c fac0 af3b
00000120: 9925 853c 2b2e 9cbc 16aa 0c3c bdd8 503c
00000130: db21 123b 6e71 6cbc 4137 833c 590c 373c
00000140: 2338 563c 88cb 783c bb6b 0d3c 0ee6 5f3a
00000150: 70ac 023c 5322 663c 7141 933c 07ac 093c
00000160: 5e10 423c 0eaa 2b3c cd94 453c 662c ffbb
00000170: 9bc4 34bb 689b 8a3b 6296 203c 2ba2 bdbb
00000180: db9f 163c 130d 483c 4d76 403c 60b9 86bb
00000190: 91da 2e3c 98c9 323c 5587 0e3c a7cc c0bc
000001a0: 5023 d53b ea62 3d3c feef d03b f531 163c
000001b0: b794 c5ba 3a85 593c 2f04 683c 24ab a33b
000001c0: abaf 573c ffd9 5dbc 8cdd 8f3c 1488 0e3c
000001d0: f261 0cbc 08cd 023b aaec a63c a66c e73b
000001e0: ced6 e93c 18c1 dc3b d36e 2ebc 6d1c 7b3c
000001f0: c190 79bc bf10 2f3b 89b6 7d3c 89e6 ee3b
00000200: 7552 e8bc 031f e7bc bdcc c43c bf4e b73c
00000210: cfe8 e43c 8912 f3bc d76f eb3c f564 debc
00000220: 5582 f7bc 7816 02bc 9d16 013d 64e6 07bd
00000230: 700e e03c 2485 b23c aea2 063d 1b1c 033d
00000240: 8c1c fabc 4499 013d 79a9 f13c b432 d13c
00000250: a5a0 07bd d0d0 0fbd f851 fdbc 8233 efbc
00000260: ac00 02bd 80b4 f8bc 7b21 f13c 9b92 cb3c
00000270: e28b b5bc d789 d93c 1ced f1bc e3b0 c6bc
00000280: b736 f93c 1b3b 053d 3d47 003d 19bf e5bc
00000290: 3b16 ed3c 1e9c e8bc 7f09 ed3c 0893 a03c
000002a0: b321 e83c 2f97 febc 0011 003d c0cd 003d
000002b0: 4f17 a2bc d908 06bd aff4 093d bca4 e2bc
000002c0: 782e 123d 209b a73c 704e 11bd 9465 04bd
000002d0: 0f62 a5bc 04e6 d3bc 845b 033d d2e7 e2bc
000002e0: f775 e93c 42db f33c e63a c2bc c2f0 ecbc
000002f0: 0b93 0d3c 3bed ea3c 16ea f9bc 206e e23c
00000300: a22a 403c f729 d03b ec4a 4abb a734 95bb
00000310: ada8 393c 3531 313c 8c76 143c 28ac bf3b
00000320: c86d 883c 0e61 9fbc a7ec 223c 3bff 593c
00000330: 6541 1c3b 53ac 6cbc 8eb9 793c 713f 373c
00000340: 7b49 463c 7b54 843c ae31 323c 90f0 e939
00000350: 2b64 083c a849 573c dd5e 903c c39d 133c
00000360: 7eb0 4b3c 4199 1e3c 6ec2 503c 500a f2bb
00000370: 5ad9 81ba 2800 8c3b 887e 323c f734 dcbb
00000380: a4a2 1e3c 58cc 403c d30f 403c 699e 7dbb
00000390: d023 3b3c 6958 403c 7da0 1f3c 5964 cabc
000003a0: b035 ea3b 5656 3f3c 69f2 cf3b f9b6 103c
000003b0: d7ae d9ba cb38 4e3c 1547 663c a179 a43b
000003c0: fdcd 4c3c d9b1 64bc 1ff1 693c df11 1f3c
000003d0: 6856 08bc 1f73 f138 278c 913c 0a76 553b
000003e0: 43db cd3c e23a ed3b 56ea 31bc cdcb 503c
000003f0: b57b 80bc 8eca 413b f124 863c c5ec fd3b
0.011364731 0.0061950153 -0.0032314206 -0.0044238074 0.012200814 0.011638967 0.010954962 0.0063326247
0.014475327 -0.019323261 0.009830648 0.014789018 0.0029875243 -0.014150133 0.016160564 0.009985929
0.0141816065 0.014588182 0.010485302 0.00071322324 0.008771233 0.012981537 0.01851118 0.0086844
0.013077973 0.011091339 0.01270223 -0.007826022 -0.0051892726 0.004448836 0.010748096 -0.0053216326
0.009797326 0.013355319 0.012380508 -0.0054031964 0.008683575 0.012817153 0.010688391 -0.024374438
0.008623246 0.011479703 0.0067383666 0.009543351 -0.0026375079 0.012827516 0.015043677 0.003147387
0.014102853 -0.014255568 0.015848156 0.009721569 -0.008562318 0.0019610897 0.018684467 0.0050521847
0.027189089 0.0077833496 -0.01025418 0.010933169 -0.014725784 0.0022317304 0.01752945 0.008593359
0.009601524 0.006298225 -0.0021957788 -0.002683456 0.009635481 0.009514996 0.009007124 0.005363581
0.01625328 -0.019064983 0.0085854735 0.012746987 0.0022298011 -0.014431341 0.016017558 0.0111723775
0.0130749075 0.015185244 0.008631642 0.0008541056 0.007975683 0.0140462695 0.01797554 0.008402831
0.011844723 0.010477556 0.012059403 -0.007787275 -0.0027583006 0.0042299516 0.009801479 -0.005787154
0.009193386 0.012210148 0.011746955 -0.004111454 0.0106722275 0.0109123215 0.008699258 -0.023535086
0.0065044537 0.0115592275 0.0063762655 0.009167184 -0.0015074228 0.013276393 0.014161154 0.004994767
0.013164441 -0.013540744 0.017561696 0.008699436 -0.008568274 0.0019958634 0.020376522 0.0070625124
0.02854481 0.0067368858 -0.01064654 0.015326601 -0.015232266 0.0026712862 0.015485414 0.0072906655
-0.028359631 -0.02821303 0.024023408 0.022376416 0.027943043 -0.029671924 0.028739853 -0.02714775
-0.030213514 -0.007939927 0.031515706 -0.033178702 0.027350634 0.021792002 0.032869987 0.032009225
-0.03053119 0.031640306 0.029499756 0.025536872 -0.033112187 -0.03511125 -0.030922875 -0.029199366
-0.031738922 -0.030359507 0.02943491 0.02485018 -0.022161428 0.026554985 -0.029532008 -0.024254268
0.030421598 0.03252707 0.031317938 -0.028045224 0.028941264 -0.028394755 0.028935192 0.01960136
0.028336382 -0.03107795 0.031266212 0.03144622 -0.019786505 -0.03272328 0.033680614 -0.027666442
0.035688847 0.020459712 -0.035475194 -0.032323435 -0.02018836 -0.025866516 0.032069698 -0.027698431
0.028498633 0.029767636 -0.023709726 -0.028923396 0.008641015 0.028677573 -0.030507129 0.027640402
0.011728914 0.006352659 -0.003086741 -0.004553396 0.011331719 0.0108149545 0.009061467 0.00584938
0.01665391 -0.019455459 0.009944118 0.013305481 0.002384269 -0.014445382 0.015241994 0.011184559
0.01210248 0.016153565 0.010876102 0.00044620456 0.008324663 0.01314012 0.01762336 0.009009781
0.012432216 0.009680093 0.012741668 -0.0073864833 -0.0009906695 0.0042724796 0.010894425 -0.006720181
0.009682331 0.011767469 0.011722523 -0.0038699156 0.011422113 0.011739829 0.009742853 -0.024706053
0.0071475133 0.011678299 0.006346036 0.008832687 -0.0016607892 0.012586783 0.014055033 0.005019382
0.012500283 -0.013958418 0.014278679 0.009708851 -0.008321382 0.000115132185 0.017767025 0.0032571577
0.025128966 0.0072396854 -0.010859093 0.012743902 -0.015683988 0.0029570195 0.016375037 0.0077491724

fc.weight f4 [1, 64]
00000000: 7681 073e 926a dd3d 05eb 90bd feb7 8cbd
00000010: 3d20 78bd 1bb1 123d 90c5 ebbd bacf c13c
00000020: 6b0f b43d 78e2 853c f288 403b a90f 423d
00000030: 2426 bd3c 67d3 ccbd ff51 a5bd 64f0 53bd
00000040: e2c3 bb3d 0f09 c8bd 425d a3bd 9753 e9bd
00000050: d627 df3c ac1c 863d d086 f53d ab1b ae3c
00000060: 5341 1d3d a108 ba3d 2598 d5bd 111c 40bd
00000070: 6860 c63d b4cf ddbd 9bbb ee3d 4496 e03d
00000080: dc6f 97bc 1c71 12bd f5d1 e1bd a9ac e53d
00000090: cb21 e7bd 5aea 0c3e fa5c f2bd 041c bbbc
000000a0: e315 b0bd e3dc 033e bff6 8fbd 8ba4 d1bd
000000b0: ece9 293d 5492 493c 50d5 4dbd 444b a13d
000000c0: b47a c039 4d5f dcbc 923f 953d 565d 2b3d
000000d0: 931b 323d 992d b73d 56df 12be 5429 8d3d
000000e0: 94f5 e2bc 73d6 87bd beeb ab3d c95b fb3d
000000f0: ad10 aabd f609 61bd 6ba8 a33d 4914 e2bd
0.13232979 0.10811342 -0.070760764 -0.06871031 -0.06057762 0.035813432 -0.115122914 0.023658622
0.08792003 0.01634334 0.00293785 0.047378216 0.023089476 -0.10001259 -0.0807228 -0.051742926
0.09168221 -0.09767353 -0.07976772 -0.113928966 0.027240675 0.065484375 0.11988604 0.021253427
0.038392376 0.09083677 -0.1042941 -0.046901766 0.09686357 -0.10830632 0.11656877 0.10966161
-0.018485956 -0.0357524 -0.11026374 0.11214573 -0.11285742 0.13761273 -0.1183414 -0.022840507
-0.085979246 0.1287723 -0.07029485 -0.10236462 0.04148285 0.012302954 -0.05025226 0.07875684
0.00036712515 -0.026900912 0.07287516 0.04183706 0.043483328 0.08944244 -0.14343008 0.06892648
-0.027704991 -0.066327 0.08394574 0.12273366 -0.08303962 -0.05494114 0.079911076 -0.11039025
